demo/experiments/genetic_algorithm/ga_experiment_2021_02_12_160407/problem_45.model (torch, 26149 bytes, 6 tensors)

0.weight f4 [64, 22]
0	0x408f55cc	4.4792233
1	0xbfe148fb	-1.7600397
2	0xbe225e3c	-0.1585626
3	0x3e1e6440	0.1546793
4	0xc0539076	-3.3056922
5	0x405f0d95	3.485204
6	0x3e3036ea	0.17208448
7	0x3ecd56d9	0.40105322
8	0x3f8a0b28	1.0784655
9	0xc0060ad7	-2.0944116
10	0xc039db87	-2.904024
11	0x4079d7d0	3.9037971
12	0x3dd42960	0.10359454
13	0xbef83a12	-0.48481804
14	0x3fd30360	1.6485405
15	0x4090046b	4.5005393
16	0x3f3add30	0.72993755
17	0x3fa743ca	1.3067563
18	0xbff9fa86	-1.9529579
19	0xbe9fddce	-0.3122391
20	0xc023e243	-2.560685
21	0x3e60c158	0.21948755
22	0xc00634bb	-2.0969684
23	0x3f488eab	0.78342694
24	0x3f8bdfee	1.0927713
25	0xc00c38b9	-2.190962
26	0x3fe03c90	1.7518482
27	0x3e060e68	0.13091433
28	0x3f30e5e8	0.6910081
29	0x3ea230e9	0.3167794
30	0xc099a160	-4.800949
31	0xc092a3e1	-4.5825047
32	0x400d1c25	2.2048428
33	0xc02dc584	-2.7151804
34	0x4014f5fb	2.3275135
35	0x40c2eb2a	6.0912066
36	0x408401a3	4.1252
37	0x401e6d97	2.4754388
38	0xc00d3954	-2.206624
39	0xbfe2d6a2	-1.7721751
40	0xc0137383	-2.3039253
41	0x40255215	2.583135
42	0x407790e6	3.868219
43	0xc1032d0d	-8.198499
44	0xc00fc6e8	-2.2465153
45	0xc01e05e4	-2.4691095
46	0x3ea48179	0.3213003
47	0xc02776de	-2.61663
48	0xbd82c888	-0.063859046
49	0xbf890c7a	-1.0706933
50	0x3f944c04	1.1585698
51	0xbf083f91	-0.53221995
52	0x3fc3f486	1.5308998
53	0xbea35180	-0.31898117
54	0xc009e0f4	-2.154355
55	0xbf683d00	-0.9071808
56	0xc04b73bf	-3.1789396
57	0xbf966149	-1.1748439
58	0xbfe4c546	-1.7872703
59	0xbd3f7b10	-0.04674822
60	0xbea2b014	-0.31774962
61	0xbe01d078	-0.12677181
62	0x3ec81547	0.39078733
63	0x402e5657	2.7240198
64	0xbf778c9e	-0.9669894
65	0xbfbded99	-1.4838134
66	0xbfcc3370	-1.5953197
67	0x3eafe7b4	0.34356463
68	0xc00fd7a0	-2.2475357
69	0x3d6761c0	0.056489706
70	0xbe0c8128	-0.13721144
71	0x402dd9ce	2.7164187
72	0x3fef6c27	1.870488
73	0xc05dcda2	-3.4656758
74	0x3f0d82c0	0.55277634
75	0x40825736	4.073146
76	0xbf147a9a	-0.57999575
77	0x3f745ec4	0.954571
78	0xbef6dde4	-0.48216164
79	0x3f45e597	0.7730345
80	0xc00980c3	-2.148484
81	0x403fa58c	2.9944792
82	0x3f93b31b	1.1539034
83	0xc085c5ea	-4.1804094
84	0xbe9ca7a3	-0.30596647
85	0x3fa9ae7a	1.3256371
86	0x3fac9294	1.3482232
87	0x4058d341	3.387894
88	0xbf067836	-0.5252718
89	0x40a03419	5.0063596
90	0xbff86e64	-1.9408689
91	0x3fb3ecb9	1.4056617
92	0xbfa42a6a	-1.2825444
93	0x3ef50734	0.47857058
94	0x3e7f6e62	0.24944451
95	0x3f2f6fb8	0.68529844
96	0xbfc6e55e	-1.5538747
97	0xc02cbfde	-2.6992106
98	0x4007aeb2	2.1200376
99	0x40111dc9	2.267443
100	0xbfde9b04	-1.7391057
101	0x3fc366d0	1.5265751
102	0x40685097	3.6299188
103	0xbfc21706	-1.5163276
104	0xbf91d780	-1.139389
105	0xc0b8dfb8	-5.7773094
106	0xbfcc0779	-1.593978
107	0xbf4a3a01	-0.78994757
108	0x3f183b9c	0.59465957
109	0xc05182d1	-3.2736094
110	0xc02dcf7f	-2.7157896
111	0x4063d2db	3.5597446
112	0xbfcf3806	-1.6188972
113	0x4096909f	4.705154
114	0xbfcf16b8	-1.6178808
115	0x406b5e89	3.677645
116	0x3f899782	1.0749362
117	0x4025fe62	2.5936513
118	0xbffa2d78	-1.9545126
119	0x3f8e90e2	1.1137965
120	0x4093f5f1	4.623772
121	0x3e4def24	0.20110756
122	0x3f94f864	1.1638303
123	0xc031f15c	-2.7803564
124	0xbe9ea31e	-0.30983824
125	0x40334047	2.8007982
126	0x3f9d339e	1.2281377
127	0x4014c32b	2.324412
128	0xc0244458	-2.5666714
129	0xc01c85de	-2.4456706
130	0xbfb23a01	-1.3923951
131	0xbf7c1558	-0.9847007
132	0x3f470da8	0.7775521
133	0xc037a6d9	-2.8695586
134	0xc08bb514	-4.3658543
135	0xbfcba58d	-1.5909897
136	0x40a88765	5.2665277
137	0x3fb193d4	1.3873239
138	0xbfe48893	-1.7854179
139	0xbf57edf5	-0.8434747
140	0xc031b237	-2.7765024
141	0x3faf107a	1.3676903
142	0x3f806c70	1.0033092
143	0x405b753c	3.4290304
144	0xbe29ff54	-0.16601306
145	0xbfe216f0	-1.766325
146	0xc00479fe	-2.0699458
147	0x3fc7a274	1.5596452
148	0xc01217df	-2.282707
149	0xbf11119b	-0.5666749
150	0x401d9774	2.462369
151	0x407d1ffa	3.9550767
152	0xbe89bf9c	-0.26904
153	0x3f1966f3	0.59922713
154	0x3fb0d1a8	1.3813982
155	0xc0305825	-2.75538
156	0xc0137c07	-2.304445
157	0xc09c9044	-4.8926105
158	0x3f8b5ae8	1.0887117
159	0xbf23fbbf	-0.6405601
160	0xbeec1d62	-0.46116167
161	0x3fa47ac1	1.2849962
162	0x40280172	2.6250882
163	0x4039ba4c	2.9019957
164	0x40b886c8	5.766453
165	0xc069d1f9	-3.6534407
166	0x403eed00	2.9832153
167	0x4056f18e	3.3584933
168	0xc0107355	-2.2570393
169	0xbfe5f107	-1.7964181
170	0x3dd57de2	0.10424401
171	0x3edf5da0	0.43626118
172	0x3fbf91f3	1.4966415
173	0xbfb4ed02	-1.4134829
174	0xbfa1d9b6	-1.2644565
175	0xbfca0590	-1.5782948
176	0x40395bea	2.896235
177	0xc0093528	-2.1438694
178	0x4064912f	3.5713613
179	0xbf5019a6	-0.81289136
180	0xc001c2e2	-2.0275197
181	0x3dd2b150	0.10287726
182	0x4029d10b	2.653384
183	0xc0496c2e	-3.1472278
184	0xbf5bea98	-0.85904837
185	0xbf946c89	-1.1595622
186	0xbf327c4e	-0.69720924
187	0x406ff1d4	3.749135
188	0x3ed3d03e	0.41369814
189	0xbfe38206	-1.7774055
190	0xbe198568	-0.14992297
191	0x3fd3e49c	1.6554141
192	0xbf0a2c36	-0.5397371
193	0x3f2f5baa	0.68499243
194	0x40bf772f	5.983299
195	0x402238b8	2.5347118
196	0xc0afefea	-5.4980364
197	0x3eb13fce	0.34618992
198	0x3fb67859	1.4255477
199	0xc03f1ebc	-2.9862509
200	0x405be2e8	3.4357243
201	0x3f870016	1.0546901
202	0x3eb36385	0.35036865
203	0xbe6b0d3c	-0.22954267
204	0x3fd78bd4	1.6839547
205	0xbfe183a5	-1.76183
206	0x406fdaf1	3.7477381
207	0xbf60f35f	-0.87871355
208	0x4073d168	3.8096561
209	0x40401a1e	3.001594
210	0xbeb68ff0	-0.3565669
211	0xc052a68c	-3.2914152
212	0x409298c9	4.5811505
213	0xc00711f9	-2.110472
214	0x40115385	2.2707226
215	0xbf1c1166	-0.6096405
216	0xc05407d2	-3.3129773
217	0xbe593107	-0.21210109
218	0x409e0d98	4.9391594
219	0x3f249cd2	0.6430179
220	0xbf5d4517	-0.8643355
221	0xbf84bcb4	-1.0370088
222	0x40545248	3.317522
223	0x3e85e835	0.26153722
224	0x40354cd9	2.8328154
225	0x3ffdbc9d	1.9823185
226	0xbf26c051	-0.651372
227	0x3ff03342	1.8765643
228	0x4035534c	2.833209
229	0xc02ba469	-2.6819098
230	0xbfe6dff4	-1.8037095
231	0xbf9c1eab	-1.2196859
232	0x3e449f90	0.19201493
233	0xbf182624	-0.594332
234	0x3f06f826	0.52722394
235	0xc015b21c	-2.338996
236	0xc0424eb2	-3.0360532
237	0xbf9c10fb	-1.2192682
238	0xbe13a39c	-0.14417881
239	0xbfed4064	-1.8535275
240	0xbe90ac18	-0.28256297
241	0xbe8030ef	-0.25037333
242	0xbf9d9f1f	-1.2314185
243	0xbd353160	-0.04423654
244	0x40629ea8	3.5409336
245	0xbf5a7fc0	-0.8535118
246	0x3f40077e	0.7501143
247	0x40199a93	2.4000595
248	0x3e9e6ff5	0.3094479
249	0x4047c730	3.1215324
250	0x400cc4a7	2.1995027
251	0xbf1ca33e	-0.6118659
252	0x3eaf7990	0.34272432
253	0x3d84fae8	0.06493169
254	0x3febfb10	1.8435993
255	0x3d58d962	0.052941687

0.bias f4 [64]
0	0xc05eeffd	-3.4833977
1	0xc0471a34	-3.1109743
2	0x401d2e30	2.455944
3	0x3e21096a	0.15726247
4	0xc0173433	-2.362561
5	0x4046b12c	3.1045637
6	0x3fdca2f0	1.7237225
7	0x3fe059d4	1.7527413
8	0xbd8fb640	-0.07017183
9	0x40394be2	2.8952565
10	0xbf035f68	-0.51317453
11	0xbf9b34c1	-1.2125474
12	0x3fb562c8	1.4170771
13	0x406abb04	3.6676645
14	0x3f120b40	0.57048416
15	0xbddd4360	-0.108038664
16	0xc0430fe2	-3.0478444
17	0x3f8bac40	1.0911942
18	0xc089822c	-4.29714
19	0xc02f5cd1	-2.74004
20	0x3f7d21b6	0.98879564
21	0xbee1ece0	-0.44126034
22	0xc04c2bc4	-3.1901712
23	0xbe1437d8	-0.14474428
24	0x3f9a5bb1	1.2059232
25	0xc020985c	-2.5092993
26	0xc02646ed	-2.598079
27	0xc0264113	-2.5977218
28	0x3fe5fe83	1.7968296
29	0x3f95e02a	1.1709034
30	0x402faa3c	2.7447653
31	0xbe4830ce	-0.19549868
32	0x4009bb00	2.1520386
33	0x408e31f9	4.4436
34	0xc02418ce	-2.564014
35	0xbf4f9ca0	-0.81098366
36	0xbfa6a6d7	-1.3019665
37	0x3fc5be48	1.5448694
38	0x3faac0c8	1.3340082
39	0x3ff2f45a	1.898082
40	0x3f9de7d0	1.2336369
41	0x3e13e8ec	0.14444321
42	0x3de9c6e0	0.114148855
43	0xbfca7155	-1.5815836
44	0xc033f20a	-2.811648
45	0xbfbc9344	-1.4732442
46	0x3fae41c2	1.3613818
47	0x3ff8968a	1.9420941
48	0x408ebaac	4.460287
49	0x3e4b37d8	0.19845521
50	0x3f1054d8	0.5637946
51	0xbed99cff	-0.4250259
52	0x3e48d374	0.19611913
53	0xbff30f5c	-1.8989062
54	0x3f8534b8	1.0406713
55	0x3ff2a2f0	1.8955975
56	0x3f1c06c5	0.6094783
57	0xc04b71f0	-3.1788292
58	0x3ff8e54d	1.9444977
59	0xbfc39d48	-1.5282373
60	0x3f926bd8	1.1439161
61	0x3f2566f2	0.6461021
62	0xbd319cfc	-0.043362603
63	0xbfa30796	-1.273669

2.weight f4 [64, 64]
0	0xc0033db0	-2.05064
1	0xbfd8f378	-1.6949301
2	0x406ccde0	3.7000656
3	0x3fcb9efc	1.5907893
4	0x3fdec17a	1.7402794
5	0x3fe3abd0	1.7786808
6	0x40a8edda	5.2790346
7	0xbeacf485	-0.33780304
8	0x40034248	2.0509205
9	0x3d888ff4	0.06668082
10	0x405bcb88	3.4342976
11	0x3f080fa4	0.53148866
12	0x40a90d9f	5.2829127
13	0x4038ce41	2.8875887
14	0xc0b38c05	-5.610842
15	0x3f9d9fe8	1.2314425
16	0x3e8a132b	0.2696775
17	0x3fc152a0	1.510334
18	0x3fbbdcbf	1.4676741
19	0x405b0cce	3.4226565
20	0x3ce14090	0.027496606
21	0x3fd9cd4a	1.7015774
22	0x4059dcc2	3.404099
23	0xc09665e0	-4.699936
24	0x3fe18aba	1.7620461
25	0xc04ea92a	-3.229075
26	0x40269afa	2.603209
27	0x3f59dc94	0.851022
28	0xbf577746	-0.8416637
29	0x3fda6d0e	1.7064531
30	0xbff438af	-1.9079798
31	0xc03e2d0c	-2.9714994
32	0x40197754	2.3979082
33	0xc07c55ff	-3.9427488
34	0xc071aefd	-3.7763054
35	0x3f9dae26	1.2318771
36	0x3d8e6c08	0.06954199
37	0x3f01f8e5	0.5077041
38	0x3efd16dc	0.49431503
39	0x3f80b718	1.0055876
40	0xbe36aca4	-0.17839295
41	0x3ffe4050	1.9863377
42	0xc06f6062	-3.7402577
43	0xbea5c7a2	-0.3237887
44	0xbfae29af	-1.3606471
45	0xbd7a7ce8	-0.061154276
46	0xc065d72f	-3.5912588
47	0x405d14b9	3.4543898
48	0x3fe7ca89	1.8108684
49	0xc011ee7d	-2.2801812
50	0xc08f50ee	-4.478629
51	0xc020a2d1	-2.5099375
52	0x4029a061	2.6504138
53	0x3fd5ae24	1.6693769
54	0xc0030781	-2.047333
55	0xbf75e359	-0.9605003
56	0xc06982f4	-3.6486177
57	0xc08524be	-4.160735
58	0xbd7efd60	-0.062253356
59	0xc00577f2	-2.085446
60	0xbf568776	-0.83800447
61	0xbf62177e	-0.88317096
62	0x3fe3cce8	1.7796907
63	0x401c7560	2.444664
64	0x3f4aee06	0.79269445
65	0xc0281e1f	-2.6268384
66	0x40563b08	3.347353
67	0xc0ae10f2	-5.4395685
68	0x3f1288f1	0.57240206
69	0x4093a200	4.6135254
70	0xbf8a04f1	-1.0782758
71	0xbfbf1cac	-1.4930625
72	0xc0571ea1	-3.3612444
73	0x3ebf3e94	0.3735243
74	0x3fc31c0d	1.5242935
75	0xbf4867e0	-0.782835
76	0xbde4b87c	-0.11168
77	0xbff34b35	-1.9007326
78	0xbea9c296	-0.3315627
79	0xbf1ef83b	-0.6209752
80	0xbe8e4a48	-0.27791047
81	0xbff2e084	-1.8974767
82	0x3fb1c0b9	1.3886939
83	0xc096ea20	-4.7160797
84	0x4054c5c7	3.3245714
85	0xbef370bc	-0.47546947
86	0x3f9df43c	1.234016
87	0xbff5bf4f	-1.9199008
88	0x3eea4cfc	0.4576186
89	0x409035b6	4.5065565
90	0xbfa67b88	-1.3006449
91	0xbf6daa53	-0.9283802
92	0xc03c517b	-2.9424732
93	0x4093902d	4.6113496
94	0x40010cd5	2.0164082
95	0xbfa50112	-1.2890952
96	0x40501e32	3.251843
97	0xc08b1582	-4.3463755
98	0xbfdd702d	-1.7299858
99	0x3edeeeea	0.43541652
100	0x404424c6	3.0647445
101	0xc05a0ed9	-3.4071562
102	0xbfe412c2	-1.7818224
103	0xc003583d	-2.0522606
104	0x403b945f	2.9309309
105	0x41012776	8.072134
106	0xbe9ebbe4	-0.31002724
107	0x3fa8e70a	1.3195508
108	0x40a37875	5.108454
109	0x4094ebf4	4.653803
110	0x3ef52dd8	0.47886539
111	0x3d998c36	0.07497446
112	0xc00c1455	-2.188741
113	0xc055cc51	-3.3405955
114	0x40ab39d4	5.350809
115	0x3fe90816	1.8205593
116	0x3f667c2d	0.9003323
117	0x3f07d71e	0.5306262
118	0xbfdbe05e	-1.7177846
119	0x3fc96343	1.5733417
120	0x3f72e7fc	0.9488523
121	0xbfd7f785	-1.6872412
122	0x3f0e10de	0.5549449
123	0xc05eb394	-3.4797106
124	0xbe0138f6	-0.12619385
125	0x3fc7e21a	1.5615876
126	0xc06f9970	-3.74374
127	0x3c171280	0.009220719
128	0xbe328110	-0.17432046
129	0x3fdd556b	1.7291692
130	0xbf09dc83	-0.538521
131	0xbcef2f00	-0.029197216
132	0x3fbb018b	1.4609846
133	0xbf5ee19b	-0.87062997
134	0x4074f051	3.8271677
135	0x3f0b3540	0.5437813
136	0x3f3f427e	0.74710834
137	0x3de77930	0.113024116
138	0xbf3d58e6	-0.73963773
139	0x3efb90f0	0.49134016
140	0xbe804f14	-0.25060332
141	0xc061c448	-3.527605
142	0xbf148ad2	-0.58024323
143	0x3f820ecf	1.0160769
144	0xc03a0769	-2.9067023
145	0x4010914a	2.2588677
146	0x3fe8a024	1.8173871
147	0x3ffeb268	1.9898195
148	0x3fd5a08a	1.6689618
149	0xbf2fad7b	-0.68624085
150	0x4009059e	2.1409678
151	0xbe0a0e8e	-0.13482115
152	0xbca5aed0	-0.020224959
153	0xbf8ef943	-1.1169819
154	0xbf916dd4	-1.1361642
155	0xbf8343bf	-1.025505
156	0xc0543a79	-3.316069
157	0xbeeade76	-0.4587285
158	0xbf880759	-1.0627242
159	0x3f132eaa	0.5749308
160	0xbf244326	-0.6416496
161	0xbe5f71c8	-0.21820748
162	0x3fe864a0	1.8155708
163	0xbfb874c6	-1.4410636
164	0x3ffb7e6a	1.9647954
165	0x3ec98614	0.39360106
166	0x3c837d60	0.016050994
167	0x403dee84	2.9676828
168	0x3f2c970a	0.6741797
169	0x3fdb8a59	1.7151595
170	0xc0304fbe	-2.754867
171	0x3fffd21a	1.9985993
172	0x40073628	2.1126804
173	0xc015ea3a	-2.342421
174	0x3eb17f54	0.34667456
175	0xc085c1f4	-4.179926
176	0xbe915794	-0.2838713
177	0x3f955834	1.1667542
178	0x3f0ca34c	0.5493667
179	0x4034c602	2.8245854
180	0x402cc914	2.6997728
181	0xc01eddb2	-2.4822812
182	0x3f4e9942	0.807026
183	0xbf9ac3f1	-1.2091047
184	0xc030e8b9	-2.7642043
185	0x3f87c684	1.0607457
186	0xbd1c2340	-0.038119555
187	0xbdc7f7e0	-0.09764075
188	0x3f8f1c57	1.1180524
189	0x3e5a8b92	0.21342304
190	0x40891d55	4.2848306
191	0x3f0691fa	0.5256649
192	0xbe8c146e	-0.27359337
193	0xbf3929a8	-0.7232919
194	0x3ec5a4b0	0.3860221
195	0xc00f9e0c	-2.2440214
196	0x4071282c	3.768077
197	0xc04b4a11	-3.1763957
198	0xc0070abd	-2.1100304
199	0xc03b75ee	-2.9290729
200	0x3fa7e86f	1.3117808
201	0xbfd67121	-1.6753274
202	0xc08a3449	-4.3188825
203	0xbfab22a6	-1.3369949
204	0x3cf7e200	0.030259132
205	0xbf9d61c3	-1.229546
206	0xbf0e3144	-0.55543923
207	0xc0a1d51e	-5.0572653
208	0x405130d9	3.2686064
209	0xbfbe13d7	-1.4849805
210	0x3f5b3205	0.856232
211	0x3ff3e3e6	1.9053924
212	0x3fea2cc4	1.8294911
213	0xbf34c428	-0.7061181
214	0x3e33d748	0.17562592
215	0xbfbfbd1e	-1.4979589
216	0x3fe0ac0a	1.7552502
217	0xbf607762	-0.87682164
218	0x40146001	2.3183596
219	0x3f9ed289	1.2408
220	0x3ef3cffc	0.47619617
221	0xc0a9ab9f	-5.3022
222	0x4079006a	3.8906503
223	0xbff4dec8	-1.9130487
224	0xbf434449	-0.7627607
225	0x40354492	2.8323102
226	0x3b3edc60	0.0029123053
227	0xbffcf0fd	-1.9761044
228	0x3e742660	0.23842764
229	0x3f966982	1.1750948
230	0xbfc4b03f	-1.5366286
231	0xc03b47c1	-2.9262545
232	0x406ffb5f	3.7497175
233	0x403140c8	2.769579
234	0xbe835184	-0.2564813
235	0x4068229a	3.627112
236	0xbeec7b70	-0.46187925
237	0x3f4693ce	0.7756928
238	0xbdc58d40	-0.09646082
239	0x3dd037f4	0.10166922
240	0xbf18ed08	-0.5973668
241	0x401e26de	2.4711223
242	0xbf86d109	-1.0532542
243	0x3fbcc9ce	1.4749086
244	0xbe5fdbe8	-0.21861231
245	0x40270dbe	2.6102138
246	0x404e46d9	3.2230742
247	0xbf872c80	-1.0560455
248	0x3f69c13d	0.91310483
249	0x3f3f152b	0.74641675
250	0xbfde6c68	-1.7376833
251	0xc0326b96	-2.7878165
252	0x408433c5	4.1313195
253	0xbf6b3319	-0.91874844
254	0xbfa51944	-1.2898335
255	0x40144e6a	2.317286

2.bias f4 [64]
0	0xbe8251b8	-0.2545297
1	0xbf880518	-1.0626554
2	0x400486a7	2.0707185
3	0x3fb9f358	1.4527388
4	0x3f006a40	0.50162125
5	0x3dac0b74	0.08400622
6	0x3f5fc3c7	0.8740811
7	0x3ff22352	1.8917029
8	0xc04ee038	-3.2324352
9	0x3e1a3278	0.15058315
10	0xbe0027c0	-0.12515163
11	0xbf88968e	-1.0670946
12	0xbde0bd85	-0.10973648
13	0xbf116e1a	-0.56808627
14	0xbfe3b8b1	-1.7790738
15	0x3f81956c	1.0123725
16	0x3f712eda	0.94212115
17	0x3f311406	0.6917118
18	0xbf3500fa	-0.70704615
19	0xbf883be1	-1.0643274
20	0x407ad7b2	3.919415
21	0x3f811342	1.0084002
22	0xbd83086c	-0.06398091
23	0xbe909396	-0.282376
24	0x3f7b1bda	0.98089373
25	0xc0cde3c1	-6.434052
26	0x3fc9c964	1.5764585
27	0xbd481c38	-0.048855036
28	0x4005b23a	2.089003
29	0xc0095eb2	-2.1464047
30	0x4022f9ba	2.546492
31	0x3d9f17f4	0.077682406
32	0x3ff60b01	1.9222108
33	0x40355891	2.8335307
34	0xc081a0be	-4.050872
35	0x3fabce1e	1.3422277
36	0xc0b38360	-5.609787
37	0x406682dc	3.601737
38	0xbebd9b88	-0.37032723
39	0xbe8a9bb3	-0.27071914
40	0xbf1cda32	-0.6127044
41	0x3f9f701f	1.2456092
42	0x3f2e027a	0.6797253
43	0xbeb34f10	-0.35021257
44	0x3c354180	0.01106298
45	0x40abab1c	5.3646374
46	0x3fd0c0ea	1.6308873
47	0xc021e282	-2.52945
48	0xbe91839b	-0.2842072
49	0xc084dff8	-4.15234
50	0xbf39759e	-0.72445095
51	0x40153c98	2.3318233
52	0x403a7ffe	2.914062
53	0xc0405095	-3.0049183
54	0x4006d8e5	2.1069882
55	0x3f484038	0.7822299
56	0xc0051f0f	-2.0800207
57	0xbdc127d0	-0.09431422
58	0xc0128f58	-2.289999
59	0xbfec6c1d	-1.8470494
60	0xc0284d90	-2.629734
61	0xc046daaa	-3.1070962
62	0xbeafc414	-0.34329283
63	0x4084d75a	4.151288

4.weight f4 [5, 64]
0	0xbf6ee812	-0.9332286
1	0x3f98cd45	1.1937643
2	0xbf9af9b0	-1.2107449
3	0x40749fd1	3.8222544
4	0xbf11ceec	-0.5695636
5	0xbf8ccd30	-1.1000118
6	0xc087ed21	-4.2476964
7	0x3fe5a707	1.7941598
8	0x3e13d7bc	0.14437765
9	0xbfdf1f75	-1.7431475
10	0x3e41c998	0.18924558
11	0xc01449da	-2.3170075
12	0xc0711171	-3.7666895
13	0x3f05e986	0.52309453
14	0x3f807bb6	1.0037754
15	0xbffad7e0	-1.959713
16	0xbfd912bd	-1.6958843
17	0x3fafee1a	1.3744538
18	0x3feb0818	1.8361845
19	0xbfadc46b	-1.3575567
20	0x406614cc	3.5950193
21	0x3f1490f6	0.5803369
22	0xc0017e50	-2.0233345
23	0x3fb522d0	1.4151249
24	0x401fa2d4	2.4943132
25	0x3ef19ae6	0.4718849
26	0x3f87de40	1.06147
27	0xc087ea4a	-4.2473497
28	0x3f819580	1.0123749
29	0xbf3a956e	-0.7288426
30	0x404df764	3.2182245
31	0x402fcc69	2.7468512
32	0xbfd5687d	-1.6672512
33	0x3f9e6221	1.2373697
34	0x408b96a2	4.362138
35	0xbf8fabac	-1.1224265
36	0xc0484c42	-3.1296544
37	0xbed484d6	-0.41507596
38	0xc03d0f8f	-2.9540746
39	0xc01f928f	-2.4933202
40	0x3e7c2746	0.24624357
41	0xbfada830	-1.3566952
42	0xbf90c89b	-1.131122
43	0x407e3295	3.9718373
44	0xbfb725ad	-1.4308373
45	0x3f89c33b	1.0762705
46	0xc098898f	-4.766792
47	0x3ebcc754	0.36870825
48	0xbd8d6810	-0.06904614
49	0x3fafffb7	1.3749913
50	0xbf93d88a	-1.1550457
51	0xbf4e404d	-0.80566865
52	0x3ed86993	0.42268047
53	0x3fcead2b	1.6146597
54	0xbf9c8a36	-1.2229679
55	0xbf858ed6	-1.0434215
56	0xbf56898a	-0.8380362
57	0x3e8609ef	0.26179454
58	0x3fa1a972	1.2629836
59	0xbee90886	-0.45514315
60	0x3f883d8e	1.0643785
61	0x40408866	3.008325
62	0xc0546257	-3.3185022
63	0xbfab3d84	-1.3378148
64	0x40434834	3.051282
65	0xc05a38eb	-3.409724
66	0xc096528a	-4.6975756
67	0xc025d81a	-2.5913148
68	0x3f08e615	0.5347608
69	0xbf613c94	-0.8798306
70	0x3f466e39	0.77511936
71	0xbfde8417	-1.7384061
72	0x3f9a3f04	1.2050481
73	0x3f2020ab	0.6254985
74	0x3f0b1918	0.54335165
75	0x400de674	2.2171907
76	0xc085a0c6	-4.1758757
77	0x3fddbf96	1.7324092
78	0xc054c77c	-3.3246756
79	0xbf4dec74	-0.80438924
80	0xbed324b4	-0.4123894
81	0xc008d70b	-2.1381252
82	0xbf9d5998	-1.2292967
83	0x3f23c1c2	0.63967526
84	0x3fe20e53	1.7660621
85	0x40b84f36	5.7596693
86	0xbd9ec320	-0.07752061
87	0xbf9130b7	-1.1342992
88	0x3f4cd612	0.80014145
89	0xbfd198c4	-1.6374745
90	0xbfb144c7	-1.3849114
91	0x3f377c37	0.7167391
92	0xbe494390	-0.1965468
93	0x3fb9354d	1.4469391
94	0xbf8a3edc	-1.0800433
95	0xc061c608	-3.5277119
96	0x407286d6	3.7894797
97	0xbfe1b5e1	-1.763363
98	0xbfcc68a0	-1.5969429
99	0xbfa46b92	-1.2845328
100	0x3effb094	0.49939406
101	0xc0467b91	-3.101292
102	0xbf48a6de	-0.7837962
103	0xbfbf4216	-1.4942043
104	0xbf087082	-0.53296673
105	0xbf36773a	-0.71275675
106	0xc0da2095	-6.8164773
107	0xbf157ff1	-0.5839835
108	0x3ef49212	0.47767693
109	0x3fb5ddd1	1.4208318
110	0x4034e404	2.826417
111	0x40265a0d	2.5992463
112	0xc0018fd2	-2.024403
113	0x3ffedfb2	1.9912016
114	0x3fa5c324	1.2950177
115	0xbf884787	-1.0646828
116	0x4046c2e6	3.1056457
117	0xbf82b9f8	-1.0213003
118	0x3f69949c	0.91242385
119	0xc0414dea	-3.0203805
120	0xc064a2be	-3.572433
121	0x3fdf3270	1.7437267
122	0xbfecf9f4	-1.851378
123	0xbf923580	-1.1422577
124	0xc0ae6296	-5.4495344
125	0xc03d9daa	-2.962748
126	0x3f5b6a50	0.85709095
127	0x40497ff2	3.1484342
128	0x3f7b0a57	0.9806265
129	0xbf26bbf1	-0.65130526
130	0x4025fd49	2.5935843
131	0xc0465068	-3.0986576
132	0x3f91537a	1.13536
133	0x3f98950d	1.1920487
134	0xbf7ad22a	-0.97976935
135	0xbf1b7dec	-0.60739017
136	0xc0054cd2	-2.0828137
137	0x3db45420	0.08805108
138	0x402de1e5	2.7169125
139	0xc05773b2	-3.3664365
140	0xc0171cc2	-2.3611302
141	0x3f009597	0.50228256
142	0x4025ab65	2.588586
143	0x3f0851ff	0.53250116
144	0x40870467	4.2192874
145	0xc0872f97	-4.2245593
146	0xc007d7a8	-2.1225376
147	0xc00f6d9e	-2.2410655
148	0xbf9d8b37	-1.230811
149	0xc00ead21	-2.229317
150	0x40490dbb	3.141463
151	0x3e9802ea	0.29689723
152	0xbf6951ea	-0.91140616
153	0x3f480b5d	0.7814234
154	0xbee8c7ee	-0.45465034
155	0xc0321926	-2.782785
156	0xc0632ba8	-3.5495396
157	0x3fdc0edc	1.7192035
158	0x3f461e3c	0.77389884
159	0xbeb8072e	-0.35942978
160	0x3eee3246	0.4652273
161	0xc0661622	-3.5951009
162	0xbef16b19	-0.47152022
163	0xc09556e3	-4.6668563
164	0xc016d197	-2.3565423
165	0x3f2fea80	0.68717194
166	0x40172a1a	2.3619447
167	0xbfdfb2f2	-1.7476485
168	0xc0160c48	-2.3444996
169	0xc07a441a	-3.9104066
170	0x3ecbc2b4	0.39796984
171	0x40392004	2.892579
172	0x40245d09	2.5681784
173	0xbfece3dc	-1.8507037
174	0x3fcda560	1.6066093
175	0x3fb43c58	1.4080915
176	0xc080d29e	-4.02571
177	0xc00c95fe	-2.1966548
178	0x3f287bcc	0.658139
179	0x3ff70a5b	1.9300035
180	0xbed747fa	-0.420471
181	0x403322bf	2.7989957
182	0xbdfd727e	-0.12375353
183	0x4041cba9	3.0280554
184	0x3efc72ed	0.4930643
185	0xc01403fb	-2.312743
186	0x3fca8bb4	1.5823884
187	0x40add34c	5.432043
188	0xbff13ff8	-1.8847647
189	0xbfebced1	-1.842249
190	0x40609d23	3.5095909
191	0xc09c2450	-4.8794327
192	0x40761d95	3.8455555
193	0x3fd51f74	1.6650224
194	0xc1143fd9	-9.265588
195	0xbe450550	-0.19240308
196	0xc002eeac	-2.0458174
197	0x3fcfdda9	1.623952
198	0x40160aa0	2.3443985
199	0x3f2f8f6a	0.6857821
200	0xc04326fc	-3.0492544
201	0xc0bf6e3f	-5.982208
202	0x40df621e	6.980727
203	0xc0203a86	-2.503572
204	0xbfcc236c	-1.594831
205	0x3fa3c156	1.2793376
206	0xbf8f5728	-1.1198473
207	0xbf21036b	-0.6289584
208	0xbee536d4	-0.44768393
209	0x408f6c7e	4.4819937
210	0xc0833c35	-4.1010995
211	0x3eae96e8	0.34099507
212	0x40242dad	2.5652878
213	0x3fd948ad	1.6975304
214	0xc06b00c2	-3.6719213
215	0xbfb3f60f	-1.4059466
216	0x3fb3bcd7	1.4042004
217	0xbf71e4ed	-0.9448994
218	0x3ec05dbf	0.37571523
219	0x40e9c1bb	7.3048987
220	0xbf079d02	-0.5297395
221	0xbf944aa8	-1.1585283
222	0xbfbeeabb	-1.4915384
223	0x3f8820ec	1.0635047
224	0x40289f74	2.6347322
225	0x3f773b9d	0.9657534
226	0x402ef55c	2.7337255
227	0x3fc283cf	1.5196475
228	0x40a5a701	5.176636
229	0xc00a25c4	-2.158555
230	0x3f232ce6	0.63740385
231	0x40032278	2.0489788
232	0x3f6b0452	0.9180347
233	0x40e84ec8	7.259617
234	0x3f230229	0.6367517
235	0xc0824494	-4.0708714
236	0xc0219934	-2.5249758
237	0x400de68a	2.217196
238	0x406dbd2c	3.7146711
239	0xbf61254f	-0.87947553
240	0x3f187658	0.5955558
241	0x3e3537c0	0.17697048
242	0x3f1eb0a2	0.6198827
243	0x40f45696	7.6355696
244	0xbf067dfa	-0.52535975
245	0xbe726664	-0.23671871
246	0xbf73575e	-0.95055187
247	0x3fd0b9f4	1.6306748
248	0x3ee247d0	0.44195414
249	0xc0137daf	-2.304546
250	0xc0079a54	-2.1187944
251	0xc0084787	-2.1293657
252	0xbfd52f28	-1.6655016
253	0xc019598b	-2.3960903
254	0x40909cb1	4.5191274
255	0xc0199ad4	-2.400075

4.bias f4 [5]
0	0xbf4f968a	-0.8108908
1	0xc00e48b2	-2.223187
2	0x406cd149	3.7002738
3	0x3fb0b66e	1.3805673
4	0xc0b7c845	-5.743197
