demo/experiments/genetic_algorithm/ga_experiment_2021_02_12_160407/problem_13.model (torch, 26149 bytes, 6 tensors)

0.weight f4 [64, 22]
00000000: 1233 3540 8476 4f3f 3bd2 0a40 7821 70bf
00000010: 5072 623e eab2 b3bf 5313 853f e846 ab3f
00000020: d27c 79bf 4c83 9ac0 4f5c c8be 73b8 7040
00000030: a960 83c0 ced7 be3f 9c4e b63f 6a07 5740
00000040: 82f3 15bf 0ced a73f df37 1cc0 1077 e6bd
00000050: c83d 9e3f 5c93 ad3e 764c 12bf 6e9c 72bf
00000060: 24fd 1d3f 6f07 53c0 122d 1640 4372 03c1
00000070: a0e5 d9bd bee2 a7bf aa14 9140 5707 36bf
00000080: a5ef 07c0 e8ba 7a3e e8e5 5640 3e3b a23f
00000090: 7cd6 8dc0 1a55 27bf 1eef afbf 1b37 843f
000000a0: 8efc 693f 3911 7e3f 64f5 eebf 679b c23f
000000b0: 1a86 6c3f 1b5e 8fbf 4219 95bf 376d b3bf
000000c0: 4573 83c0 f650 16c0 8ead 3d40 6c70 a53f
000000d0: 7291 2fc0 e835 abbf 0ee8 bd3f 8734 cd3f
000000e0: 8a94 893f 94f9 1b40 6e19 0740 988c 0040
000000f0: aeba 2c40 660c 063f b65e 3fc0 96aa 0dc0
00000100: ca30 9a3f bb9a 903f 99e1 33c0 d211 f33f
00000110: 8c73 2fc0 08f5 9dbe f343 81c0 d6dc 6340
00000120: 37ba f0bf 1a8b 9cbf fbe0 d23f 00a8 1940
00000130: 4675 023f 83d9 4540 1366 8bc0 04e4 0540
00000140: ec31 23bf a031 253d c0af e33f 3605 0f40
00000150: 9768 4e40 ba6d 5e40 5ec8 0ebf 6830 6bc0
00000160: 659f 893f 169d 6840 a736 c4bf c85f 28c0
00000170: 3d27 88bf 42f1 e5be 12a2 5bc0 f724 ecbe
00000180: 96bf 8a3e bc0e 24c0 301a 1340 56a0 ba3e
00000190: 4692 83bf 7f97 65c0 ced8 6abf 392a 0c40
000001a0: a3e9 35bf 38f7 1dbf 41fc 3440 b0cd 0440
000001b0: 562f 3fc0 df85 a1bf f91d f2bf 99c3 13c0
000001c0: dc9d 873f e0c2 f73f 4aa9 3240 739d 8e3f
000001d0: 0121 173f 4413 563f cd95 aebf e63c babf
000001e0: 8cff 3f3f c151 f0bf 3387 1ec0 298e f83f
000001f0: fe0a a03f e677 b7bf 4738 8cc0 2007 c6bf
00000200: f6ee e73f aedd 7f3f 7d66 c8bf 3ef9 22c0
00000210: 14a3 0040 1aaf 1ec0 4896 69bf 62e5 dabf
00000220: 6c8a 203f fff2 f53f ec67 7440 095e bec0
00000230: a481 94c0 ab8c ffbf e0a3 dfbc ef36 2040
00000240: 0ff0 b7bf 467f 42bf 3073 44bf ea00 a7be
00000250: 44a6 9d3f bdcf c0bf 0e8a 1fc0 6fd7 4f3f
00000260: 92e9 6fc0 b562 4dc0 8418 8540 906c e13f
00000270: e696 a4bf 9bc4 0fc0 32e1 60c0 b4a0 6f3e
00000280: a127 c23f c4a9 8240 0337 01bf 8089 043c
00000290: a7db f03e 5c4d a8c0 2aec 113f f87d 45c0
000002a0: a9f5 5740 51b2 e4be 8457 0040 636c 3140
000002b0: 6984 993f ac51 bf3f fa7c 95bf 255b 2040
000002c0: dc2a 92be 52be 803e 5001 c63f 4ed7 c4bf
000002d0: ea12 e9bf 60cb 5740 c975 7d3f 801e 40bf
000002e0: 8909 1640 1720 e23f 4934 6ebf aa7b 5dc0
000002f0: cdc6 c4bf be39 00c0 22b5 653f 6a2d ea3f
00000300: 902a 6b40 8613 bf40 b73a af3e 583f f73f
00000310: 29e0 f03f cdca 19c0 9dd6 c43f 81f9 323f
00000320: 8f47 ba3f 3ca9 34c0 740b 58c0 dbff 2bbf
00000330: da9e 63c0 ba74 da3f 5873 853e 5166 efbf
00000340: b190 35c0 bc86 ffbf 6250 45c0 7bfe e9bf
00000350: 741c c0be 7c33 0cbf 8d84 d1bf 8e3e 7b40
00000360: 6c97 6640 b0bb 3940 282d 9abe 46e9 8a3f
00000370: 7ae0 983f 7069 b43e 0e79 52c0 e6c5 62c0
00000380: cca8 5dbf 4443 5c40 6444 a9bf e247 ddbf
00000390: 9a02 ca3f 3c14 7e3f d791 0c40 7600 d1bf
000003a0: 43d9 81c0 8079 713f fa2a abbf b0cb 2abf
000003b0: c64b febf dc12 2440 90f1 09c0 274b f5bf
000003c0: 88d7 88c0 9207 f6bf 14a9 ed3f cad7 133f
000003d0: 5465 4940 8c3b 3340 16ce 98bf 5014 fbbd
000003e0: cab7 603f b7c6 0940 469b 6fc0 6dd1 8840
000003f0: 4c9b ebbf 6f9d 9b3f a205 0e3f b076 313d
2.831242 0.81040215 2.1690814 -0.9380107 0.2211392 -1.4038975 1.0396522 1.3381014
-0.97456086 -4.8285275 -0.39132926 3.761258 -4.1055493 1.4909608 1.424274 3.3598275
-0.5857469 1.3119216 -2.44091 -0.11253178 1.2362604 0.3390149 -0.5714792 -0.9476994
0.61714387 -3.2973287 2.3465009 -8.215396 -0.106395006 -1.3116071 4.5337725 -0.7110495
-2.1240017 0.24485362 3.3577824 1.2674329 -4.432432 -0.6536423 -1.3744848 1.0329317
0.9140099 0.9924503 -1.8668637 1.5203675 0.9239212 -1.1200594 -1.1648333 -1.4017705
-4.107821 -2.3486915 2.963718 1.2924933 -2.7432523 -1.3375826 1.4836442 1.6031655
1.0748456 2.437108 2.110927 2.0085812 2.698894 0.5236267 -2.9901557 -2.2135367
1.2046139 1.129722 -2.8106444 1.8989813 -2.7414274 -0.30851007 -4.0395446 3.5603538
-1.8806828 -1.222995 1.6474909 2.400879 0.50960195 3.0914009 -4.35621 2.092042
-0.6374805 0.04033053 1.778801 2.234693 3.2251337 3.4754472 -0.55774486 -3.6748295
1.0751768 3.6345878 -1.5329179 -2.630846 -1.0636975 -0.44910628 -3.431767 -0.46121952
0.27099293 -2.5633993 2.2984734 0.36450452 -1.0279014 -3.5873716 -0.9173707 2.190077
-0.71059626 -0.6170535 2.8278964 2.0750542 -2.9872642 -1.2618979 -1.8915397 -2.3088133
1.059505 1.9356346 2.7915826 1.11418 0.59034735 0.83623147 -1.3639466 -1.4549835
0.7499931 -1.8774949 -2.477002 1.9418384 1.2503355 -1.4333465 -4.38187 -1.5470924
1.81198 0.9994763 -1.5656277 -2.5464625 2.0099535 -2.4794374 -0.91244936 -1.7101252
0.62711215 1.9214782 3.818843 -5.948979 -4.6408253 -1.9964803 -0.027299821 2.5033529
-1.4370135 -0.75975454 -0.7673826 -0.32617885 1.2316365 -1.5063397 -2.4928012 0.811881
-3.748631 -3.2091496 4.1592426 1.7611256 -1.285855 -2.2463748 -3.5137448 0.23401147
1.5168344 4.0832233 -0.50474566 0.008089423 0.4704258 -5.2594433 0.5700098 -3.0858135
3.374369 -0.44667295 2.0053415 2.7722404 1.1993533 1.4946799 -1.1678765 2.505563
-0.28548324 0.25145203 1.546915 -1.5378206 -1.8208897 3.371788 0.9900785 -0.7504654
2.344332 1.7666043 -0.9304853 -3.4606729 -1.5373169 -2.0035243 0.8972951 1.8295109
3.6744728 5.971133 0.34224483 1.9316206 1.8818408 -2.403003 1.5377995 0.6991196
1.4553088 -2.8228292 -3.375699 -0.6718728 -3.5565705 1.7066872 0.26064563 -1.87031
-2.8369563 -1.9962993 -3.0830312 -1.8280786 -0.37521708 -0.5476606 -1.6368576 3.925693
3.602992 2.9020805 -0.30112576 1.0852439 1.1943505 0.35236692 -3.2886386 -3.5433288
-0.8658569 3.4416056 -1.3223996 -1.7287562 1.5782044 0.99249625 2.1964014 -1.6328266
-4.057771 0.9432602 -1.337249 -0.6671705 -1.9866874 2.563651 -2.1553688 -1.916356
-4.27631 -1.922106 1.8567224 0.5775114 3.1468096 2.8005095 -1.1937892 -0.12259734
0.8778044 2.1527536 -3.7438521 4.2755647 -1.8406768 1.215742 0.55477345 0.04332608

0.bias f4 [64]
00000000: a28e 86c0 187f 693f 6a08 1040 6994 8f3e
00000010: f4ae 0ebf b0c2 1a40 a6e7 96bf fae4 04c0
00000020: 4548 5ac0 9c65 6bbf 9e7c eb3f 60f3 bc3d
00000030: 4905 adc0 86f9 8740 746f b53f 590e 03c0
00000040: 4774 b53f d93e 5a40 e808 7e3f 2421 4140
00000050: 146c ba3e 9006 a93f 4763 37c0 da0f 08c0
00000060: d004 0bc0 08c6 5abe 448c 66bf 6f47 bf3f
00000070: 8002 313e 439b 9a3f 54c3 febf dbd4 b7bf
00000080: bda8 0640 50a1 9c3f 870c 0cc0 d9aa b7bf
00000090: 748e 0dbf 7bba ab3f 384a 4bc0 8517 ab40
000000a0: 4071 9a3f c317 1dbf f08b 21c0 5828 8dbf
000000b0: 7eaf 6940 1dc7 0340 5600 63bf 40bf 73bd
000000c0: 7177 9a3f 96fc 3d40 339d 32c0 01d9 9b3f
000000d0: 02c9 31c0 786b e4bf f049 94bf 1e7c 9f3f
000000e0: e6bb d33e 4e59 1140 90fe e23d 8877 c03e
000000f0: d420 16be b512 9fc0 7213 bdbf fa72 8440
-4.204911 0.91209555 2.2505136 0.28042915 -0.5573571 2.4181328 -1.1789443 -2.0764756
-3.410661 -0.9195192 1.8397405 0.092261076 -5.406895 4.2492094 1.4174638 -2.0477507
1.417611 3.410086 0.9923234 3.0176477 0.36410582 1.3205128 -2.8654344 -2.1259675
-2.1721687 -0.21364605 -0.9005778 1.4943675 0.1728611 1.2078632 -1.990336 -1.4361833
2.104049 1.2236729 -2.1882646 -1.4349014 -0.5529549 1.3416284 -3.176405 5.346621
1.2065811 -0.6136438 -2.524166 -1.1027937 3.6513362 2.059028 -0.8867239 -0.059508562
1.2067701 2.9685416 -2.7908447 1.2175599 -2.7778935 -1.7845297 -1.1585064 1.2459753
0.41354293 2.2710757 0.1108371 0.37591195 -0.1466096 -4.9710336 -1.4771559 4.139035

2.weight f4 [64, 64]
00000000: b78f 0d3f 2532 973f 3682 873f cb9a 4940
00000010: 8f68 963f 7f64 c63f 8672 1540 9217 c5bf
00000020: 52f0 f73f 64f0 7040 113a 52c0 8a48 bb40
00000030: 7853 98c0 657e c53e 1616 443f 7e82 2ebf
00000040: c880 b33f 6259 0b40 60e1 573c 4d5b 14c0
00000050: 3cba 2140 5272 f7bf ceef fcbf aaae e3be
00000060: ee50 a53e 6813 75be da82 3a3e 9e5d 2a3e
00000070: c2ff 3bbe 758c 39c0 fc9d 8f3f 2b90 4dbf
00000080: 404b 16be 2bf6 7b3f 54b4 7140 4c02 fa3f
00000090: c0f1 b53c 5a5e 2340 de05 fa3e de89 4140
000000a0: c4fa 81bf 9391 2440 f9b9 ab3f 0007 cf3c
000000b0: ea18 35c0 d359 afbf 443c 0f40 6a81 89c0
000000c0: 0922 d13e 347d b0c0 8450 1b40 1fc5 8dc0
000000d0: a7e5 5d3f bf5a 8d3f 82a4 f33f cc6d 3bbe
000000e0: fa0a debf 049e 10c0 f458 b6bf 909f d7be
000000f0: 666e 3e3f d88e 2740 39e7 a43e 300f 2ebe
00000100: c6a7 963f 70c9 58bd 3a3f d2bf a94c d8bf
00000110: 14a4 4ebe 38ce babf 9e38 0840 647f 75bf
00000120: ca41 0e40 87f0 db3f 00c6 8b40 16fe 34c0
00000130: 463f c9bf 00f6 38c0 abb9 d8bf 7e14 d1bf
00000140: c48d 0d40 9a42 003f 3c72 f83f d131 a33f
00000150: 48e8 923f 0422 30c0 a44a 683f 6934 98c0
00000160: f497 0d40 6683 e93f 5dd8 c13f e058 a63d
00000170: bcfc d0bf c0d1 643f d353 243f 0727 1d3f
00000180: 16e1 57c0 4e56 103f e4e1 85be ac65 0b3e
00000190: 56fb c23f 03d2 ec3f 1a3f 5e40 90b4 1dc0
000001a0: 44b7 56c0 3b66 5140 2038 263f 20a8 a6bf
000001b0: 1f90 22c0 b0ea 0740 1669 0140 7e0d bebf
000001c0: ae04 5cbf 2061 43c0 42e0 203f 80ec 84c0
000001d0: ec01 babf ec16 cabf dd30 06bf 34d7 bfbf
000001e0: d0c8 9dbf 2321 2840 8cd9 40bf 8260 52c0
000001f0: 2f59 96be 33c9 84bf 80c8 9ebd c559 4240
00000200: 17bf 26be a2a3 7440 0514 a83f 251f 6140
00000210: c6ea 253f b472 a53f 0ce6 ebbf 3d5b f33f
00000220: 9047 523f fa39 aa3f 91f1 6a40 ab4e 3240
00000230: 0a57 e0bf 0780 58c0 b0c7 b73f d143 63c0
00000240: 4acd 6dc0 0051 4840 0638 0abe 3450 a03e
00000250: 7df4 99bf e27e a43f bd59 3b3f dcb3 03c0
00000260: 6037 f2bf a0e3 a440 40ba 4dbe a8ae 8fc0
00000270: 8346 e2bf 6688 fa3f f962 26c0 f9a5 86bf
00000280: fee8 9a3f 8041 5e3e 167a 48bf b853 3bc0
00000290: 40f7 903f 5756 a9bf fc91 8b3f c076 213d
000002a0: a6ad 29c0 9e0c 02c0 40df 5c3e 6f5d 2240
000002b0: f5ef fa3f 6020 1e40 176c 963f 2bae 9440
000002c0: e351 2040 b705 93bf 6ca3 3a40 8ae1 57c0
000002d0: 6574 643f c01d 543e 15ec 80bf 1262 b13f
000002e0: 3da0 13c0 f4ed a7be 5079 4fbe 2608 0240
000002f0: c740 1040 407b 873e 5851 aebf d2b7 febe
00000300: 4c62 8cbf 64f3 14c0 c035 773f b00f 373e
00000310: a4a1 d0be 2085 01c0 e02e d4be 38b0 3ac0
00000320: 7fbc ed3f 71df 8a3f 74eb c33f 0a46 09c0
00000330: 7c05 04c0 da9f 04c0 ea74 8140 350f b9bf
00000340: 38b9 19be 5407 8740 b830 05c0 9cd3 9440
00000350: 63e4 1040 ea3f f23f a0a6 f5bf bc29 8e3f
00000360: c2aa 7740 a114 0dc0 acdf 96bf f4a4 13be
00000370: 74fc 0cbf 6d3c 7cbf 58aa 7e3f 3c52 59bf
00000380: 76fd e13e 68d0 ec3e c653 803f d44a 08bf
00000390: 04a0 51be f1c6 dabf 056d 3c40 40a1 77bc
000003a0: d0e5 3840 c02e b43c 24d7 0040 2c15 6dbf
000003b0: d2dd 8bbf 1144 b740 7e5e 7c40 9fa9 b73f
000003c0: 4b84 7a3e ed74 d0c0 61c2 a8bf 1bec be3f
000003d0: 4c44 b7bf bc52 2440 a023 f93f f01f 02c0
000003e0: 085b 6ec0 dc15 7ebe f304 e7bf d291 ee3f
000003f0: f061 00be 9d67 62bf b2eb d33f 36d0 9fbf
0.55297416 1.1812178 1.0586612 3.1500728 1.1750659 1.5499419 2.335115 -1.5397818
1.9370215 3.7646723 -3.284794 5.852605 -4.760189 0.38572994 0.765962 -0.68167865
1.4023676 2.1773305 0.013176292 -2.3180726 2.5269918 -1.9331763 -1.9760683 -0.44469196
0.32288307 -0.23933184 0.18213978 0.16637275 -0.18359283 -2.8991978 1.1220088 -0.8029811
-0.14677143 0.984225 3.7766314 1.9531951 0.022210002 2.5526338 0.488326 3.0240397
-1.0154653 2.5713851 1.3416129 0.025271893 -2.8296456 -1.3699287 2.2380533 -4.2970476
0.4084628 -5.5152836 2.4267893 -4.4303126 0.86678547 1.1043319 1.9034579 -0.18303603
-1.73471 -2.2596445 -1.4245896 -0.42113924 0.74387205 2.6180935 0.3220766 -0.16997981
1.176995 -0.05292648 -1.6425545 -1.6898395 -0.20179778 -1.4594183 2.1284556 -0.9589751
2.2227654 1.7182778 4.36792 -2.8280082 -1.5722435 -2.8900146 -1.6931661 -1.6334379
2.2117777 0.50101626 1.9409862 1.2749578 1.1477137 -2.7520761 0.9073889 -4.7563977
2.2123995 1.8243225 1.5144154 0.0812242 -1.6327128 0.89382553 0.64190406 0.61387676
-3.3731132 0.5638169 -0.26148903 0.13613003 1.5232952 1.850159 3.4726014 -2.4641457
-3.3549356 3.2718647 0.6492939 -1.3020058 -2.5400465 2.1236992 2.022039 -1.4847867
-0.8594464 -3.052803 0.6284219 -4.1538696 -1.4531837 -1.5788245 -0.5241831 -1.498755
-1.2326908 2.6270225 -0.7533195 -3.2871404 -0.29364917 -1.0373901 -0.07753086 3.036729
-0.16283832 3.8224874 1.313111 3.517526 0.6481136 1.292563 -1.842958 1.9012219
0.82140446 1.3298943 3.670994 2.7860515 -1.7526562 -3.3828142 1.4357815 -3.5510142
-3.7156549 3.1299438 -0.13497934 0.3131119 -1.2027737 1.2851222 0.73183805 -2.0578527
-1.8923149 5.1527863 -0.2009058 -4.4900703 -1.7677768 1.9572875 -2.5997908 -1.0519401
1.2102354 0.21704674 -0.7831129 -2.9269848 1.1325455 -1.3229474 1.0903926 0.03941989
-2.6512237 -2.03202 0.21569538 2.5369527 1.9604479 2.470726 1.1751736 4.6462607
2.504998 -1.1486119 2.9162245 -3.3731408 0.89240104 0.20714474 -1.0072047 1.3858054
-2.3066552 -0.3279873 -0.20261121 2.0317473 2.2539537 0.2646122 -1.3618574 -0.4974962
-1.0967498 -2.3273554 0.9656639 0.17877078 -0.40748322 -2.0237503 -0.41442013 -2.9170055
1.857315 1.0849439 1.530623 -2.1448998 -2.0628347 -2.0722566 4.0455217 -1.4457766
-0.15012062 4.2196445 -2.0810986 4.650831 2.2639396 1.8925755 -1.9191475 1.1106486
3.8697972 -2.204384 -1.1787009 -0.14418393 -0.5507271 -0.985297 0.99478674 -0.84891105
0.44138688 0.4625275 1.0025566 -0.5323918 -0.20471197 -1.7091962 2.944154 -0.015114129
2.8890266 0.021994948 2.0131311 -0.9261043 -1.0927069 5.727059 3.9432673 1.4348639
0.24464528 -6.514273 -1.318432 1.4915804 -1.4317718 2.5675497 1.9463997 -2.0331993
-3.724306 -0.24813026 -1.8048385 1.8638251 -0.1253736 -0.8843935 1.6556304 -1.2485416

2.bias f4 [64]
00000000: bb9c 5240 66ec 2140 7060 8940 9479 f23f
00000010: c88f e3be d251 54bf c3e8 2a40 ce97 1bc0
00000020: d110 b3c0 3689 4bbf ccc4 f9bf 6b3a 1940
00000030: febe e1bf ebba 80be 1e36 b540 e8be f5bf
00000040: 0a73 99bf b445 993f 5075 dfbd 0a45 473f
00000050: c669 1ec0 20e9 5c3f 5db7 d5bd 00de bc3a
00000060: 053e 0dc0 6080 93be ecfc 29c0 17d4 6fbf
00000070: 049f 7640 f926 1dc0 c7b1 b03e fb77 c3bf
00000080: ced8 503f 542f 4b40 002e 4dbc 12de 7cbf
00000090: 143f 793e 28e9 d03d 9c08 02c0 6b88 693e
000000a0: 01e0 fbbf 205f 043e 55b6 a5be 7ce9 6bc0
000000b0: 006e 83c0 de0e c53e decd 0f40 9b8f b9be
000000c0: a5a9 3840 e0be b5bf 9cec b8bf 9e11 803e
000000d0: 8fd9 df3f 31e9 2e40 a97e a440 ea87 8fbf
000000e0: 88f0 ec40 8e20 a53e 028b c5bf 33e4 0040
000000f0: 1a24 b53f f818 d23c fc2e a9bf bc81 b43d
3.290816 2.5300536 4.293022 1.8943353 -0.44445634 -0.8293735 2.6704566 -2.4311404
-5.595803 -0.7950624 -1.9513183 2.3941905 -1.7636411 -0.25142607 5.662856 -1.9198885
-1.1988232 1.1974397 -0.109110475 0.7783972 -2.475206 0.8629322 -0.104353644 0.0014409423
-2.2069104 -0.2880888 -2.6560621 -0.93683 3.8534555 -2.4555037 0.34510633 -1.527099
0.8158082 3.1747637 -0.012523174 -0.9877635 0.24340469 0.10200721 -2.0317755 0.22805946
-1.9677736 0.12926912 -0.3236567 -3.6861258 -4.1071777 0.38487905 2.2469401 -0.36242375
2.8853543 -1.4198875 -1.4447207 0.2501344 1.7488269 2.7329829 5.1404614 -1.1213353
7.4043617 0.322514 -1.5433047 2.0139282 1.4151642 0.025646672 -1.3217463 0.08813807

4.weight f4 [5, 64]
00000000: ebdf c23f bee1 b6bf 0c62 0b3f 26bb 44c0
00000010: 62f5 dcbf a9cf 853f 10fc 4c3d 38cd df3f
00000020: 1f56 22c0 299e 963f 492b 98be 7ed7 513f
00000030: d680 cabd 38f6 5040 9082 5840 a592 97bd
00000040: cc4e 46bf c74d 30bf 8dd9 27bf bc82 2ec0
00000050: 77e3 0340 075c 20c0 f651 f6bf 7e50 01c0
00000060: 3038 09c0 722b 13c0 29f8 803f 56a9 83c0
00000070: 282c 3c3f fe4d 09be 32a2 833f 731f e73f
00000080: 5a3d 4ac0 d298 3140 f131 89bf bc7d 49c0
00000090: 314a 1840 20dc dbbe 0a60 adbf a21e ae3f
000000a0: 2c6c 5e40 588b eb3f 189b 94c0 3d73 f4bf
000000b0: 734e 80c0 055c 0e3f c6bf 9a3f f050 81bf
000000c0: 4e84 2b40 b81d 5dbf 5fe1 45bf a251 2d40
000000d0: 4df3 1b40 2253 8340 2faa c4bf 8656 3d40
000000e0: e3a2 27c0 9068 af3e 38c2 b63d bb22 ee3f
000000f0: 4e36 08c0 b35c e3bf 9850 a9bf dc16 81c0
00000100: 5e1b 4540 6325 fa3f 06d8 60c0 1a54 7cc0
00000110: 5020 a13d 3a4b 7f40 2d81 b23f 53f9 6a3f
00000120: a2ad ea3e 55df 1dc0 4064 df3f 3a56 02bf
00000130: d7f1 cd3f f16f 1740 16fc 8dbe 3a6c 9a40
00000140: 08a9 1940 7ebf a5c0 9536 66c0 c013 5cbe
00000150: 54df 0cbf 2044 de3f 8be5 01c0 5451 dd3d
00000160: 8563 88bf 02aa b73e 9974 893f 7cb8 45bf
00000170: a058 1040 9ec8 633f 18d0 4040 511d 20c0
00000180: b8fb 5ebf e0b1 e9be 0c30 4bc0 985b 873f
00000190: 6c86 1d3f f7a3 8640 f845 63bf f3a0 1dc0
000001a0: 96d0 de3f 3c22 11bf 93c3 5bbf 7eab bac0
000001b0: 7679 fa3f b4de 623f 7cb0 1d3f 414a 0ec0
000001c0: 7615 c13f fae7 a03f 1c95 fbbf 9093 703e
000001d0: fe90 223f 2495 b5bf 5b52 3b40 c2e4 0340
000001e0: 68ce 28c0 35c2 3ac0 9416 fabe 3140 1f40
000001f0: ee4e 16c0 f66b 1ac0 9371 dbbf 8880 e8bf
00000200: 40aa c03f 7ed7 d13f 310c 9f40 e3a3 113f
00000210: 2a0c 013f acbf fdbf e26e 52c0 3feb 2e3f
00000220: 3b2c f5be 9c43 0a40 2992 3e40 1efa 7b3e
00000230: d9a3 05bf 0c2c 83be 6493 773f 3413 0e40
00000240: 8fd9 9d3f 2722 9d40 af23 2b3f 70ca 09c0
00000250: 6cea db3f 914f fabe bb21 ee3f d4f9 4b3f
00000260: 20ae 6340 b179 a83f dd9f a3bf 6b01 a1bf
00000270: bbc8 5f40 ec12 3b40 90e4 8a40 53fa 1240
00000280: 72bc 2940 4894 e7bf 0a59 7640 a862 d8bf
00000290: 7c7c 21c0 80b0 b13e e7ec 0ac0 cc38 babf
000002a0: c650 4f40 3265 0abf 5828 473f 26b6 773f
000002b0: ae58 9240 a8d3 94bf a8f7 b43e f602 3c3e
000002c0: f8af 883e cc4a 3840 e43f 4d3e fcab 5040
000002d0: aad5 6ebf 3038 33c0 8a86 73be d4c6 0cbf
000002e0: 763c a4bf b03a 9a3f 4212 5940 f2ed 2240
000002f0: b0ec 43c0 5194 b0bf 1015 623d a824 393f
00000300: a4c5 bdbe 021a 1140 1f49 3540 fc24 28c0
00000310: 8a0b 7fbf a71c c3bf eba8 0940 a38d 0fc0
00000320: 56b2 d23e aea9 b2bc 786d 66c0 26ae 43c0
00000330: 6c45 17c0 6464 a5be 53e8 2ac0 2e16 3440
00000340: 737e b840 f80e fd3e a080 823d 734a 2b40
00000350: d56e fdbf 3ec4 35c0 0e2c 11bf 86ef 9dc0
00000360: 06ff 2dc0 dfb8 e6bf a367 b1c0 1dbb a0bf
00000370: b02f a5bf 0eaf 3440 0002 dbbe 9c51 8cbf
00000380: 4ec5 75bf 1e6e 883f a5ca 0440 00f7 87bb
00000390: 945c ef3f 1e3b 2040 a2f1 d8be 8740 37c0
000003a0: c0f2 9fbf 7ef0 243e acf7 5e3f 5be6 42c0
000003b0: 05e8 003e 828c 2d3f 5e2a 97bf 7968 e1c0
000003c0: eed4 17bf e571 17c0 b03c 79bf 475e 4abf
000003d0: e019 ad3f c277 20bf bd16 83c0 08a4 c8bd
000003e0: 8087 e2bb 4195 b6bf 0286 acbf aed0 3dbf
000003f0: c677 f03f 8a5a 20c0 e300 57c0 d5c3 b9bf
1.5224584 -1.4287641 0.5444648 -3.0739226 -1.7262385 1.0453998 0.050045073 1.7484503
-2.5365064 1.1767017 -0.29720524 0.8196944 -0.09887855 3.265028 3.382969 -0.07401017
-0.77463984 -0.6886868 -0.6556633 -2.7267294 2.0607584 -2.505617 -1.9243762 -2.0205379
-2.1440544 -2.2995267 1.0075732 -4.114421 0.7350488 -0.13408658 1.0283873 1.8056473
-3.1599946 2.7749524 -1.0718366 -3.1482992 2.3795283 -0.4294138 -1.3544934 1.3603098
3.4753523 1.8401899 -4.6439323 -1.9097668 -4.0095763 0.5560916 1.2089775 -1.0102825
2.6799502 -0.8637347 -0.77297014 2.7081075 2.436725 4.103898 -1.5364436 2.958406
-2.6193168 0.34259462 0.08923763 1.8604349 -2.1283145 -1.7762665 -1.322772 -4.0340405
3.0797954 1.954266 -3.513185 -3.9426332 0.07867491 3.9889665 1.3945671 0.9178669
0.45835596 -2.466756 1.7452469 -0.5091282 1.6089429 2.3662074 -0.2773139 4.8257113
2.4009418 -5.1796255 -3.5970814 -0.21491909 -0.5502827 1.736454 -2.0296352 0.10806528
-1.0655371 0.35871893 1.0738708 -0.77234626 2.2554092 0.8897799 3.012701 -2.5017893
-0.8710284 -0.4564352 -3.1748075 1.0574827 0.61533237 4.2075152 -0.8877864 -2.4629486
1.7407405 -0.5669286 -0.858453 -5.833434 1.9568317 0.8862107 0.6159742 -2.223282
1.5084674 1.2570794 -1.965488 0.2349379 0.6350249 -1.4186139 2.9269016 2.0608373
-2.637598 -2.9181035 -0.4884535 2.488293 -2.3485675 -2.4128394 -1.7144035 -1.8164225
1.5051956 1.6393888 4.970238 0.56890696 0.50409186 -1.9824119 -3.2880177 0.6832771
-0.47885308 2.1603765 2.977671 0.24607131 -0.52203137 -0.25619543 0.96709275 2.219922
1.2332019 4.910419 0.66851324 -2.1529808 1.7180915 -0.4888883 1.8604044 0.7967808
3.5575027 1.3162137 -1.2783161 -1.2578558 3.4966266 2.92303 4.3404007 2.2965286
2.6521268 -1.8092127 3.8491845 -1.6905107 -2.523223 0.3470497 -2.1707094 -1.4548583
3.239305 -0.5406066 0.77795935 0.9676231 4.573325 -1.1627092 0.35345197 0.18360505
0.26696754 2.8795652 0.20043904 3.260497 -0.93294775 -2.8003044 -0.23781791 -0.5499089
-1.2830951 1.204916 3.3917394 2.545773 -3.0613213 -1.3795263 0.055195868 0.7232156
-0.3706485 2.2672124 2.832588 -2.6272573 -0.9962698 -1.5243119 2.150935 -2.2430198
0.41151685 -0.021809425 -3.6004314 -3.0575042 -2.3636122 -0.32303154 -2.67043 2.8138537
5.7654357 0.49425483 0.063721895 2.676419 -1.9799448 -2.8401027 -0.5670785 -4.9354887
-2.7186904 -1.8025168 -5.543901 -1.2557102 -1.2905178 2.8231845 -0.42774963 -1.0962405
-0.9600419 1.0658605 2.0748684 -0.0041493177 1.8700128 2.5036082 -0.4237185 -2.8633134
-1.2495956 0.16107365 0.8709667 -3.0453098 0.12588508 0.6779252 -1.1809804 -7.044003
-0.5930928 -2.3663266 -0.97358227 -0.79050106 1.3523521 -0.62682736 -4.0965257 -0.097969115
-0.0069131255 -1.4264299 -1.3478396 -0.74146545 1.8786552 -2.505526 -3.3594291 -1.4512888

4.bias f4 [5]
00000000: 3bfa 90c0 7fc9 7ec0 6929 e0bd 4d3d 7a40
00000010: 5fbf 6c40
-4.5305457 -3.9810483 -0.10945398 3.9099915 3.6991804
