demo/experiments/genetic_algorithm/ga_experiment_2021_02_12_160407/problem_24.model (torch, 26149 bytes, 6 tensors)

0.weight f4 [64, 22]
0	0xbc0baff0	-0.0085258335
1	0xbfc435a8	-1.5328875
2	0xbece9938	-0.40351272
3	0xc00dabc4	-2.2136087
4	0xbf431405	-0.7620242
5	0x3fba6022	1.4560587
6	0x3fc2ccfe	1.5218809
7	0x4089c2de	4.3050375
8	0xc063842e	-3.5549426
9	0xc033f93e	-2.8120875
10	0xbdeb0040	-0.11474657
11	0xbdc56680	-0.09638691
12	0x3e46d6c0	0.19417858
13	0x3fee12ae	1.859945
14	0xbda85a90	-0.082203984
15	0xc083462c	-4.102316
16	0xc0e91ffc	-7.2851543
17	0x3faf8e62	1.3715327
18	0x4025a6f1	2.5883143
19	0xc00f9e06	-2.24402
20	0xc06d6d3e	-3.7097926
21	0xc017af0a	-2.3700585
22	0xbf0658dc	-0.5247934
23	0x3fafeef9	1.3744804
24	0x3ec57813	0.38568172
25	0xc0897e9c	-4.2967052
26	0xbf6781b0	-0.9043226
27	0x3f8bcc85	1.092179
28	0xc099465b	-4.7898383
29	0xbf0a4756	-0.540151
30	0x3fd2f28d	1.6480271
31	0x4088ca07	4.2746615
32	0xbf9f8d08	-1.2464914
33	0x3f7676f3	0.9627525
34	0xc01c5ece	-2.4432864
35	0xbfbfb0db	-1.4975847
36	0xbf2e608f	-0.68116087
37	0x3f8872f3	1.066008
38	0x40740464	3.812768
39	0x3f8898b2	1.0671599
40	0xbfb393c6	-1.4029472
41	0x40058418	2.0861874
42	0xbd9b41fc	-0.07580945
43	0xbeb3bb26	-0.3510372
44	0xbef06a14	-0.4695593
45	0x4025d61d	2.5911934
46	0x404aa896	3.1665397
47	0x4016470d	2.3480866
48	0xbee01158	-0.43763232
49	0xc0541a16	-3.3140922
50	0x3fac3a59	1.3455306
51	0x3fec2ebc	1.8451762
52	0x3e5abe20	0.2136159
53	0x4008fc15	2.1403859
54	0x401958e1	2.3960497
55	0xc0072a84	-2.11197
56	0xbfb262d2	-1.3936408
57	0x4014d5ab	2.3255413
58	0x3fc70067	1.5546998
59	0x3f6f3eb0	0.9345503
60	0x3f1316b5	0.57456523
61	0xc017062c	-2.3597517
62	0xc019dadd	-2.4039834
63	0x3e63bffb	0.22241203
64	0x40a7f791	5.2489705
65	0xc00fb190	-2.2452126
66	0xc0046c72	-2.069119
67	0x4013f07b	2.3115528
68	0xbefd221c	-0.49440086
69	0xbf64ca37	-0.89371055
70	0xc0444be5	-3.0671322
71	0x3ffd01b9	1.9766151
72	0x40910004	4.531252
73	0xc0adb7de	-5.4286947
74	0x3f72e856	0.94885767
75	0xc0c2a6c0	-6.082855
76	0x400ba243	2.1817787
77	0xbeacc9b4	-0.33747637
78	0xc041aabc	-3.0260458
79	0x4095b796	4.6786604
80	0x403ea833	2.979016
81	0xc011fba3	-2.2809837
82	0x3fa5575c	1.2917285
83	0x40ff3da9	7.976277
84	0x3f364630	0.7120085
85	0xbfa2aa6f	-1.2708262
86	0x3ecdfd5c	0.4023236
87	0x3f3aa66e	0.729102
88	0xc00384d4	-2.0549822
89	0x3fdf7e5a	1.7460434
90	0xc02377c3	-2.5541847
91	0x409fc2fd	4.9925523
92	0x3f06ee14	0.5270703
93	0x3ff6a412	1.926882
94	0x3f825caf	1.0184535
95	0xbc5a5b00	-0.01332736
96	0x3f9bac32	1.2161925
97	0xc0b6d570	-5.7135544
98	0xc03f6b40	-2.990921
99	0x4045442d	3.0822861
100	0x40c77d8b	6.234075
101	0x40035d58	2.0525723
102	0xbf70d254	-0.94070935
103	0xbf972ec8	-1.1811152
104	0xbf1cb53e	-0.61214054
105	0xbf81859c	-1.0118899
106	0xc00363bb	-2.052962
107	0xc0932976	-4.598811
108	0x3fb67793	1.4255241
109	0x3f9e50bc	1.2368388
110	0x3e7cd5a0	0.24690866
111	0xbd086c40	-0.03330636
112	0x3fe8e1d3	1.8193916
113	0x40b8e33c	5.7777386
114	0x40851ee7	4.1600223
115	0xc07fa328	-3.9943333
116	0xc01e900c	-2.477542
117	0xbf9dcd4f	-1.232828
118	0xc009e9a8	-2.1548862
119	0x3ee2eaac	0.44319665
120	0xbe095c58	-0.13414133
121	0xc081a6d5	-4.051615
122	0x40550896	3.328649
123	0x3f0087a4	0.5020697
124	0xbf2cda01	-0.6752015
125	0xc045a3ea	-3.0881295
126	0xbf1c1dae	-0.6098279
127	0x40098f36	2.149366
128	0x3fb3e2fe	1.4053648
129	0xbe2a4f4c	-0.16631812
130	0x3f227781	0.634636
131	0xbfe01f18	-1.7509489
132	0x3f9c475f	1.2209281
133	0xbfcb2b0f	-1.5872515
134	0xbf46baf0	-0.77628994
135	0xbf8535af	-1.0407008
136	0xbffcf9ab	-1.9763693
137	0xc000e8f3	-2.014218
138	0xc03b1c88	-2.9236164
139	0xbfb3a0d0	-1.4033451
140	0x40014d0a	2.020327
141	0xbf8702db	-1.0547746
142	0xbec67294	-0.3875929
143	0x3fbab84d	1.4587494
144	0xbf425ffc	-0.7592771
145	0x40346eed	2.8192704
146	0x3e9e5d16	0.30930394
147	0x3f29c6a9	0.66318756
148	0xbf4d092a	-0.8009211
149	0x3e0009d2	0.12503746
150	0xc0d539e6	-6.6633177
151	0xc026e947	-2.607988
152	0xbc8a3180	-0.016869307
153	0xc022a4d8	-2.5413113
154	0xbe9c595b	-0.30536923
155	0xc033b76e	-2.8080707
156	0xc0009f3a	-2.0097184
157	0xbfa7b972	-1.3103468
158	0xc077d6e9	-3.872492
159	0xc01e3b60	-2.472374
160	0xc01c6206	-2.4434829
161	0xbfd0bed6	-1.6308239
162	0x3d5a1690	0.053244174
163	0xbeb662fe	-0.356224
164	0x3f7dce02	0.9914247
165	0xc0535953	-3.302327
166	0x400ea80f	2.2290075
167	0xbf9983b4	-1.1993318
168	0xc0260d5d	-2.5945656
169	0x3f82e689	1.0226604
170	0xbfe19776	-1.7624347
171	0xbfdcc3e6	-1.7247283
172	0x3f386194	0.7202389
173	0xc00e93bb	-2.2277668
174	0xbfe66513	-1.7999595
175	0xbff0474f	-1.8771762
176	0x37df0000	2.6583672e-05
177	0xc00e1c25	-2.2204678
178	0xc02968a3	-2.6470115
179	0x3e4f9f78	0.20275676
180	0xc05197ef	-3.2748983
181	0xc019bedf	-2.4022748
182	0xc002025b	-2.0313938
183	0xbf63ff35	-0.8906129
184	0xc09866bd	-4.7625413
185	0x4010d2d3	2.2628677
186	0xc02e229e	-2.7208629
187	0x3f10daee	0.5658406
188	0x3fbc9858	1.4733992
189	0xc018a3be	-2.384994
190	0x404b9cf2	3.1814542
191	0xc056224c	-3.3458433
192	0xbfe23544	-1.7672505
193	0xbee13b04	-0.43990338
194	0x40290dd6	2.6414695
195	0x3fd663f0	1.6749249
196	0xbf54f4de	-0.8318614
197	0x3e9de51b	0.30838856
198	0x3f57e3ca	0.84331954
199	0xbb80c200	-0.0039293766
200	0x3ef4864d	0.47758713
201	0x3e882182	0.26588064
202	0xc03f5218	-2.9893856
203	0x406bc946	3.6841598
204	0xbf4d99aa	-0.803126
205	0xc05e3de6	-3.472528
206	0x40c38a13	6.110605
207	0xc00a7b20	-2.163765
208	0x3e6a5a93	0.22886114
209	0xbfaf5a4a	-1.3699429
210	0x40777f7c	3.867156
211	0xbf8f9e56	-1.1220195
212	0xbfbaa70e	-1.4582231
213	0x3fc2884e	1.5197847
214	0xbec892d0	-0.3917451
215	0x3f5b8a35	0.8575776
216	0xc02a3014	-2.6591845
217	0x3f0efdc3	0.5585596
218	0xbf940fcc	-1.1567321
219	0x3f1319ed	0.57461435
220	0x3fc0fdd8	1.5077467
221	0xbea4e068	-0.32202458
222	0x3f3620be	0.7114371
223	0x3f876d88	1.0580301
224	0xc0757680	-3.8353577
225	0x3f55aba6	0.8346504
226	0x4039c63a	2.9027238
227	0xbe4a3fe0	-0.19750929
228	0x40225b81	2.536835
229	0xbf9d1bf4	-1.2274156
230	0xbd34c270	-0.044130743
231	0xbff2d3bd	-1.8970867
232	0xbe8600fa	-0.2617262
233	0x3ffe4e3f	1.9867629
234	0xbfb4d9cf	-1.412897
235	0x4075bb43	3.8395545
236	0xbf9532d6	-1.1656139
237	0x3f4ec568	0.8076997
238	0xbee2f170	-0.44324827
239	0x4026ca57	2.6060998
240	0x3f0d3c67	0.5517029
241	0xbdaf00d6	-0.08545081
242	0x4005fc10	2.0935097
243	0x408ef862	4.46782
244	0x400dfc40	2.218521
245	0x4043a37e	3.0568538
246	0x400a66d4	2.1625261
247	0xbfe709b7	-1.804984
248	0x404f52f8	3.239439
249	0xbfc2915c	-1.520061
250	0x40077fc0	2.1171722
251	0x40a479a8	5.1398506
252	0xc000becc	-2.0116453
253	0xbfc70034	-1.5546937
254	0xbf2eea15	-0.6832593
255	0x408cc9de	4.399642

0.bias f4 [64]
0	0x407f0a28	3.984995
1	0xbf542b1e	-0.8287829
2	0x3e56b0a0	0.20965815
3	0x403deedc	2.9677038
4	0xbfb2a0e1	-1.3955346
5	0xbe053ffc	-0.1301269
6	0x3f285878	0.6575999
7	0xbffacea1	-1.9594308
8	0xbf95f780	-1.1716156
9	0x4018e0a8	2.388712
10	0xbf8de2e2	-1.1084864
11	0xbfe2b920	-1.7712746
12	0x4011bdbc	2.2772055
13	0xbe9f6b2c	-0.31136453
14	0x3fd7fa32	1.6873229
15	0x404017c2	3.00145
16	0x3f2f3748	0.6844373
17	0xc0043904	-2.06598
18	0xc093c5ce	-4.617896
19	0x40532ff0	3.2998009
20	0xbf266f04	-0.65013146
21	0x3eb40e8f	0.35167357
22	0x40155a63	2.3336418
23	0x3f2cc6f2	0.67491066
24	0x3f86b073	1.0522598
25	0xc0600f1a	-3.5009217
26	0xc0b377ad	-5.608359
27	0x3c310180	0.01080358
28	0x3ffd118a	1.9770977
29	0xbe9f858e	-0.31156582
30	0x408639a5	4.1945367
31	0x3dce7048	0.1008001
32	0xbfe141aa	-1.7598164
33	0xc09e7f09	-4.953007
34	0x3fe20212	1.7656882
35	0x4085d829	4.1826367
36	0x3fb65b63	1.4246639
37	0x3f7ffec2	0.99998105
38	0xc01b1936	-2.4234138
39	0xbfc6a95c	-1.5520434
40	0x3e8e5bb0	0.27804327
41	0xc06d630e	-3.7091708
42	0xc0099a41	-2.15004
43	0x403c2e5e	2.94033
44	0x3f9c6e34	1.2221131
45	0x3f93980a	1.1530774
46	0x3f27a6bd	0.654888
47	0xc05e7f08	-3.4765034
48	0xc065fa89	-3.5934165
49	0x3fa5d2c6	1.2954948
50	0x40180078	2.3750286
51	0xbfd5738a	-1.6675885
52	0xbf2b6368	-0.66948557
53	0xc091ecf0	-4.560173
54	0x3fdd1dbf	1.7274703
55	0xbf55a844	-0.8345988
56	0xbfed9172	-1.8560011
57	0x3f59bd77	0.85054725
58	0x405cc3da	3.4494538
59	0xbf2046e3	-0.62608165
60	0x3edba568	0.42899632
61	0x40678514	3.6174974
62	0x3f255823	0.6458761
63	0x3fbf050f	1.4923419

2.weight f4 [64, 64]
0	0x3eb9a3f7	0.36257908
1	0x3edc18ef	0.42987773
2	0xbfe79646	-1.8092735
3	0xbf7f721c	-0.9978349
4	0x3c951f00	0.018203259
5	0x3de68b20	0.11257005
6	0xbfda356a	-1.7047551
7	0xc08be770	-4.3720016
8	0x3f6f1293	0.93387717
9	0xc09eac5a	-4.958539
10	0xbfdc8c3a	-1.7230294
11	0x408cf9c7	4.4054904
12	0x3dcb3710	0.09922612
13	0xc092b39b	-4.5844245
14	0x3d52c160	0.051453948
15	0xc03808a4	-2.8755274
16	0xc02897bc	-2.6342611
17	0xbf7ec366	-0.99516904
18	0xbdb2d958	-0.08732861
19	0xc044edf0	-3.0770226
20	0x400009c2	2.0005956
21	0xbf207437	-0.6267733
22	0xbec36df7	-0.38169834
23	0x3f9cf4a8	1.2262163
24	0x40169088	2.3525715
25	0xbe3afaf0	-0.18259788
26	0xc05e7e35	-3.476453
27	0xc0105322	-2.255074
28	0x403cc72c	2.9496565
29	0xbf65cc42	-0.897648
30	0xc0c3e033	-6.121118
31	0x3ed12dfb	0.40855393
32	0xc08c069c	-4.375807
33	0x3fa6ce19	1.3031646
34	0x4038253a	2.8772721
35	0x403ef9a7	2.9839876
36	0xbeac79a5	-0.33686557
37	0x402caa58	2.697897
38	0x3fa9043b	1.3204416
39	0x3d96b330	0.07358396
40	0x40279e76	2.6190467
41	0x40285bd4	2.6306047
42	0x4070a247	3.7599046
43	0xc00b6617	-2.178106
44	0x3fcf1f01	1.6181337
45	0x40a2a4e8	5.08263
46	0x3f11756e	0.5681981
47	0x405e1578	3.4700603
48	0x3dd4ad30	0.103845954
49	0xbfadb482	-1.3570712
50	0xc0427848	-3.0385914
51	0xbf82d835	-1.0222231
52	0x40043bb1	2.0661433
53	0x3c0eabc0	0.008707941
54	0x408d206f	4.410209
55	0xc00db9d1	-2.2144663
56	0x40654c46	3.5827804
57	0xc01b8e9e	-2.4305797
58	0xc024ad40	-2.5730743
59	0xbf1c18fe	-0.60975635
60	0xbf9fc779	-1.2482749
61	0x40589ac2	3.3844457
62	0x3f202b34	0.6256592
63	0xbf4fdc80	-0.8119583
64	0x3f5013da	0.8128029
65	0x3e8ccdaa	0.2750066
66	0xbfacde91	-1.3505422
67	0xbfcd43f7	-1.6036366
68	0xc083f3d4	-4.123514
69	0xbf0cadf3	-0.54952925
70	0x3f67e214	0.9057934
71	0xc05e5697	-3.474035
72	0x3fba4ed1	1.4555303
73	0xbdbe153e	-0.092813954
74	0x40bbecab	5.87264
75	0xc06b6b85	-3.6784375
76	0x3d13cc20	0.03608334
77	0xc0549135	-3.3213627
78	0x3fe6a08b	1.8017744
79	0xc04915eb	-3.1419628
80	0x4041b234	3.0265017
81	0xbff311af	-1.8989772
82	0x3d897368	0.06711465
83	0xbebfd776	-0.3746907
84	0xc005d4a1	-2.0911028
85	0x4054beea	3.3241525
86	0x3f0113c8	0.5042081
87	0x4014d9d9	2.3257964
88	0x3ec18c54	0.37802374
89	0xbfca4268	-1.5801516
90	0x3f8083fd	1.004028
91	0x407a2a7d	3.9088433
92	0x401a8fd7	2.4150293
93	0x40695b8f	3.6462133
94	0x4098f496	4.7798567
95	0x3e8df622	0.27726847
96	0x3fae5e4c	1.3622527
97	0x3f8371a8	1.026906
98	0x3fb00bc6	1.3753593
99	0xbfe169dc	-1.7610431
100	0xc004a2d1	-2.0724375
101	0xc0714f68	-3.7704716
102	0x3fa75871	1.3073865
103	0x3fc5f044	1.5463948
104	0x4021e683	2.5296943
105	0xc094f20a	-4.654546
106	0x3f075077	0.52857155
107	0xc08a4105	-4.320437
108	0x3cdaba90	0.026700288
109	0x3fb701ff	1.4297484
110	0x40ac6744	5.3876057
111	0xc0b949a6	-5.7902403
112	0x40672c0e	3.612064
113	0xc06cfa72	-3.702786
114	0x3eb96769	0.36211708
115	0x3f556854	0.8336232
116	0x3ee11cbc	0.43967235
117	0xc0218e9b	-2.524329
118	0x3eec6aec	0.46175325
119	0x40be3ebd	5.9451585
120	0xbf371f77	-0.71532387
121	0x3f50ba48	0.8153424
122	0xbf86feb7	-1.0546483
123	0x3ffb1fc8	1.9619074
124	0xbe9bb985	-0.30414978
125	0xbf8bd94c	-1.0925689
126	0x3f37604d	0.7163132
127	0xbf3a5351	-0.7278338
128	0xbf9950d8	-1.1977797
129	0x3fe0928f	1.7544726
130	0x3f651a0c	0.8949287
131	0xc048848a	-3.1330895
132	0xc03b9d94	-2.9314928
133	0xc0011f9c	-2.0175543
134	0xbfdf39ed	-1.7439553
135	0x4019f2a2	2.4054341
136	0x3e482f46	0.19549283
137	0x3fc3f60f	1.5309466
138	0xc043228e	-3.048984
139	0xc00f2a16	-2.2369437
140	0xbfb5c102	-1.4199526
141	0x40a3ede1	5.122788
142	0xbe0906b0	-0.13381457
143	0x402bb992	2.6832013
144	0x4042c519	3.04328
145	0xc03e952c	-2.9778547
146	0x3f635d06	0.8881382
147	0x3f5fb308	0.87382555
148	0xc077c703	-3.8715217
149	0xc03afadb	-2.921561
150	0x3ec02137	0.3752534
151	0x3e05afa9	0.1305529
152	0x4081911a	4.0489626
153	0xbfb2d3c6	-1.3970878
154	0xc093d228	-4.619404
155	0x3e241a5c	0.1602568
156	0xc07e0644	-3.9691324
157	0x4016e0b4	2.3574648
158	0x400b5296	2.1769156
159	0x3f7088c3	0.9395868
160	0xbfc37e67	-1.527295
161	0xbf72b1f4	-0.94802785
162	0x3fb55f12	1.4169638
163	0x3fbfaa68	1.4973879
164	0x408c8a1d	4.3918595
165	0xbf6d8e72	-0.9279548
166	0xc0ed3940	-7.4132385
167	0xbf3f5e24	-0.7475302
168	0x3b9b4cdc	0.004739387
169	0x402e3f01	2.7225955
170	0x407666e1	3.8500292
171	0x3e533ab8	0.20627868
172	0x3f864506	1.0489814
173	0x3f08c574	0.5342629
174	0x3fc386d2	1.5275519
175	0xbf518a54	-0.81851697
176	0x402d0270	2.7032738
177	0x3fbc3a1e	1.4705236
178	0x40a7e405	5.2465844
179	0x40353315	2.8312428
180	0xbfbe4bd8	-1.4866896
181	0x3e13393c	0.14377302
182	0x4050ed6d	3.2644913
183	0xc0001d84	-2.0018015
184	0x406ee263	3.7325675
185	0x405dfaae	3.4684253
186	0x3fe52491	1.7901784
187	0x3e3f0214	0.18653136
188	0xc098d7ca	-4.7763414
189	0x3f223ab7	0.6337084
190	0x401dda84	2.4664621
191	0x3ed49f63	0.41527852
192	0x401e97a4	2.4780054
193	0xc0585658	-3.38027
194	0xbca30940	-0.019901872
195	0xc012f282	-2.2960515
196	0xc0268264	-2.6017084
197	0x3e3a2748	0.18179047
198	0x3facaa98	1.3489561
199	0xc0984090	-4.757881
200	0x40203c0f	2.5036657
201	0xc02e1f78	-2.7206707
202	0x3eb3a098	0.3508346
203	0xc08ca882	-4.39557
204	0x3fb1d254	1.3892312
205	0xbf83038e	-1.023546
206	0xc06ab03c	-3.6670065
207	0x40905167	4.509937
208	0x4007e74c	2.1234922
209	0x40116fe6	2.2724547
210	0xbf859f7f	-1.0439299
211	0x3f874418	1.0567656
212	0x402b8750	2.6801338
213	0xc0133eef	-2.3007162
214	0xbf01697e	-0.50551593
215	0xc0573423	-3.3625572
216	0x3fd8149a	1.6881287
217	0x4078e546	3.8889937
218	0x40b7256a	5.723317
219	0x4081f134	4.0606937
220	0x3e58eec8	0.21184838
221	0xbfdb9c46	-1.7157066
222	0x4032c84c	2.7934752
223	0xbfd7edfa	-1.68695
224	0x3d630c20	0.055431485
225	0xc0737048	-3.803728
226	0xc027ffb0	-2.624981
227	0xbf76de58	-0.9643302
228	0xc04d775e	-3.2104106
229	0x3fdd4004	1.7285161
230	0xbda98c6c	-0.082787365
231	0x3ff0d476	1.8814838
232	0x3fec9f22	1.8486063
233	0x3f0555f0	0.52084255
234	0xbedd7754	-0.43255103
235	0xbfe50f75	-1.7895342
236	0xc02a7b61	-2.6637805
237	0x40d40b9b	6.6264167
238	0xbffc97cd	-1.9733826
239	0x3f1e64f2	0.6187278
240	0x400ba95a	2.1822114
241	0xbd94e7f8	-0.07270807
242	0x4014eaba	2.3268266
243	0xc07c52d4	-3.9425554
244	0x3f25f19e	0.64821804
245	0x3f840023	1.0312542
246	0xbfdc7a2b	-1.7224783
247	0xbf6892a8	-0.9084878
248	0xc0b9d1b2	-5.8068476
249	0xc059132e	-3.3917956
250	0xc051b6d1	-3.2767832
251	0x3f12c9c6	0.5733913
252	0x3f519f24	0.81883454
253	0xbfd650e4	-1.6743436
254	0x3f65aa7a	0.8971325
255	0x4087d330	4.2445297

2.bias f4 [64]
0	0xbff082f2	-1.8789961
1	0xbea7d9b5	-0.32783285
2	0xbf6fb2cc	-0.936322
3	0xc00ac94c	-2.1685362
4	0x403646f7	2.8480814
5	0xc02908ad	-2.6411545
6	0x3d214610	0.039373457
7	0xbf7fcd06	-0.99922216
8	0xc0117868	-2.272974
9	0x401546ac	2.3324385
10	0xbf0ea0fc	-0.5571439
11	0x3f738926	0.95131147
12	0xc086c15e	-4.2111044
13	0x40d9d30c	6.8070126
14	0x3f6a4772	0.91515267
15	0x3e0cf17c	0.13763994
16	0xbfeaf33b	-1.8355478
17	0xbfda0406	-1.7032478
18	0x400f3d55	2.2381184
19	0x40169355	2.3527424
20	0x3fdf65fc	1.7452998
21	0x3ff2b488	1.8961344
22	0xbf133d1a	-0.5751511
23	0x404264ae	3.037395
24	0xbeb34ae2	-0.3501807
25	0x40423682	3.034577
26	0x4024ab8a	2.57297
27	0x40a31d68	5.0973396
28	0x3fc8b6af	1.5680751
29	0x3f94ea04	1.1633916
30	0x4057047b	3.3596485
31	0x3f46a562	0.77596104
32	0xc04044fa	-3.00421
33	0x40bad018	5.837902
34	0xbcae5dc0	-0.021284938
35	0xbfc2caba	-1.5218117
36	0x3f6babd6	0.92059076
37	0x3f7d1627	0.98861927
38	0x3ff306f0	1.8986492
39	0x403c0827	2.9379976
40	0x405e1ed3	3.4706314
41	0x3fcad39a	1.5845826
42	0xbe636db4	-0.22209817
43	0xbfd04d02	-1.6273501
44	0xbf9d141e	-1.2271764
45	0xc0295fb6	-2.6464667
46	0x3fee53ee	1.8619363
47	0xbff95062	-1.9477656
48	0x3ef73b68	0.4828751
49	0x3f9a5bde	1.2059286
50	0xc031f5c9	-2.7806265
51	0x3f7067a8	0.93908167
52	0xc057c6ca	-3.3715081
53	0xbff55952	-1.9167883
54	0xbf8ded31	-1.108801
55	0x3f1e4d71	0.61836916
56	0x40800c65	4.001513
57	0x406a714a	3.6631646
58	0xc022fd8e	-2.5467257
59	0x3d716610	0.058935225
60	0xc046a64a	-3.1038995
61	0xc0011f62	-2.0175405
62	0x407820eb	3.8770092
63	0x40b41173	5.62713

4.weight f4 [5, 64]
0	0xbedd69f4	-0.43244898
1	0x408482b8	4.140957
2	0xc0012992	-2.0181623
3	0x4096cda3	4.712602
4	0xbfe4f9ee	-1.7888772
5	0xbf459b34	-0.77189946
6	0xbf31f285	-0.6951068
7	0xbfe829fb	-1.8137811
8	0xbfdf89d7	-1.746394
9	0xbed1447c	-0.40872562
10	0xc090987d	-4.5186143
11	0x40974bc2	4.727998
12	0xbecb0310	-0.39650774
13	0xc02b2759	-2.6742766
14	0x3f946f57	1.1596478
15	0xbf72ab79	-0.94792897
16	0x3f102b99	0.56316525
17	0x3f8c505d	1.0962025
18	0xc089a43a	-4.301297
19	0xc016292c	-2.346263
20	0x4071e049	3.7793143
21	0x3faa286a	1.3293583
22	0xbfbcedec	-1.4760108
23	0xbf5f1f09	-0.8715673
24	0xc03ab0a8	-2.9170322
25	0x408b4f10	4.353401
26	0xbfc25618	-1.5182524
27	0x40184906	2.379457
28	0xbe1cf414	-0.15327483
29	0xbf3b9b9e	-0.7328433
30	0xc031f058	-2.7802944
31	0xbf86c015	-1.0527369
32	0xc0481502	-3.1262822
33	0x4058aa04	3.385377
34	0xbf946cef	-1.1595744
35	0x3fa3a5b8	1.2784948
36	0xc0d3caae	-6.618491
37	0xc0931881	-4.596741
38	0x3ebf0eb4	0.37315905
39	0xbf8cc4f0	-1.09976
40	0x400c04c3	2.1877906
41	0xc039bd32	-2.9021726
42	0xbfb1ef45	-1.3901144
43	0x3fc1c762	1.5138972
44	0xbf8da2d8	-1.1065321
45	0xc003fe62	-2.0624013
46	0x3fe1da2c	1.7644706
47	0xc000648a	-2.0061364
48	0x40b5b996	5.6789045
49	0x3fcfb37a	1.6226647
50	0xbeee00bf	-0.46484944
51	0xbe029e06	-0.12755594
52	0xbf81a82a	-1.0129445
53	0x4027915a	2.6182466
54	0xbe8a41ca	-0.27003318
55	0xbfb5474a	-1.4162381
56	0xc0302c67	-2.75271
57	0x3f92e8ed	1.1477333
58	0xbe104648	-0.1408931
59	0xbe1cc674	-0.15310079
60	0x404349a2	3.0513692
61	0xc001b8a3	-2.0268943
62	0x3f71c70a	0.94444335
63	0xbfe92edf	-1.8217429
64	0x3f917697	1.1364316
65	0x404e5c4c	3.2243834
66	0xc06d23f5	-3.7053196
67	0x3feceec1	1.8510362
68	0xbfa365ea	-1.2765477
69	0xc0b47ac4	-5.639986
70	0xbf2a2574	-0.664634
71	0xc010856e	-2.258144
72	0x3f8c4847	1.0959557
73	0x3de82488	0.11335093
74	0x3fa1b7e6	1.2634246
75	0xbfffb810	-1.9978046
76	0x3f8f572a	1.1198475
77	0xbe908c4c	-0.28232038
78	0xbf68e90c	-0.909806
79	0xbff036f3	-1.8766769
80	0x400c6630	2.193737
81	0x3ffdab6e	1.9817941
82	0x401970d7	2.3975122
83	0xbe89135a	-0.26772577
84	0x40a6b414	5.209482
85	0x401e79b4	2.4761782
86	0x3fa574c0	1.2926254
87	0x4053f303	3.3117073
88	0x3d6bed10	0.057599127
89	0x3f5d3410	0.86407566
90	0xbebdb4c4	-0.37051976
91	0xc06685a5	-3.601907
92	0x3f8c7526	1.0973251
93	0x3ff82e5b	1.9389147
94	0xbeb6a662	-0.35673815
95	0x3f4ab448	0.7918134
96	0x3fe33916	1.7751796
97	0xc0325834	-2.7866335
98	0xbf86575f	-1.0495414
99	0x3f8136d4	1.0094857
100	0x40307428	2.7570896
101	0x3e7de308	0.24793637
102	0xc012ad49	-2.2918265
103	0x3ea331c8	0.31873918
104	0xbdea8fc0	-0.114531994
105	0x3fbb929c	1.4654117
106	0xbda1a578	-0.07892889
107	0x3e30a239	0.17249383
108	0x3ff6ce8d	1.9281784
109	0xbffac212	-1.9590476
110	0xbd2d84a0	-0.04236281
111	0x408a4254	4.3205967
112	0xbdbc8c82	-0.09206487
113	0x406e04e7	3.7190492
114	0x4086a90f	4.208137
115	0x3f96f398	1.1793089
116	0x3fb2fb0d	1.3982865
117	0x402c3faa	2.6913857
118	0x3ec67a78	0.3876531
119	0x407065b2	3.756207
120	0x40887192	4.2638636
121	0xc05d81b8	-3.4610424
122	0xbed3f488	-0.413975
123	0xc017e5ce	-2.3734012
124	0x400e9245	2.2276776
125	0x3f61d3e3	0.8821394
126	0x3f7e01f7	0.9922175
127	0x3c95bd40	0.018278718
128	0x3f9f7872	1.2458632
129	0x40946062	4.6367655
130	0x3ecfc089	0.4057658
131	0x3f9f0dd2	1.2426093
132	0xbf8133f5	-1.0093981
133	0x4039a595	2.9007313
134	0xbfda73d4	-1.7066598
135	0x3f6a0bbe	0.9142417
136	0x404a4121	3.1602252
137	0xc082bc62	-4.085496
138	0x3f5134d8	0.8172126
139	0xbe4363f5	-0.190811
140	0x4034d0be	2.8252406
141	0x4043ea52	3.0611768
142	0xc1008012	-8.031267
143	0x3fb20d36	1.3910282
144	0xbfb4a846	-1.4113853
145	0x3fce60fa	1.6123345
146	0x3e5d0d98	0.21587217
147	0x3e290368	0.16505206
148	0x403df38a	2.9679894
149	0xc06e4292	-3.7228131
150	0xbff430be	-1.9077375
151	0xc01e924d	-2.4776795
152	0x403f0198	2.9844723
153	0xbe7b9864	-0.24569851
154	0x40221c5c	2.532981
155	0x408274dd	4.0767655
156	0xc0696ffc	-3.64746
157	0x3fd6beec	1.6777015
158	0x3fe3a200	1.7783813
159	0xbe68e34a	-0.22742954
160	0x3ef2172e	0.4728331
161	0xc05a6b29	-3.4127905
162	0x3f94e218	1.1631498
163	0x3f26e00e	0.6518563
164	0x4021e206	2.5294204
165	0xbfd02844	-1.6262288
166	0x40a9ebc6	5.310031
167	0xc093387e	-4.600646
168	0x402b9075	2.680692
169	0x409551f3	4.6662536
170	0x40101709	2.251406
171	0xc00beb86	-2.1862502
172	0x3fd90c90	1.6956959
173	0xbf6a0a68	-0.9142213
174	0xbf8fb599	-1.1227294
175	0xc040f1eb	-3.0147655
176	0xc0924eb3	-4.572107
177	0x3ef662be	0.4812221
178	0xbf2468ca	-0.64222395
179	0xc0104c7c	-2.2546682
180	0xc04a6e91	-3.1629984
181	0x40688142	3.6328893
182	0xc048dfa9	-3.1386511
183	0xc0c8e586	-6.278018
184	0x3ed6e650	0.4197259
185	0xbf8f938a	-1.12169
186	0xc08546ec	-4.1649075
187	0x3f818c5e	1.0120962
188	0x4069c98b	3.6529262
189	0xc021f700	-2.5307007
190	0xbdffe300	-0.12494469
191	0xbfba786b	-1.4567999
192	0x3f065ddf	0.52486986
193	0x3c9e5e90	0.0193322
194	0xc04b9cb2	-3.181439
195	0xbe1bbd20	-0.15208864
196	0x401df00a	2.4677758
197	0x4089c038	4.304714
198	0x40b0a725	5.5204034
199	0x3fbbd119	1.4673187
200	0x401b0360	2.422081
201	0xc00c76dc	-2.1947546
202	0xc051b379	-3.2765791
203	0xc091b771	-4.5536427
204	0x3fe530c0	1.7905502
205	0xc0a4a9eb	-5.145742
206	0xc0185827	-2.3803804
207	0x4038d17c	2.887786
208	0x40c10b74	6.032648
209	0x3efc2004	0.49243176
210	0x3fcb6c62	1.5892451
211	0x3fc05830	1.5026913
212	0xbf74b044	-0.9558146
213	0x3f3005b8	0.68758726
214	0xc085e996	-4.184764
215	0x40a1493d	5.04019
216	0xc04b6b1b	-3.1784122
217	0xc048acee	-3.1355548
218	0x3fb86f8a	1.4409039
219	0xbf3e0459	-0.74225384
220	0x3fbaf50c	1.4606032
221	0x3f55d62d	0.8352993
222	0x400a3b65	2.1598752
223	0x3e2d01f4	0.16895276
224	0xc01c7b86	-2.4450393
225	0x4019bb82	2.4020696
226	0x3f3ddf18	0.7416854
227	0x40137f32	2.3046384
228	0xc08c0dd1	-4.3766866
229	0x407cb7ce	3.9487185
230	0x3f059dfc	0.5219419
231	0x3f27c3bd	0.6553305
232	0xc0d0921f	-6.517837
233	0xc07e2340	-3.9709015
234	0xc050b126	-3.2608123
235	0xc00ee72a	-2.2328591
236	0x401062b6	2.2560248
237	0x40434082	3.0508122
238	0x3f0d5028	0.55200434
239	0xc022a7c3	-2.5414894
240	0x3f9711dc	1.1802325
241	0x3f9ede5c	1.2411609
242	0xbefa0d84	-0.48838437
243	0xbf590a9f	-0.8478183
244	0x40234d56	2.5515952
245	0xc0b71767	-5.7216067
246	0xbfce7556	-1.6129558
247	0xbfb8a36d	-1.4424874
248	0x3da65784	0.08122161
249	0xbfac6d8c	-1.3470931
250	0xc0b35fa0	-5.605423
251	0x3f498082	0.7871171
252	0x40207b6f	2.5075338
253	0xc028855e	-2.63314
254	0xbed879ff	-0.42280576
255	0xc085bf52	-4.1796045

4.bias f4 [5]
0	0x3f4110b7	0.7541613
1	0xc0161a1e	-2.345344
2	0xbeee96a2	-0.465993
3	0xc035320a	-2.8311791
4	0xbf379848	-0.7171674
