demo/experiments/genetic_algorithm/ga_experiment_2021_02_12_160407/problem_58.model (torch, 26149 bytes, 6 tensors)

0.weight f4 [64, 22]
000000 95 3d 3f c0 22 db 3c 3f fd d8 2e 40 88 bb 1a 40
       -2.9881337 0.7377187 2.731994 2.417696
000010 bf 7f 64 3f b7 40 1a c0 10 48 20 40 00 53 c6 be
       0.89257425 -2.4101999 2.5043983 -0.387352
000020 6f 22 c0 3f 27 49 09 bf 26 ab d8 bf 3d c6 06 40
       1.5010508 -0.53627247 -1.692723 2.1058495
000030 d4 53 be bf 2e 53 28 40 d4 40 75 3f 80 33 ca 3e
       -1.4869332 2.630077 0.95802045 0.39492416
000040 a4 f8 33 40 77 96 c1 c0 3f 02 39 3f e6 b4 bb bf
       2.8120508 -6.0496173 0.7226905 -1.4664581
000050 d3 93 88 bf 14 88 a8 c0 61 6b 91 3e 31 63 80 40
       -1.0670112 -5.266611 0.28402236 4.0121083
000060 3c c3 41 40 d7 20 bb bf 7b 4a 84 40 00 0c e2 bf
       3.0275412 -1.4619397 4.134092 -1.7659912
000070 6a af 8a 40 28 11 9b c0 30 4d 0a 3f a1 9e bd 40
       4.333913 -4.8458443 0.5402403 5.925614
000080 03 64 d1 bf c2 a7 11 c0 4f f4 d3 bf 50 c0 59 3f
       -1.6358646 -2.2758641 -1.6558932 0.8505907
000090 20 16 de bf 7e 8d ab bf 44 f0 9c 40 e0 15 d6 bf
       -1.7350502 -1.3402555 4.9043293 -1.6725426
0000a0 be 77 b2 3e 4c 55 26 c0 26 9e 00 bf 43 60 c0 bf
       0.3485698 -2.598956 -0.50241315 -1.5029377
0000b0 8a 44 bb bf 9e da 51 c0 70 e0 a0 3f cb 5f 88 c0
       -1.4630291 -3.2789683 1.2568493 -4.2616935
0000c0 5e fc 8d bf da 72 9c 40 fa 3e fc 40 78 b4 f4 c0
       -1.1092641 4.88902 7.8826876 -7.64703
0000d0 ac bd 72 3f d2 5a a8 3e 8e dc 7e 3f a4 81 d6 be
       0.94820666 0.3288179 0.9955529 -0.41895783
0000e0 ca ac af 40 7a b5 e2 bf c8 a7 46 c0 65 3c b9 3f
       5.4898424 -1.7711632 -3.1039906 1.4471556
0000f0 0d 1f ac 3f 1c c9 45 bf b7 92 b0 3f 98 e1 6b 3e
       1.3446976 -0.77259994 1.3794774 0.23035276
000100 fc c7 1d 40 f2 57 5d 40 b0 9b 34 3e 34 5c 73 3e
       2.465331 3.4584928 0.17637515 0.23765641
000110 a0 26 a5 3f be a2 df bf 4a 00 2a 40 01 d1 f4 3f
       1.2902412 -1.747154 2.6562676 1.9126283
000120 77 d6 9a c0 38 6e 28 3e 4d e3 3e 3f 0e 6c 65 3f
       -4.83868 0.16448295 0.74565583 0.89618003
000130 d8 69 d7 3f 3b ce e4 bf 59 3e 7c c0 a6 f0 d9 bf
       1.6829176 -1.7875437 -3.9413054 -1.7026565
000140 aa 94 ba bf 08 73 e5 be 31 3f 47 bf d0 7a 63 c0
       -1.4576619 -0.44814324 -0.778308 -3.5543709
000150 a0 26 bd 3f 0f 98 4b c0 ef 73 74 3f 47 40 74 3f
       1.4777412 -3.181156 0.954894 0.9541058
000160 50 70 75 bf 35 5a a6 bf d9 a1 b9 be a5 6a 86 40
       -0.958745 -1.2996279 -0.36256292 4.200518
000170 3a e7 27 40 57 c2 2b c0 ac af 20 40 02 73 2a 3f
       2.623488 -2.6837366 2.5107222 0.6658174
000180 4b 54 b9 40 4e 58 a2 c0 8a fe 7d 3f 37 bc 52 c0
       5.7915397 -5.0732794 0.9921652 -3.2927377
000190 2e f8 ae bf 10 d9 66 40 04 97 6c bf 31 67 f4 40
       -1.3669488 3.6069984 -0.9241793 7.6375966
0001a0 9c 02 14 be 0c 89 e7 3f 62 84 14 c0 c5 b5 8e 3f
       -0.1445412 1.8088698 -2.32058 1.1149222
0001b0 c0 1b 82 40 ae a8 e3 be 1e 79 26 c0 59 7b 82 c0
       4.0658875 -0.4446463 -2.6011424 -4.077557
0001c0 32 8a 12 3f 63 e0 cb bf 4f 60 5d 40 e6 07 80 3f
       0.5724212 -1.5927852 3.4590032 1.000241
0001d0 c4 86 76 3f 93 88 a7 3f 89 3b 96 40 c2 d9 bd bf
       0.96299386 1.3088554 4.6947675 -1.483208
0001e0 a4 6a 73 3f 7f e7 88 40 f4 dc 97 bf ac 85 f5 bf
       0.95084596 4.278259 -1.1864305 -1.9181418
0001f0 95 0b 8e 3f 15 9e 94 c0 94 49 ec 3e af 99 26 c0
       1.1097285 -4.644297 0.46149886 -2.60313
000200 4f 22 fb bf 8a 45 7b be 72 a3 ac 3f f9 90 92 40
       -1.9619845 -0.24538246 1.348738 4.580197
000210 eb 0d fe bf 87 55 a1 3f 7c f3 5b c0 7e 79 70 40
       -1.9847997 1.2604226 -3.436736 3.7574153
000220 7e bc c1 3f 12 e7 c5 bf 70 57 24 3f 94 82 0d be
       1.5135648 -1.5461142 0.6419592 -0.13819343
000230 55 72 67 40 1c 77 9f bf 54 62 28 bf 92 c9 d2 3e
       3.6163533 -1.2458224 -0.65775037 0.4116941
000240 9d db 89 40 3e f3 15 40 2b 88 b4 3f af a5 59 40
       4.3080583 2.3429713 1.4104055 3.4007375
000250 44 02 db c0 93 98 9d 3f bf 83 22 bf 7f 0e 6d 40
       -6.8440266 1.2312187 -0.6348228 3.7040098
000260 64 b1 e8 3e a7 d3 37 40 b9 d4 74 c0 ad d7 a8 bf
       0.45447838 2.8722932 -3.8254836 -1.3190819
000270 a2 30 ad bf b9 42 0f c0 1a b1 13 40 39 c2 0c 3f
       -1.3530467 -2.2384474 2.3076844 0.5498386
000280 22 59 8a bf 45 8a 2f c0 c9 46 74 c0 b0 e1 f6 3d
       -1.0808451 -2.7428143 -3.8168204 0.12054765
000290 0f e5 ce bf 12 91 bd 3f 0e e7 12 c0 9e 9c 4e bf
       -1.6163653 1.4809897 -2.2953525 -0.8070773
0002a0 38 94 21 40 0a d1 a7 3d 91 7d e0 bf 70 f4 09 c0
       2.5246716 0.08194168 -1.753832 -2.1555443
0002b0 f0 9b 00 40 e5 80 40 bf a4 0b e4 3f 6c a2 af be
       2.0095177 -0.7519668 1.7816052 -0.34303606
0002c0 97 c6 ed 3f 30 f2 c2 bf fa f3 9b c0 63 de fa be
       1.857623 -1.523016 -4.8735323 -0.48997793
0002d0 8d 5d 2d c0 7a 55 3f 3f f7 cc 57 c0 92 47 d1 3e
       -2.708835 0.747398 -3.371885 0.40874916
0002e0 93 84 21 bf d6 68 9c be fa d7 08 40 87 59 23 c0
       -0.6309292 -0.30548733 2.1381822 -2.5523393
0002f0 14 d3 6b 3f 1a 08 58 bf 78 7f cb 3f e6 cf 44 40
       0.92118955 -0.8438736 1.5898275 3.075189
000300 0a 5e fc 40 6f 59 f6 be 40 c4 99 bf d4 ea 24 bf
       7.8864794 -0.48115107 -1.2013016 -0.6442082
000310 9b 92 1c 40 d1 32 65 40 21 6e 05 bf 40 62 94 bc
       2.446448 3.5812266 -0.5212117 -0.018113256
000320 20 f7 eb bd e8 ef 09 c0 c3 86 81 c0 a8 17 fa bf
       -0.11521745 -2.1552677 -4.0477004 -1.9538469
000330 10 24 45 40 3f 39 0a c0 fa 51 70 bf e6 4a 88 40
       3.080326 -2.159744 -0.93875086 4.259143
000340 1a 5e 8a 3f 07 c4 20 c0 8a 00 1f 3f fe f1 20 c0
       1.0809968 -2.5119646 0.621102 -2.51477
000350 7c 72 1e bf 76 9e 9b c0 ba 61 d2 be c4 a5 05 40
       -0.6189344 -4.8630934 -0.41090184 2.0882425
000360 b0 08 8e c0 0e f9 f4 bf 25 7c 15 40 70 3e 8d 40
       -4.4385605 -1.9138505 2.3357022 4.413872
000370 30 f3 48 c0 56 05 6a bf 23 54 89 bf 67 b4 0a 40
       -3.139843 -0.9141439 -1.0728801 2.167261
000380 51 35 d6 3f a2 80 8f bf 48 f9 cd be 73 99 83 bf
       1.6735021 -1.1211131 -0.4022925 -1.0281204
000390 d4 9c 99 c0 34 de 7a 3e e4 63 21 bf 5e ab 92 bf
       -4.800394 0.24498826 -0.63043046 -1.1458547
0003a0 10 74 de 3f 78 59 b1 bf 53 4c 83 c0 44 f5 c6 3e
       1.737917 -1.3855429 -4.103067 0.38858998
0003b0 3f e5 e0 bf 87 d5 34 3f 20 06 a4 bf 1a e9 81 bf
       -1.756996 0.70638317 -1.2814369 -1.0149262
0003c0 8a 51 d4 be ba 2b 87 40 96 97 4c 3f e1 4d a5 3f
       -0.4146846 4.2240877 0.799188 1.2914392
0003d0 f6 1d 63 c0 ad 8d 95 40 d8 c4 0d 3e 8f c9 b7 bf
       -3.5487037 4.6735444 0.13844621 -1.4358386
0003e0 f2 3d bc 40 92 11 a2 c0 00 b3 55 c0 30 41 06 3e
       5.8825617 -5.064645 -3.3390503 0.13110805
0003f0 60 03 70 3d e0 f5 54 3d 17 57 03 41 32 a7 37 be
       0.05859697 0.051992297 8.208762 -0.17934874

0.bias f4 [64]
000000 7a 6d 4f 3f 74 65 d3 bf 51 87 97 be 8d 2a 46 bf
       0.8102642 -1.6515336 -0.29595426 -0.7740868
000010 6e 9c b1 bf 9f 82 0f c0 5a 2d fe bf ae f1 21 c0
       -1.3875864 -2.2423475 -1.985759 -2.530376
000020 33 81 d4 c0 26 94 c2 bf 96 f2 b6 40 00 cc e9 3a
       -6.6407714 -1.5201461 5.7171125 0.0017837286
000030 5e 9a 25 c0 e5 56 49 3f e5 b6 5b 40 fa 9b 5d 40
       -2.5875468 0.78648216 3.433038 3.462645
000040 26 60 6c c0 28 e8 38 c0 c8 40 0d bf 1a b1 15 40
       -3.6933684 -2.8891697 -0.55176973 2.3389344
000050 a0 ee 24 bf 03 75 94 40 d0 4d 3b 3f f6 5f 18 40
       -0.6442661 4.6392837 0.7316561 2.380857
000060 2c f1 66 3e ae 61 e3 bf d0 92 3c bf 34 1c 4c bf
       0.22552937 -1.7764184 -0.7366152 -0.79730535
000070 e4 2e 95 bf 0b 1a de 3f 10 00 71 3e ac 78 a8 bf
       -1.1654935 1.7351698 0.2353518 -1.3161826
000080 40 1f 3e be 39 da 13 3f a8 1a 9b c0 be ac 82 c0
       -0.18566608 0.57754856 -4.847004 -4.0835867
000090 ef 6e ac 40 eb 84 4c 3f 8d d5 90 40 8f 48 ac 3f
       5.3885417 0.79890317 4.526068 1.3459643
0000a0 fc c4 29 40 6d 33 a8 c0 60 2e 05 bd f4 94 a9 3f
       2.652648 -5.2562776 -0.03251493 1.3248582
0000b0 a2 f4 9c bf f2 5b 3a c0 07 a6 cb 3f 68 d0 6e 3f
       -1.2262156 -2.911862 1.5910043 0.9328675
0000c0 56 36 d9 bf 12 5a 54 bf aa d8 db bf 03 b7 40 c0
       -1.6969707 -0.82949936 -1.7175496 -3.0111701
0000d0 59 83 18 c0 9e c1 2b 40 05 54 52 3f 3c 64 6e bf
       -2.3830168 2.6836925 0.82159454 -0.93121696
0000e0 3d 51 4e 40 bf 85 7c 40 61 dd 11 41 28 a7 0c c0
       3.2237084 3.9456632 9.116548 -2.1977024
0000f0 76 88 d8 40 2a 6f 29 c0 2d ce 1e 40 6f 70 67 c0
       6.766658 -2.64741 2.481334 -3.6162374

2.weight f4 [64, 64]
000000 80 21 f3 bd 3c fe cd 3e 40 89 df c0 dc 59 e7 3f
       -0.11871624 0.40233028 -6.985504 1.8074298
000010 dd f6 3c c0 e6 f6 b6 3f 72 99 2d 3f 23 9b 90 bf
       -2.9525673 1.4294097 0.67812264 -1.1297344
000020 cc 6e 8c 3f 73 6c db bf 40 78 dd c0 a0 09 4d 40
       1.0971313 -1.7142471 -6.920929 3.2037125
000030 b0 66 97 be 73 0a 1a c0 68 d5 89 be d9 8b 60 c0
       -0.29570532 -2.4068878 -0.2692063 -3.5085356
000040 60 f8 c7 bd 90 0b 10 bf 78 f6 03 40 4b 0c 2f 3f
       -0.09764171 -0.5626764 2.0619183 0.6837813
000050 ea a0 0a bf e1 89 78 bf f2 9f 80 bf d5 a2 b9 bf
       -0.54151785 -0.97085387 -1.0048811 -1.4502817
000060 c2 b5 9c 3f 78 8d 9c 3f d8 5d ec 3d 6f 18 00 bf
       1.2242968 1.2230673 0.11541337 -0.5003728
000070 c4 94 1f bf 90 a7 29 be 23 b1 a9 3f 10 99 96 3f
       -0.62336373 -0.16567826 1.3257183 1.1765461
000080 c6 2c 02 40 ea d8 eb 3f 84 3b 54 c0 50 36 46 be
       2.0339828 1.8425572 -3.3161325 -0.19356656
000090 8a 68 a2 3e fa 2b 82 40 21 4c 46 c0 14 f7 69 c0
       0.31720382 4.067868 -3.0983965 -3.6557055
0000a0 e4 a3 33 3f 06 22 9b 3f 1f 25 a2 3f 9f 21 29 c0
       0.7017195 1.2119758 1.2667578 -2.642677
0000b0 2a c3 7f 40 3d a9 7b 3f 18 5d 10 c0 11 c4 f4 3f
       3.9962869 0.9830511 -2.255682 1.9122335
0000c0 e4 cc 0e bf a1 6c 12 3f d4 41 f4 bf b8 b5 26 c0
       -0.5578139 0.57197005 -1.9082589 -2.6048412
0000d0 0e fa 29 40 e9 11 60 40 20 0d a4 bf 77 e7 2b c0
       2.6558871 3.5010931 -1.2816505 -2.6860025
0000e0 f7 88 b2 bf 4a fa c1 40 f5 32 a9 40 d0 73 87 c0
       -1.3948048 6.061803 5.2874703 -4.2328873
0000f0 92 06 b4 bf d1 5f 1d bf 85 b5 84 40 7e 18 ae c0
       -1.4064505 -0.6147433 4.147158 -5.44049
000100 3e 20 4d 40 ce 17 76 c0 7f 81 74 bf 04 e2 46 3e
       3.205093 -3.845203 -0.95510095 0.19422156
000110 21 a2 29 c0 45 68 d5 3f 76 20 f1 3f 68 ed be 3e
       -2.6505206 1.6672446 1.8838031 0.37290502
000120 54 49 e7 3f ce 4f 8a c0 3c 8b e6 3f 38 4e 6e 3f
       1.8069253 -4.322242 1.8011241 0.930881
000130 74 6a 7c be aa cc f4 3f f0 8a 49 bf 2a c1 a9 bf
       -0.24649984 1.9124959 -0.78727627 -1.3262074
000140 f9 ba 23 c0 9e 7d b0 40 c2 92 cc bf 81 db 50 40
       -2.558287 5.515334 -1.5982287 3.2633975
000150 98 45 08 40 c8 aa 93 c0 a5 63 80 3f 76 11 2f 40
       2.1292477 -4.6145973 1.0030409 2.7354407
000160 f7 d4 55 40 8a 1a aa c0 52 76 41 40 d8 a8 e2 3e
       3.3411233 -5.3157396 3.0228467 0.44269443
000170 a2 98 03 bf 69 a6 17 bf 13 00 35 c0 6c 33 8d c0
       -0.51404774 -0.59238297 -2.8281295 -4.412527
000180 56 13 a9 bf 68 cb fb 3f 72 6b 10 40 03 be 7c bf
       -1.3209026 1.967145 2.256558 -0.98727435
000190 42 1a 98 3f c7 cc 62 40 97 c7 6b 40 80 67 8f 3f
       1.1883013 3.5437486 3.684057 1.1203461
0001a0 d0 e6 27 c0 f0 58 12 3f ed a9 95 40 e6 f0 48 3f
       -2.6234627 0.5716696 4.676993 0.7849258
0001b0 5a cd 8f be a1 fb a5 3f e2 ad d7 40 3d 76 86 c0
       -0.28086358 1.2967416 6.739976 -4.2019334
0001c0 4e 97 0f c0 b0 89 1f 3e 68 0c d4 3e 00 41 f1 3d
       -2.24361 0.15579867 0.41415715 0.11779976
0001d0 3f 1c 97 bd 8c 72 7d c0 c8 a9 a7 be 09 b4 16 c0
       -0.073784344 -3.9601164 -0.3274672 -2.3547385
0001e0 00 d2 74 bb 8a 74 39 3f a4 d7 7f 3e 1a 02 35 c0
       -0.0037356615 0.7244345 0.24984604 -2.8282533
0001f0 0d 63 82 c0 df 5a d6 40 f3 96 30 40 ee 66 51 40
       -4.074591 6.6985927 2.7592132 3.2719073
000200 38 cc 23 40 c0 c1 41 3e 7c 32 4b 3f f8 e2 a9 bf
       2.5593395 0.18921566 0.7937391 -1.327239
000210 3c fe bf bf d8 f0 4a 40 ea 59 8d c0 3d e7 88 3f
       -1.4999461 3.17095 -4.417226 1.0695568
000220 64 3c 98 40 f6 8a 78 3f 14 b1 56 c0 37 a8 da 3f
       4.757372 0.9708704 -3.354558 1.7082585
000230 fb f5 88 3f 7a f9 42 40 a4 3d 15 c0 4b 44 24 c0
       1.0700067 3.0464768 -2.3318872 -2.5666683
000240 66 b6 68 40 1e 99 e1 bf 6c 8f 53 40 a2 06 80 be
       3.6361327 -1.7624853 3.3056288 -0.2500506
000250 aa f6 54 c0 e0 d6 17 3e 05 d0 5a 3f 54 79 65 c0
       -3.3275552 0.14828062 0.8547366 -3.5855303
000260 90 a4 cf 3f fe 6d 09 c0 90 4f 14 3f 41 40 15 40
       1.6222095 -2.1473384 0.579339 2.3320467
000270 72 76 68 3f 86 91 0a c0 7f d7 81 3e 28 a1 0e 40
       0.90805733 -2.165132 0.25359723 2.2285862
000280 ec fc c5 3f 1a 9b 19 40 be a9 19 40 d7 16 c7 bf
       1.5467811 2.4000916 2.4009852 -1.5553845
000290 b6 13 9c 40 f7 69 b6 c0 f6 cc 2f bf 48 32 a3 40
       4.877406 -5.700435 -0.6867212 5.099888
0002a0 38 89 1a 40 f4 db 1d 40 22 2b d2 bf 79 97 82 40
       2.4146252 2.4665499 -1.6419413 4.0809903
0002b0 24 02 8a 3f 34 65 9e c0 7d 65 61 bf 2c c3 0d 40
       1.0781903 -4.949854 -0.88045484 2.2150373
0002c0 92 56 ac 3f a2 9c 2f 40 6c da f9 bf ad 8d 60 3e
       1.3463919 2.743935 -1.9519782 0.21929045
0002d0 1a ec 3e c0 b0 c7 98 3f ee 57 e4 3f 58 8b 05 bf
       -2.9831605 1.193594 1.7839334 -0.52165747
0002e0 4b d2 83 3f 6e ef 35 40 d7 7b c7 bf fc 9e 7e 3e
       1.0298551 2.8427386 -1.5584668 0.24865335
0002f0 1c af fe 3f 62 7c ba 3f 28 79 3e 3e a0 04 60 3d
       1.9897189 1.4569209 0.18600905 0.05469191
000300 db e6 25 3f 8b ee a7 bf 9e ad 95 bf 7e b0 82 c0
       0.6480538 -1.3119673 -1.1693609 -4.0840445
000310 48 55 56 c0 24 1b 2f c0 24 c8 c3 bf d6 94 1d 40
       -3.3489552 -2.7360315 -1.5295453 2.4622092
000320 ba cd 0a bf 23 d9 f2 bf 46 d8 9c 3f 11 2e bf bf
       -0.54220164 -1.8972515 1.2253501 -1.4935933
000330 e0 96 c1 3d ca f5 fa be c8 db 8d c0 66 17 42 3f
       0.09452605 -0.49015647 -4.433079 0.75816953
000340 79 a6 3c c0 ca f9 ee 40 0a df 8f 40 28 30 86 40
       -2.9476607 7.467992 4.4959764 4.1933784
000350 29 8a 2a c0 67 c3 45 c0 fc f8 91 3f 56 0e 0c 40
       -2.6646826 -3.0900514 1.1404109 2.188375
000360 e8 00 8f 3f 72 66 c9 3f 58 93 ed bf ea 09 b7 3f
       1.1172152 1.5734389 -1.8560591 1.42999
000370 86 78 a0 3f 00 a0 d2 3f ae 88 a5 3f ec a5 a4 c0
       1.2536781 1.6455078 1.2932336 -5.145254
000380 54 20 96 c0 f6 47 01 40 08 f0 32 c0 6a c1 2a 40
       -4.6914463 2.0200171 -2.7959003 2.668055
000390 20 97 79 bc 6f 70 a9 3f 70 9c f5 bd 08 6f 33 c0
       -0.015233785 1.3237437 -0.11992729 -2.8036518
0003a0 1d 73 8a bf 06 1e 31 3f 1c f5 1b 40 e8 38 13 be
       -1.081638 0.6918644 2.4368353 -0.14377177
0003b0 83 d5 08 c0 c8 f5 8b 40 bb d7 c5 3f 5d 45 a5 bf
       -2.1380317 4.3737526 1.5456461 -1.2911793
0003c0 25 e4 47 3f 81 ac 7c bf 59 71 ad bf 50 6d 36 3f
       0.78082496 -0.9870072 -1.3550216 0.7126055
0003d0 dc 7c 4c c0 4c 81 6a c0 9d 34 4b 40 52 4b a8 3f
       -3.1951208 -3.6641417 3.1750863 1.3147986
0003e0 6d 9f 67 3e 18 51 db 3f 94 0d b7 3f b1 f0 1f 40
       0.2261941 1.7134123 1.4301019 2.4990656
0003f0 14 04 ae be 95 78 c7 bf 45 d1 96 3f 20 1e 84 bb
       -0.33987486 -1.5583674 1.1782614 -0.0040319115

2.bias f4 [64]
000000 c1 f8 bd 3f d2 8e c1 3e 74 95 8c c0 e3 36 b3 bf
       1.4841539 0.37804276 -4.393244 -1.4001125
000010 19 37 6e bf b6 c1 61 3f 24 34 26 3f 5d 7d e5 bf
       -0.9305282 0.88186204 0.6492331 -1.7928883
000020 b2 7b be 3f 7f 29 bb 3f a8 89 c4 3f 44 4f c1 bf
       1.4881499 1.4622039 1.5354509 -1.5102315
000030 ce 65 c4 bf 86 6d 0b c0 18 db 63 3e 8c 17 0c 40
       -1.5343568 -2.1785598 0.22251546 2.1889372
000040 21 f1 5e 40 b0 72 06 c0 b2 32 31 c0 d2 74 9f c0
       3.4834673 -2.10075 -2.7687192 -4.9830103
000050 ec 3b 85 3d 24 57 a8 3e f6 4a 2d c0 6e 67 c4 3f
       0.0650557 0.32878983 -2.7077003 1.5344064
000060 91 f7 c8 bf 40 dc a7 3f 9b 10 19 c0 2c b8 aa 40
       -1.5700551 1.311409 -2.3916385 5.334982
000070 0c 8e d4 c0 a4 f0 94 3f a1 d8 bc 3f 66 d8 3e c0
       -6.6423397 1.1635938 1.475361 -2.981958
000080 82 c6 cf 3f 57 d7 c4 c0 b0 2b 62 3e 35 39 1a 40
       1.6232455 -6.1512866 0.22086978 2.4097416
000090 b9 9a 93 40 de 8b 4e c0 4b 3b fe 3f b0 be 04 41
       4.612637 -3.2272868 1.9861845 8.296555
0000a0 bb e3 fc be 5e 51 77 3f 29 3d 4b 40 71 19 2b c0
       -0.49392495 0.9660853 3.175608 -2.6734278
0000b0 13 e1 6a 40 3c b2 ed be 7c 0b 2b bf b8 d7 2f be
       3.6699874 -0.46425045 -0.668144 -0.17172134
0000c0 1a 49 e2 c0 1f e7 96 40 16 37 f3 3f 26 41 cf bf
       -7.0714235 4.715713 1.9001186 -1.6191757
0000d0 df e6 92 c0 bc 0c 02 c0 93 88 af 3f 49 b0 06 c0
       -4.5906825 -2.0320272 1.3713554 -2.1045096
0000e0 2a 6a 9e bf 7e 6a 2f c0 dd b2 c4 bd ae dc d4 40
       -1.2376149 -2.7408748 -0.09604428 6.6519384
0000f0 e4 37 7c be ce b2 81 40 16 8f 57 3f b9 89 cf 3f
       -0.24630696 4.0530767 0.84202707 1.6213905

4.weight f4 [5, 64]
000000 e4 39 b8 3f f0 bd 9e 40 c8 73 18 40 a3 92 b1 bf
       1.4392667 4.9606857 2.3820667 -1.3872875
000010 b9 9d e7 3e 94 3b ab be 77 75 5d 40 21 84 8e c0
       0.4523752 -0.33443892 3.4602945 -4.453629
000020 be 31 1f c0 7a 41 e1 bf 72 24 71 bf be eb 06 40
       -2.487411 -1.7598107 -0.94196236 2.1081386
000030 f6 94 c8 3f 80 29 0c bd 5f d4 99 40 82 e7 70 bf
       1.5670459 -0.034219265 4.807174 -0.9410325
000040 70 a6 95 40 64 b0 87 c0 ae 69 de c0 b3 28 e4 3f
       4.676567 -4.240282 -6.9504004 1.782492
000050 c9 2b 81 bf 03 bc bc 3f 99 6e 3e 40 96 2f 89 bf
       -1.0091487 1.4744877 2.9755003 -1.0717647
000060 92 66 28 be 2a a2 5d 40 c9 2c aa 3f a4 e1 59 3f
       -0.16445377 3.4630227 1.3294917 0.85109925
000070 fd ee e1 3f 04 f4 bd 3e ce 90 ad be ce 49 36 c0
       1.7651058 0.37100232 -0.3389954 -2.8482547
000080 86 e7 c5 3f 1c 22 a1 be a5 37 83 3f bc 60 57 c0
       1.546128 -0.31471336 1.0251356 -3.3652792
000090 5c 00 f5 3f 55 3b 57 40 14 92 8a 40 bc 61 32 c0
       1.9140735 3.3629963 4.330332 -2.7872152
0000a0 67 68 95 40 44 e8 99 bf 74 ff 2c bf ce b2 1f 40
       4.6689944 -1.2024007 -0.6757729 2.4952884
0000b0 90 1f 89 3e 50 6f 32 40 56 39 c5 3f f6 62 3e c0
       0.26781893 2.788044 1.5408123 -2.97479
0000c0 32 d0 06 40 ac 1e 7a 40 3b 52 82 3f 4c f1 6b c0
       2.1064572 3.908122 1.0181345 -3.6866026
0000d0 c0 04 81 40 fe 38 22 40 62 3c 58 40 7c e1 c6 be
       4.03183 2.5347285 3.3786855 -0.38843906
0000e0 76 ae 35 40 96 69 31 be 88 e1 26 3e 40 3e cb c0
       2.8387733 -0.17325434 0.16296971 -6.351349
0000f0 24 6d 14 bf 5a fb bb c0 9c 17 1a 3f 80 85 ff 3f
       -0.57979035 -5.8744326 0.60192275 1.9962616
000100 3e b3 84 bf 6d 16 1a bf 53 6e 4d 40 a3 80 f6 3e
       -1.03672 -0.6019047 3.2098587 0.48145017
000110 e1 28 32 c0 09 4d 74 40 6e db ad 3f 62 fb 45 c0
       -2.783745 3.8172019 1.358259 -3.0934682
000120 6f ed b5 3f f4 b6 07 40 58 91 47 c0 a2 d0 11 bf
       1.4213084 2.1205416 -3.118246 -0.56958973
000130 08 2d e4 bd f9 b3 20 bf 78 21 40 40 00 8c e4 3d
       -0.111414015 -0.62774616 3.0020428 0.111595154
000140 2c 8f 99 3e 7e 46 e6 be 5f 30 eb c0 fe 43 92 3e
       0.29992044 -0.44975656 -7.3496547 0.285675
000150 17 8e 7c c0 d1 2f 81 c0 6c 99 e4 3e 13 cf a6 bf
       -3.9461725 -4.037087 0.44648302 -1.3031944
000160 14 39 68 c0 f6 57 53 40 dc 2c fe 3d 44 3f b3 3f
       -3.6284838 3.3022437 0.124109 1.4003682
000170 bc af 25 40 dd 84 36 c0 de 53 2e c0 cb 7b 9d bf
       2.588851 -2.8518593 -2.7238688 -1.2303404
000180 ca c8 dc bf 96 d9 e5 bf 05 c9 9c c0 9a 85 26 bf
       -1.7248776 -1.7957027 -4.8995385 -0.6504761
000190 d8 21 71 40 59 8c 1d bf 22 f2 91 bd c5 5d df 40
       3.7676907 -0.6154228 -0.07126261 6.9801965
0001a0 60 69 a5 3f 06 56 81 3f 00 13 4a 3c f9 0e 83 3f
       1.2922783 1.0104377 0.0123336315 1.0238944
0001b0 a0 8b 67 bd 00 97 64 c0 db 21 d0 3e 1e 98 1b bf
       -0.05652964 -3.5717163 0.4065083 -0.6077899
0001c0 28 a8 43 bf d4 21 46 40 7c 83 1a 3f e6 1f 9b c0
       -0.7642846 3.0958147 0.6035688 -4.847644
0001d0 a8 8e 13 40 8c 40 05 3f 51 94 53 c0 04 0d d6 bf
       2.305582 0.52051616 -3.3059275 -1.6722722
0001e0 d6 98 3a bf 26 7b 05 c0 12 9c 15 3f 7d 41 a1 c0
       -0.7288946 -2.0856414 0.5844127 -5.039244
0001f0 f6 21 52 40 55 2f 16 40 9d 04 7e c0 da 59 33 bf
       3.2833228 2.346639 -3.9690316 -0.7005898
000200 f1 57 43 c0 62 91 3f 3f 34 98 88 c0 8f f2 e0 3f
       -3.0522425 0.7483121 -4.2685795 1.7574023
000210 8d 67 4c c0 68 b1 ab be 74 de b5 c0 d3 cb 8f bf
       -3.1938202 -0.33533788 -5.683405 -1.1234077
000220 6b e8 b7 bf 0a 81 8b c0 a5 8b ff bf 90 14 52 c0
       -1.4367803 -4.359502 -1.9964491 -3.282505
000230 54 d8 d7 3f 00 e0 b8 3d ab a1 40 c0 98 43 0f bf
       1.6862893 0.090270996 -3.0098674 -0.55962515
000240 d7 c5 d2 bf c0 34 8e bd 2d 57 73 c0 e8 14 a2 3d
       -1.6466626 -0.06943655 -3.8021958 0.07914144
000250 14 13 20 40 e2 b1 d8 3f 38 b2 3e c0 54 aa 4d 40
       2.5011644 1.6929286 -2.9796276 3.213521
000260 ba 49 b6 be d9 fb 9c c0 60 ea 85 bd 37 5f 0b c0
       -0.35603124 -4.905743 -0.06538844 -2.1776865
000270 56 8d f6 3e 30 3c ea bf 60 9c 68 bf 70 90 99 c0
       0.48154706 -1.8299618 -0.9086361 -4.7988815
000280 f9 0d 2b c0 83 06 21 40 8a ce 08 c0 7c e6 0c c0
       -2.6727278 2.5160224 -2.1376061 -2.2015676
000290 af 8b 97 bf 21 9d a5 be 7e e6 49 3f 72 aa 5c 40
       -1.1839503 -0.32346442 0.7886733 3.4479032
0002a0 1d d0 eb 3f 79 56 8d bf 67 8b ce bf 53 a8 cb 3f
       1.8422886 -1.1042014 -1.6136292 1.5910743
0002b0 20 01 e0 bf 92 04 87 bf 05 67 49 40 da 47 94 bf
       -1.7500343 -1.054827 3.1469128 -1.1584427
0002c0 67 12 48 c0 2a ce 6d bf 74 9b c9 be 44 9e 0a 3f
       -3.1261232 -0.92892706 -0.39376414 0.54147744
0002d0 0a 8e a3 40 36 7a a5 40 38 54 25 bf 2c d3 ef 3f
       5.1110888 5.1711683 -0.6458163 1.873632
0002e0 56 56 ae be 8c 54 31 40 02 b7 d8 c0 c8 a3 b4 bd
       -0.34050244 2.7707853 -6.77234 -0.08820301
0002f0 cd d7 ab 3f ec 99 ae be 18 4c 06 3e 38 d6 b7 3f
       1.3425232 -0.34101808 0.13114965 1.4362249
000300 6e e1 5d c0 04 d1 63 40 e2 db 14 bf 20 fe d3 bd
       -3.4668841 3.5596323 -0.58148015 -0.10351205
000310 31 92 c3 c0 67 1a 92 bf b0 30 4e 40 65 0c b8 3f
       -6.1115956 -1.1414307 3.2217216 1.4378783
000320 d5 9e 0d be 2c 2c 29 40 9e 5f d6 bf 0e 5b 19 40
       -0.13830121 2.643321 -1.674793 2.3961825
000330 9e ba cb 3f 2d e4 0b 40 fa ef cc 3f 81 ac 44 40
       1.5916326 2.1858017 1.6010735 3.0730288
000340 24 a2 a8 c0 4f 7d 66 c0 01 c0 7d c0 8a 0b 13 c0
       -5.2697926 -3.6013982 -3.964844 -2.2975793
000350 78 3d ac c0 99 9b 8f c0 a0 00 c3 be c8 86 58 40
       -5.3825035 -4.487744 -0.38086414 3.3832264
000360 35 92 4c 40 56 0b 69 c0 16 c6 1f bf a4 b9 c9 bf
       3.1964238 -3.641317 -0.6241163 -1.5759778
000370 84 1a 01 40 56 af cc 3f e8 c4 3c 40 32 3a 86 bf
       2.0172434 1.5991008 2.9495182 -1.048651
000380 15 64 a5 bf 46 c9 a2 bf 79 ae 07 3f a3 7b 14 40
       -1.2921168 -1.2717674 0.530006 2.3200462
000390 f0 19 b2 c0 20 82 0e bd 01 8d e2 bf a5 ce ab 3e
       -5.565666 -0.034792066 -1.7699281 0.33556095
0003a0 bb 7c a8 3f ae cc 5a c0 e0 17 1c 3f 57 d9 0c c0
       1.3163065 -3.4187427 0.6097393 -2.2007654
0003b0 55 ef 2e c0 91 aa 8c c0 25 f7 9f bf 78 31 35 be
       -2.7333577 -4.395821 -1.2497298 -0.17694652
0003c0 40 2a d1 3d e1 59 15 40 20 c9 ff bc 86 6f 77 c0
       0.10213137 2.3336108 -0.031223834 -3.8661819
0003d0 64 46 6e 40 e2 79 99 c0 4b c3 de bf 02 f6 7d c0
       3.7230463 -4.7961283 -1.7403349 -3.9681401
0003e0 a2 e3 00 c0 c6 27 8d c0 a3 90 41 c0 e3 0b f4 3e
       -2.0138936 -4.411105 -3.024453 0.4766532
0003f0 c8 ab 54 40 10 25 29 40 ca cb 14 bf 9d ce 3f c0
       3.3229847 2.642887 -0.5812346 -2.9969857

4.bias f4 [5]
000000 8e 53 1e 3f f4 77 07 bf 52 6d ae bf 34 e5 0c c0
       0.61846244 -0.5291741 -1.3627112 -2.2014894
000010 06 9b 33 c0
       -2.8063369
