demo/experiments/genetic_algorithm/ga_experiment_2021_02_12_160407/problem_10.model (torch, 26149 bytes, 6 tensors)

0.weight f4 [64, 22]
000000 70 11 50 bd e0 8c 00 c0 4b dd 74 bf 6d 85 ed 3f
       -0.05079788 -2.0085983 -0.95650166 1.8556343
000010 2f 1a f0 3f 88 6d 57 3d d3 51 59 3f 44 53 08 40
       1.8757991 0.05259469 0.8489048 2.1300821
000020 61 47 27 c0 59 be 43 bf 9a a5 32 bf 92 98 ad bf
       -2.6137316 -0.7646232 -0.6978394 -1.3562186
000030 04 9c 4e 40 7f 3d 89 c0 59 61 90 40 06 1b 31 c0
       3.2282724 -4.288757 4.5118833 -2.7672744
000040 f0 90 84 40 22 ac b7 bf 38 51 80 c0 3c f7 a7 bf
       4.1426926 -1.4349406 -4.0099144 -1.3122325
000050 e8 d8 28 c0 ca 3a 1b 40 80 a1 8a bc 94 35 02 bf
       -2.638239 2.4254632 -0.016922712 -0.50863004
000060 ab 00 3e 3f 76 b1 0c 40 3b f6 6f 40 dc 80 b7 3f
       0.7421977 2.1983314 3.7494037 1.43362
000070 87 d0 b2 3e ea 2e f3 bf 18 86 35 be d1 84 3c c0
       0.3492472 -1.8998692 -0.17726934 -2.9456065
000080 6a 67 b6 3f aa d9 b1 3f 84 47 ea bf 95 c9 0e 40
       1.425031 1.3894551 -1.8303075 2.2310536
000090 72 11 26 c0 46 40 f3 bf 23 69 90 3f da ef a1 bf
       -2.5948148 -1.900399 1.1282085 -1.2651322
0000a0 78 56 ff 3e 99 20 ad bf b6 ca 8b bf a8 25 8c 3f
       0.49870658 -1.3525573 -1.0921237 1.0948992
0000b0 a8 62 8d bf c8 bc e3 3e 14 5a 12 3f f2 db f6 bf
       -1.1045732 0.44479966 0.571687 -1.9285872
0000c0 fb fa 9f c0 32 a8 ac bf 8c 7e 5f c0 5c 26 48 bf
       -4.9993873 -1.3488829 -3.4920988 -0.7818353
0000d0 53 11 15 c0 c1 7a c5 bf ca 42 1d c0 1d 10 24 40
       -2.3291824 -1.5428087 -2.4572015 2.5634835
0000e0 2e 89 e5 be f0 13 88 3d 3e c8 f5 3f ed 39 86 bf
       -0.44831222 0.06644428 1.9201734 -1.0486428
0000f0 c4 7f 92 3f e9 d3 44 3f 32 4b 53 3f dc fb c1 c0
       1.1445241 0.7688585 0.82536614 -6.0619946
000100 74 06 b5 3f 66 34 0b c0 d4 8d a2 c0 25 8c 7a bf
       1.4142594 -2.1750731 -5.079813 -0.97870094
000110 17 eb 35 3f 00 ce 0f c0 f6 40 2a c0 e3 ad b9 c0
       0.71061844 -2.2469482 -2.660215 -5.8024764
000120 67 36 ee bf 94 71 b8 3e 80 e5 9f c0 80 63 74 3e
       -1.8610352 0.36024153 -4.996765 0.23866081
000130 8d a9 f0 bf a0 d4 8f bd 19 11 6b c0 80 21 a9 bd
       -1.8801743 -0.07022977 -3.6729186 -0.08258343
000140 b0 2c 2f c0 20 b6 3e 40 4f 0f 36 40 aa a2 93 be
       -2.7371025 2.979866 2.8446844 -0.2883504
000150 2c b3 82 3e 5a ba 49 bf e8 01 51 bf 11 20 d0 40
       0.25527322 -0.78799975 -0.81643534 6.5039144
000160 c0 23 e2 be b1 16 46 bf 78 26 19 c0 c7 47 a4 bf
       -0.441679 -0.77378374 -2.392973 -1.2834405
000170 9c a3 fb be ec b8 2b bf 64 2b e3 be 92 63 c3 be
       -0.49148262 -0.67079043 -0.44369042 -0.38161904
000180 86 68 ff 40 25 c1 13 40 ee d1 6c 40 b6 a8 2a 40
       7.981509 2.3086636 3.700313 2.6665473
000190 3c cd 81 c0 12 66 91 40 96 55 5a bf 80 80 1c 3f
       -4.056303 4.5437098 -0.85286844 0.61133575
0001a0 8a 65 17 40 b8 35 ad bf 9e 24 44 c0 ba 79 ec 3f
       2.3655725 -1.3532019 -3.064735 1.8474648
0001b0 23 68 3d 40 2a 85 3b c0 70 89 50 c0 f0 f5 91 c0
       2.959481 -2.9300027 -3.2583885 -4.5612717
0001c0 6e e3 0d 40 a3 53 94 40 7b 57 a2 3f 97 75 0b bf
       2.2170062 4.6352096 1.2682947 -0.544763
0001d0 10 c8 10 c0 5a d0 b9 3f a1 cf 2b 40 68 81 5d 40
       -2.2622108 1.4516709 2.6845477 3.4610233
0001e0 22 73 8a 40 9c e5 a3 3f c8 7e a6 bf 40 46 1e c0
       4.3265543 1.2804446 -1.300744 -2.4730377
0001f0 a8 9c 93 be cf cb d0 bf 44 57 83 3e 65 fc 14 c0
       -0.28830457 -1.6312197 0.25652516 -2.327905
000200 4a 75 64 c0 6e f5 2c 3f da 84 6d c0 ef 6a 06 bf
       -3.5696588 0.67561996 -3.7112336 -0.5250692
000210 62 e6 d4 bc ba 02 00 40 18 f4 05 c0 cc fd cb 3f
       -0.025988761 2.0001664 -2.0930233 1.5936828
000220 0d 67 0e 40 50 41 5b c0 8a ee 83 3e b8 84 87 3f
       2.2250397 -3.4258614 0.25767928 1.0587378
000230 a9 d6 50 3f 77 59 e8 bf 66 e8 bd 3e b0 c9 66 c0
       0.81577545 -1.8152303 0.37091368 -3.60606
000240 f0 78 69 c0 78 2c 9f bf 92 e0 99 40 b9 9c 2d 3f
       -3.6480064 -1.2435446 4.8086634 0.67817265
000250 89 f8 8a bf 5c 78 83 3e 78 0d ba 3f 0e da 11 c0
       -1.0857097 0.25677764 1.453536 -2.278934
000260 e0 c3 95 40 ea 38 56 3f 72 b4 96 c0 2a 40 a5 3d
       4.6801605 0.83680594 -4.709527 0.08068879
000270 a0 86 93 3c 26 a0 18 c0 e0 31 2f 40 35 40 a2 3f
       0.01800853 -2.3847747 2.7374191 1.2675844
000280 52 4d 82 bf fb 42 25 40 ee 26 28 3f 9b 81 2b 40
       -1.0179846 2.5822132 0.656844 2.6797855
000290 f7 69 31 c0 10 a2 84 3e fc 35 ab 3f 49 58 c5 bf
       -2.7720926 0.25904894 1.337585 -1.5417567
0002a0 4f b1 62 c0 3f 44 b5 40 ee b7 cf 3f 6b 55 86 3e
       -3.542072 5.664581 1.6228006 0.26237044
0002b0 b8 b4 64 3e 06 55 90 c0 2c a2 1d bf 3d a1 63 bf
       0.22334564 -4.510379 -0.6157558 -0.88917905
0002c0 a3 78 f4 bf a1 8b 55 bf 91 a4 6b 40 0b 47 fd 3e
       -1.9099315 -0.8341618 3.6819193 0.49468264
0002d0 6d cd 0c c0 53 78 4f bf d1 c1 aa bf d6 d8 35 c0
       -2.2000382 -0.81042975 -1.3340398 -2.8413596
0002e0 62 a0 9c bf 54 43 3a 40 78 13 a8 3f 12 5a b4 3e
       -1.2236445 2.9103594 1.3130941 0.35224968
0002f0 90 37 c5 bf 4a d8 bc 3e 82 18 f9 3f e5 71 3b 40
       -1.5407581 0.36883765 1.9460604 2.9288266
000300 27 78 ac bf 11 ad a2 40 90 dd 20 c0 98 12 0b 40
       -1.3474168 5.0836263 -2.513523 2.1730099
000310 12 a3 15 c0 3a 10 43 c0 5c 28 99 bf f8 b6 be 3e
       -2.338078 -3.0478654 -1.1965442 0.3724897
000320 e5 5d 14 40 86 88 69 c0 04 2b 51 3f ae 21 44 bf
       2.3182309 -3.6489577 0.8170626 -0.7661389
000330 64 e2 02 bf a0 18 06 bd d5 5b 53 c0 b7 74 87 40
       -0.51126695 -0.032738328 -3.30248 4.2329974
000340 26 6d 28 c0 ae c4 cb be 76 2f 22 c0 06 32 bb bf
       -2.631662 -0.39798492 -2.5341468 -1.4624641
000350 bb e7 8d bf 22 0d 4b 40 e2 3e 2f 3f 68 97 2f 3f
       -1.1086344 3.1726766 0.68455327 0.685904
000360 3f 6a 0c c0 5c 9d 59 c0 13 49 2e 40 0d 52 20 c0
       -2.1939847 -3.4002295 2.72321 -2.505008
000370 30 bb 10 be 49 29 3c 40 9f 48 d5 3f 6b 20 33 3f
       -0.14133906 2.9400198 1.6662787 0.6997134
000380 30 e3 7d c0 22 e7 cb 3f 96 f3 32 40 56 94 46 bf
       -3.9669914 1.5929911 2.7961173 -0.7757009
000390 3c 64 45 be a5 9c dc 40 ea 15 00 3f c8 f2 09 3e
       -0.19276518 6.8941216 0.5003344 0.1347152
0003a0 2c 05 9c bf 9c ce ef 3f 4c eb a1 3f 03 c7 3b bf
       -1.2189078 1.8734927 1.2649932 -0.7335054
0003b0 21 76 48 3f 06 0a eb bf ea f3 98 bf c5 bb 28 40
       0.7830525 -1.8362434 -1.1949437 2.6364605
0003c0 cb d2 ad 40 30 42 bb bf e2 17 bf bf ad 1e f6 3e
       5.4319816 -1.4629574 -1.4929163 0.4807028
0003d0 3d f9 6c 40 65 45 a3 3f 30 f6 61 be bd 3a a0 3f
       3.7027123 1.2755553 -0.2206657 1.2517926
0003e0 12 68 74 bf 4c 4f 1a c0 c0 56 30 40 3c c7 ae c0
       -0.954713 -2.41109 2.7552948 -5.4618206
0003f0 22 0b 2f c0 1b 97 6e c0 8a 33 ae be f6 ad 8a 3f
       -2.7350545 -3.7279727 -0.34023696 1.0834339

0.bias f4 [64]
000000 00 16 15 c0 ca 11 cf bf ac 28 05 c0 62 6b 88 40
       -2.3294678 -1.6177304 -2.0806074 4.2631083
000010 79 d0 5b 40 e0 84 0f bf d3 e8 6f 40 d5 a9 40 40
       3.4345992 -0.56062126 3.7485855 3.0103657
000020 53 01 9c c0 cd 79 90 3f 88 9f 15 40 7c 51 2b 40
       -4.8751616 1.1287171 2.337862 2.6768484
000030 62 06 2b c0 50 db 67 bf c8 6e 14 bf 7a 0c 6a bf
       -2.6722646 -0.9056902 -0.5798154 -0.9142529
000040 11 12 25 c0 aa 95 0b 40 6a e1 1f 40 07 04 2e 40
       -2.5792277 2.1810098 2.4981332 2.7189958
000050 e3 64 4b 3f 74 0d f7 bf 78 1a 41 3f 74 07 58 c0
       0.79450816 -1.930098 0.75431013 -3.375455
000060 38 45 7a be f4 d4 54 bf 0c 80 d3 3f ee 90 ca bf
       -0.24440467 -0.8313744 1.6523452 -1.5825479
000070 30 69 ff bd cb 0c d5 bf ca 17 54 bf 98 32 21 be
       -0.12471235 -1.6644529 -0.828488 -0.15741956
000080 fe be c6 40 b0 da 70 40 ca ac 51 40 06 e8 3e 40
       6.2108145 3.7633476 3.2761712 2.9829116
000090 42 4a 35 bf 9c a2 e5 3e 8b a8 79 c0 59 69 42 40
       -0.70816433 0.44850624 -3.900912 3.03768
0000a0 cc 3f f9 bf 9e 50 10 c0 fd 18 2e c0 d4 9f 7f 3f
       -1.9472594 -2.2549205 -2.7202752 0.99853253
0000b0 5a b3 43 bf b2 20 e1 bf 89 f8 a3 3f 50 f9 92 3d
       -0.76445544 -1.7588103 1.2810222 0.07176459
0000c0 a0 7f b3 c0 68 04 8c bf 88 e2 96 c0 34 17 4b 40
       -5.609329 -1.0938845 -4.7151527 3.1732912
0000d0 ce 2c 0a bf ed 5d b6 bf 80 a6 b3 bf 46 e9 53 bf
       -0.53974617 -1.4247414 -1.4035187 -0.8277782
0000e0 1c 30 a4 c0 49 70 82 bf d4 fa 4f c0 9f 5a 9c 40
       -5.1308727 -1.0190517 -3.2496843 4.886062
0000f0 ff f4 f8 3f e2 8d fe 3f 12 81 70 3f 4b c3 c1 be
       1.9449767 1.9887049 0.93946946 -0.3784431

2.weight f4 [64, 64]
000000 45 01 88 40 2c 4d 18 40 8a b7 c1 c0 24 c8 15 40
       4.250155 2.3797102 -6.0536547 2.3403406
000010 56 46 8d bf 3e 12 1d bf 46 00 66 c0 1e c4 dd be
       -1.103709 -0.6135596 -3.5937667 -0.43313688
000020 2b 8f 36 40 f8 ec a3 40 1e 57 33 40 c6 e7 c1 3f
       2.8524883 5.122677 2.8021922 1.5148857
000030 b4 04 99 40 87 aa 08 40 d2 84 0a c0 af 6a c0 3f
       4.781824 2.1354082 -2.1643567 1.5032557
000040 f7 78 96 3f 0c b3 32 40 0d 81 21 3f d0 ef 80 bd
       1.1755666 2.7921782 0.6308754 -0.062957406
000050 a5 3a 09 bf a0 47 9b c0 d0 ea 70 40 81 70 ab bf
       -0.5360511 -4.8524933 3.7643318 -1.3393708
000060 d8 17 7e 3f 4a 69 db bf a8 ae aa 3e 28 cd 20 be
       0.9925513 -1.7141507 0.33336377 -0.15703261
000070 d4 98 cb 3d 08 1f 06 c0 e9 a4 58 40 f4 0f 19 40
       0.09941259 -2.095644 3.3850653 2.3915987
000080 02 74 8f be 4b 81 51 bf a3 93 97 c0 47 51 90 3f
       -0.28018194 -0.8183791 -4.736772 1.1274804
000090 66 a6 2d 40 fc 23 84 3f 86 8f 46 c0 5a 46 68 40
       2.7132812 1.0323482 -3.10251 3.629294
0000a0 46 ca 8c 3f ff 5e 99 3f 00 be f5 3a f3 84 61 c0
       1.0999229 1.1982116 0.0018748641 -3.5237396
0000b0 77 7f cf 3f f3 47 f5 3f 27 3f 9c 3f 0c b5 9c 40
       1.6210774 1.9162582 1.2206773 4.8971004
0000c0 24 e6 79 3f 5d 9a 3c c0 bb 9f 9c bf 4a 16 c1 bf
       0.9761679 -2.9469216 -1.2236246 -1.5084927
0000d0 de bb ba bf a2 c2 c7 bf 31 3a d6 be 80 8b de bc
       -1.4588583 -1.5606272 -0.41841272 -0.027166128
0000e0 59 29 9b bf 0a a1 97 be 3b 9b 0b 40 cc 1c ee bf
       -1.2121993 -0.2961505 2.1813495 -1.8602538
0000f0 83 0d 4a 40 3d 1f 3d c0 04 8c 24 40 58 ef 7e 40
       3.1570747 -2.9550316 2.5710459 3.9833584
000100 b4 0e d4 be c2 58 f6 bf 2e 81 0a c0 ab d0 69 3f
       -0.41417468 -1.9245837 -2.1641345 0.9133403
000110 56 da 9d bf 16 7b 20 c0 42 11 21 3f ff 85 2e c0
       -1.2332256 -2.5075126 0.6291696 -2.7269285
000120 f4 25 db bf 58 bc c0 bf 81 cb 5a bf 64 20 4d bf
       -1.7120957 -1.5057478 -0.8546677 -0.8012755
000130 be 87 80 3e b4 a9 07 bf 5c b1 2b c0 92 8d 47 bf
       0.25103563 -0.5299332 -2.6827002 -0.77950394
000140 26 91 7b be 02 f1 8e 40 d4 f7 00 c0 82 33 28 c0
       -0.24567088 4.46692 -2.0151262 -2.6281438
000150 17 49 b3 bf 0a b9 2d c0 bd 57 9b 3f 64 74 f7 3f
       -1.400668 -2.714419 1.2136151 1.9332395
000160 c7 c8 c6 bf f4 87 9f 3f 70 a1 d9 3f f3 bf 80 40
       -1.5530022 1.2463365 1.7002392 4.0234313
000170 26 90 ea 3e 49 75 da bf 02 9d 08 40 dc 48 d2 bf
       0.45813102 -1.7067043 2.134583 -1.6428485
000180 2a e4 44 40 40 92 61 bd 8c cc 42 be ce 4a 5a 40
       3.076426 -0.055071115 -0.19023341 3.4108157
000190 be 79 11 bf 82 9c 28 40 8e 42 34 c0 67 86 a6 bf
       -0.5682639 2.6345525 -2.8165622 -1.3009766
0001a0 ff c0 13 c0 96 f4 0a c0 9a ec 12 3e 92 e5 0e 3e
       -2.3086545 -2.1711783 0.14348069 0.13954762
0001b0 00 f0 a7 ba e4 4b ae 3e f1 cf 40 3f 6d a6 28 c0
       -0.0012812614 0.34042275 0.75317293 -2.6351578
0001c0 24 0e 3a 3f b3 b6 15 bf bc 50 e7 bf 0d 00 f2 3f
       0.72677827 -0.584819 -1.8071513 1.8906265
0001d0 3e 69 0e bf 78 8f ed bf 4c c8 8f c0 24 40 27 40
       -0.55629337 -1.8559408 -4.4932003 2.6132898
0001e0 9c 20 5a bf f0 82 fd be c0 6e 35 3f e1 2c cd 3f
       -0.8520601 -0.4951396 0.70872116 1.6029321
0001f0 f8 67 6f c0 f3 1e 7d 40 19 a3 32 c0 81 30 72 40
       -3.7407207 3.955014 -2.7912047 3.7842104
000200 f0 a6 bd 3f 9e 1e 1d 40 14 c4 a1 bf 08 30 98 40
       1.481657 2.4549937 -1.2637963 4.755863
000210 15 50 39 c0 9f a1 ad 40 cf 38 11 40 42 07 a3 bf
       -2.8955128 5.425979 2.2690923 -1.273659
000220 80 02 af 3f b6 12 51 40 50 0f 0c c0 b6 ad 66 bf
       1.3672638 3.266767 -2.1884346 -0.9010881
000230 be 45 86 bf 38 06 f4 bf 18 47 36 3e c0 98 cb 3d
       -1.0490034 -1.9064398 0.17800558 0.09941244
000240 74 22 18 40 32 a1 8b bf e9 03 19 c0 60 28 55 3f
       2.3771029 -1.0908568 -2.3908637 0.8326473
000250 49 1e 4f c0 8d 91 1e c0 61 8b ce 40 72 71 d7 bf
       -3.2362235 -2.4776337 6.454514 -1.6831496
000260 d2 7a c0 bf df c0 8d c0 26 2b 08 c0 ff ca 88 bf
       -1.5037482 -4.429794 -2.1276336 -1.068695
000270 b0 cd 16 40 8f bd 1d bf a0 48 76 c0 ac ec 9d 3e
       2.3563042 -0.6161737 -3.8481827 0.3084463
000280 fe b2 01 40 06 38 61 c0 34 1f c9 be 72 9f 94 be
       2.0265498 -3.5190444 -0.3928162 -0.29027897
000290 f0 0b 14 3d 17 e7 ad 3f ae 92 31 c0 bb c6 a6 bf
       0.036144197 1.3586148 -2.7745776 -1.3029398
0002a0 f2 d0 7d bf 9c 8b 86 bf 61 21 23 c0 92 a2 af 3f
       -0.9914695 -1.0511355 -2.5489123 1.3721488
0002b0 bf f8 a4 bf 3a b1 57 c0 a8 14 35 c0 72 78 3d bf
       -1.2888411 -3.370192 -2.8293858 -0.7401191
0002c0 66 12 19 40 a0 4c c4 3f 81 bf 2d 3f 62 a3 48 bf
       2.391748 1.5335884 0.67870337 -0.783743
0002d0 a8 c8 6b 3e f2 b2 6c c0 03 05 6c 3f 4c c7 ab 40
       0.23025763 -3.698422 0.9219515 5.368078
0002e0 b2 bf 94 c0 2a c2 d7 3f 2c 5d ce 3f 91 1b 33 3f
       -4.6484003 1.6856129 1.6122184 0.6996394
0002f0 f0 99 84 3f 90 7c d1 bf bd d8 35 40 2f 59 07 c0
       1.0359478 -1.6366138 2.8413537 -2.1148183
000300 72 38 0c c0 81 85 a3 bf 82 f0 5d bf b6 5a 1f 40
       -2.1909451 -1.2775117 -0.8669511 2.4899116
000310 d8 a7 60 c0 43 d6 ad c0 34 17 18 40 fb 8a 4e 3f
       -3.5102444 -5.432405 2.3764162 0.8068082
000320 68 af fb 3f 63 af 1b 3f 7a 3e b6 40 52 fc c3 bf
       1.9662905 0.60814494 5.6951265 -1.5311377
000330 ca 8b 60 40 62 10 42 3f b2 67 24 40 bf 6d cb 3f
       3.508532 0.7580625 2.568829 1.5892867
000340 ac d1 11 bf 6a 37 bc 3f 88 2e 5d 3e fb 7a ff be
       -0.5696056 1.4704411 0.21599782 -0.49898514
000350 a0 fd d6 bd 66 11 3e 40 ce d7 cf 3e e6 44 99 40
       -0.10497594 2.969812 0.40594333 4.7896605
000360 30 b3 16 c0 ac 67 b7 3f 04 a2 bb 3f e0 a2 a4 bd
       -2.3546867 1.4328513 1.4658818 -0.080388784
000370 c0 a1 74 3e 43 27 5e bf 44 ec 25 c0 9d 01 21 40
       0.23889828 -0.8677866 -2.5925455 2.5157235
000380 20 c3 3d be 3a 70 02 3f 2a 6e 04 c0 fa 3a b0 bf
       -0.18531466 0.50952494 -2.0692239 -1.3767998
000390 0c c8 44 c0 1a 21 ad 3e 40 a8 67 c0 ef bc a4 c0
       -3.07471 0.33814317 -3.6196442 -5.148063
0003a0 e9 69 0d c0 fe dc 80 40 a4 b3 27 bf b0 c2 00 bf
       -2.2095892 4.0269766 -0.65508485 -0.5029707
0003b0 5b 98 16 40 63 45 01 c0 9b d9 02 c0 d2 a6 8f be
       2.353049 -2.01986 -2.0445316 -0.2805696
0003c0 85 da 27 c0 f3 e3 a6 3f 61 4f 6f c0 e1 47 b2 bf
       -2.6227124 1.3038315 -3.73922 -1.3928186
0003d0 92 37 e8 3f 5c e9 7b c0 f3 34 0c 40 d6 b9 e0 c0
       1.8141959 -3.9361181 2.1907318 -7.022685
0003e0 c0 96 d2 bc 76 55 e6 be 90 f0 37 40 1a 51 81 40
       -0.025706649 -0.44987077 2.8740578 4.04115
0003f0 72 50 17 40 bc 16 bf bf 2d ce 20 c0 40 db e8 3d
       2.364285 -1.4928813 -2.512584 0.113699436

2.bias f4 [64]
000000 f1 a2 70 40 f8 62 b8 bf d5 67 b8 3e 40 80 65 c0
       3.7599452 -1.4405203 0.36016718 -3.5859528
000010 7f 32 b8 3f 32 c6 99 3f 76 07 12 c0 e8 d8 ea 3e
       1.439041 1.201361 -2.2817054 0.4586861
000020 7c b0 ff 3f 0b 59 2c 40 bc d0 3c bf d1 61 78 3f
       1.9975734 2.6929348 -0.73756003 0.97024256
000030 58 76 bd 40 5b 45 87 c0 3e 44 a0 3f 86 20 02 c0
       5.9206963 -4.2272162 1.2520826 -2.033235
000040 2c 7b 26 3f 18 ed 12 bf c7 de 7a 3f 8e cb 5e 3f
       0.65031695 -0.57393026 0.9799618 0.8702935
000050 b0 15 26 be 3c 8c 70 bf 12 3a b4 bf 23 50 a3 3e
       -0.1621921 -0.9396398 -1.4080222 0.31897077
000060 04 2a 83 c0 fc 3b 20 bf ca 6c 89 c0 89 1f 0a c0
       -4.098879 -0.6259153 -4.29453 -2.1581748
000070 b8 f6 a1 bf 3f 60 6c bf e0 4f 80 bf 8d 79 a0 40
       -1.2653418 -0.9233436 -1.0024376 5.0148377
000080 dc 05 87 3f 8f e5 9c bf e1 1a 85 bf 78 f2 6b 40
       1.0548663 -1.2257556 -1.0398828 3.686674
000090 9b 1d 6c 40 0b 4a 0d 40 e4 65 63 be e0 ec 7e 3f
       3.689307 2.2076442 -0.22206837 0.9958019
0000a0 8e 92 ff bf de 87 35 3f 00 95 fe bd 66 e0 54 40
       -1.99666 0.7091044 -0.12430763 3.3261962
0000b0 08 38 1d c0 f6 69 1d 40 b7 aa ca 3f 8c 4c 03 bf
       -2.4565449 2.4595923 1.5833348 -0.51288676
0000c0 ff eb 9b 3f c0 94 7f 3c 42 75 fe be 93 d4 52 bf
       1.2181395 0.01559943 -0.49698836 -0.8235561
0000d0 f4 92 85 3f 0d da db 3d f6 ea d2 bf c4 4b 94 3f
       1.0435472 0.10734949 -1.6477954 1.1585622
0000e0 fa 19 48 40 78 48 bf bd 31 d2 2d 40 70 4a 86 bf
       3.1265855 -0.09339994 2.715954 -1.0491467
0000f0 15 a5 54 c0 04 9f 8a 3e dc a9 3c bf 80 cc 8c bc
       -3.3225758 0.27074444 -0.73696685 -0.017187357

4.weight f4 [5, 64]
000000 2c 1d 13 bf d8 70 c6 be 00 f8 c1 3e 34 56 bd bf
       -0.5746639 -0.38757968 0.3788452 -1.4791932
000010 b6 1a 3a 3f d3 1b 9b 40 f0 7b ca bb 8f 54 03 c0
       0.7269701 4.8471465 -0.0061793253 -2.052036
000020 88 93 81 bf 04 a4 d3 3f 64 4f 48 3e 38 13 64 c0
       -1.0123148 1.6534429 0.19561535 -3.563673
000030 bf f5 95 c0 7b 92 88 3f 94 fb a2 c0 ec 94 06 c0
       -4.6862483 1.0669702 -5.09321 -2.1028395
000040 fa 8b 08 c0 82 2f 53 40 3b 1f 98 40 b9 8d 44 3f
       -2.1335435 3.2997746 4.7538123 0.7677875
000050 44 f8 96 3e f4 3f 0d 40 52 58 e8 3f 64 e5 ea bf
       0.29486287 2.2070284 1.8151953 -1.8351254
000060 3c 67 36 c0 39 75 8b 3f 21 5f c8 bf d0 b0 8b 3f
       -2.850051 1.0895149 -1.5654031 1.0913334
000070 5c b1 02 c0 43 79 3b c0 00 5b 09 3f 62 23 f7 be
       -2.0420752 -2.9292762 0.5365448 -0.48269182
000080 2f 41 bd 3f 2f 5c 4f 3f cc 83 15 3e b1 0c 83 40
       1.4785517 0.81000036 0.14601058 4.0952992
000090 80 aa ec bb fe 4a 63 c0 a0 95 0a 3d ee c2 42 3e
       -0.0072224736 -3.5514522 0.0338341 0.19019672
0000a0 d7 74 6d 40 b7 36 46 bf ea c9 02 c0 ff 1c aa 40
       3.7102563 -0.7742724 -2.0435739 5.3160396
0000b0 80 d0 8b bf e2 82 07 40 d6 65 a4 bf f4 33 d4 c0
       -1.0923004 2.1173635 -1.2843578 -6.631342
0000c0 b1 fa 86 3f 87 27 43 40 0f 93 95 c0 3a 0a 7f 3f
       1.0545255 3.0492876 -4.6742015 0.9962498
0000d0 e4 f8 15 3f 00 45 ee 3f ac 85 a9 3d a4 1c e0 3f
       0.585829 1.8614807 0.08277449 1.750874
0000e0 14 02 7a 3f 1a a0 2b 40 a3 10 1c bf 16 8f 12 c0
       0.9765942 2.6816468 -0.60962886 -2.2899833
0000f0 1c b1 07 bf 98 c1 0a c0 f4 b4 83 bf d8 a2 c6 3e
       -0.5300462 -2.168066 -1.0289598 0.38796115
000100 af 43 53 3f fb 7e 25 40 6e 2e 85 3f 2e f7 2c c0
       0.8252515 2.5858753 1.0404794 -2.7025867
000110 32 9c c0 bf 5f 9d a0 bf 7e a6 45 c0 7c c6 ac 3f
       -1.5047667 -1.2548026 -3.0882869 1.3498073
000120 a9 98 c6 3f 13 3a 72 40 84 73 13 bf ce 30 93 3f
       1.5515338 3.7847946 -0.5759814 1.1499269
000130 01 ee 34 40 82 cd a4 bf d9 b2 33 40 b0 8d b5 bc
       2.8270266 -1.2875216 2.807791 -0.022162288
000140 1a d3 31 bf 8c 79 5f 3f 05 a3 88 3f c4 a3 f6 bf
       -0.6946274 0.8729484 1.067475 -1.9268727
000150 09 ef a2 40 20 8f 7a 3f 81 04 80 c0 55 ab f8 3d
       5.091679 0.9787464 -4.00055 0.12142054
000160 00 90 9e 40 78 78 b5 3e d6 78 f4 bf b1 7a bb 3f
       4.955078 0.35443473 -1.9099376 1.4646817
000170 c8 6d f3 bf 9c ab cd be 7c 53 66 3e fa c3 40 40
       -1.9017878 -0.4016999 0.22492784 3.0119615
000180 3d c1 ac bf ad 5e ef 3f f2 d8 7c 40 b2 fd 48 40
       -1.3496472 1.8700768 3.9507413 3.1404843
000190 2c 49 64 3f 4c a4 02 40 6e 8c b6 40 57 40 0e c0
       0.8917415 2.041278 5.7046423 -2.222677
0001a0 bd eb ef 3f d2 02 28 bf ed 5e 38 3f d1 67 85 bf
       1.8743817 -0.65629303 0.72019845 -1.0422307
0001b0 c0 02 f1 3f 56 11 11 40 00 f9 98 3c 8c 76 c5 be
       1.8828964 2.266683 0.01867342 -0.38567007
0001c0 60 93 58 bf 61 4a 94 40 10 4a f4 3f a4 22 f4 bf
       -0.84599876 4.6340795 1.9085102 -1.9073071
0001d0 30 ef 30 bf a8 fc 0f 3f a8 3b 29 bf e8 62 10 40
       -0.6911497 0.562449 -0.66106653 2.2560368
0001e0 b6 c2 4d c0 06 5b 2f 40 2a b9 25 40 a0 14 53 bd
       -3.2150092 2.7399306 2.5894265 -0.05153334
0001f0 a8 05 3b 40 79 39 8e 3f 9d 3a c2 bf de 0c 94 3f
       2.9222202 1.1111289 -1.5174137 1.1566427
000200 20 04 6c c0 6e 12 24 40 28 12 66 bf 6a 51 4c c0
       -3.6877518 2.5636249 -0.89871454 -3.1924691
000210 40 c5 1a 3e 66 7e bf 3f 2a 58 0b 3f f1 c4 7b c0
       0.15114307 1.4960449 0.544314 -3.9338953
000220 fa 1e c2 bf 40 2d 7c c0 b9 b7 33 40 6d 90 46 c0
       -1.5165703 -3.9402618 2.8080885 -3.102565
000230 68 17 7b c0 6a 69 60 c0 f8 10 cf 3f 79 2e 4f 3f
       -3.9233036 -3.506434 1.6177053 0.80930287
000240 46 e0 22 bf a3 77 86 c0 0e db 07 3f 7d bd 56 3f
       -0.63623464 -4.202104 0.53068626 0.83882886
000250 cd 9d 84 c0 bd 61 1a 40 d8 84 9e 3f 7e a2 73 40
       -4.144263 2.4122155 1.2384291 3.8067927
000260 a1 b7 f2 3f 9b 72 b6 bf 9e 50 07 bf d8 78 26 3e
       1.8962289 -1.4253725 -0.5285739 0.16257036
000270 b6 74 2b bf 9d 04 db bf 5c 80 05 3f 5c dc ae 40
       -0.6697496 -1.7110783 0.52148986 5.4643993
000280 35 da 11 c0 28 e0 82 3f 98 fe 80 bf 1b 50 d6 40
       -2.2789433 1.0224657 -1.0077696 6.6972785
000290 6b 15 92 c0 47 c8 90 40 d3 61 8a bf 07 ac 8a bf
       -4.5651145 4.524448 -1.0811104 -1.0833749
0002a0 2e 53 9a bf ac 6d 41 3e ec 3d 13 c0 78 db 61 3f
       -1.2056634 0.18889493 -2.3006544 0.8822551
0002b0 38 10 28 3e 1e 8c 69 c0 c1 a4 e6 bf 69 02 48 c0
       0.16412437 -3.649177 -1.8019029 -3.125147
0002c0 ec cd 26 bf 5e 05 71 c0 ae a1 a2 bf 12 45 06 40
       -0.6515796 -3.7659526 -1.2705591 2.0979657
0002d0 5d 85 f3 3f 64 e9 3a 3f 10 16 39 40 9f c8 12 40
       1.9025074 0.73012376 2.8919716 2.293495
0002e0 ec b0 31 40 12 30 13 c0 d2 1e d2 bd f0 21 9d c0
       2.7764235 -2.299809 -0.10259785 -4.9103928
0002f0 4b 90 78 bf fd e9 42 c0 a9 a7 10 c0 73 00 da bf
       -0.97095174 -3.0455315 -2.2602332 -1.7031387
000300 cf 0e 3f c0 54 9c 40 bf 5e 3e 54 3e 14 bc 84 bf
       -2.9852788 -0.7523854 0.20726916 -1.0369897
000310 70 3c 7d c0 60 1a 47 c0 8a 0f 10 3f cc 1e fd bf
       -3.9568138 -3.1109848 0.5627371 -1.9775023
000320 b1 e5 74 3f 10 a2 a8 bf b0 3e 4b c0 53 28 47 40
       0.9566298 -1.3174458 -3.1757011 3.1118362
000330 dc 55 b6 3f d5 ee 90 3f ab 55 41 bf ec 98 0f bf
       1.4244952 1.1322886 -0.75521344 -0.56092715
000340 fe 2f 03 be 48 12 54 be ce e3 3c 40 98 66 cc 3f
       -0.12811276 -0.20710099 2.951404 1.5968809
000350 08 3d ea 3f 4e 23 3f c0 40 2a f0 3c c0 c2 76 3d
       1.8299875 -2.9865298 0.029317021 0.06024432
000360 6d 42 a6 c0 56 35 9e c0 e5 58 e7 3f 84 c0 ec bf
       -5.1956086 -4.9440107 1.8074003 -1.8496251
000370 1d b4 e0 bd 92 b7 5d 3f 40 ba 01 3f 31 2f 18 40
       -0.10971854 0.8660823 0.5067482 2.3778803
000380 74 cc 17 c0 58 be 52 c0 7f f4 5f bf a3 6a ec 3f
       -2.3718538 -3.2928677 -0.87482446 1.8470043
000390 91 e8 41 c0 9e 42 1a bf 81 98 c1 bf e8 0b 9f 3f
       -3.0298197 -0.602579 -1.5124665 1.2425508
0003a0 7e 10 b8 3e 5d a8 9e c0 3b 2c f4 3e f4 a6 59 3e
       0.35950083 -4.958052 0.47689995 0.21255094
0003b0 59 9e 4f 40 49 65 00 c0 47 51 94 40 9a c3 85 bf
       3.2440398 -2.006182 4.6349216 -1.0450318
0003c0 30 aa 00 c0 0e 7f 0a 3f 8e aa fe 3f 08 5a 53 40
       -2.0103874 0.5410012 1.9895799 3.30237
0003d0 00 00 67 bc 80 b7 a1 3f 5b 8f eb 3e bb 6b e2 bf
       -0.014099121 1.2634125 0.4600781 -1.7689127
0003e0 e9 68 98 3e 11 31 0d c0 38 a2 89 40 5f eb 1d 40
       0.2976754 -2.2061198 4.301052 2.467491
0003f0 fb 90 de 3f 64 51 a0 3f e5 75 38 40 8b 90 15 3f
       1.7387995 1.2524838 2.8821957 0.5842368

4.bias f4 [5]
000000 e0 62 40 c0 39 0f 57 40 e5 4a 12 c0 cc ab 72 bf
       -3.0060349 3.360304 -2.2858212 -0.9479339
000010 f4 24 0b 40
       2.1741304
