demo/experiments/genetic_algorithm/ga_experiment_2021_02_12_160407/problem_54.model (torch, 26149 bytes, 6 tensors)

0.weight f4 [64, 22]
000000 94 0c ac c0 a4 ee 1f bf 8c c1 8f bf 26 f6 a4 3f
       -5.3765354 -0.6247351 -1.1230941 1.2887619
000010 ae 01 94 c0 77 81 84 bf 57 a1 17 40 02 4f 7e 3f
       -4.625205 -1.035201 2.3692224 0.99339306
000020 44 a3 98 3f c0 83 bb 3c 3e 9e 87 bf c4 94 f5 3f
       1.1924825 0.022889972 -1.0595167 1.9186025
000030 22 53 82 c0 a7 0e 5a 40 9f ee 6c bf 9c 01 6a 3e
       -4.072648 3.4071443 -0.92551607 0.22852176
000040 ac 0a b3 bf 56 08 ed 3e 48 6b 6c 40 e6 1b c1 3e
       -1.3987632 0.46295422 3.694048 0.37716597
000050 bc c3 d6 be 46 12 7f 40 6c a3 71 bf fc c6 4b 40
       -0.41946208 3.9854903 -0.94389987 3.18402
000060 dc d0 0b 40 b1 bb ab 3f c0 90 1a be 74 d3 13 c0
       2.1846228 1.3416654 -0.1509428 -2.309781
000070 14 53 c1 3d 44 c1 7a 3f 55 ec 80 40 1a 61 90 be
       0.09439674 0.9795115 4.028849 -0.28199083
000080 23 a5 6b bf 94 4d 81 3f f2 64 19 bf a8 4e af 3e
       -0.92048854 1.01018 -0.59919655 0.34239697
000090 f4 10 e8 3f dc 50 21 bf bd 63 75 c0 92 a4 32 c0
       1.8130174 -0.63014007 -3.8342125 -2.7912946
0000a0 5f fe 46 3f 8e d3 6e bf aa 5b 1f c0 4f 22 01 c0
       0.7773189 -0.93291557 -2.4899697 -2.017719
0000b0 e1 6e 14 40 2c f4 7a 40 62 9a 74 3e b4 ad 8b 40
       2.3192675 3.921153 0.23887017 4.364954
0000c0 df 50 79 bf 14 49 a8 3f 10 89 22 40 37 f5 41 3f
       -0.97389024 1.3147302 2.5396156 0.75764793
0000d0 40 b1 1c 40 09 ce bd c0 b7 6c c2 bf 4a 4f 4b bf
       2.4483185 -5.931401 -1.5189427 -0.7941786
0000e0 20 89 2b c0 40 ff 00 be b0 f3 6a 3d 5a e4 19 3f
       -2.6802444 -0.1259737 0.057361305 0.6011406
0000f0 47 51 33 c0 00 ec 21 3b ec 2b c7 3f 41 74 d5 bf
       -2.8018358 0.0024707317 1.5560279 -1.6676103
000100 e9 a9 de 3f 5b 86 aa 40 78 27 3c be 96 18 a7 be
       1.7395602 5.328901 -0.18374431 -0.32635945
000110 47 18 8f bf de f6 84 be 5c 6b 1f 40 d7 a9 96 3f
       -1.1179284 -0.25969595 2.4909277 1.1770581
000120 67 53 ab 3f 03 d9 39 c0 dc 0d 15 40 e5 05 56 bf
       1.3384827 -2.9038703 2.328971 -0.83602744
000130 b4 f8 44 c0 14 c3 8b c0 da 76 7f 40 86 29 0c 40
       -3.0776796 -4.3675632 3.9916291 2.1900344
000140 1e 43 1a 40 60 9d 69 be 10 21 e4 bf c5 49 35 40
       2.4103465 -0.2281394 -1.782259 2.8326275
000150 0a 36 15 bf 18 89 20 c0 0b 23 18 bf 5e 57 bd be
       -0.5828558 -2.5083675 -0.5942847 -0.36980718
000160 6c 8a 94 3f 10 78 bc 3d 4d a4 1d 3f 4a b4 33 bf
       1.1604743 0.092025876 0.6157883 -0.70196974
000170 90 aa 66 c0 9b 7f 0f 40 a9 47 92 40 d8 bd 95 3f
       -3.6041603 2.2421634 4.5712476 1.1698561
000180 98 12 d5 3f 79 65 a3 3f b9 08 ac 3f 36 59 1e 40
       1.6646299 1.2765342 1.3440162 2.474195
000190 c4 5c 88 c0 30 56 cf bf 5e 2f 34 bf 87 cc dc bf
       -4.261324 -1.6198177 -0.70384777 -1.7249917
0001a0 12 35 d6 bf 3b 8e e2 bf ef b4 86 40 d9 56 0c c0
       -1.6734946 -1.7699655 4.2095866 -2.1928008
0001b0 f5 5a c3 3e 5a ef a0 3f 65 da a6 bf 04 a9 cb c0
       0.38155332 1.2573044 -1.3035399 -6.364382
0001c0 26 ae 4f 40 3b fd 08 41 c8 fb 63 3f 2f 49 c6 be
       3.2450042 8.561824 0.8905606 -0.3872771
0001d0 58 bf a1 c0 ea 9c 03 c0 4c 3f de 3e 32 4e fc be
       -5.0546074 -2.0564523 0.43407667 -0.49278408
0001e0 bc 64 7a 3f 0c 3d 86 bf d6 d2 29 c0 41 10 68 3f
       0.9780996 -1.048738 -2.6534934 0.906498
0001f0 84 ce 74 3d 61 58 d3 3f b6 da b3 c0 53 6d 88 3f
       0.05976726 1.6511346 -5.620448 1.0658363
000200 f8 b7 15 c0 a0 30 30 40 b6 b5 dd 3e 50 90 57 3d
       -2.3393536 2.7529678 0.43302697 0.05262786
000210 e2 ba 04 bf 16 cf ca 3f 6e a2 48 3f 22 f6 3f bf
       -0.5184766 1.5844448 0.7837285 -0.74984944
000220 c2 e9 34 40 82 a1 9b bf d5 57 f4 be e8 a9 9e 40
       2.8267674 -1.2158663 -0.4772326 4.9582405
000230 92 cf 11 40 e6 0f 59 40 85 05 8f 40 a4 db 73 3f
       2.278294 3.3915954 4.469424 0.9525702
000240 87 58 2a c0 f9 61 72 3f ee 06 cf bf 78 5d 6b 3e
       -2.6616533 0.94680744 -1.617399 0.22984874
000250 85 ed c5 3f 69 03 a9 40 1f 99 b7 c0 4a e6 7d c0
       1.546311 5.2816663 -5.7374415 -3.9671807
000260 57 43 86 40 47 b3 a5 bf 73 15 5b 40 40 e3 9d 3f
       4.19572 -1.2945336 3.4231842 1.2334976
000270 b8 c0 dc bd c8 bd 64 3e f3 33 b0 be 22 81 13 40
       -0.10778946 0.22338021 -0.34414634 2.3047566
000280 65 8d bd bf a0 59 0c 3f 70 15 62 3f 64 8f 82 c0
       -1.4808775 0.54824257 0.8831396 -4.0800037
000290 e3 cf 31 3f d2 8e 07 40 d8 ff 32 bf 35 db 17 40
       0.69457835 2.118092 -0.69921637 2.3727543
0002a0 27 67 2b 40 78 33 26 bf bc e4 8d 3e 14 a7 67 40
       2.678171 -0.64922285 0.27713573 3.6195726
0002b0 b7 67 7f 40 08 34 cc bf cc 5a 16 3f 7c c6 b4 40
       3.9907053 -1.5953379 0.58732295 5.649229
0002c0 d0 72 7d be 17 55 de bf 28 a7 74 40 7d 6a 15 40
       -0.24750829 -1.7369717 3.8227024 2.3346245
0002d0 90 89 9a bf a8 ac 06 bf cc 19 39 3d a7 7c 9e 40
       -1.2073231 -0.526072 0.045190617 4.9527164
0002e0 ac 66 7d 3f b2 27 1d c0 35 f2 ab bf 38 e6 4f bf
       0.9898479 -2.4555478 -1.3433291 -0.8121066
0002f0 b6 77 dd 3f 77 8f ca 3f 1e 4c 05 c0 76 89 0d c0
       1.7302158 1.5825032 -2.0827708 -2.211515
000300 a4 22 46 40 f8 90 04 40 fc eb 8c bf 84 b2 45 40
       3.0958643 2.0713482 -1.1009517 3.0890207
000310 02 d2 83 3f 0e 49 ef 3d 99 23 a2 c0 a6 36 2c 3f
       1.0298464 0.11683856 -5.0668454 0.67270887
000320 fb a7 44 be 94 ba 7d 3f 5a 02 b1 3f 3d c1 7b bf
       -0.19204704 0.9911282 1.3828843 -0.98341733
000330 42 47 d7 bf 4a c7 37 40 6b 53 12 c0 c8 07 a8 bf
       -1.6818621 2.8715386 -2.2863414 -1.3127375
000340 ea b0 3b 40 69 76 ec bf 43 4d 81 c0 51 2b 31 40
       2.932673 -1.8473636 -4.0406814 2.7682688
000350 e7 16 b8 3f e4 d6 3d be 01 1a c0 3f 40 e5 f7 bc
       1.4381989 -0.18539006 1.5007936 -0.030260682
000360 94 13 21 bf a3 5c a8 bf a8 69 65 bf d5 23 1f c0
       -0.629205 -1.315327 -0.89614344 -2.486562
000370 88 9a 4b c0 c6 69 15 bf f6 72 e8 bf d0 ce 02 3d
       -3.1813068 -0.5836452 -1.8160083 0.031935513
000380 28 40 2c 40 e0 90 40 40 23 13 45 bf e2 4d a0 3f
       2.6914158 3.0088425 -0.76982325 1.2523768
000390 5c 47 4c be 84 9a d9 be f0 c3 66 c0 9a 7c a4 3e
       -0.19949096 -0.425007 -3.605709 0.32126313
0003a0 79 83 13 40 e9 b6 96 3f bc 1a 24 3f 00 e4 30 39
       2.3048995 1.177457 0.64103293 0.00016869605
0003b0 ea a2 01 40 48 25 24 3f 19 2e 9a c0 7e 01 ed bf
       2.0255685 0.64119387 -4.818127 -1.851608
0003c0 14 97 54 bf c4 46 29 40 3e f9 81 40 3d 99 b7 3f
       -0.83043027 2.6449442 4.061675 1.434364
0003d0 c5 8e f5 3f 7a 2f 17 40 ca 1f 6c c0 84 35 ec bf
       1.9184195 2.3622727 -3.6894403 -1.8453832
0003e0 0e 42 7c bf a8 9d 89 be d3 7b 16 40 7f ce 85 3f
       -0.9853829 -0.26878095 2.3513076 1.0453643
0003f0 58 8f 1a c0 d2 ba 84 3f c2 68 3a bf b3 d2 0e 40
       -2.414999 1.0369513 -0.728161 2.23161

0.bias f4 [64]
000000 27 6d b1 bf a9 be c9 3f cc 0c a1 c0 dc c9 19 40
       -1.3861436 1.576131 -5.032812 2.4029455
000010 2c b0 ec be c3 97 89 40 44 07 92 40 a6 57 ea 3f
       -0.46228158 4.2997756 4.563387 1.8307998
000020 76 74 61 bf 9b 43 ab 3f 81 c3 83 3f 38 23 6a c0
       -0.8806833 1.3380007 1.0294038 -3.6583996
000030 ef 21 ec be 56 39 17 c0 bb 76 3a c0 3c f3 0e 40
       -0.4611964 -2.3628745 -2.9134967 2.2335958
000040 00 c0 0c bf b6 95 0f 3f 18 6b b2 c0 75 61 80 bf
       -0.5498047 0.56087816 -5.575573 -1.0029742
000050 74 d5 a7 be 66 69 81 bf c6 de df 3f 86 d0 aa be
       -0.3278004 -1.011029 1.748986 -0.33362216
000060 e7 ef 22 c0 5e e4 4b c0 26 18 77 bf bc 08 b4 3f
       -2.5458925 -3.1858134 -0.9652122 1.4065166
000070 76 9c c9 be 14 5f b0 be 34 e8 91 3f a5 27 0b c0
       -0.39377183 -0.3444754 1.1398988 -2.1742947
000080 ba 62 cc 3f c8 7f 01 c0 18 2b df bf 3c 0e 02 c0
       1.5967629 -2.0234241 -1.7435026 -2.0321188
000090 00 bb 60 3d 9c af 70 3e 56 3a aa bf 78 aa 59 3e
       0.054865837 0.2350449 -1.3299053 0.21256435
0000a0 c7 ea a8 40 fd 2e 7f 40 59 2e 85 3f a7 44 44 3f
       5.2786593 3.987243 1.0404769 0.76667255
0000b0 1f 1f 24 3f 9d 1d 09 40 7c 3d 87 bf a4 9e c8 3f
       0.6410999 2.1424325 -1.0565639 1.5673413
0000c0 43 4f a1 3f 58 72 e2 bf a6 e4 0f c0 f6 9b de 3f
       1.2602314 -1.7691145 -2.2483306 1.7391346
0000d0 f4 f0 3f bf 93 13 6d 40 7a c9 1f 40 c2 96 b3 3f
       -0.7497704 3.7043197 2.4966722 1.4030383
0000e0 a0 2a 19 c0 42 f3 c6 be fa a2 73 c0 20 d2 c7 bf
       -2.3932266 -0.38857466 -3.8068223 -1.5611
0000f0 18 1c 34 40 f4 1c 1e bf 0c b4 1c bf c9 c7 b1 3f
       2.8142147 -0.6176293 -0.6121223 1.3889095

2.weight f4 [64, 64]
000000 33 f4 03 3f d7 c8 91 3f 99 14 a6 40 40 08 29 c0
       0.51544493 1.1389416 5.1900144 -2.6411285
000010 c0 88 d7 bc 48 6e b8 be a8 dd 4d bf 42 33 29 c0
       -0.026310325 -0.36021638 -0.80416346 -2.6437535
000020 60 86 c0 bf 78 16 08 c0 05 c1 fa 3f 7b 61 7a c0
       -1.5041008 -2.1263714 1.9590155 -3.9121997
000030 8c 5f 43 40 ae 11 31 bf d2 24 e1 3f 02 c8 2c c0
       3.0527067 -0.691676 1.7589362 -2.6997075
000040 c6 37 84 3f e4 55 b7 bf 9b 28 7f c0 76 8e 70 40
       1.0329521 -1.4323087 -3.9868534 3.7586951
000050 4d e6 05 bf 99 c8 23 c0 27 71 2d bf 8c dd bd bf
       -0.52304536 -2.5591185 -0.6775078 -1.4833236
000060 44 26 c7 3d 76 76 35 bf 2f 9d a5 3f 1c 59 91 be
       0.097240955 -0.7088388 1.2938594 -0.28388298
000070 b6 de af be a5 dc 84 bf 1b 43 31 40 50 17 e0 bd
       -0.34349602 -1.0379835 2.7697208 -0.109419465
000080 6c 9c cd c0 23 65 d1 3f f4 2a 3f bf 6d 56 e3 bf
       -6.4253445 1.635899 -0.74674916 -1.776075
000090 70 c6 23 40 6a 60 d1 be c0 f8 e4 bf 01 c0 17 bf
       2.5589867 -0.4089387 -1.7888412 -0.5927735
0000a0 79 fc ed 3e c5 63 a3 c0 4c 78 28 40 d6 fc 1e 40
       0.46481684 -5.105929 2.6323423 2.484182
0000b0 a6 5f ef bf 25 81 08 c0 21 70 13 40 93 e5 e0 3f
       -1.8701065 -2.1328824 2.3037188 1.757006
0000c0 12 ff 1f 40 7b 42 c0 bf f5 26 70 bf 47 c0 36 40
       2.4999433 -1.5020288 -0.93809444 2.8554857
0000d0 44 9d d7 3f 65 89 ad bf 18 32 f5 3f 59 7d 15 bf
       1.6844869 -1.3557554 1.9155912 -0.5839439
0000e0 15 8d 81 bf ae f8 21 40 f3 53 8d bf 71 49 d6 3f
       -1.012118 2.5308032 -1.1041244 1.6741163
0000f0 4b f8 52 c0 8d 4a d5 bf 44 83 fb 3f e6 8a 38 40
       -3.2964046 -1.6663376 1.9649434 2.8834777
000100 f0 f2 fd bf 4b 55 1d 40 29 9e e8 bf 9f cb 06 40
       -1.9839764 2.4583309 -1.8173267 2.106178
000110 16 d2 76 40 04 11 df bf 2a c6 e1 bf 35 17 b8 bf
       3.8565726 -1.7427068 -1.76386 -1.4382082
000120 1d e8 d5 bf 00 ea e4 3e 55 9b a2 3e 44 14 ec 3f
       -1.671146 0.44709778 0.31759134 1.8443685
000130 3a ab 4d 40 48 27 12 40 3b e8 f3 bf 8a 3a 61 40
       3.2135758 2.2836475 -1.9055246 3.519198
000140 4c 31 b2 bf 46 36 46 40 2f b5 ac bf da df 22 bf
       -1.3921294 3.0970626 -1.3492793 -0.6362282
000150 b0 3d 23 bf 30 bb a6 bf 96 47 34 3f e4 0e 08 40
       -0.63766 -1.3025875 0.7042173 2.1259089
000160 67 fb ea bf b5 24 30 c0 00 b9 4c bd 93 0f ce bf
       -1.8357972 -2.7522404 -0.049981117 -1.6098503
000170 9d eb e5 3f 0c 04 06 3e b2 75 80 c0 c1 1e 29 40
       1.7962528 0.13087481 -4.014367 2.642502
000180 94 e8 38 c0 d0 cc 3e c0 c8 75 81 40 5c 54 85 c0
       -2.8891954 -2.9812508 4.0456276 -4.166548
000190 46 c8 16 40 98 3d c7 3e 38 ca b9 3f fc 30 ce bf
       2.3559737 0.3891418 1.4514837 -1.6108699
0001a0 d2 de 92 be 54 45 a7 c0 0b c7 97 3f b7 1d 4b 40
       -0.28685623 -5.227213 1.1857618 3.1736887
0001b0 ce 4e 8b 40 2c 83 02 c0 a8 0a ab 3f 88 5a 95 3f
       4.3533697 -2.039256 1.3362627 1.1668253
0001c0 ce 7f 39 40 09 18 00 c0 bc 1b 71 40 c0 89 24 3e
       2.8984256 -2.001467 3.7673178 0.16068172
0001d0 4e 69 c2 3e f0 53 d2 bf fe 16 c2 3f 8e 74 36 40
       0.37970966 -1.6431866 1.5163267 2.850864
0001e0 79 4a 09 c0 aa fb 24 c0 3c 5c 6e bf 63 8f 3e c0
       -2.1451705 -2.5778604 -0.9310949 -2.9775016
0001f0 6e d9 d0 3f 92 92 81 40 66 a3 21 c0 fa 99 01 bf
       1.6316354 4.049142 -2.525598 -0.50625575
000200 80 bb 4c be 2b e3 72 bf 84 18 97 3f 13 2f a8 bf
       -0.199934 -0.9487788 1.1804357 -1.3139366
000210 5e b8 1b c0 5d 42 c1 3f ca 04 97 3f 0e fd 70 be
       -2.4331279 1.5098377 1.1798337 -0.23534033
000220 e1 14 8d c0 38 62 9a bd 46 7c 8e c0 6c b6 c0 3f
       -4.4087987 -0.07538265 -4.45267 1.5055671
000230 f2 54 84 3e 08 ad 1f 40 d2 dd 2e c0 4b 86 7d 40
       0.25846058 2.494936 -2.7322888 3.9613216
000240 d0 71 1f bf d9 86 c8 3f d0 89 d3 3d d8 ae f2 3f
       -0.6228304 1.5666152 0.1032902 1.8959608
000250 94 3a a2 be 58 d7 05 41 74 37 4c bf f0 26 67 c0
       -0.31685317 8.365074 -0.79772115 -3.6117516
000260 fe b7 51 3e 98 48 f6 bf 74 af 3a c0 24 42 35 c0
       0.20480344 -1.9240904 -2.9169588 -2.832162
000270 2c 62 7d 3e d0 6b b0 c0 cd 8f bb bf 0b f8 89 3f
       0.24744481 -5.5131607 -1.465326 1.0778822
000280 cb 59 0b c0 e6 66 ce bf d6 36 2b bf ff 40 61 bf
       -2.1773555 -1.6125152 -0.6688055 -0.879898
000290 e2 0a 28 c0 a1 8d 50 3e af 25 fc 3f 14 4f c5 be
       -2.6256642 0.20366527 1.9699 -0.38536894
0002a0 14 37 b7 3f 76 e7 34 3f 52 bd 48 40 3e 97 a4 40
       1.4313684 0.7066568 3.1365552 5.143462
0002b0 e0 c2 99 3f ae 56 d3 c0 7d 6c af 40 f4 1a 01 3f
       1.2012596 -6.604331 5.481993 0.5043175
0002c0 08 b8 78 3e 50 b5 24 c0 e0 39 d1 3e 10 2a 81 be
       0.24288952 -2.5735664 0.40864468 -0.25227404
0002d0 9f b7 a1 40 30 5b 91 3f 89 8d f4 3f 93 e1 12 40
       5.0536647 1.1355953 1.9105693 2.295018
0002e0 50 5d 2c 40 3b c2 20 c0 88 65 5a be 7f ce e8 40
       2.6931953 -2.511855 -0.21327794 7.275207
0002f0 b5 82 5a c0 82 a5 d9 be 6a 8e 49 c0 4a d5 dd bf
       -3.4142277 -0.42509085 -3.1493173 -1.7330716
000300 27 d2 f4 bf 04 e0 ac bf 44 66 00 bf 3c 2b bf bf
       -1.9126633 -1.3505864 -0.50156045 -1.4935069
000310 60 ab c3 3d 2e ad 3d c0 08 a6 c9 be 4b 59 20 40
       0.095541716 -2.963695 -0.39384484 2.50545
000320 24 f1 30 bf f0 02 65 40 a8 ef d4 bf 27 53 24 c0
       -0.6911795 3.5783043 -1.6635637 -2.5675752
000330 99 57 4c 40 b4 93 3c 40 ae de ac 3e a4 dd 6d bf
       3.1928465 2.946515 0.3376364 -0.9291632
000340 c1 14 12 c0 f1 cb 27 c0 ee 14 c9 3f 0c 01 4d be
       -2.2825167 -2.6218226 1.5709512 -0.2001993
000350 92 e3 28 3f 14 7a e4 bf df df d7 bf 04 fe e0 40
       0.65972245 -1.7849755 -1.6865195 7.031008
000360 b3 de 5d 3f 07 8d 73 bf 4e ed c5 3d 59 76 b9 c0
       0.8666794 -0.95137066 0.09664403 -5.7956967
000370 30 e2 45 40 4e 01 6d 3d f6 ad 04 40 2d 0d d4 3e
       3.0919304 0.057862572 2.0731177 0.41416302
000380 e4 13 ee 3f 35 66 c9 3f e1 e2 d0 3f e4 04 85 be
       1.859982 1.5734316 1.6319238 -0.25980294
000390 e8 ec 38 40 56 7e 84 c0 c6 d4 fa 3f fc 7e 89 be
       2.8894596 -4.140422 1.9596183 -0.26854694
0003a0 84 b7 92 3d f0 1a 2f bd 8a 57 10 40 8e 81 44 40
       0.07163909 -0.0427503 2.255343 3.0704074
0003b0 2c bf 07 3f c6 c6 08 3f f6 4b 0f c0 51 d1 bf 3f
       0.5302608 0.53428304 -2.2390113 1.4985753
0003c0 2e a6 a6 40 60 6d 61 c0 54 0b db bf eb 47 26 c0
       5.2077856 -3.5223007 -1.7112832 -2.5981395
0003d0 97 40 b8 bf 0a a7 6c 40 50 c4 77 c0 a3 2c f0 bf
       -1.4394711 3.6976953 -3.871357 -1.8763622
0003e0 e0 83 54 3e ac 03 51 c0 75 f6 89 40 f9 9f 04 41
       0.20753431 -3.265849 4.311335 8.289056
0003f0 cf f6 06 c0 82 d3 70 3f a2 27 43 c0 4a d2 22 40
       -2.108814 0.94072735 -3.049294 2.544085

2.bias f4 [64]
000000 4a d1 2a bf e4 a3 90 bd 5d 7b 7c c0 3d 31 6d bf
       -0.667256 -0.0706251 -3.9450295 -0.92653257
000010 7a d9 11 c0 ed d8 3f 40 64 69 b6 40 3f 93 64 40
       -2.2788987 2.997615 5.700365 3.5714872
000020 79 94 81 c0 e5 1d 43 40 90 98 4e 3e 5f 64 11 bf
       -4.049374 3.0486996 0.20175385 -0.5679378
000030 94 6a 3a c0 e9 3d 4b 40 2c 79 16 bf 5f ea fd bf
       -2.912755 3.1756537 -0.58778644 -1.9837149
000040 e7 55 21 40 a2 b1 61 c0 3c fb f5 3e ac d6 4a bf
       2.520868 -3.5264668 0.4804324 -0.79233813
000050 b3 80 6d c0 94 ec 4b be 3a d3 b7 c0 14 99 68 bf
       -3.7109802 -0.19914466 -5.7445345 -0.9085858
000060 06 3e 60 3f 02 1f 0c c0 5a 09 3b 40 03 5f 25 40
       0.8759464 -2.1893926 2.9224458 2.583924
000070 34 22 bf 3f a2 a1 8b 40 52 cb 5f c0 13 e5 66 c0
       1.4932313 4.3634806 -3.4967847 -3.6077316
000080 d4 d6 b2 3f 99 bd 3c 40 eb 97 f6 3f ee 31 37 40
       1.397181 2.9490721 1.9265112 2.8624225
000090 5a ca 37 3f 74 eb d2 be e6 26 6e 3f 68 63 4d 40
       0.7179314 -0.4119526 0.93028104 3.2091923
0000a0 b9 8f a6 be 08 86 82 c0 56 6a 8a c0 d0 5f a8 3f
       -0.32531527 -4.078861 -4.3254805 1.315424
0000b0 4c f8 f8 bf d7 91 4a c0 45 a9 4e bf 4f af 83 c0
       -1.9450774 -3.1651514 -0.80727035 -4.11515
0000c0 49 22 e2 bf f4 a9 ee be 68 46 19 3e 66 07 4d 3f
       -1.7666713 -0.4661404 0.14968264 0.80089414
0000d0 0e db 1e 3f 14 8d 7f c0 b8 43 91 40 8c ed 9d be
       0.62053 -3.9929857 4.5395164 -0.30845296
0000e0 28 ef 9c c0 4b dd a2 3f 54 ce 76 40 e2 dd 6f 40
       -4.904194 1.2723783 3.8563433 3.7479177
0000f0 3c 2f 83 3e 68 21 ad 3e 09 a4 f2 3e f6 1a 84 bf
       0.25621974 0.3381455 0.47390774 -1.0320728

4.weight f4 [5, 64]
000000 49 94 30 be 0a 67 90 40 70 88 45 c0 46 94 00 bf
       -0.17244066 4.512578 -3.0864525 -0.5022625
000010 7a c7 22 bf 68 f1 21 c0 30 02 bc 3f ee ac 2f c0
       -0.6358563 -2.5303593 1.4688168 -2.7449298
000020 cb 30 81 40 12 06 a4 3f 58 61 fe bf 36 72 03 c0
       4.037206 1.2814353 -1.9873457 -2.053846
000030 cb 49 0f 3f f4 6e 89 bf e8 a7 8e c0 4e dd ee 3e
       0.55971974 -1.0736985 -4.4579964 0.46653217
000040 50 02 6b 40 03 b9 62 3f f8 6d 78 3f e0 af 2b bf
       3.6720161 0.88563555 0.970428 -0.6706524
000050 9f ab 4d 40 88 20 67 c0 4b cc 5f 3f 34 b5 15 3f
       3.2136 -3.6113605 0.874211 0.5847962
000060 0b a8 6d c0 32 8b 22 bf 4d c7 38 c0 da 2a 3d 3f
       -3.7133815 -0.63493645 -2.8871644 0.7389351
000070 29 11 b3 3f c1 59 8e c0 5e 09 80 40 dc 4a 27 40
       1.3989612 -4.4484563 4.0011435 2.613944
000080 05 26 03 3f 68 0e 65 bf e7 45 7f 40 cc 42 c6 bf
       0.5122989 -0.8947511 3.9886415 -1.5489135
000090 b4 e3 7a bf a0 16 22 bf 81 d0 30 3f 09 40 4a 40
       -0.980037 -0.63315773 0.6906815 3.1601584
0000a0 10 87 d6 be b6 8b f8 bf 67 24 47 3e 5e 5d 01 40
       -0.4189992 -1.9417636 0.1944748 2.0213237
0000b0 25 71 15 40 7e d4 6f bf ec 1a bc bf 8c 20 a6 c0
       2.3350308 -0.9368361 -1.4695716 -5.191473
0000c0 0c 2e 11 bf 8b 1f 3f c0 08 16 c2 be 19 e9 ac c0
       -0.56710887 -2.9863002 -0.37907434 -5.4034543
0000d0 3e 5f 2d 40 a2 8c a1 3f 85 b4 87 bf 80 63 cf be
       2.7089381 1.2621043 -1.0601965 -0.405056
0000e0 7a bb 62 40 6b 3f 83 3f 26 9c 54 c0 2b 19 95 c0
       3.5426927 1.0253729 -3.3220305 -4.6593223
0000f0 8c d2 67 3f cb eb 92 bf 27 80 11 bf b6 39 17 bf
       0.90555644 -1.1478208 -0.5683617 -0.59072435
000100 77 76 fa 3f fd 6e 76 3f 07 96 57 bf b9 96 e7 3f
       1.9567403 0.96263105 -0.842133 1.8092872
000110 7a 80 85 3f 82 b9 d6 3f ad b9 25 c0 7d ba 54 bf
       1.0429833 1.6775362 -2.5894578 -0.8309706
000120 f6 75 a5 40 b6 6c 0e c0 66 04 72 bf e4 19 45 3f
       5.1706495 -2.2253852 -0.9453796 0.7699263
000130 ca 6e c8 3e 0f 6b ae c0 37 5e 31 c0 0a 33 b0 3f
       0.39147025 -5.4505687 -2.7713754 1.3765576
000140 74 f2 07 c0 8b 76 b0 bf c2 7e 68 40 0f c7 36 40
       -2.1241732 -1.3786176 3.6327367 2.8558996
000150 19 6a 6e bf 24 88 87 3e 99 67 7e c0 82 5d b2 3f
       -0.9313064 0.26471055 -3.975073 1.3934786
000160 12 8c dd bf 00 fc 2b c0 eb 35 78 c0 78 dd 65 bd
       -1.7308371 -2.6872559 -3.878291 -0.056119412
000170 64 95 90 bf ec cd f0 3d e0 55 39 3f 80 aa d5 3c
       -1.129559 0.117580265 0.7239666 0.026082277
000180 54 5f 90 3e f1 2f 6d 40 30 ed 48 40 00 b4 45 3b
       0.2819773 3.706051 3.1394768 0.0030167103
000190 a8 69 47 40 ec ff 57 40 2c ac 1e c0 20 81 e4 bf
       3.1158237 3.3749952 -2.4792585 -1.7851906
0001a0 b1 ed 49 c0 48 68 0a c0 9c 09 3c 40 84 0a 02 c0
       -3.1551325 -2.1626148 2.9380865 -2.0318918
0001b0 d4 23 d4 bf 1e 30 75 3f 6c 0c 43 c0 ba 94 d9 3e
       -1.6573434 0.95776546 -3.0476332 0.42496282
0001c0 9e 12 9e bf 68 e4 a1 c0 68 ae df bd 42 be 27 bf
       -1.2349432 -5.0591316 -0.10921937 -0.65524685
0001d0 60 52 34 be eb 60 28 c0 14 b5 80 3e 9c 78 34 c0
       -0.17609549 -2.6309154 0.25138152 -2.8198614
0001e0 37 40 33 c0 24 23 1e bf 63 49 f2 bf 66 8f d2 3e
       -2.8007944 -0.6177237 -1.8928646 0.4112503
0001f0 e0 5a a0 be 8e b9 a0 3f ec e8 37 3f 71 f1 49 c0
       -0.31319332 1.2556627 0.71839786 -3.1553614
000200 e4 d5 29 40 2a 2f bc bf ba ad f6 be 01 a2 f8 bf
       2.6536798 -1.4701893 -0.48179418 -1.942444
000210 72 a1 0b bf f4 44 09 3e 03 2c c1 3e dc 10 ba bf
       -0.5454322 0.1340521 0.3772889 -1.4536395
000220 f8 44 0b 40 d8 8c 21 40 62 a7 8d bf ab 55 c6 bf
       2.1760845 2.5242214 -1.1066706 -1.5494894
000230 c6 c1 68 c0 0a 80 bc bf 40 7d 3d c0 3a b8 09 40
       -3.636827 -1.4726574 -2.9607697 2.1518693
000240 43 bf 29 c0 f4 19 fc 3e 90 b2 20 c0 92 32 5b 40
       -2.6522987 0.4923855 -2.5108986 3.4249616
000250 7e f6 87 c0 d8 b5 bb 3e 88 4d 25 bf 59 63 aa bf
       -4.2488394 0.36662173 -0.6457143 -1.3311568
000260 00 30 78 3e 3a ba 6d c0 87 7a f1 bf b3 94 e8 3f
       0.2423706 -3.7144914 -1.8865517 1.8170379
000270 04 ba c7 3f ba ba f5 3f 20 03 e5 bf 51 fb e9 bf
       1.5603642 1.919761 -1.7891579 -1.8279821
000280 f1 d4 92 be 04 dc 8f be 3a 16 03 40 c8 ec 34 c0
       -0.28678086 -0.28097546 2.0482316 -2.826952
000290 df 88 80 c0 10 b0 56 40 09 04 ec bf 7e 9b 93 bf
       -4.016708 3.354496 -1.8438731 -1.1531827
0002a0 3c b3 4e 3e 39 f1 5a c0 1e f3 9f 3f 54 de 77 3f
       0.2018556 -3.420973 1.2496068 0.9682362
0002b0 2e d6 5b c0 07 8d 01 bf 1e 72 0e c0 56 1f 69 3f
       -3.4349475 -0.50605816 -2.2257152 0.9106344
0002c0 2d de 43 40 b6 d3 5d 40 8b 36 85 bf 2d 4a 46 c0
       3.0604355 3.4660468 -1.040727 -3.0982773
0002d0 ac 96 c4 3f 13 bb 84 40 0c 1e a2 3f 40 c6 84 be
       1.5358481 4.147836 1.266542 -0.25932503
0002e0 15 c8 c3 3f 2b 38 e2 3f 70 76 a6 bf bc 43 5c c0
       1.5295435 1.7673391 -1.3004894 -3.4416342
0002f0 d3 41 ce 3f b6 d3 e0 3f 71 59 96 3f 42 d7 aa bf
       1.6113838 1.7564609 1.1746045 -1.3346941
000300 ea 4d 75 40 10 be 54 3f 96 a6 f3 3f 32 79 c8 be
       3.8328805 0.8310251 1.9035213 -0.39154965
000310 f2 a9 80 40 ab e6 d2 3f 4b 5e a3 3f f0 4b 4a 3f
       4.0207453 1.6476644 1.2763151 0.7902212
000320 3c f6 64 3f ac 23 4b bf aa 7e 76 c0 1f ee 1c 3f
       0.89438224 -0.79351306 -3.851481 0.61300844
000330 8a 61 6d 40 1d 48 c3 3f ec 95 bd bf 88 6a a1 3f
       3.7090783 1.5256382 -1.4811378 1.2610636
000340 d5 60 29 40 4b b8 37 bf d6 0a 94 bf 2f fe e0 bf
       2.6465352 -0.71765584 -1.1565807 -1.7577571
000350 4d 5c 99 3e 18 43 4f 3f 56 38 de be 49 5b 93 40
       0.29953232 0.8096175 -0.43402356 4.604893
000360 2b 9d 3b c0 1d 08 78 3f f4 fd 82 bf 71 5c 08 40
       -2.9314678 0.9688738 -1.023375 2.1306422
000370 82 ab da bf a8 f7 73 3f 90 e0 63 3e f7 39 5d 3f
       -1.708359 0.9529977 0.22253633 0.8641657
000380 77 31 07 40 ee 6c 7e 3f 64 a8 ca 3f f9 17 c9 3e
       2.112394 0.99384964 1.5832639 0.39276102
000390 60 07 83 3f a9 96 84 40 a5 20 2c c0 53 15 77 40
       1.0236626 4.143391 -2.6894925 3.8606765
0003a0 eb 5e b2 bf 16 24 f2 bf f5 30 2f 3f c0 90 82 40
       -1.3935217 -1.8917263 0.6843408 4.0801697
0003b0 00 53 e1 3b b6 28 65 40 b2 4d 76 3f 3a c7 36 40
       0.0068763494 3.5806098 0.96212304 2.8559098
0003c0 6a dc 99 3f 52 82 6f 40 5a 41 9c bf 88 df f1 3f
       1.202039 3.7423291 -1.2207444 1.8896341
0003d0 2e ec c8 bf 45 bb 47 c0 69 88 38 c0 2c c9 50 40
       -1.5697076 -3.120805 -2.8833258 3.2622786
0003e0 5f ac 48 bf bb f9 e7 3f 76 b5 3e 3e 1a 25 fa bf
       -0.7838802 1.8123087 0.1862391 -1.9542572
0003f0 2a 11 5f bf b4 a2 04 40 fa 24 85 be 39 49 f0 40
       -0.87135565 2.0724306 -0.26004773 7.5089383

4.bias f4 [5]
000000 52 b8 1e 3f 8c 7a e6 bf f5 c8 c1 3f 36 c8 09 3e
       0.62 -1.8006148 1.5139452 0.1345528
000010 94 b2 9f be
       -0.31190932
