demo/experiments/genetic_algorithm/ga_experiment_2021_02_12_160407/problem_30.model (torch, 26149 bytes, 6 tensors)

0.weight f4 [64, 22]
-0.10071239 0.28028762 -1.7196746 -3.5685403 -0.33591828 -7.781564 -0.22567111 0.9932545
0.7643189 -1.097816 0.7150977 2.3632078 -2.6716647 -2.843723 5.13995 2.2483454
1.7965484 2.3344727 -1.9152441 1.4168819 -0.35015786 0.8395841 4.548341 0.3652981
-1.0932208 2.1816978 0.39900815 -0.81775856 -2.811102 -1.487201 -1.8357418 -2.6664577
1.6498376 -2.0267265 0.33218718 1.5703704 1.2977247 -2.438312 3.0084352 -0.76830745
2.2245345 2.2056022 -3.3893752 1.2713109 -2.9172294 -4.9928045 2.6581435 -1.02114
-0.9862962 -1.4909289 2.105385 -1.1468436 0.24035743 -0.90225935 -1.021596 -1.6559937
-1.8810471 1.2960718 0.18470892 -0.23403633 -0.06044364 -0.6730576 -1.1017051 -0.59765685
-0.04668331 1.225037 0.10923109 -2.75716 0.0064450502 -3.3309922 -0.98885083 0.17073026
1.2164665 -2.1998985 -1.49389 -1.9587606 -1.085717 3.8719125 -0.8475847 -4.394701
-3.5364947 -1.5837287 -1.8517616 2.387418 2.4966106 0.1809026 3.2427824 -4.216469
2.1263087 3.3606539 -0.55584383 -0.18722641 1.9687974 -1.7297914 0.84667706 -3.6603456
-0.33281878 -0.2141698 1.504493 -0.16783905 1.0767255 -3.2284343 -3.3613846 0.68590015
2.184255 -2.475946 -1.4417293 -0.16520202 -1.2726656 1.2362063 0.43124652 0.22824973
3.3012922 -1.6544383 1.5785835 -3.3545089 3.7898934 -0.7372249 3.0685613 2.691147
1.4005384 -1.2601935 1.2766864 2.107377 -2.6587207 2.4014127 -0.8114403 -3.4475932
4.297524 0.9339223 1.6067741 2.100413 -4.19633 -5.318845 -1.3506078 -3.1143417
0.21773732 -3.0158117 -0.4161774 1.1273932 -0.97033095 -5.022382 1.7753769 0.8782645
1.798517 1.1919575 2.8856235 2.717206 -4.957015 2.4026701 0.365253 1.1035297
-3.1124473 -1.0080566 1.0000837 -1.7630184 -1.5235263 -2.0236537 2.9303322 -3.622846
-4.9067726 0.48790234 -0.51442295 1.9428251 0.88263047 2.1860695 0.9808424 3.8072805
3.1508837 -1.2153955 0.80551475 -3.5031462 -1.1177645 0.6693985 1.3728862 -1.3565141
1.4582193 -2.8241482 -2.436387 -1.3316349 -2.6675684 1.8337016 2.4578214 2.0383306
1.9179928 3.2677422 -4.247152 0.95310664 -0.6031041 0.41035557 -4.694977 1.1181283
2.5574656 -0.8059825 1.4983891 -2.656259 2.9377294 -0.7800717 -0.6702927 3.2671192
0.96527016 -6.2877593 -4.4793077 1.6115321 -2.980861 -1.5344131 0.020824075 -1.5982417
4.3624115 4.586144 -1.8441813 0.56061465 2.3938951 1.6040502 -0.792183 0.615904
1.5569605 -4.31596 0.8136847 4.450214 3.2793071 0.6494496 -5.1249623 -3.5068612
1.9861976 3.237745 -0.040693887 0.6421925 0.6161666 -3.0422843 3.9976745 1.4381315
-1.9463199 -2.3971171 0.5830384 3.0925999 1.0578145 0.5797317 1.9036723 -0.48879027
0.56608427 -2.4152546 -1.8399942 2.1601722 3.6599874 -1.6763513 -1.8329943 -1.4896867
-0.7437698 -2.9506574 -1.3782904 -1.0739526 1.4614202 0.05216518 1.6475024 -3.7986672
00000000: 4c42 cebd dc81 8f3e 4c1e dcbf f762 64c0
00000010: 7bfd abbe 9302 f9c0 5416 67be ed45 7e3f
00000020: 67aa 433f 3c85 8cbf a510 373f cc3e 1740
00000030: 8efc 2ac0 8fff 35c0 787a a440 e4e4 0f40
00000040: 4cf5 e53f 0068 1540 b826 f5bf 635c b53f
00000050: e447 b3be fcee 563f 028c 9140 5a08 bb3e
00000060: a9ee 8bbf f0a0 0b40 cc4a cc3e a058 51bf
00000070: 18e9 33c0 9a5c bebf 96f9 eabf 3ea7 2ac0
00000080: e12d d33f e3b5 01c0 7014 aa3e e601 c93f
00000090: d81b a63f 4e0d 1cc0 348a 4040 ccaf 44bf
000000a0: c65e 0e40 9628 0d40 86eb 58c0 51ba a23f
000000b0: e3b3 3ac0 0ec5 9fc0 061f 2a40 b7b4 82bf
000000c0: e87d 7cbf c2d6 bebf a1be 0640 c5cb 92bf
000000d0: 4220 763e 78fa 66bf a8c3 82bf 9af7 d3bf
000000e0: 27c6 f0bf aee5 a53f 5624 3d3e 38a7 6fbe
000000f0: c093 77bd 814d 2cbf ac04 8dbf 0a00 19bf
00000100: 0037 3fbd 03ce 9c3f 8db4 df3d 4f75 30c0
00000110: 0031 d33b fa2e 55c0 5425 7dbf ead3 2e3e
00000120: 2db5 9b3f 23cb 0cc0 ca37 bfbf abb8 fabf
00000130: c6f8 8abf 6acd 7740 50fb 58bf 64a1 8cc0
00000140: ee55 62c0 9fb7 cabf 8606 edbf 75cb 1840
00000150: 78c8 1f40 883e 393e bf89 4f40 50ed 86c0
00000160: 7115 0840 f414 5740 c84b 0ebf 48b8 3fbe
00000170: 8e01 fc3f ce69 ddbf d4bf 583f 1a43 6ac0
00000180: 3967 aabe 544f 5bbe 3a93 c03f 00de 2bbe
00000190: 24d2 893f ab9e 4ec0 ed20 57c0 2797 2f3f
000001a0: d5ca 0b40 e675 1ec0 968a b8bf b82a 29be
000001b0: b5e6 a2bf 023c 9e3f 58cc dc3e 4cba 693e
000001c0: 5f48 5340 a2c4 d3bf 060f ca3f 46b0 56c0
000001d0: 9d8d 7240 c5ba 3cbf 4f63 4440 c13b 2c40
000001e0: d844 b33f 054e a1bf 766a a33f 44df 0640
000001f0: 7b28 2ac0 bfb0 1940 8dba 4fbf 5ea5 5cc0
00000200: 5185 8940 8815 6f3f c6aa cd3f 2b6d 0640
00000210: 5648 86c0 fa33 aac0 b7e0 acbf 6051 47c0
00000220: 88f6 5e3e 0f03 41c0 3415 d5be 6c4e 903f
00000230: 9c67 78bf 5ab7 a0c0 8d3f e33f f1d5 603f
00000240: ce35 e63f 1092 983f 0eae 3840 b4e6 2d40
00000250: de9f 9ec0 59c5 1940 7102 bb3e 7640 8d3f
00000260: 5632 47c0 0008 81bf be02 803f 96aa e1bf
00000270: e902 c3bf 8b83 01c0 908a 3b40 b5dc 67c0
00000280: 4804 9dc0 56ce f93e 39b1 03bf 7eae f83f
00000290: 12f4 613f 90e8 0b40 7d18 7b3f 7caa 7340
000002a0: 14a8 4940 1492 9bbf 3736 4e3f 8c33 60c0
000002b0: e812 8fbf b35d 2b3f bcba af3f 41a2 adbf
000002c0: eea6 ba3f d8be 34c0 c4ed 1bc0 0373 aabf
000002d0: 71b9 2ac0 bcb6 ea3f f24c 1d40 0274 0240
000002e0: ca80 f53f b022 5140 abe8 87c0 ccfe 733f
000002f0: 0865 1abf 201a d23e 403d 96c0 d41e 8f3f
00000300: 84ad 2340 de54 4ebf 37cb bf3f 2600 2ac0
00000310: c203 3c40 c7b2 47bf 4d98 2bbf 7b18 5140
00000320: f21b 773f 5335 c9c0 7d56 8fc0 af46 ce3f
00000330: 6dc6 3ec0 a667 c4bf 4097 aa3c 2f93 ccbf
00000340: e098 8b40 b1c1 9240 220e ecbf 7184 0f3f
00000350: 9435 1940 8451 cd3f 81cc 4abf e2ab 1d3f
00000360: 7b4a c73f 581c 8ac0 a44d 503f 2768 8e40
00000370: 2be0 5140 5442 263f b1ff a3c0 6a70 60c0
00000380: b93b fe3f 3737 4f40 a2ae 26bd ba66 243f
00000390: 18bd 1d3f c9b4 42c0 e6d9 7f40 b114 b83f
000003a0: 0321 f9bf 5e6a 19c0 0142 153f 28ed 4540
000003b0: 7766 873f 4c69 143f 89ab f33f b842 fabe
000003c0: e6ea 103f 8893 1ac0 ee84 ebbf 4340 0a40
000003d0: 3c3d 6a40 ae92 d6bf 8f9f eabf 0eae bebf
000003e0: b367 3ebf 92d7 3cc0 d26b b0bf 4777 89bf
000003f0: d10f bb3f 28ab 553d 5ce1 d23f 5d1d 73c0

0.bias f4 [64]
-2.3302593 4.1842823 1.1705172 -4.3305283 2.9042122 -1.3791106 -0.7913221 1.3936054
-0.0521549 -0.62012523 1.6648872 -1.0591908 0.5463381 2.7115674 1.3930603 0.3972621
2.5360966 -0.83535266 -1.4811962 2.2779362 -0.6418451 -2.7776346 0.37172148 -1.2908484
1.6165705 1.0876099 0.9143473 -3.1373239 -2.2573388 -1.1971198 1.2293024 0.20275071
-0.37220484 2.0855174 7.0976915 -0.5818509 0.9021212 2.0977352 -0.29032862 0.23891047
0.8990706 4.158279 -3.2525232 -0.5681009 2.7123594 0.72800136 -0.27112675 -2.1034403
-1.1465994 0.59303135 -1.1350046 3.0346675 -1.1170626 -1.5883368 -0.9810639 -2.1543002
-1.0324728 0.1676848 -0.6206311 -2.2360773 0.81131387 3.0274248 -1.3466667 1.2889317
00000000: f822 15c0 a4e5 8540 82d3 953f b093 8ac0
00000010: 9dde 3940 b286 b0bf 1694 4abf a961 b23f
00000020: 60a0 55bd 87c0 1ebf 061b d53f 9093 87bf
00000030: d0dc 0b3f 528a 2d40 cd4f b23f f065 cb3e
00000040: 684f 2240 acd9 55bf d697 bdbf b5c9 1140
00000050: f64f 24bf c4c4 31c0 4752 be3e 853a a5bf
00000060: c8eb ce3f cd36 8b3f aa12 6a3f eac9 48c0
00000070: 3d78 10c0 393b 99bf c859 9d3f e29d 4f3e
00000080: a291 bebe 1e79 0540 4a20 e340 2ef4 14bf
00000090: 6af1 663f 4b41 0640 f4a5 94be f2a4 743e
000000a0: 7e29 663f 9f10 8540 5729 50c0 106f 11bf
000000b0: 4c97 2d40 4c5e 3a3f 20d1 8abe c49e 06c0
000000c0: c5c3 92bf e7d0 173f d547 91bf fe37 4240
000000d0: e8fb 8ebf 9f4e cbbf 0127 7bbf 0ee0 09c0
000000e0: 1228 84bf 90b5 2b3e aee1 1ebf e41b 0fc0
000000f0: 44b2 4f3f 54c1 4140 935f acbf b7fb a43f

2.weight f4 [64, 64]
0.40559584 0.36025324 -2.282105 -1.61918 0.60782635 0.8357191 1.3094208 -1.5418048
3.0739489 1.1739035 0.5724714 3.0738165 3.8891459 -2.8599987 0.6461812 -1.6179794
-0.5566637 -0.34562838 -0.42126152 1.8967557 0.52797097 -0.67618 3.2243128 -6.227026
-1.3529017 2.739265 1.4104843 -4.564621 0.92845684 -4.5149016 1.1180573 1.5119567
1.213398 0.8655674 -4.0578303 2.5986946 3.1452038 2.7933464 2.2891488 -2.9788055
-3.7173033 -0.9328377 -1.1835781 0.4842658 1.7305288 1.9743267 0.5987916 -4.9729466
1.5773757 0.4399963 0.11675966 -1.6016489 2.1237187 1.0704523 -2.128224 -1.8647313
-1.949899 0.652799 -0.2660622 -0.114123285 2.2569904 2.6837883 -2.6410146 -1.7650121
2.2790306 0.04796061 2.490867 -2.6498716 2.6326928 -1.4791685 4.3826647 2.5313003
-1.6736658 -0.8607476 -1.3790264 2.6914454 -2.9449997 4.6841326 -0.17416215 -1.2424173
1.2597214 0.2648248 4.1071353 -0.8941697 1.4963238 2.5355728 -1.8629596 -3.9900324
-0.8029408 0.4863906 -0.14056003 -1.348002 1.5161679 -0.8716286 2.1469586 -0.68946975
-0.061038256 0.05379802 -0.27467918 -0.595688 -1.0143846 -2.3363075 0.8954665 3.769588
-0.46746424 2.0866916 0.89315796 1.0726147 0.04405576 1.068299 -4.663495 1.293482
0.53982913 3.304729 -2.3634093 -0.25729156 1.1853728 -1.0429299 -0.24000925 -0.17668667
-1.9157426 0.09344682 3.244751 0.32122493 1.6880674 -0.9990555 -0.66160476 1.2148113
3.2807121 -2.2816494 -0.85106486 -2.6602437 -2.3838267 3.5182295 2.612433 -3.9608366
-3.1241834 0.0014046431 0.21336666 -0.11598015 2.648795 2.2838144 -2.26072 -0.3460332
-1.5757694 -1.3064528 1.6158742 4.1881485 4.605206 -3.5299675 2.615955 -1.6015732
-3.1401234 0.7277589 0.37774897 2.0233889 1.4861412 1.20412 0.32007015 -1.0665253
0.7098349 -2.1219616 -0.86762935 1.6008952 -4.1378865 1.6214523 -0.11552608 -0.24712819
-0.33990374 3.500167 0.4933103 1.7608117 -1.7772347 1.8060913 -3.396054 -1.5563433
1.1178497 3.375359 1.4581261 0.83117974 -2.0015814 -0.7992148 -3.4743474 0.38108316
-0.8553882 2.6874213 1.4155602 0.52965915 1.4351916 -3.1156013 -1.5496242 -1.8292291
3.6308265 1.8848616 0.48225176 -3.2587783 -2.296908 -3.6234126 3.3582149 3.268364
1.2644701 -0.36465758 -3.9505162 -0.5291467 1.9684968 0.8398963 0.5856402 -1.9917886
0.23362963 -2.4649954 -3.0586283 -1.3204038 -0.81818736 4.588851 2.3347642 -1.9147928
-2.327292 3.340014 -2.9313045 -2.7107162 -1.1418769 2.3036547 3.2790737 -0.6986985
4.8170543 -2.4763756 1.643282 0.18599844 0.74453104 -2.510441 0.15602133 1.3916854
-1.7168627 1.9154806 2.1984377 0.1157969 0.33286858 -0.44256294 2.3414214 1.3297298
4.4994297 4.051463 1.1735686 -2.2021265 -0.052154846 0.7468176 2.362681 -2.190688
4.791596 0.42789727 0.43589842 3.3376951 0.20938349 1.1982927 -1.2806718 0.69317335
00000000: 42aa cf3e 1d73 b83e 020e 12c0 4a41 cfbf
00000010: 829a 1b3f b0f1 553f 1a9b a73f dc59 c5bf
00000020: 94bb 4440 7842 963f 7c8d 123f 69b9 4440
00000030: c4e7 7840 380a 37c0 226c 253f f319 cfbf
00000040: 8381 0ebf 34f6 b0be 97af d7be e4c8 f23f
00000050: 1b29 073f 221a 2dbf 245b 4e40 cc43 c7c0
00000060: e22b adbf 1e50 2f40 c08a b43f 6011 92c0
00000070: 59af 6d3f 137a 90c0 801c 8f3f cc87 c13f
00000080: a050 9b3f d395 5d3f bfd9 81c0 0351 2640
00000090: 054b 4940 30c6 3240 6a81 1240 c0a4 3ec0
000000a0: 4ce8 6dc0 74ce 6ebf 7d7f 97bf b0f1 f73e
000000b0: f881 dd3f bdb6 fc3f 684a 193f 6122 9fc0
000000c0: 72e7 c93f 3247 e13e b01f ef3d d502 cdbf
000000d0: 02eb 0740 9504 893f d234 08c0 84af eebf
000000e0: 4a96 f9bf d61d 273f 4e39 88be 78b9 e9bd
000000f0: 8872 1040 30c3 2b40 6206 29c0 ebeb e1bf
00000100: a3db 1140 5872 443d 5d6a 1f40 7f97 29c0
00000110: 0a7e 2840 6555 bdbf ca3e 8c40 d300 2240
00000120: ae3a d6bf f459 5cbf f083 b0bf a440 2c40
00000130: e07a 3cc0 6ae4 9540 9057 32be 8807 9fbf
00000140: 8d3e a13f 1e97 873e a76d 8340 4ee8 64bf
00000150: 8a87 bf3f d346 2240 7675 eebf b15c 7fc0
00000160: 878d 4dbf 3008 f93e f8ee 0fbe 548b acbf
00000170: ca11 c23f 0d23 5fbf c567 0940 1781 30bf
00000180: 4003 7abd 505b 5c3d c0a2 8cbe 027f 18bf
00000190: 5bd7 81bf 1086 15c0 4b3d 653f ee40 7140
000001a0: 7957 efbe 5b8c 0540 00a6 643f 704b 893f
000001b0: d073 343d 06be 883f 5a3b 95c0 d190 a53f
000001c0: 3e32 0a3f ae80 5340 1942 17c0 b8bb 83be
000001d0: 4cba 973f ba7e 85bf fcc4 75be 5aed 34be
000001e0: 0e37 f5bf 0c61 bf3d 00aa 4f40 9877 a43e
000001f0: 9812 d83f 1ac2 7fbf ee5e 29bf f07e 9b3f
00000200: 30f7 5140 8b06 12c0 63df 59bf 6f41 2ac0
00000210: 9e90 18c0 ac2a 6140 1a32 2740 597e 7dc0
00000220: 9ff2 47c0 001c b83a ca7c 5a3e 0087 edbd
00000230: db85 2940 042a 1240 a3af 10c0 432b b1be
00000240: d0b2 c9bf d839 a7bf f7d4 ce3f 5005 8640
00000250: d95d 9340 fdea 61c0 cf6b 2740 5a00 cdbf
00000260: c8f7 48c0 684e 3a3f 5068 c13e 347f 0140
00000270: e039 be3f 9b20 9a3f 3ce0 a33e e783 88bf
00000280: bdb7 353f 38ce 07c0 f51c 5ebf 22ea cc3f
00000290: 9169 84c0 c08b cf3f f098 ecbd 2c0f 7dbe
000002a0: dd07 aebe bc02 6040 2b93 fc3e 4762 e13f
000002b0: 6d7c e3bf 002e e73f f358 59c0 4236 c7bf
000002c0: b315 8f3f e205 5840 e0a3 ba3f 32c8 543f
000002d0: e919 00c0 5799 4cbf b55b 5ec0 551d c33e
000002e0: b9fa 5abf b6fe 2b40 1431 b53f be97 073f
000002f0: 5cb4 b73f 0366 47c0 165a c6bf 2e24 eabf
00000300: 765f 6840 2543 f13f b4e9 f63e d38f 50c0
00000310: 8a00 13c0 fee5 67c0 feec 5640 e02c 5140
00000320: 28da a13f 66b4 babe 42d5 7cc0 2876 07bf
00000330: b4f7 fb3f 7203 573f 84ec 153f eef2 febf
00000340: 9b3c 6f3e 7cc2 1dc0 91c0 43c0 fe02 a9bf
00000350: ba74 51bf ded7 9240 c76c 1540 ee17 f5bf
00000360: 5af2 14c0 cac2 5540 7e9a 3bc0 607c 2dc0
00000370: 0629 92bf 146f 1340 58dc 5140 e8dd 32bf
00000380: 4f25 9a40 f07c 1ec0 1157 d23f 6076 3e3e
00000390: 9699 3e3f 11ab 20c0 0ec4 1f3e bf22 b23f
000003a0: 28c2 dbbf 782e f53f 34b3 0c40 ed26 ed3d
000003b0: c06d aa3e 9c97 e2be d9d9 1540 9634 aa3f
000003c0: 54fb 8f40 96a5 8140 7f37 963f a4ef 0cc0
000003d0: 52a0 55bd 702f 3f3f 2a36 1740 3b34 0cc0
000003e0: c154 9940 5a15 db3e 142e df3e cc9c 5540
000003f0: a068 563e a861 993f 0eed a3bf cf73 313f

2.bias f4 [64]
0.74764764 2.099116 5.306696 -0.43665385 -4.6141095 -3.4535697 -0.30490136 -0.9477223
0.704031 -0.9107605 -1.4085441 -7.0881143 -2.6279545 1.8435228 1.5975695 2.189755
0.079414845 -4.1347775 3.437436 -0.40642044 -3.483594 0.012569547 -2.9064105 -3.5118036
2.6491153 -3.1191866 0.54961574 0.8243605 2.8409314 -0.4665172 -3.9372945 5.3301663
1.9452151 -0.27472275 -2.7046156 -0.35426998 -2.0981343 -2.9577918 0.1560939 -3.0710278
0.41936255 -0.55161196 0.08495146 -2.5050159 4.76656 0.84069514 1.1898365 0.0971317
-0.07183075 -2.3246186 -0.7445761 -0.09267086 -1.5390372 3.4089694 -0.4736358 0.35410142
3.660797 -1.5862802 -0.2508766 2.0205543 2.3891394 -2.227232 -4.5054626 2.7637486
00000000: d665 3f3f eb57 0640 74d0 a940 1891 dfbe
00000010: c9a6 93c0 4907 5dc0 081c 9cbe ee9d 72bf
00000020: 603b 343f 9a27 69bf 2c4b b4bf d5d1 e2c0
00000030: 6830 28c0 8ef8 eb3f 287d cc3f f224 0c40
00000040: 40a4 a23d 1950 84c0 f4fe 5b40 5716 d0be
00000050: 34f3 5ec0 80f0 4d3c a102 3ac0 64c1 60c0
00000060: 1b8b 2940 c1a0 47c0 9eb3 0c3f 4a09 533f
00000070: d2d1 3540 58db eebe a2fc 7bc0 b990 aa40
00000080: cffc f83f 76a8 8cbe 6c18 2dc0 e062 b5be
00000090: d547 06c0 764c 3dc0 14d7 1f3e b88b 44c0
000000a0: b0b6 d63e 7136 0dbf 08fb ad3d 2e52 20c0
000000b0: a987 9840 cc37 573f 904c 983f fcec c63d
000000c0: 001c 93bd 8dc6 14c0 8a9c 3ebf 38ca bdbd
000000d0: 2cff c4bf 8e2c 5a40 6480 f2be c84c b53e
000000e0: 804a 6a40 3b0b cbbf e672 80be c350 0140
000000f0: a9e7 1840 f88a 0ec0 c02c 90c0 42e1 3040

4.weight f4 [5, 64]
3.566019 -0.34707028 0.18494129 -3.0805154 2.3920877 1.5565635 0.9089847 6.056116
-1.975426 -0.14815354 -0.11322093 -2.3145165 2.514748 1.0762914 0.29382205 3.2857232
-1.5821068 2.3255117 0.8339166 1.2731472 -1.276959 -0.7072139 -1.9368197 -3.7599401
-2.3493195 0.6816398 -3.9681416 2.5761266 -0.3998803 -0.9844656 1.6889433 -3.762951
0.803737 -2.409795 1.5295589 -2.5427747 -1.4058182 -0.12644356 -1.0885454 -2.963296
-2.2565358 -3.2748628 -1.5616179 2.4725425 2.984203 2.3040624 -0.9479703 -0.23078012
-3.3683403 -2.0712247 0.35017544 0.9524548 -2.8511794 4.231852 0.4322253 -1.3674471
-0.34429002 -1.4963217 0.70140016 -3.2202191 2.076385 1.5931573 1.8071018 -3.920406
2.0671678 -0.08352232 0.3020786 3.2542336 7.7670074 2.0433533 -1.7449354 1.3361034
-1.3470215 -2.575265 -1.7814459 0.012491941 0.070668995 -1.0896478 1.9367623 1.6710262
2.4908109 -4.6767993 -2.1836488 0.9521955 -0.70909613 1.8651729 1.6034503 -2.797614
-2.427254 6.4376926 -1.5556924 1.1271172 5.6997533 -2.948319 1.8905802 1.271611
3.9681418 3.839832 -1.4185838 -1.6553581 -0.14550471 0.39796448 1.6659428 -3.0801928
-1.6195611 3.7329783 -1.0977776 3.6897328 -3.0981355 -0.62247765 -2.542785 -3.6910868
1.7927456 -3.0719595 -1.279206 0.5875883 2.9765723 3.1332607 -0.2282517 0.47542495
0.09932232 0.8589449 1.8436472 -0.8568346 -0.38859662 -1.0803373 0.8499606 -3.1372836
-3.1355352 -6.1188617 0.028099716 0.28188735 1.3120024 2.5634532 -0.75585747 -4.839204
1.8870187 -1.2910596 -0.21845078 -3.755388 -0.96262884 0.029458035 -0.12811023 1.7930423
-1.8173715 0.71324456 -4.450367 3.784042 -1.888531 1.7037547 1.6430457 1.2243527
-0.318116 0.24816737 -3.3272188 -1.6210985 -0.41670948 -0.2837191 -1.4804974 1.6609116
-1.3284385 2.511683 -1.4997501 -1.7328157 -0.2745657 1.0982988 1.2205924 -1.7711672
-0.22244239 0.2584654 0.26478243 -1.2079713 -3.4483364 2.715252 -1.5885326 -0.17039716
1.7960911 -0.46066117 -2.627606 0.20773208 2.3638554 -3.9643064 4.2564774 -2.1327655
-4.231834 2.9994972 -3.9018464 0.90517044 2.5459192 -1.5259417 -0.2095344 1.6356275
-0.26736224 -0.61635673 1.0326496 2.958806 -0.5292663 -1.5459447 0.082678676 1.932825
-0.7225403 1.0012767 1.7634505 0.7203677 -1.3081162 -3.2632189 0.37624794 -2.6937535
-0.6411842 0.7301613 -1.5311587 0.90974665 1.9673555 -0.1367687 2.6735024 1.3878969
0.5547192 -0.2699628 -4.7229214 0.07307434 2.3569207 -1.4511333 -3.634932 0.4471898
-2.8655584 -0.29227278 -1.0315254 -0.35487935 -1.2503519 2.666721 1.602108 1.1942563
-1.9240012 0.008935362 -3.54751 -1.6106586 2.1578035 -2.9445343 -2.2028096 0.08393049
-0.9098437 -0.6432673 -0.7947347 0.069669604 0.434389 -2.0188181 0.2674877 -3.048727
3.468243 -1.5528259 -0.6648721 -0.7334813 -1.0785762 -3.024624 1.308929 -0.8022245
00000000: a839 6440 32b3 b1be 4061 3d3e 2a27 45c0
00000010: f717 1940 793d c73f 39b3 683f b4cb c140
00000020: c2da fcbf 90b5 17be 60e0 e7bd 0a21 14c0
00000030: a2f1 2040 ebc3 893f d86f 963e 4a49 5240
00000040: 7a82 cabf 2fd5 1440 8f7b 553f 7df6 a23f
00000050: 6473 a3bf f80b 35bf b5e9 f7bf dca2 70c0
00000060: 405b 16c0 f27f 2e3f 08f6 7dc0 42df 2440
00000070: 1cbd ccbe f005 7cbf 4b2f d83f 30d4 70c0
00000080: b5c1 4d3f 153a 1ac0 96c8 c33f d2bc 22c0
00000090: daf1 b3bf 6c7a 01be 7555 8bbf a4a6 3dc0
000000a0: 156b 10c0 5a97 51c0 18e3 c7bf 233e 1e40
000000b0: 2ffd 3e40 c275 1340 2eae 72bf a051 6cbe
000000c0: e392 57c0 f28e 04c0 324a b33e 14d4 733f
000000d0: b979 36c0 556b 8740 a24c dd3e 8208 afbf
000000e0: c846 b0be 7887 bfbf f68e 333f 1218 4ec0
000000f0: 7ee3 0440 94ec cb3f 1d4f e73f efe7 7ac0
00000100: 7a4c 0440 c00d abbd 0caa 9a3e 5d45 5040
00000110: 538b f840 4dc6 0240 0b5a dfbf 7005 ab3f
00000120: 336b acbf 24d1 24c0 6b06 e4bf 00ab 4c3c
00000130: e8ba 903d 9479 8bbf d4e7 f73f 30e4 d53f
00000140: 7269 1f40 57a8 95c0 e7c0 0bc0 16c3 733f
00000150: 5387 35bf fcbd ee3f dc3d cd3f 1c0c 33c0
00000160: 2158 1bc0 9401 ce40 ee20 c7bf 6045 903f
00000170: 6164 b640 42b1 3cc0 88fe f13f 26c4 a23f
00000180: 09f6 7d40 cfbf 7540 2794 b5bf c6e2 d3bf
00000190: 30ff 14be 00c2 cb3e 9d3d d53f e121 45c0
000001a0: c74d cfbf 1ee9 6e40 fa83 8cbf 9524 6c40
000001b0: da47 46c0 b25a 1fbf fdbc 22c0 c43a 6cc0
000001c0: b078 e53f fc9a 44c0 06bd a3bf 306c 163f
000001d0: 2980 3e40 5887 4840 d0ba 69be e66a f33e
000001e0: 8069 cb3d d0e3 5b3f a2fc eb3f 8359 5bbf
000001f0: 23f6 c6be 7e48 8abf 0597 593f 41c9 48c0
00000200: 9cac 48c0 b7cd c3c0 6031 e63c 8a53 903e
00000210: b2ef a73f 9e0f 2440 e07f 41bf c2da 9ac0
00000220: d489 f13f 7141 a5bf 90b1 5fbe 4758 70c0
00000230: d86e 76bf fa51 f13c 542f 03be 6982 e53f
00000240: a19f e8bf 3297 363f 6869 8ec0 be2d 7240
00000250: 62bb f1bf a214 da3f 524f d23f 97b7 9c3f
00000260: 1ae0 a2be 961f 7e3e 27f1 54c0 2880 cfbf
00000270: f25a d5be a143 91be f080 bdbf c098 d43f
00000280: 460a aabf 6abf 2040 d0f7 bfbf e8cc ddbf
00000290: e093 8cbe 0e95 8c3f 5f3c 9c3f 9bb5 e2bf
000002a0: f0c7 63be 9455 843e 9091 873e ce9e 9abf
000002b0: 8bb1 5cc0 b0c6 2d40 0955 cbbf 987c 2ebe
000002c0: 50e6 e53f c8db ebbe b22a 28c0 b8b7 543e
000002d0: 6849 1740 32b7 7dc0 1035 8840 3b7f 08c0
000002e0: 2f6b 87c0 c3f7 3f40 dab7 79c0 40b9 673f
000002f0: 57f0 2240 0f52 c3bf 3090 56be 3e5c d13f
00000300: b4e3 88be 8ec9 1dbf dd2d 843f 145d 3d40
00000310: ff7d 07bf 84e1 c5bf 7053 a93d cf66 f73f
00000320: 67f8 38bf d629 803f bfb8 e13f 056a 383f
00000330: 5a70 a7bf 94d8 50c0 92a3 c03e 7566 2cc0
00000340: a624 24bf daeb 3a3f 02fd c3bf 28e5 683f
00000350: 4ed2 fb3f 180d 0cbe aa1a 2b40 9ba6 b13f
00000360: 1402 0e3f 9038 8abe 2c22 97c0 00a8 953d
00000370: cad7 1640 bcbe b9bf baa2 68c0 10f6 e43e
00000380: 4f65 37c0 c7a4 95be 0609 84bf bfb2 b5be
00000390: 880b a0bf 8fab 2a40 e011 cd3f 64dd 983f
000003a0: ac45 f6bf a065 123c 670a 63c0 102a cebf
000003b0: 7419 0a40 4073 3cc0 d5fa 0cc0 c0e3 ab3d
000003c0: 84eb 68bf 2aad 24bf bc73 4bbf f0ae 8e3d
000003d0: 3c68 de3e 5134 01c0 26f4 883e 581e 43c0
000003e0: b1f7 5d40 00c3 c6bf 0f35 2abf 6ec5 3bbf
000003f0: c90e 8abf 7193 41c0 fc8a a73f 965e 4dbf

4.bias f4 [5]
3.4753969 -0.6044462 4.269706 -2.4157684 -1.242932
00000000: e76c 5e40 fcbc 1abf 6ea1 8840 f39b 1ac0
00000010: 6518 9fbf
