demo/experiments/genetic_algorithm/ga_experiment_2021_02_12_160407/problem_12.model (torch, 26149 bytes, 6 tensors)

0.weight f4 [64, 22]
4.933641 2.9614093 -1.458087 1.365828 4.112915 -0.7847836 2.8681383 -2.7402368
0.8820931 0.18095106 -0.5151228 -0.5020266 -5.4757214 -2.3867931 -1.3304683 -2.5769095
-1.1021285 -1.3976336 5.416978 -2.4557254 -1.9336724 2.4485226 1.2811474 1.9337883
1.6932223 -2.2900214 2.1509502 -1.307091 1.0812807 -3.8705091 -0.076682076 -1.2925587
0.782094 1.3666611 -0.75941324 1.6593275 -0.7625826 -1.4642218 -2.1021876 -0.7891247
-2.5501928 2.0433228 3.163269 0.75420046 -2.152801 1.095434 2.0388865 -1.4190729
-1.0335926 -2.077246 -1.4975725 3.1369941 1.1444814 -0.22765005 0.8925518 -1.2200536
-3.1628838 1.0486815 -0.73502743 -2.7456021 0.9400397 -1.6152793 2.4955335 1.4837244
-0.008191347 -1.1886469 -1.038539 -4.419665 2.5259266 -0.82916397 -2.9500859 -0.16642132
5.7221236 -0.48570225 -1.1836095 -1.2503288 2.373949 -3.113487 -1.4603252 -2.248117
-1.1316056 -2.6744533 -3.7409482 -3.3601792 0.82097036 2.0731974 5.274355 -0.54891956
-0.9636007 -0.39094844 -3.2865753 0.56306577 -5.3440666 5.228517 -1.8429248 0.2140832
0.20418149 -1.2691088 1.8553144 -0.6686375 -2.6837876 -2.9577303 -0.04535219 -2.0381875
2.8982322 -5.6025286 -0.08461046 -1.6407695 -0.48742497 -0.8499739 0.22296011 0.021344662
2.0410385 1.7675844 0.6396378 1.584429 2.4264338 -3.0262437 0.6587651 1.58524
-0.58297694 1.1572924 -0.21267903 -2.5423687 2.4402533 0.14231884 2.0947688 3.1196811
3.8821895 -4.014409 1.1549262 -6.3179016 -2.6571312 1.7408469 0.96708 -1.2082007
4.3749614 0.85816014 2.0484843 2.3902397 0.5482117 -1.664615 3.740943 -2.8215313
5.0958295 -1.2916472 7.1909823 2.767966 2.6913161 2.8357325 -2.8945293 1.8315254
-1.4087341 1.8018925 -2.7324538 1.0973048 1.1835029 -1.892231 0.6963018 2.2349439
-4.3260336 3.4352353 2.6723769 2.2036788 6.55672 -1.8717015 -0.76017827 2.7483783
-2.6375332 2.891326 0.08844795 0.085633576 -2.2239437 -1.1919968 0.62090963 -3.755392
-1.4281468 0.91580844 5.986908 -1.6483288 -0.6837987 -3.35152 3.3905897 -2.3219717
1.3495097 1.3238574 -1.0360507 -2.626669 -0.7006157 1.1698157 -0.93146765 2.1407702
0.6167594 3.182567 -0.4525144 5.137572 2.5512571 4.443299 0.4562449 -1.1047146
0.582748 1.6079987 -1.2941116 0.34927577 0.61907935 0.7886243 -0.7396074 -0.9465909
-1.4751168 2.5124223 -0.09778592 1.5326151 -0.24530995 -0.5148921 -1.6139958 -1.9933674
1.5769194 0.85833544 1.13887 -1.3989505 1.5425736 -0.8609681 -0.5440178 1.3602483
-1.0790037 -3.0728676 1.244235 0.22817683 3.769105 -1.2225997 2.6883914 -3.098975
0.3360978 1.6457663 0.58481824 0.088509515 -0.97230864 1.8545141 -1.9174379 4.839565
-1.6622527 -4.5741115 0.34773803 2.925743 -2.0991116 -2.4587443 -0.9731282 1.71905
-0.73544097 -1.1980749 1.5250914 -3.531278 1.9775347 -3.200381 -1.3355342 -1.8628538
00000000: 63e0 9d40 bb87 3d40 98a2 babf 74d3 ae3f
00000010: 009d 8340 94e7 48bf 948f 3740 0a60 2fc0
00000020: dad0 613f 3c4b 393e 16df 03bf d184 00bf
00000030: 1c39 afc0 38c1 18c0 c94c aabf 16ec 24c0
00000040: 8c12 8dbf a8e5 b2bf e257 ad40 9b2a 1dc0
00000050: 9482 f7bf 98b4 1c40 a3fc a33f 6086 f73f
00000060: 82bb d83f b68f 12c0 2ba9 0940 c24e a7bf
00000070: 6867 8a3f 6cb6 77c0 7e0b 9dbd 9072 a5bf
00000080: 5037 483f c0ee ae3f e868 42bf d864 d43f
00000090: 9d38 43bf 9f6b bbbf 3e8a 06c0 1404 4abf
000000a0: 5c36 23c0 cdc5 0240 0073 4a40 4813 413f
000000b0: 7ec7 09c0 2e37 8c3f 1e7d 0240 2ea4 b5bf
000000c0: c34c 84bf 99f1 04c0 75b0 bfbf 83c4 4840
000000d0: 5e7e 923f 181d 69be 467e 643f b72a 9cbf
000000e0: b06c 4ac0 323b 863f c22a 3cbf f2b7 2fc0
000000f0: 71a6 703f 79c1 cebf d2b6 1f40 aeea bd3f
00000100: 0035 06bc 9525 98bf d9ee 84bf e56d 8dc0
00000110: c8a8 2140 1744 54bf 35ce 3cc0 5a6a 2abe
00000120: a31b b740 f7ad f8be 8480 97bf c60a a0bf
00000130: c8ee 1740 5f43 47c0 f0eb babf 26e1 0fc0
00000140: 74d8 90bf 3e2a 2bc0 b26b 6fc0 2d0d 57c0
00000150: 1d2b 523f 44af 0440 84c7 a840 fe85 0cbf
00000160: 89ae 76bf 652a c8be 4057 52c0 1425 103f
00000170: 9802 abc0 0350 a740 f6e4 ebbf a038 5b3e
00000180: f414 513e 2872 a2bf f17a ed3f d42b 2bbf
00000190: 2dc3 2bc0 744b 3dc0 38c3 39bd aa71 02c0
000001a0: a37c 3940 ea47 b3c0 4048 adbd bc04 d2bf
000001b0: c48f f9be e497 59bf a84f 643e 00db ae3c
000001c0: 60a0 0240 3540 e23f 4ebf 233f 92ce ca3f
000001d0: b14a 1b40 faad 41c0 d4a4 283f 25e9 ca3f
000001e0: fa3d 15bf 2822 943f 88c8 59be 2bb6 22c0
000001f0: 1c2d 1c40 08bc 113e b110 0640 dba8 4740
00000200: cb75 7840 0a76 80c0 9fd4 933f 402c cac0
00000210: 700e 2ac0 12d4 de3f 8e92 773f 52a6 9abf
00000220: afff 8b40 62b0 5b3f 5e1a 0340 b0f9 1840
00000230: 9a57 0c3f 1b12 d5bf 9c6b 6f40 f893 34c0
00000240: 0911 a340 b254 a5bf 871c e640 5b26 3140
00000250: 863e 2c40 a47c 3540 f83f 39c0 6d6f ea3f
00000260: 6651 b4bf 6aa4 e63f 86e0 2ec0 7c74 8c3f
00000270: 067d 973f a034 f2bf d640 323f 5209 0f40
00000280: de6e 8ac0 e5da 5b40 3908 2b40 1309 0d40
00000290: a6d0 d140 ea93 efbf 0b9b 42bf 6ee5 2f40
000002a0: 58cd 28c0 7c0b 3940 3324 b53d a860 af3d
000002b0: 1855 0ec0 5a93 98bf eff3 1e3f 5858 70c0
000002c0: 84cd b6bf 6c72 6a3f c094 bf40 70fc d2bf
000002d0: 6e0d 2fbf 4e7f 56c0 6cff 5840 2f9b 14c0
000002e0: bcbc ac3f 2974 a93f 4f9d 84bf 581b 28c0
000002f0: 8d5b 33bf 85bc 953f aa74 6ebf 6102 0940
00000300: f2e3 1d3f 2daf 4b40 f8af e7be fd66 a440
00000310: cc47 2340 812f 8e40 ee98 e93e 4a67 8dbf
00000320: f92e 153f e7d2 cd3f 73a5 a5bf 46d4 b23e
00000330: fc7b 1e3f 48e3 493f e956 3dbf c853 72bf
00000340: a1d0 bcbf 87cb 2040 fc43 c8bd bb2c c43f
00000350: 8832 7bbe f8cf 03bf 6a97 cebf aa26 ffbf
00000360: 7fd8 c93f dfbb 5b3f 7ec6 913f cf10 b3bf
00000370: 0d73 c53f 6868 5cbf c044 0bbf 9e1c ae3f
00000380: cb1c 8abf dda9 44c0 1843 9f3f 30a7 693e
00000390: 0439 7140 267e 9cbf 9b0e 2c40 9b55 46c0
000003a0: 0315 ac3e 78a8 d23f a6b6 153f 7a44 b53d
000003b0: 38e9 78bf b860 ed3f 9b6e f5bf b7dd 9a40
000003c0: b2c4 d4bf 1f5f 92c0 b80a b23e 603f 3b40
000003d0: d857 06c0 115c 1dc0 ee1e 79bf d509 dc3f
000003e0: dc45 3cbf 855a 99bf 3236 c33f 7500 62c0
000003f0: db1f fd3f 0bd3 4cc0 c9f2 aabf fe71 eebf

0.bias f4 [64]
-2.0933049 1.5249119 -0.10446286 -0.710414 -0.098400295 2.462559 0.9846363 -1.6634643
-2.0006402 3.624269 -5.405337 -0.19045937 0.9901592 0.1921018 -2.2437625 -2.9852436
-0.65502137 2.231297 -2.4245358 -0.7201809 -1.2862275 -1.8767257 0.34513146 -1.0068902
-3.7852783 -5.731164 1.0351961 -0.5159959 -1.9242159 -2.8211951 2.8868115 6.771122
-2.3363657 -1.5823097 0.47599328 -0.29506266 0.41114032 2.1076555 -0.0033655837 1.2997695
0.35192347 1.100202 -5.0402193 3.1623516 -0.33366954 1.2775104 -1.5955766 0.09232708
3.1589468 2.7348073 -3.0308547 1.3582944 -0.208274 1.9985441 -0.14203107 -1.0116408
-0.6682011 -3.5441718 1.7676663 -3.0460827 -1.6847389 -0.78789794 7.1941385 0.7546611
00000000: b5f8 05c0 5030 c33f a0f0 d5bd b1dd 35bf
00000010: 1886 c9bd 919a 1d40 2011 7c3f 66ec d4bf
00000020: 7d0a 00c0 06f4 6740 85f8 acc0 c807 43be
00000030: 137b 7d3f 56b6 443e ce99 0fc0 3b0e 3fc0
00000040: 7baf 27bf 92cd 0e40 982b 1bc0 c75d 38bf
00000050: 1aa3 a4bf 8c38 f0bf 12b5 b03e c7e1 80bf
00000060: 0042 72c0 b265 b7c0 4e81 843f 4f18 04bf
00000070: b54c f6bf 768e 34c0 85c1 3840 08ad d840
00000080: 0487 15c0 2089 cabf 64b5 f33e 7412 97be
00000090: fc80 d23e d4e3 0640 2091 5cbb d95e a63f
000000a0: 502f b43e 6bd3 8c3f 7a49 a1c0 f863 4a40
000000b0: bcd6 aabe 7685 a33f db3b ccbf fb15 bd3d
000000c0: 2f2c 4a40 1507 2f40 86f9 41c0 97dc ad3f
000000d0: c845 55be 4bd0 ff3f 9870 11be 727d 81bf
000000e0: 3a0f 2bbf b6d3 62c0 e442 e23f 05f3 42c0
000000f0: 86a5 d7bf aeb3 49bf 6236 e640 7831 413f

2.weight f4 [64, 64]
2.1103191 2.9230747 -1.5582194 -1.4673854 3.4967582 4.3336673 -1.469095 0.08394402
1.4002259 3.6661103 0.8469814 0.54127717 -2.1034024 0.28872135 -0.07957494 0.120909594
0.7887108 4.1056643 -0.6952494 1.2424399 -0.57120633 -0.83994347 -1.0099274 0.6693132
3.9219801 1.1861982 1.1668433 1.6421499 -1.0444748 -2.4533336 -0.8949872 0.40850788
3.4454181 3.1802027 -0.5454021 -0.7184081 0.6962872 4.598147 0.31085986 0.52915883
-2.3532944 4.4670887 2.1890402 -3.4802144 -2.7328432 1.4978808 -3.5710065 3.1272526
4.35495 -1.156734 1.105424 -4.594487 -0.8696147 -0.9709908 4.2521973 -2.1188114
0.12005496 -2.3554358 -2.9587042 -3.3668673 3.776413 2.937776 1.8906928 2.0030444
3.579757 3.0332258 1.8139353 -2.1143112 1.3416588 1.0226551 -1.4545398 -1.776609
-0.30557832 -1.7425827 -8.934697 1.2770543 0.41515005 3.7394726 2.234954 0.7908993
-2.4860985 -0.08193445 -4.464037 0.62125504 -3.2649393 -0.36836123 2.257647 0.21638429
0.47804272 -1.9512355 2.8185346 -0.5770862 -0.25003618 3.4437418 2.439879 -1.0240088
-1.7731173 2.1595 -1.3187132 3.259166 -4.2638865 -2.8761368 0.7872896 0.33553106
-1.6795851 0.7390644 0.8461098 -0.041733027 2.8646429 -3.1697335 -2.0187302 -1.4334174
2.5280685 -1.0150177 1.5712454 0.7395946 -2.2532258 1.893468 0.7376922 -0.85396874
1.0186193 0.7571119 -1.1512742 -3.1883714 1.4983529 0.02204445 4.3249173 2.6966777
-0.13915025 0.73018396 -5.6757073 3.0778599 2.9806242 -1.7799689 3.8292248 -4.589056
-0.2524317 3.1859026 3.841791 -2.4130485 -2.0393376 0.756811 3.2245138 -1.0239112
2.7353306 -4.102454 -4.79218 -1.8223307 2.4817386 1.5902908 -0.48570967 -2.7283845
0.68398166 2.2566168 3.9579322 0.19980448 2.3681092 1.9169233 -1.1581107 1.5046017
-2.3336797 4.150133 1.136913 2.2207778 -4.8199563 -2.3278503 -3.2836452 -1.6509101
1.2364333 5.2262855 -0.83123994 -7.8696194 -2.898081 0.72055197 -2.118948 -1.533829
2.6876225 1.0857071 -0.63953686 -0.3538736 -0.9938363 0.61046004 1.0281405 -2.4540968
-0.059053004 3.021215 -2.493575 0.1629467 0.18129572 -5.096821 0.8259016 3.5663486
0.36342907 1.1135572 -0.8091884 -2.12984 1.3833668 -2.977666 0.98253506 -2.5866764
-2.7443972 1.2521104 1.7889936 -3.7927501 0.13287248 0.3154122 -1.5306535 -0.18829025
2.8245478 -1.4092624 -1.7908525 -0.0089441445 -1.1510904 -0.15042895 0.48865265 1.4407616
0.14140737 0.6327956 -6.2903934 1.1607146 1.2420359 -3.3027864 0.09149754 1.4613967
0.09091061 3.3993268 1.8974977 -0.40029842 -3.3123472 0.72067404 -0.08006889 3.9088283
-2.9394116 0.922698 -0.13005605 -0.23631811 -1.2529228 -1.6745105 -0.701453 4.8921547
-0.3599102 0.31138292 5.194305 -0.049399137 -0.9554349 3.132939 4.5738125 2.8897862
-1.4798975 -1.9279412 -0.8443418 -0.24731147 -0.14372492 1.5704998 1.3650304 -5.4728265
00000000: 780f 0740 a813 3b40 bc73 c7bf 49d3 bbbf
00000010: e3ca 5f40 67ad 8a40 4e0b bcbf d8ea ab3d
00000020: 9a3a b33f 8da1 6a40 c6d3 583f 2491 0a3f
00000030: 259e 06c0 49d3 933e 30f8 a2bd 739f f73d
00000040: f3e8 493f 9a61 8340 ddfb 31bf 4508 9f3f
00000050: 943a 12bf 8906 57bf 4d45 81bf 1c58 2b3f
00000060: b901 7b40 58d5 973f 1f5b 953f f831 d23f
00000070: 5ab1 85bf 6b03 1dc0 e21d 65bf f227 d13e
00000080: bb81 5c40 7188 4b40 799f 0bbf 98e9 37bf
00000090: e13f 323f 0524 9340 0629 9f3e f476 073f
000000a0: 609c 16c0 64f2 8e40 3c19 0c40 d5bb 5ec0
000000b0: e7e6 2ec0 8fba bf3f 5f8b 64c0 e824 4840
000000c0: c05b 8b40 dc0f 94bf 897e 8d3f 0a06 93c0
000000d0: 129f 5ebf da92 78bf 0012 8840 9b9a 07c0
000000e0: 60df f53d 76bf 16c0 695b 3dc0 c17a 57c0
000000f0: c0b0 7140 8604 3c40 3902 f23f e131 0040
00000100: bd1a 6540 5f20 4240 082f e83f e050 07c0
00000110: 7abb ab3f 5de6 823f 5c2e babf ec67 e3bf
00000120: c374 9cbe f30c dfbf 85f4 0ec1 8476 a33f
00000130: 8c8e d43e 8553 6f40 7d09 0f40 6078 4a3f
00000140: 3d1c 1fc0 40cd a7bd 64d9 8ec0 920a 1f3f
00000150: c4f4 50c0 d899 bcbe 4a7d 1040 d893 5d3e
00000160: 04c2 f43e 16c2 f9bf df62 3440 ecbb 13bf
00000170: be04 80be 4466 5c40 fa26 1c40 b812 83bf
00000180: 82f5 e2bf 3f35 0a40 98cb a8bf 2d96 5040
00000190: c271 88c0 a012 38c0 d08b 493f baca ab3e
000001a0: a5fc d6bf 5333 3d3f a79a 583f 40f0 2abd
000001b0: 4f56 3740 eadc 4ac0 e032 01c0 397a b7bf
000001c0: e0cb 2140 1aec 81bf 921e c93f 1256 3d3f
000001d0: da34 10c0 295d f23f 65d9 3c3f b29d 5abf
000001e0: 1e62 823f 16d2 413f f45c 93bf 470e 4cc0
000001f0: 07ca bf3f 9096 b43c b965 8a40 5e96 2c40
00000200: 677d 0ebe 56ed 3a3f 659f b5c0 a8fb 4440
00000210: 8cc2 3e40 05d6 e3bf 0512 7540 8cd9 92c0
00000220: ba3e 81be d4e5 4b40 e7df 7540 636f 1ac0
00000230: 8284 02c0 5ebe 413f 6f5e 4e40 860f 83bf
00000240: a80f 2f40 4e47 83c0 8a59 99c0 2242 e9bf
00000250: ced4 1e40 a68e cb3f f0ae f8be da9d 2ec0
00000260: 6c19 2f3f 696c 1040 c34e 7d40 8c99 4c3e
00000270: 1a8f 1740 be5d f53f f93c 94bf ca96 c03f
00000280: 025b 15c0 e4cd 8440 5d86 913f 3921 0e40
00000290: 153d 9ac0 80fb 14c0 3e27 52c0 0651 d3bf
000002a0: 7243 9e3f bb3d a740 24cc 54bf ecd3 fbc0
000002b0: 297a 39c0 1876 383f d89c 07c0 8254 c4bf
000002c0: 0202 2c40 73f8 8a3f b0b8 23bf ec2e b5be
000002d0: 0e6c 7ebf 1c47 1c3f 1c9a 833f ec0f 1dc0
000002e0: 90e1 71bd 965b 4140 bc96 1fc0 80db 263e
000002f0: 96a5 393e 2819 a3c0 4a6e 533f 0e3f 6440
00000300: 6013 ba3e 0b89 8e3f f926 4fbf 4c4f 08c0
00000310: 2a12 b13f 1492 3ec0 6b87 7b3f 1b8c 25c0
00000320: 34a4 2fc0 2745 a03f befd e43f 6bbc 72c0
00000330: b90f 083e b57d a13e 74ec c3bf 29cf 40be
00000340: 64c5 3440 b662 b4bf a83a e5bf 768a 12bc
00000350: ee56 93bf 0c0a 1abe ae30 fa3e e06a b83f
00000360: 18cd 103e e4fe 213f e74a c9c0 4c92 943f
00000370: 08fb 9e3f da60 53c0 1063 bb3d 0c0f bb3f
00000380: 582f ba3d 928e 5940 34e1 f23f eaf3 ccbe
00000390: 7ffd 53c0 187e 383f 28fb a3bd 3e2a 7a40
000003a0: 521f 3cc0 f035 6c3f 6a2d 05be 60fd 71be
000003b0: c65f a0bf 5c56 d6bf 6c92 33bf 888c 9c40
000003c0: 2646 b8be 956d 9f3e bf37 a640 c056 4abd
000003d0: 6297 74bf 1382 4840 ac5c 9240 42f2 3840
000003e0: 486d bdbf c7c6 f6bf c926 58bf 383f 7dbe
000003f0: a02c 13be 2306 c93f 51b9 ae3f 6521 afc0

2.bias f4 [64]
0.8825473 0.5424427 -0.2039233 2.8902988 3.990721 -2.0140462 -2.2420425 2.821618
-1.8317002 2.011713 -8.908919 -1.0059282 -1.0574269 -0.87508786 -2.2938607 -2.6151118
-0.0659587 -1.0081004 2.8161871 -2.7590568 1.265051 -0.109559536 -0.63439816 0.7916802
-4.1045713 2.014743 -3.1239548 -2.802936 0.41456234 4.3312225 -0.3764645 5.0043936
-1.2365658 2.8593965 3.3787956 -1.0717019 2.1303658 0.32607114 4.0925245 0.280294
-0.8547778 1.6095871 5.1417675 4.087236 -0.10597563 3.2126794 1.530885 -5.7759657
0.7169621 3.7939603 -1.0227828 3.0362103 0.8171705 -0.40581924 2.440771 1.1517136
-0.73257685 -2.6120348 3.1627169 0.010845959 -1.452381 1.3875926 0.58634615 -1.1349521
00000000: 9fee 613f 86dd 0a3f 45d1 50be a8fa 3840
00000010: f967 7f40 22e6 00c0 a07d 0fc0 6495 3440
00000020: 2775 eabf e8bf 0040 ef8a 0ec1 41c2 80bf
00000030: c459 87bf c205 60bf 9dce 12c0 fe5d 27c0
00000040: 5b15 87bd 6f09 81bf 693c 3440 6394 30c0
00000050: 31ed a13f c060 e0bd eb67 22bf 8eab 4a3f
00000060: a658 83c0 8df1 0040 e0ee 47c0 4e63 33c0
00000070: 8441 d43e 6099 8a40 f4bf c0be fe23 a040
00000080: ca47 9ebf 5a00 3740 303e 5840 872d 89bf
00000090: ea57 0840 ccf2 a63e f6f5 8240 b282 8f3e
000000a0: b8d2 5abf f306 ce3f 5c89 a440 a3ca 8240
000000b0: c009 d9bd 8a9c 4d40 0af4 c33f b6d4 b8c0
000000c0: d48a 373f 3fd0 7240 8cea 82bf 4551 4240
000000d0: 1632 513f 8ac7 cfbe 9835 1c40 5a6b 933f
000000e0: 288a 3bbf 942b 27c0 f469 4a40 40b3 313c
000000f0: 9fe7 b9bf a29c b13f c81a 163f 1c46 91bf

4.weight f4 [5, 64]
-3.3861 1.0177639 -3.9676313 0.25618717 -0.27725196 -1.7220694 2.8286254 -3.189242
-0.8505203 1.5222105 0.3562767 0.47885907 3.715479 -3.2941682 2.991996 -2.7800016
-2.9912388 -0.5885899 2.867216 -1.8642507 2.5794616 -0.3172285 -0.8694695 -0.59720886
0.5381806 2.5591054 4.4900875 2.0121236 0.8090612 -0.82579464 0.9015453 3.697016
-1.5900265 -1.1619534 -5.9900823 -0.579264 1.3580084 0.66599774 -1.041724 0.0006502867
1.5156907 2.2363338 -1.9671372 -2.0757344 -1.7110784 1.2017452 3.905948 -0.7711903
-0.41366696 -2.2771268 -2.0639305 3.8624368 -0.581728 -0.8731903 2.1705153 1.5697933
-1.93818 0.9692728 4.1471186 1.0471401 0.5061959 3.0504644 -4.2367787 -0.120535284
-3.570322 3.141553 -0.4205058 -1.225323 -2.417934 -4.2131658 0.025859475 1.6497428
1.3853017 -1.9184109 -0.38393378 -4.604279 -2.3767128 -3.3137615 0.2862833 1.4238895
1.1122115 2.6402752 2.9110203 2.6859252 5.285513 -0.42105162 -4.640042 -0.14684822
4.652328 5.098219 1.9871511 -2.9365945 0.084308624 -0.14159983 -0.5017624 -0.8366231
5.8684826 1.8328121 -1.6557169 3.2605267 1.9409379 -1.8086716 2.097377 -1.0413543
-1.9357872 -1.7636838 -4.6619244 -2.8017185 3.490187 2.2548401 -2.7478077 0.48878968
0.121766806 -4.23767 0.13686645 -2.0359185 7.498337 0.83258474 -2.352674 -1.3621818
-0.6644854 -2.738678 -0.21341527 -2.8419476 3.777017 1.0921277 -2.0431056 1.3390768
0.87701225 2.0339758 3.2089667 2.8068361 3.0054688 0.84354025 -4.883615 0.5595005
3.6508691 -1.4713408 1.4835207 2.2317522 1.183952 -0.26922765 -4.0067587 2.5483115
2.187998 4.5272856 -0.7131038 2.0150146 4.0831366 -0.99628246 0.68195003 4.259515
-4.355347 1.0989892 0.5322561 4.054153 3.858912 1.1383967 -2.2692935 3.3309546
-0.3808843 0.8576226 1.4260772 -1.0921893 1.8667027 2.590439 1.93394 5.973094
1.3612195 -0.36219144 -3.483968 -0.74312156 -1.9875805 1.5841591 -2.6544557 0.45920068
5.260771 -4.1290026 0.622253 1.4693139 -1.667927 0.14683026 0.007760346 2.1717522
-1.4928766 -0.9560026 -0.69143295 0.23438083 4.4711065 1.7553339 -0.84663856 -1.8924354
-4.356722 -4.5804434 -1.1183729 -0.051022768 -0.6471519 -0.045518696 4.569912 0.89445066
-0.24772954 2.4198318 -1.6668351 -4.126501 2.170955 -2.4297793 2.1719081 -0.39273277
-2.0629413 -0.8874233 -3.9829133 -1.5403792 0.41197562 -0.76636416 0.5678818 6.143095
4.411903 1.2872596 -2.6860433 0.470591 0.5533807 -0.80207527 -0.7589412 -1.4223492
2.3723981 -3.4772491 -2.0513735 -4.0729246 0.2555576 -3.2548528 -0.5125316 2.1262925
-0.38608703 -1.2378105 0.23529592 1.8309216 -0.42141616 2.147814 -0.8061215 -1.9695855
0.83838296 -4.2316084 -1.2746946 -0.04033816 -2.0670855 4.625555 2.0783978 -2.173555
0.37862605 -0.13438536 -3.1502783 0.7007929 2.0853508 0.27908105 -1.7466578 -0.98228616
00000000: ddb5 58c0 1646 823f aced 7dc0 f72a 833e
00000010: f8f3 8dbe c56c dcbf 3308 3540 8a1c 4cc0
00000020: b3bb 59bf cbd7 c23f e669 b63e 042d f53e
00000030: 68ca 6d40 a7d3 52c0 dd7c 3f40 8ceb 31c0
00000040: 7570 3fc0 d4ad 16bf 7880 3740 c49f eebf
00000050: e615 2540 c66b a2be 8e95 5ebf aee2 18bf
00000060: 34c6 093f 62c8 2340 ccae 8f40 a2c6 0040
00000070: a31e 4f3f 4767 53bf accb 663f e99b 6c40
00000080: fd85 cbbf e4ba 94bf c1ae bfc0 a54a 14bf
00000090: 38d3 ad3f d47e 2a3f 3657 85bf 0078 2a3a
000000a0: 2702 c23f 1820 0f40 27cb fbbf d5d8 04c0
000000b0: 9e04 dbbf c9d2 993f 0dfb 7940 ba6c 45bf
000000c0: 28cc d3be 72bc 11c0 7017 04c0 2a32 7740
000000d0: 20ec 14bf 6689 5fbf b9e9 0a40 fdee c83f
000000e0: 4816 f8bf 4322 783f 32b5 8440 b008 863f
000000f0: 0e96 013f cf3a 4340 b193 87c0 34db f6bd
00000100: 2880 64c0 340f 4940 894c d7be 62d7 9cbf
00000110: 6ebf 1ac0 41d2 86c0 40d7 d33c c62a d33f
00000120: 9151 b13f 7d8e f5bf f892 c4be 4156 93c0
00000130: 101c 18c0 ab14 54c0 ba93 923e 0342 b63f
00000140: f25c 8e3f 45fa 2840 284e 3a40 33e6 2b40
00000150: ec22 a940 1494 d7be 397b 94c0 615f 16be
00000160: dfdf 9440 9c24 a340 f85a fe3f 2af1 3bc0
00000170: 00aa ac3d 8cff 10be 8073 00bf ee2c 56bf
00000180: 9cca bb40 9699 ea3f 88ee d3bf 78ac 5040
00000190: a770 f83f 8d82 e7bf 6d3b 0640 194b 85bf
000001a0: e0c7 f7bf 64c0 e1bf 7c2e 95c0 5b4f 33c0
000001b0: 395f 5f40 4d4f 1040 15dc 2fc0 a442 fa3e
000001c0: e060 f93d fe9a 87c0 b826 0c3e 7d4c 02c0
000001d0: 60f2 ef40 4624 553f 3692 16c0 f95b aebf
000001e0: b71b 2abf 8046 2fc0 8889 5abe 78e2 35c0
000001f0: a6ba 7140 d7ca 8b3f 3ec2 02c0 de66 ab3f
00000200: e083 603f a92c 0240 b65f 4d40 34a3 3340
00000210: 9a59 4040 41f2 573f 9346 9cc0 6d3b 0f3f
00000220: d7a7 6940 e554 bcbf 02e4 bd3f 07d5 0e40
00000230: bd8b 973f 35d8 89be 5e37 80c0 8917 2340
00000240: 2908 0c40 86df 9040 f88d 36bf 00f6 0040
00000250: 0ea9 8240 5e0c 7fbf 4794 2e3f f24d 8840
00000260: 015f 8bc0 aeab 8c3f f041 083f 9fbb 8140
00000270: 6af8 7640 fcb6 913f 1b3c 11c0 5c2e 5540
00000280: 4403 c3be 288d 5b3f b389 b63f dccc 8bbf
00000290: 1df0 ee3f c1c9 2540 598b f73f 9623 bf40
000002a0: 713c ae3f 2871 b9be 55f9 5ec0 373d 3ebf
000002b0: 0a69 febf bac5 ca3f 9ae2 29c0 5a1c eb3e
000002c0: 3c58 a840 ca20 84c0 f94b 1f3f 7a12 bc3f
000002d0: a27e d5bf ac5a 163e 804a fe3b fdfd 0a40
000002e0: 9516 bfbf 96bc 74bf c001 31bf 8701 703e
000002f0: 4e13 8f40 c8ae e03f 4ebd 58bf 533b f2bf
00000300: 446a 8bc0 fe92 92c0 d826 8fbf 40fd 50bd
00000310: bfab 25bf d071 3abd b83c 9240 b8fa 643f
00000320: d0ac 7dbe 86de 1a40 da5a d5bf 4c0c 84c0
00000330: edf0 0a40 8181 1bc0 8b00 0b40 4514 c9be
00000340: 3b07 04c0 2c2e 63bf 0de8 7ec0 252b c5bf
00000350: 78ee d23e 7130 44bf b460 113f 3c94 c440
00000360: 4f2e 8d40 ecc4 a43f 22e8 2bc0 4ef1 f03e
00000370: 5caa 0d3f ce54 4dbf f849 42bf 8a0f b6bf
00000380: 5fd5 1740 408b 5ec0 b449 03c0 6655 82c0
00000390: 72d8 823e 824f 50c0 4535 03bf 2d15 0840
000003a0: 33ad c5be 9370 9ebf 6af1 703e a45b ea3f
000003b0: dcc3 d7be c975 0940 fb5d 4ebf 611b fcbf
000003c0: 44a0 563f 5669 87c0 3129 a3bf a039 25bd
000003d0: 214b 04c0 8c04 9440 7804 0540 861b 0bc0
000003e0: 46db c13e 519c 09be 299e 49c0 2a67 333f
000003f0: 6376 0540 b6e3 8e3e 7c92 dfbf 1b77 7bbf

4.bias f4 [5]
-0.07642603 0.6859461 -2.3036928 0.061431438 -0.8365395
00000000: 4085 9cbd 2a9a 2f3f b46f 13c0 889f 7b3d
00000010: 7427 56bf
