demo/experiments/genetic_algorithm/ga_experiment_2021_02_12_160407/problem_26.model (torch, 26149 bytes, 6 tensors)

0.weight f4 [64, 22]
0	0xc068c7b7	-3.6371896
1	0x409eaa3c	4.9582806
2	0xbf636687	-0.8882832
3	0x3dd575b8	0.10422844
4	0xbef9a023	-0.48754987
5	0x3f9db2fb	1.2320246
6	0xbfd38b90	-1.6526966
7	0xbf2ee9da	-0.6832558
8	0x3f1c1913	0.6097576
9	0x400dabc0	2.2136078
10	0xbe7057e0	-0.23471022
11	0x40b2d390	5.5883255
12	0xc004f1e4	-2.0772638
13	0xc04ee528	-3.2327366
14	0x4078c82c	3.8872175
15	0xc03fa9ca	-2.994738
16	0xbf0f56c7	-0.55991787
17	0xbf56aa54	-0.8385365
18	0x408d7dcf	4.4216075
19	0xbf544148	-0.8291211
20	0xc04bdb4d	-3.18526
21	0xc08ab3d0	-4.33445
22	0xbfa0e239	-1.2569038
23	0xc00052ac	-2.005046
24	0xc0ccb375	-6.3969064
25	0x3f25989b	0.6468598
26	0xc043f88a	-3.0620446
27	0x4042d9e6	3.0445495
28	0xbfb69aa0	-1.4265938
29	0x4025c578	2.5901775
30	0xc09cf4b6	-4.904872
31	0x40c0100e	6.00196
32	0x3f9971f2	1.1987898
33	0xc02168a6	-2.5220122
34	0x3e8f8e7c	0.28038394
35	0x401c4eed	2.4423172
36	0xc0408a41	-3.0084383
37	0xc0362138	-2.8457775
38	0xbfd1ae19	-1.6381255
39	0x3eb732cf	0.3578095
40	0x3daa1248	0.08304268
41	0x3ff293fb	1.895141
42	0x3e85ddbc	0.26145732
43	0x402d3231	2.7061884
44	0xbfb26c32	-1.3939269
45	0x3f22dce2	0.6361829
46	0xbf226cc7	-0.6344723
47	0x40045c31	2.068127
48	0xbfde1247	-1.7349328
49	0x40715a40	3.7711334
50	0x3fec747e	1.847305
51	0x3faaff6f	1.3359202
52	0x3fa460fc	1.2842097
53	0x3faec379	1.3653404
54	0x407acfe4	3.9189386
55	0xbe07e1ec	-0.13269776
56	0x402330b0	2.5498466
57	0xbf5d333d	-0.8640631
58	0xc01d6bec	-2.459712
59	0xc0cd1598	-6.408886
60	0xbc7619a0	-0.015020758
61	0xc001fc7c	-2.0310354
62	0xbfa43dd4	-1.2831368
63	0x401b49c6	2.4263778
64	0xbf7457d2	-0.95446503
65	0xc01c4ae9	-2.4420722
66	0xc06dc24c	-3.714984
67	0x3f752ebb	0.9577443
68	0xbf53f21f	-0.8279132
69	0x3fcd1f67	1.6025208
70	0x3e6e6a0b	0.2328264
71	0xc042019b	-3.031348
72	0xbe808bc4	-0.25106633
73	0x3f721c73	0.9457466
74	0x3e40250c	0.18764132
75	0x3ea9315e	0.33045477
76	0xc0a5bccb	-5.179296
77	0x3d924260	0.07141566
78	0xbfbfe504	-1.4991765
79	0xc02ee193	-2.732518
80	0xc08767cb	-4.23142
81	0x4066845f	3.6018293
82	0x40761234	3.844861
83	0x406b2af5	3.674497
84	0xbff962fb	-1.9483331
85	0x3dc701e0	0.097171545
86	0x3e0cd328	0.13752425
87	0xc0a2718d	-5.076361
88	0xbf73ae44	-0.95187783
89	0x3f32751d	0.6970995
90	0x40112200	2.2677002
91	0xc01abae7	-2.4176576
92	0x4089cf28	4.3065376
93	0x3fab3a4c	1.3377166
94	0xc02afe6a	-2.6717782
95	0xbf6c045b	-0.92194146
96	0xc00f9e34	-2.244031
97	0x400f4cf6	2.2390723
98	0xbf9df6d6	-1.2340953
99	0xbe2ffb92	-0.1718581
100	0x3d3a60b0	0.045502365
101	0xc05714af	-3.3606374
102	0xbfa9b9c7	-1.325982
103	0x402519f5	2.5797093
104	0xc068ccf7	-3.63751
105	0x40c4957d	6.143248
106	0xbfad893b	-1.3557504
107	0xc06fb0df	-3.7451704
108	0xbf23eba4	-0.64031434
109	0x3f877d63	1.058514
110	0x400bee35	2.186414
111	0x3cc806c0	0.024417281
112	0x3e812c70	0.25229216
113	0x40770683	3.8597724
114	0xbf75f5aa	-0.9607798
115	0xbf0c5a60	-0.548254
116	0x403cdb24	2.9508753
117	0x3ec020a0	0.3752489
118	0xc08267a6	-4.0751524
119	0xc0654e0a	-3.5828881
120	0x4027b62e	2.6204944
121	0x40ae3e38	5.445095
122	0xc061fb97	-3.5309808
123	0x3fb7ee84	1.4369664
124	0x3fa0f839	1.2575752
125	0x400a02e4	2.1564264
126	0x3f911b03	1.1336368
127	0xc00b1027	-2.1728609
128	0x40a94bfc	5.2905254
129	0x3f3f5452	0.7473804
130	0x405adfd3	3.4199111
131	0x4040cb6f	3.0124166
132	0xbf1aa0ba	-0.604015
133	0xbf1dc155	-0.61623126
134	0xbfeeca15	-1.865542
135	0x40144faa	2.3173623
136	0x401e90a5	2.4775784
137	0x4023ccde	2.559379
138	0x40251d21	2.579903
139	0xc0080eb7	-2.1258981
140	0x3f08d24b	0.5344588
141	0xbf4d79ef	-0.8026418
142	0x4101b945	8.107732
143	0xc09acecc	-4.8377438
144	0x3f99c525	1.2013289
145	0xc05ff915	-3.4995778
146	0x4023b798	2.5580807
147	0xbf1575c0	-0.583828
148	0x3fdf1ea6	1.7431228
149	0x3fa148c0	1.2600327
150	0x3f7a9f2c	0.97899127
151	0x3fed7baa	1.8553364
152	0xc033fc3b	-2.81227
153	0x403e58fe	2.9741817
154	0xbfbacbdb	-1.4593462
155	0xc04de2c1	-3.216965
156	0x403b288a	2.9243493
157	0x3f2d0f76	0.67601717
158	0x403be13b	2.935622
159	0xc0c22301	-6.066773
160	0x3f8caf74	1.0991044
161	0x40029aec	2.0407057
162	0xbfa4fb52	-1.2889197
163	0xc0544318	-3.316595
164	0xc02d7f28	-2.710886
165	0x406ca39c	3.697486
166	0xbb8f2b00	-0.0043691397
167	0x401bcd3a	2.434401
168	0xc041db55	-3.029012
169	0xc082f444	-4.0923176
170	0x40346be8	2.819086
171	0x3f3ca4f1	0.7368918
172	0xc0be73f5	-5.951655
173	0xbf97c604	-1.1857305
174	0x3fc92d96	1.5717037
175	0x3f820da8	1.0160418
176	0xc0007adc	-2.0074987
177	0xbfba8e33	-1.4574646
178	0xbe097894	-0.13424903
179	0x3e7c2f98	0.2462753
180	0xc01242c7	-2.2853258
181	0xbcdc33d8	-0.02688019
182	0xbf7392fc	-0.95146155
183	0x3de8ae00	0.11361313
184	0xbea3f994	-0.3202635
185	0xbf889aee	-1.0672281
186	0xbf050b41	-0.519703
187	0xc03bde9e	-2.9354625
188	0xbf6a6502	-0.91560376
189	0x401f83b3	2.4924133
190	0x402b4ecc	2.6766844
191	0xc093a96e	-4.6144323
192	0x40717200	3.772583
193	0xbe132bd0	-0.14372182
194	0xbc199900	-0.009374857
195	0x3fb54253	1.4160866
196	0x3f8e34bc	1.1109843
197	0xc01b805b	-2.4297092
198	0x402a9e61	2.6659167
199	0xbf83ed2e	-1.0306756
200	0xbeada990	-0.33918428
201	0xbf1193c6	-0.5686611
202	0x3ec58b93	0.3858305
203	0x402f5ec4	2.740159
204	0xbed5f154	-0.4178568
205	0xbf432e6c	-0.7624271
206	0xc020adab	-2.5105999
207	0xbf604026	-0.8759788
208	0x3fa953b4	1.3228669
209	0x400a09f3	2.1568573
210	0xc03d8c82	-2.961701
211	0xbfac25f3	-1.3449081
212	0xc06d7360	-3.710167
213	0xbe517458	-0.20454538
214	0x401ffec6	2.4999251
215	0xbeadc848	-0.33941865
216	0x3d659ff0	0.05606073
217	0xc0997858	-4.7959404
218	0x40103352	2.2531323
219	0xc01401eb	-2.312617
220	0xc048cc7a	-3.1374803
221	0x40c6bb08	6.210331
222	0x3c8c4bc0	0.017125964
223	0x4069e42f	3.6545522
224	0xbf1f78f5	-0.6229394
225	0xbf940cf6	-1.1566455
226	0x4097c2cc	4.742529
227	0xbfba72f3	-1.456633
228	0xc01f7f36	-2.4921393
229	0xbff8ae75	-1.942824
230	0xbfe775b6	-1.8082798
231	0xc0611ad3	-3.5172622
232	0x3e144b10	0.14481759
233	0xbf6b7b4f	-0.9198503
234	0x4020fdd0	2.5154915
235	0x40293755	2.6440022
236	0x403b9c76	2.9314246
237	0xbeca962f	-0.39567706
238	0x3f9951e1	1.1978112
239	0x40260955	2.5943196
240	0x3ea9dd22	0.33176523
241	0x3fe42960	1.7825127
242	0xbfa339a0	-1.2751961
243	0x403fbb56	2.995809
244	0x406ce715	3.7016041
245	0x3f751576	0.9573587
246	0xbfcfe67c	-1.6242213
247	0xbfd85e84	-1.6903844
248	0x4097f4eb	4.748647
249	0x3f865e90	1.0497608
250	0xc004f4be	-2.0774379
251	0x3d816464	0.06317976
252	0x3f2b7168	0.6696992
253	0xbf4cf75c	-0.8006494
254	0x400a6f24	2.1630335
255	0xbe9a5c02	-0.3014832

0.bias f4 [64]
0	0xc048643a	-3.1311173
1	0xbf8727c7	-1.0559014
2	0x40256e07	2.5848405
3	0x3f890a62	1.0706294
4	0x3e4838fd	0.1955299
5	0x408a054a	4.3131456
6	0x3dfedf40	0.12444925
7	0x406aed3d	3.6707299
8	0x3fd66ac3	1.6751331
9	0xc0925e86	-4.5740385
10	0x403fb2ee	2.995296
11	0x3f831de1	1.0243493
12	0x3e09d9e2	0.13462022
13	0x408db0b4	4.42782
14	0xbf007811	-0.50183207
15	0x3ff4e79e	1.9133184
16	0x40154dcd	2.3328736
17	0xbf10c9b6	-0.56557786
18	0x40218284	2.523591
19	0xc0225b38	-2.5368176
20	0x3fbf36fd	1.4938656
21	0x3f4e8bc4	0.80682015
22	0x404bc7ad	3.1840622
23	0xc0026e07	-2.0379655
24	0x3fe4fe9e	1.7890203
25	0xbe8783ac	-0.26467645
26	0xc004a786	-2.0727248
27	0x3f9cbc4a	1.2244961
28	0x408ade75	4.3396554
29	0x3e258d4c	0.16167182
30	0x3e0b564c	0.13607138
31	0xbeef57eb	-0.46746764
32	0xbf3a2acc	-0.7272155
33	0xbf052f39	-0.5202518
34	0x3f3e8fd0	0.7443819
35	0x401b1aaa	2.4235024
36	0x3f1e7546	0.61897695
37	0x404a6382	3.1623235
38	0xc0b4b5a6	-5.647174
39	0xc01cd894	-2.4507189
40	0xbe3096b0	-0.17244983
41	0x40111e42	2.2674718
42	0x3f27aa48	0.65494204
43	0xbff6da4c	-1.9285369
44	0x3facb6e7	1.3493317
45	0x40207f77	2.5077798
46	0xbfb83f63	-1.4394344
47	0xc0076778	-2.1156902
48	0x4066d02a	3.6064553
49	0xbfb9f6d2	-1.4528449
50	0x401c30e3	2.4404838
51	0xc015a2bd	-2.3380578
52	0xc0471f4c	-3.1112852
53	0xc02c702a	-2.694346
54	0x3fb11c39	1.3836738
55	0xc0012f98	-2.01853
56	0xbf8593f6	-1.0435779
57	0x3f11fc9c	0.57026076
58	0xbfb928d5	-1.4465586
59	0xbfde87b0	-1.7385159
60	0xbfa023fb	-1.251098
61	0xbf15f8a0	-0.58582497
62	0x3f5a15a4	0.8518927
63	0x3ff16a49	1.8860561

2.weight f4 [64, 64]
0	0x3e3c5248	0.18390763
1	0x3ed9084e	0.42389148
2	0xc015b2e1	-2.339043
3	0xbf50c8bc	-0.81556296
4	0xc0880826	-4.2509947
5	0x405cdf98	3.451147
6	0xbf796afa	-0.9742886
7	0xbf626e20	-0.8844929
8	0x40c64e6b	6.1970725
9	0xc003627f	-2.0528867
10	0x40129276	2.2901893
11	0xbf6d891d	-0.92787343
12	0x3f8118af	1.0085658
13	0xbf2f5bef	-0.68499655
14	0x3fe50110	1.7890949
15	0xbfa766c0	-1.3078232
16	0xc03ca64d	-2.9476502
17	0xbeabde48	-0.33568025
18	0x3fe2d065	1.7719847
19	0x40246464	2.5686274
20	0x3e864adc	0.26228988
21	0x4071ff34	3.7812014
22	0x404378e0	3.0542526
23	0xbe98d0c0	-0.29846764
24	0xc06968d0	-3.6470222
25	0x4049b7bd	3.1518395
26	0x3fe1f606	1.7653205
27	0x3f341d5e	0.7035731
28	0xbfc33bd6	-1.5252635
29	0xc072f1c2	-3.7960057
30	0xc0098187	-2.1485307
31	0xb9c3c800	-0.0003734231
32	0xbf09c074	-0.53809285
33	0xc036238a	-2.8459191
34	0xc0029dc1	-2.0408785
35	0x3fa28fc6	1.2700126
36	0xc09ef312	-4.9671717
37	0x409f392c	4.975729
38	0xc0b715fe	-5.7214346
39	0xbfb7a818	-1.4348173
40	0xc0727551	-3.7884104
41	0xc053860c	-3.3050566
42	0xc03b1d8a	-2.923678
43	0xc01fff4a	-2.4999566
44	0x408373ee	4.1079016
45	0x3f3f84f4	0.74812245
46	0xbf3e621a	-0.7436844
47	0xbf9fb9de	-1.2478597
48	0x4062a031	3.5410273
49	0xc090c147	-4.5235934
50	0xbf0faca3	-0.561228
51	0xbf56ac15	-0.83856326
52	0xc0561a24	-3.3453455
53	0x3fc1f99a	1.5154297
54	0xc00a3cd2	-2.1599622
55	0xbf8c1305	-1.0943304
56	0x3f264038	0.6494174
57	0x404df51b	3.218085
58	0x3fbd6be3	1.479855
59	0x3ed1cecf	0.40978095
60	0xbf859c0e	-1.0438249
61	0xbfa18e45	-1.2621542
62	0x4077f1d4	3.874135
63	0xbf1bd940	-0.6087837
64	0xc0cc36c0	-6.3816833
65	0x3b11a700	0.0022224784
66	0xbf332412	-0.69976914
67	0x40267e47	2.6014574
68	0x3faf04cf	1.3673342
69	0x40662ec5	3.5966046
70	0xbf754bcc	-0.9581878
71	0xc001b7ae	-2.026836
72	0x3f8f0dba	1.1176064
73	0x3f4ac950	0.7921343
74	0x4086c2c1	4.2112737
75	0xc06403d5	-3.562734
76	0xbecc3538	-0.39884353
77	0x3f3bf531	0.7342101
78	0xbf80a995	-1.0051752
79	0xbf69aa8e	-0.9127587
80	0x3f6939b7	0.9110369
81	0xbce52460	-0.027971447
82	0xbfd3786c	-1.6521125
83	0x40a31129	5.0958447
84	0xbfeb434e	-1.8379915
85	0x3f99a488	1.2003336
86	0x402fb6c1	2.7455294
87	0x40997cea	4.7964983
88	0xbf4941af	-0.7861585
89	0xbf98e12c	-1.1943717
90	0x40263ef8	2.5975933
91	0x40694517	3.644842
92	0xbf5e0a11	-0.8673411
93	0x3eb2d3ca	0.34927207
94	0xc0924db9	-4.5719876
95	0x3d211bc0	0.039333105
96	0x40093c2a	2.1442971
97	0xbff55631	-1.9166929
98	0x3f8a741c	1.0816684
99	0xc0be3c16	-5.9448347
100	0xbf6f8c15	-0.93573123
101	0x404519e0	3.0797043
102	0x401fe934	2.4986086
103	0x3f0265ac	0.5093639
104	0x3f360727	0.71104664
105	0xbfa39181	-1.2778779
106	0xbf06fcbd	-0.527294
107	0xbf753886	-0.9578937
108	0x3f4a6206	0.7905582
109	0xbfafb2b1	-1.3726407
110	0xc00d93e9	-2.2121527
111	0xc058845e	-3.383079
112	0xbf541056	-0.82837427
113	0xbf8ffcf9	-1.1249076
114	0xbffb6606	-1.964051
115	0xbf87a833	-1.0598205
116	0x3ef8085b	0.48443875
117	0x3e623024	0.22088677
118	0x400c9bfa	2.19702
119	0xbf3be6e8	-0.7339921
120	0x408dcccc	4.4312496
121	0x3fd442d2	1.6582892
122	0x400353d7	2.0519922
123	0xbf698690	-0.9122095
124	0xbddfcf08	-0.1092816
125	0x4018b0a4	2.3857813
126	0x40390937	2.8911874
127	0x3fb2b9e2	1.3962977
128	0xc02d79ff	-2.710571
129	0xc0b9a046	-5.8008146
130	0x4035bd94	2.839696
131	0x401004b7	2.2502878
132	0xbfe0a9a4	-1.755177
133	0xbfb16f7a	-1.3862145
134	0x40c6d1f1	6.2131276
135	0xbfb5486c	-1.4162726
136	0xc0a652e8	-5.1976204
137	0xbfb0c52c	-1.3810172
138	0xbf5fadf3	-0.873748
139	0xbfd6bbab	-1.6776022
140	0xbf1f150b	-0.62141484
141	0x401d4289	2.457186
142	0x3ff2ccfb	1.8968805
143	0xbf472e3f	-0.7780494
144	0x40e92c89	7.2866864
145	0x3fdd66e5	1.7297026
146	0x3f72ae25	0.94796973
147	0x4059de26	3.4041839
148	0xc08c99ea	-4.3937883
149	0x3e4ab164	0.19794232
150	0xc0a72c48	-5.2241554
151	0xbfdec0a6	-1.7402542
152	0x3df52488	0.119698584
153	0xbe3500bc	-0.17676061
154	0xbf1d005d	-0.6132868
155	0xbea3986e	-0.31952232
156	0xc038ab6b	-2.8854625
157	0x3fda28fa	1.7043755
158	0xc020b4e0	-2.5110397
159	0x4086a1f7	4.207271
160	0xbfa3e915	-1.2805506
161	0x406f8226	3.7423186
162	0x3e890640	0.2676258
163	0xc0116453	-2.2717483
164	0xc02e296c	-2.7212782
165	0xbfd725d8	-1.6808424
166	0xbfdebc18	-1.7401152
167	0x3ea69de8	0.32542348
168	0xc034762d	-2.8197129
169	0xc0886e57	-4.263469
170	0xbcc16b80	-0.02361083
171	0xbf20c24b	-0.6279647
172	0x3eb227bc	0.3479594
173	0xbfce4bd0	-1.6116886
174	0x3e025e2a	0.12731233
175	0x4072c43b	3.793227
176	0xbf9beab4	-1.2181001
177	0x3f660ecc	0.8986633
178	0x3e543110	0.20721841
179	0xbfc4f259	-1.5386459
180	0xc065e462	-3.5920644
181	0xbfc0fb10	-1.5076618
182	0xbd19eb60	-0.037577987
183	0xc04f0e7e	-3.2352595
184	0xc0224d09	-2.5359519
185	0xc099af8b	-4.8026786
186	0x3e15f172	0.14642885
187	0x3fdb4a98	1.7132139
188	0xc0082702	-2.1273808
189	0xbf3933ca	-0.7234465
190	0xbf999edb	-1.2001604
191	0xc03e9572	-2.9778714
192	0xbef47358	-0.4774425
193	0xc08241de	-4.0705404
194	0xbfce7331	-1.6128904
195	0xbee1f66d	-0.4413332
196	0xc0020a56	-2.0318809
197	0x404f0502	3.2346807
198	0xc0880421	-4.250504
199	0xc06ab65a	-3.6673799
200	0x3ff86c33	1.940802
201	0x40bc55f8	5.885494
202	0xc03ca37e	-2.9474788
203	0x3f38fe52	0.7226306
204	0x3e9ecba8	0.31014752
205	0x3fca3946	1.5798728
206	0x408602d7	4.1878467
207	0x3f8d7f06	1.105439
208	0x40080b30	2.1256828
209	0xbfc712bf	-1.5552596
210	0xbfa70a14	-1.3049951
211	0xbf77e832	-0.96838677
212	0xc0398054	-2.8984575
213	0x401ee14c	2.482501
214	0xbf17bea0	-0.59275246
215	0x40166d5b	2.3504245
216	0x40421d15	3.033025
217	0xc040bec6	-3.011644
218	0x3f8c234e	1.0948274
219	0x3f8d147d	1.1021878
220	0xbf7264be	-0.9468497
221	0x3f9d9680	1.2311554
222	0x3e5e7ac6	0.21726522
223	0x3f6725cf	0.90292066
224	0x3f62f861	0.88660246
225	0x3fb84aa7	1.4397782
226	0x4022b575	2.5423253
227	0xc067008a	-3.609408
228	0xbf5a99c1	-0.8539086
229	0xbea82eff	-0.32848355
230	0x3f46f898	0.77723074
231	0x4064316f	3.5655172
232	0x3fb24b39	1.3929206
233	0xbf9109d7	-1.1331128
234	0x3f3644dc	0.7119882
235	0xc074d7d4	-3.825673
236	0x3fa3d777	1.280013
237	0xc012449c	-2.2854376
238	0xbe9ff700	-0.31243134
239	0xc0114e8d	-2.2704194
240	0x3e8002cc	0.25002134
241	0xbfaf3d7b	-1.3690637
242	0x4060167d	3.5013726
243	0x3eb6dc02	0.35714728
244	0xbe538af8	-0.20658481
245	0x3fb91938	1.4460821
246	0x3f99e53c	1.2023082
247	0x3ebd8490	0.370152
248	0x40b5bae9	5.679066
249	0x3f91e58a	1.1398175
250	0xbffe89a0	-1.988575
251	0x3f8ead0f	1.1146563
252	0x4031b24a	2.776507
253	0x3fcfd031	1.623541
254	0xc02b31aa	-2.6749063
255	0x40881dfe	4.253661

2.bias f4 [64]
0	0x409933a7	4.787555
1	0x3ec23ba4	0.37936127
2	0x405f32a5	3.487466
3	0xbf82160d	-1.0162979
4	0xc063c3b3	-3.5588195
5	0x3f8808ad	1.0627648
6	0x3eb45b02	0.35225683
7	0xc0580d34	-3.3758059
8	0x3f199ac8	0.600018
9	0x3fff6e57	1.9955548
10	0xbf50e45e	-0.8159846
11	0x3fe55ddd	1.791927
12	0x3f89e664	1.0773435
13	0x401c948a	2.446566
14	0x4073048b	3.7971523
15	0x405d8d0b	3.4617336
16	0xbff1e2eb	-1.8897375
17	0xbfab6ab2	-1.3391936
18	0xc076a9c4	-3.8541117
19	0xc0490516	-3.1409354
20	0xbf9f7b32	-1.2459471
21	0x40134661	2.3011706
22	0x4038380c	2.8784208
23	0x4053ffa7	3.3124788
24	0x40718e3a	3.7743058
25	0xc069ad7c	-3.6512136
26	0xbf280798	-0.6563659
27	0x40691b08	3.6422749
28	0x407589da	3.8365388
29	0x407d8466	3.961206
30	0xc0268b54	-2.602254
31	0x406b0cdc	3.6726599
32	0x404e511e	3.223701
33	0xc0123be8	-2.2849064
34	0x4097de40	4.74588
35	0x40b04afe	5.5091543
36	0x4025af37	2.5888193
37	0x3f884ab7	1.0647801
38	0xbf9aa7da	-1.2082474
39	0xbe307e50	-0.17235684
40	0x3f9bada5	1.2162367
41	0xc00fd586	-2.2474074
42	0x4065c8fc	3.590392
43	0xbf76b05f	-0.9636287
44	0xbf775560	-0.96614647
45	0xbed8000f	-0.42187545
46	0x3d892980	0.066973686
47	0xbfa743f0	-1.3067608
48	0x401f8f62	2.4931264
49	0xc038ac64	-2.885522
50	0xbe83fcea	-0.25778896
51	0x405684b3	3.3518493
52	0x405e3151	3.47176
53	0xbf81d752	-1.0143836
54	0x3f20c06c	0.6279361
55	0x3f836e3a	1.0268013
56	0xbfe5d8b0	-1.7956753
57	0x3fa31a81	1.2742463
58	0xc08de6c8	-4.4344215
59	0xc010772c	-2.2572737
60	0x3f102c90	0.56317997
61	0xc0369a77	-2.8531778
62	0xc004d64e	-2.0755801
63	0x3f8b7db2	1.0897734

4.weight f4 [5, 64]
0	0xbf68affe	-0.9089354
1	0xc07d6bba	-3.9597
2	0xbfb99bc0	-1.4500656
3	0xbf9ecbdc	-1.2405963
4	0x40d3f7a9	6.623982
5	0xbdd9fbf8	-0.10643762
6	0xbf7c42aa	-0.9853922
7	0x3f610683	0.8790056
8	0xc02318a2	-2.5483785
9	0x408fb042	4.490266
10	0x3fbb4c3e	1.4632642
11	0x3f868992	1.0510733
12	0x3fd039b1	1.6267606
13	0xbff59812	-1.9187033
14	0x4096fef9	4.7186246
15	0x3f553911	0.832902
16	0xc038cf97	-2.8876703
17	0x3fd98173	1.699263
18	0x401bd258	2.4347134
19	0x3e947fcc	0.2900375
20	0xbf524978	-0.82143354
21	0x3ec049a8	0.37556195
22	0x3fbdaf88	1.4819193
23	0xbf7f763e	-0.997898
24	0x3fdb37c5	1.7126395
25	0x3fbeb4af	1.489889
26	0xc051ccfe	-3.2781367
27	0x3e17cb74	0.14823705
28	0xbf93859f	-1.1525153
29	0x3fb78284	1.4336705
30	0xbea15646	-0.31511134
31	0x409f60a0	4.980545
32	0xc088fc51	-4.2808003
33	0xbfcd494d	-1.6037995
34	0x3febec43	1.8431476
35	0xbe35ee69	-0.17766728
36	0x3eeaf034	0.45886385
37	0xbf830297	-1.0235165
38	0xbff92338	-1.9463873
39	0xbd4b3ba0	-0.04961741
40	0x40c1087a	6.0322847
41	0xbcfa91a0	-0.030587018
42	0xc02c8f34	-2.6962404
43	0xc08b497a	-4.3527193
44	0x40141710	2.3139076
45	0x3f2db144	0.6784861
46	0xc07a94b3	-3.9153259
47	0x3e68038a	0.226576
48	0x40502028	3.2519627
49	0x3faee9c8	1.3665094
50	0x3f8a4a1b	1.0803865
51	0x40817bf3	4.0463805
52	0xc057f814	-3.3745165
53	0xc0269143	-2.602616
54	0x3fbf3c37	1.4940251
55	0xc066141e	-3.5949779
56	0x3fb206ce	1.3908327
57	0x3f8bc26f	1.0918711
58	0xc00855c3	-2.1302345
59	0xbfc758ff	-1.5574034
60	0xc0a2e069	-5.089894
61	0xbfdbdcd8	-1.7176771
62	0xbf9934c8	-1.1969233
63	0x40138518	2.3049984
64	0xbcff2cc0	-0.031149268
65	0x3f0e457c	0.55574775
66	0x409567db	4.6689277
67	0x40442456	3.0647178
68	0xbf8968cf	-1.073511
69	0xc07a1f5f	-3.9081647
70	0xbfa792f6	-1.3091724
71	0xbff97b21	-1.9490701
72	0xc03d6fdd	-2.9599526
73	0xbeccd73d	-0.40007964
74	0x408771c0	4.2326355
75	0xbf2a6c29	-0.6657129
76	0xbf5908f0	-0.8477926
77	0x3ec9d638	0.39421248
78	0x3f650f52	0.894765
79	0x3fccb25e	1.5991933
80	0xc003c0fa	-2.0586534
81	0xc0027aa3	-2.0387352
82	0xc01de86a	-2.4673104
83	0x3f042e79	0.5163341
84	0x3e0f5770	0.13998199
85	0xbf43a24b	-0.76419514
86	0x402ca238	2.697401
87	0xc0863821	-4.1943517
88	0xbfb3b9a0	-1.4041023
89	0xc0a54dd0	-5.1657486
90	0xc02b1cdf	-2.6736372
91	0xbf16e137	-0.589374
92	0x40d34961	6.6027074
93	0xbf14d1dc	-0.5813272
94	0xc04cbabe	-3.1988978
95	0xbf955da1	-1.1669198
96	0xbf161486	-0.58625066
97	0x4017d0cd	2.3721192
98	0x4050d631	3.2630732
99	0xc05bf67f	-3.43692
100	0xc03c1ea3	-2.93937
101	0x40b0785f	5.5146937
102	0x3f415f90	0.7553644
103	0xbfc7f534	-1.5621705
104	0x4021ee1a	2.5301576
105	0xbe358689	-0.17727102
106	0xbf97ebfc	-1.1868892
107	0xc04d6e20	-3.2098465
108	0x3eed3b3d	0.46334258
109	0xbfda1bba	-1.7039711
110	0xc020bfea	-2.5117135
111	0x3ea7bcdc	0.32761276
112	0x3fc0c1c3	1.5059131
113	0x3f1a69a4	0.60317445
114	0xc086a08b	-4.2070975
115	0x409980df	4.7969813
116	0x3fb75bcb	1.4324888
117	0x4054dbf2	3.3259244
118	0x3ea00ab8	0.31258178
119	0xc011586b	-2.2710216
120	0x3f2fee65	0.68723136
121	0x3fbef868	1.4919558
122	0xbeb2ffec	-0.34960878
123	0x3fa9333c	1.321876
124	0x3fd0c88c	1.6311202
125	0x404c8e6c	3.1961927
126	0x3ef3aa52	0.47590882
127	0x400c33b4	2.1906557
128	0x3f0b4ace	0.5441102
129	0xbe163d00	-0.14671707
130	0x40709184	3.7588816
131	0xbf3f9d06	-0.74848974
132	0xc097dfb8	-4.7460594
133	0x3f699d6b	0.91255826
134	0x3f7426da	0.9537178
135	0x3f939932	1.1531126
136	0xbf941060	-1.1567497
137	0xbe65da20	-0.2244649
138	0x40396b79	2.8971846
139	0x40855bfa	4.1674776
140	0x4058c309	3.386904
141	0x40903636	4.5066175
142	0xbf1eb27d	-0.619911
143	0x3e48ec78	0.19621456
144	0x3fbc5d40	1.4715958
145	0xbf179fda	-0.5922829
146	0xbed7fc50	-0.42184687
147	0xc037b49d	-2.8703988
148	0x3f415b30	0.75529766
149	0x3f04a43b	0.51813096
150	0xbff8c016	-1.943362
151	0x3ff80551	1.9376622
152	0x3fd33232	1.6499693
153	0x3e8805d5	0.2656695
154	0x400fc940	2.2466583
155	0xbfd4364a	-1.6579068
156	0xc01c0098	-2.4375362
157	0x405663b2	3.349835
158	0xbed11805	-0.40838638
159	0xbf98301e	-1.1889684
160	0x40a11449	5.033726
161	0xc09d53c7	-4.9164767
162	0x3ff52f45	1.915505
163	0xbf8b6964	-1.0891538
164	0x3fddf7a2	1.7341197
165	0x402dc607	2.7152116
166	0x40fcdd68	7.902027
167	0x3f53fb1a	0.82805026
168	0xbde841f0	-0.113407016
169	0x3fb80b44	1.4378438
170	0xc01989e3	-2.399041
171	0xbea7b2a4	-0.3275348
172	0xbf87b2e6	-1.060147
173	0xc0305e99	-2.7557738
174	0x3f84ae4a	1.0365689
175	0xc0865fcb	-4.1991935
176	0xbfa345c1	-1.2755662
177	0x3d999cb0	0.07500589
178	0x3f65181f	0.8948993
179	0xbf975526	-1.182286
180	0xbfadcc7b	-1.3578027
181	0x3fcc5dd6	1.5966136
182	0xbf7fab6d	-0.9987095
183	0x3fc5c024	1.5449262
184	0x3fccf7b6	1.6013095
185	0x3fd8efb6	1.6948154
186	0xc0609ac4	-3.5094461
187	0xbfa0fda1	-1.2577401
188	0x3fa7f02a	1.3120167
189	0x3f859f81	1.0439302
190	0x4026d7a8	2.6069126
191	0xbf42043e	-0.75787723
192	0xbf510ccb	-0.81660146
193	0x4052b0fd	3.2920525
194	0x3d4fcd40	0.05073285
195	0x4044496e	3.0669818
196	0x40373b54	2.862996
197	0x401a2d12	2.4090009
198	0xbfbf07f4	-1.4924302
199	0xc01bda60	-2.4352036
200	0x40330d62	2.7976918
201	0xbf38a65a	-0.7212883
202	0x3f7525d7	0.95760864
203	0xbc899480	-0.016794443
204	0x3fbb1139	1.4614631
205	0xc08cad70	-4.3961716
206	0xbf4cc003	-0.79980487
207	0x3fb67efe	1.4257505
208	0x3e5d08b8	0.21585357
209	0xbf8f30bc	-1.1186748
210	0x3ed3eddc	0.4139241
211	0xc033cc06	-2.8093276
212	0xc0826f68	-4.0760994
213	0x40109b8c	2.2594938
214	0xbf211e42	-0.62936795
215	0xc094fddc	-4.6559887
216	0xc022d51e	-2.5442576
217	0x3f7dd0e8	0.9914689
218	0xbf5fc3db	-0.87408227
219	0x3fa12af7	1.2591237
220	0xbf04c3ca	-0.5186125
221	0xc08eca9e	-4.4622335
222	0x3f6fe7bd	0.9371298
223	0xbf8d5782	-1.104233
224	0xbf759e7e	-0.95944965
225	0xbf78189e	-0.9691256
226	0xbe128096	-0.14306864
227	0xbdb927b2	-0.090407744
228	0xc0820298	-4.0628166
229	0x3ee9cff8	0.4566648
230	0x406860e8	3.6309147
231	0x40175e17	2.3651178
232	0x403ff499	2.999304
233	0xbf9b24df	-1.2120627
234	0x3f6c4cdc	0.9230478
235	0xc05c78e4	-3.4448786
236	0xbfe7a5d4	-1.8097482
237	0xc04d8094	-3.2109728
238	0xbf8d45d3	-1.1036934
239	0x3f8f3ad5	1.1189829
240	0xbfa9b800	-1.3259277
241	0x3f787783	0.9705736
242	0xc0307c77	-2.7575967
243	0xbfab6807	-1.3391122
244	0xbfd72c5a	-1.681041
245	0xbfaab9fc	-1.3338008
246	0xc096dcd1	-4.714455
247	0xbfc43351	-1.532816
248	0xbf534c76	-0.82538545
249	0x3fdddea8	1.7333574
250	0x40a03d25	5.007464
251	0xc00ecba3	-2.231179
252	0x4001da1d	2.0289376
253	0xc01c7098	-2.4443722
254	0x401e3403	2.4719245
255	0xc0082e93	-2.1278427

4.bias f4 [5]
0	0x3ed63664	0.41838372
1	0x4093f637	4.6238055
2	0xbf9c7067	-1.2221802
3	0xc05942f3	-3.3947113
4	0xbfe949d7	-1.8225659
