demo/experiments/genetic_algorithm/ga_experiment_2021_02_12_160407/problem_40.model (torch, 26149 bytes, 6 tensors)

0.weight f4 [64, 22]
00000000: 270e ee3f 45bb 39c0 68a2 f6be e87d 523e
00000010: c1cc 70bf 10e3 efbe b0f3 a13e 3b19 c73f
00000020: d356 e73f 3113 983f 1a74 59bf fa69 02c0
00000030: 4eb3 0ec0 e7ba 9bbf b6fe 10c0 9999 5a3f
00000040: a8d0 a6c0 103b 7ebe b4ad 4f3f ad2a a6bf
00000050: 7bb8 92c0 2f57 c33e b0ff 6c40 75eb aabf
00000060: 5e51 18c0 65cf 36bf ecdd 85c0 af38 2ec0
00000070: a097 86be 3155 55c0 002e b43c 9ec3 5c40
00000080: 0517 c63f 1c82 6dbf e11c 4ac0 e9bb fd3d
00000090: 8713 06c1 7e7c f940 0031 ea3f f525 2dc0
000000a0: 049c 11bf e068 9b3f ce1a 9840 0e9a c940
000000b0: 3037 c4bd a042 453d a210 47bf a23f 4840
000000c0: c2e8 8a3e 3ac1 c1bf 46b3 c1bf c1cb 443f
000000d0: 6a08 49c0 2359 3b40 001c 0840 9cc9 a140
000000e0: 928a 6ec0 587b f3bc b8c9 e7be 6ccd 4abf
000000f0: 21ec 1440 7745 923e 0923 6040 40e0 7fbd
00000100: 52b3 243f c030 e43f d8b3 13bf 9563 69c0
00000110: 6718 89bf a1d1 42c0 60a2 76c0 b5c8 47bf
00000120: 810d d13f c98f 7240 3cc1 2b40 6f42 3fc0
00000130: 5ff5 d73f 88e8 23c0 5130 b43e c2ce 08bf
00000140: 1070 3a40 6852 1dc0 4217 1340 de61 70c0
00000150: a479 33bf c58e bbbf 91ca a23f 14b2 bb3e
00000160: c8a3 71be 4a27 6cbf 6a38 1c40 478b 1ec0
00000170: 7bde c53f 3540 cd3f dc2e 2b3e 4811 2e3e
00000180: 4288 9ec0 90bd 5d3f eef1 39bf ac66 c8bc
00000190: 80d4 6b3e e837 7440 abad 3340 955a 943e
000001a0: af96 4fc0 8be7 64c0 13ce efbe 2dac b9bf
000001b0: 4cec 05bf feda d73e 97f6 d2bf a41d 7b3f
000001c0: 4c5e 21c0 aac7 e5bf 3acc 5ec0 5a80 e8bf
000001d0: a081 95c0 2448 abbf 04fb 46c0 5afc 2340
000001e0: 8014 5ac0 12d3 5440 58a8 2740 0838 9f3f
000001f0: f80f ddbd 4bf4 af40 b977 8d3f 76c3 c33f
00000200: 4f26 f8bf d2e4 3fbf 265b c93f b292 8fbf
00000210: 8179 9a3f ba5b abbf b663 51c0 92b6 4440
00000220: 66c1 973f e5e0 19c0 ea20 a9c0 7a4e b5bf
00000230: 288a 0a40 3018 23c0 8c9e 7840 69d5 c73f
00000240: b06e b63f 2ef9 6a40 b308 abbf 0c8f 3d40
00000250: f89c fa3e c685 cf3e 443d 0940 f89e 26c0
00000260: f5a4 96be 522d 0cbf 72fe e63f 77a6 13c0
00000270: 3cf3 b13f 0620 38c0 d06f 37be 0eca ee3e
00000280: ec41 3d3f ae31 87c0 6afa e63f b85a fd3f
00000290: 7e3d 1a40 e156 e3bf 1630 dc3f 8441 a73f
000002a0: 899b 50c0 16da aa40 4021 d23b 18c2 b9be
000002b0: 7541 9f40 fa17 ba3f 5c10 aebe 71b7 a13f
000002c0: ec4c a9bf 1a7d 19bf b064 aebd 7845 9c40
000002d0: 8637 71bf 1e2e 4bc0 93e9 bb3f 7669 b7bf
000002e0: b814 8c40 cd57 cec0 989d ecbf 757d 8c40
000002f0: 04ce 35bf 64de a33f ec67 81c0 afd0 0040
00000300: ff2f 953f 0a8c f0be 8f34 5440 dacb 1e40
00000310: 3274 ac3f 7403 85bf c228 83bf dd43 fb3f
00000320: 81d0 05c0 68fe dfbf 0627 923f 0800 a3c0
00000330: a04e ad3c 360a 403f b000 2fc0 36f2 a13f
00000340: 6680 97c0 2df1 c9c0 d8c6 1d3f e2f2 4d40
00000350: b3a2 97c0 1095 793f 9b4b a43f 1416 5940
00000360: 0649 27c0 4c6e 71c0 4dfc c0c0 00a8 fbbb
00000370: 1b0e 4fbe 722b 1b40 cf14 2640 99a7 77bf
00000380: 1481 d2bf a729 9640 faab c8bf bc23 c33e
00000390: 0a57 003f a540 43bf 139f a73f c7c3 9a40
000003a0: 54a0 26c0 2465 fe3f ac6d 0a40 c879 0bc0
000003b0: e450 523e ff4c 47bf 1006 debf 42cd 1c40
000003c0: 6235 b7bf 0171 fa3f 5802 8f3f c55f 8d40
000003d0: 52e8 f740 d608 c53f 27c0 50bf 11d6 08bf
000003e0: fe82 f2bf ca1c 85c0 d792 8d40 3eee 30c0
000003f0: d9f5 73bf 6016 dc3f d012 ea3f f8e7 2840
1.8598069 -2.902055 -0.4817078 0.20555842 -0.9406243 -0.46852922 0.3163123 1.5554575
1.8073372 1.1880857 -0.8494278 -2.0377183 -2.229694 -1.2166413 -2.2655463 0.8539062
-5.2129707 -0.24827218 0.81124425 -1.2981774 -4.5850196 0.38152453 3.703106 -1.3353106
-2.3799663 -0.7141021 -4.18334 -2.7222097 -0.26287556 -3.3333247 0.02199459 3.4494395
1.5475775 -0.92776656 -3.1580126 0.12389357 -8.379767 7.796447 1.8296204 -2.7054417
-0.56878686 1.214138 4.753272 6.3000555 -0.09580839 0.04815924 -0.77759755 3.1288838
0.27130705 -1.5137093 -1.5132835 0.76873404 -3.1411386 2.9273155 2.126709 5.0558605
-3.7272077 -0.0297219 -0.45271087 -0.792197 2.3269122 0.28568622 3.5021384 -0.06246972
0.6433612 1.7827377 -0.57696295 -3.646703 -1.0710572 -3.0440447 -3.8536606 -0.7804063
1.6332246 3.790026 2.683669 -2.9884298 1.6871756 -2.5610676 0.35193112 -0.5344049
2.9130898 -2.4581547 2.2982945 -3.7559733 -0.70107484 -1.4652945 1.2718068 0.366593
-0.23597634 -0.9224745 2.4409432 -2.4772508 1.5458521 1.603522 0.16717094 0.1699878
-4.954133 0.86617374 -0.7263478 -0.02446302 0.23030281 3.8159122 2.8074749 0.2897536
-3.243572 -3.5766323 -0.4683691 -1.4505669 -0.52313685 0.42159265 -1.6481503 0.98092103
-2.5213804 -1.7951558 -3.481215 -1.816417 -4.6720734 -1.338139 -3.1090708 2.5622773
-3.4075012 3.3253827 2.61965 1.2438974 -0.107940614 5.498571 1.1052161 1.5294025
-1.9386691 -0.7495853 1.5730941 -1.1216643 1.206833 -1.3387368 -3.2717109 3.0736432
1.1855896 -2.4043515 -5.285268 -1.4164574 2.1646824 -2.5483513 3.884677 1.5612003
1.4252529 3.6714587 -1.336203 2.961856 0.48947883 0.4053175 2.1443644 -2.6034527
-0.29422727 -0.54756653 1.80464 -2.3070352 1.3902354 -2.8769546 -0.17913747 0.4663853
0.73928714 -4.2248144 1.804517 1.979331 2.4100032 -1.7760888 1.7202175 1.3066869
-3.259493 5.339122 0.006412655 -0.36280894 4.9767404 1.4538567 -0.33996856 1.2634107
-1.32266 -0.59956515 -0.08515298 4.88348 -0.9422535 -3.1746898 1.4680656 -1.4329059
4.377529 -6.448218 -1.8485594 4.3903146 -0.7101748 1.2802243 -4.043936 2.012737
1.1655272 -0.4698184 3.315708 2.481192 1.347296 -1.0391679 -1.0246813 1.9630085
-2.090851 -1.7499514 1.1418159 -5.093754 0.021155655 0.7501558 -2.734417 1.2652042
-4.7344236 -6.3106904 0.61631536 3.2179494 -4.7386107 0.97493076 1.2835573 3.3919725
-2.613832 -3.772357 -6.0307984 -0.0076799393 -0.20220225 2.4245267 2.59502 -0.9674011
-1.6445642 4.6925845 -1.5677483 0.381132 0.5013281 -0.76270515 1.3095421 4.8363986
-2.6035357 1.9874616 2.1629438 -2.179308 0.2053867 -0.7785186 -1.73456 2.450028
-1.4313166 1.9565736 1.117259 4.4179406 7.7471094 1.5393322 -0.815432 -0.5345164
-1.8946226 -4.1597643 4.424175 -2.7645411 -0.9529701 1.7194328 1.8286991 2.6391582

0.bias f4 [64]
00000000: e04e c83f 2633 243f f2cc 83c0 c22e d4bf
00000010: 8691 c03f ba81 0ac0 06e9 ed3f 9f3e 9dbf
00000020: 463b 8c3f 4333 0640 5dc7 1f3f bd2b 82bf
00000030: db81 8bc0 250c d2bf b4cb dfbf 17d7 72c0
00000040: 9aac 83c0 4959 79c0 4067 95bc 5e8e 8ac0
00000050: db67 493f 5672 83bf e8e0 33c0 3088 d73e
00000060: 14f3 313f 14ac 223f 9488 dcbf c6a9 0040
00000070: f8ba 5bbe 3c4b b540 e5bd 86bf 2096 343e
00000080: c6fd 1b3f d6f9 95c0 3678 fe3d 75b6 39c0
00000090: 9472 5140 c666 01bf dc26 14c0 30e5 96c0
000000a0: e89f 37c0 2a81 7d3f ee60 0ac0 bf4f 503f
000000b0: 42aa 0940 e445 b73f fcee 89c0 647a 38bf
000000c0: 724a 0440 c4e8 fdbf 00ca 7bbc 3958 2340
000000d0: 549e 56bf a114 7bbf ec8e 33bf a13f 8c40
000000e0: c4e6 ad3f 5708 efbe 090e a03f 4034 423e
000000f0: fe3d efbf 286a 2cbf 8f71 89c0 cc6b 2440
1.5649071 0.64140546 -4.1187677 -1.6576769 1.504441 -2.164168 1.8586738 -1.2284735
1.0955589 2.0968788 0.6241358 -1.0169598 -4.3596015 -1.6409956 -1.748404 -3.794378
-4.1148195 -3.8960745 -0.01823771 -4.329879 0.78674096 -1.0269268 -2.8106022 0.4209609
0.6951153 0.6354382 -1.722918 2.0103621 -0.21458042 5.665434 -1.0526701 0.17635393
0.609341 -4.6867476 0.12425272 -2.9017613 3.2726183 -0.50547445 -2.3148718 -4.715477
-2.869135 0.99025214 -2.162166 0.8137168 2.1510167 1.4318204 -4.310423 -0.72061753
2.0670438 -1.983666 -0.015367985 2.5522597 -0.8383534 -0.9807835 -0.70139956 4.382767
1.3586049 -0.4668605 1.2504283 0.18965244 -1.8690794 -0.6734948 -4.295112 2.5690794

2.weight f4 [64, 64]
00000000: 6576 89c0 c004 91c0 829f 35c0 1ae7 50c0
00000010: 0c4f bb40 82f4 aa3f c00c b23f fdbe 5040
00000020: d41d ff3f bf8c d0bf 5ed7 9ebf c828 9c3f
00000030: 6462 18c0 630f 6dc0 24a2 39bf 9eee 5ebf
00000040: 4af3 6040 9c78 0840 6537 c73f bcee cd3f
00000050: 5a11 7cc0 eb91 4ec0 784f 28c0 2834 86c0
00000060: 8848 3340 baea 7940 4c7a 783f c07e dc3d
00000070: cffe 6f40 ca47 b43f 3ef0 4ec0 3c73 b9c0
00000080: 9ffb 19c0 f6ad 553f eec6 1ec0 f0ef 9340
00000090: a20a 803f 2477 5440 9c00 6fc0 3691 713f
000000a0: ced1 d33f 79ca ebbf 923e bd3f 2e1d f73f
000000b0: 2a78 13bf a4f8 0641 5b4d 56c0 330b 6dc0
000000c0: 6577 7740 8ed9 7abf 906b babf b047 a33e
000000d0: 4421 42bf 2d46 dcc0 6254 9640 0516 59c0
000000e0: 7e94 6ac0 e3f0 1bc0 c19f 4abf e7d9 03c0
000000f0: e0e8 89c0 0f9b acc0 003c b1bc 8a87 cebf
00000100: a612 48c0 f435 ba3f eacf 953f 6dc8 39c0
00000110: d86a 47be a5c7 1b40 3179 8640 4d71 00c0
00000120: fe10 84be 8c90 2640 f86e 82c0 ecbd a03e
00000130: 5112 23c0 e91a 5740 4e58 8340 c68d 1d40
00000140: b098 03c0 8250 cdbf 4f60 78c0 dcdd 8b3f
00000150: 98a8 243f 01ca 823e b41e 8b3f 25b2 01c0
00000160: f2b0 dcbf 1d45 883f 807d 6cc0 9e7e 3bbf
00000170: 9f7e 593f 50aa 0840 e284 d63f e4c8 3140
00000180: 5272 07c0 7e6b 0740 448d c83f 9ea5 41c0
00000190: 4d7f c240 0ee6 44bf f19e 7240 501b 393e
000001a0: b4ec 85c0 d4cc dd3f 4933 e33f dae4 a640
000001b0: dd74 d93e 467e 77bd eeea acbf 3bec 9ac0
000001c0: 4e96 c5c0 2a82 1440 f8ef 4fbf 78de c9bd
000001d0: 881e 8c3e 1715 c0c0 a6dd 07c0 ff0d 4fbf
000001e0: 5878 7dbe 632d d33f 6c0f 2740 c2b5 10c0
000001f0: 8afd 76bf 50fc 8f40 06c7 5840 4064 9dc0
00000200: a820 e43e 1e23 38bf 06b8 a6c0 ae5a 46bf
00000210: 391d c2c0 26d5 94c0 c30c 82c0 e89d 58be
00000220: 5c63 643f 918e 35bf da95 e9c0 bd9e b53f
00000230: 6cf9 4b40 d407 3d40 7d84 b6bf 4be1 2c3f
00000240: 6001 88c0 4fbf 6040 a83b 47bf 3f8a 0b40
00000250: 288a 2b3d 7278 fe3f e5bc 5fc0 6ca8 acbf
00000260: d8bf 3dc0 f42b 21c0 b94a 3540 a3b0 9cbf
00000270: 0c74 6040 5734 d3be 816e 0b40 1631 39c0
00000280: a6b7 b7bf c298 3440 2671 6dc0 e73d 8640
00000290: 3ca8 3940 400d a840 94ba 3ac0 672b a93c
000002a0: c345 a840 1809 2cc0 dace 893f 8cee 4e40
000002b0: 0076 8640 28ce a93f 40f8 5540 c414 38c0
000002c0: 6c71 c1be 46a3 6a3f 0532 6e3f 12f5 8bbe
000002d0: e8c5 1bbe d6cf 30bf e572 db3f 748f 263f
000002e0: 9e8d 9cbf 543a 26bf f5a0 1bc0 3ccb 403f
000002f0: 0079 923e 28a8 13bf e4f8 20bf e0b1 13bf
00000300: 582d 1440 00d3 21c0 801e bf3c 6f9e b63f
00000310: 60ed c23d dc04 1840 0a3c 4fc0 3263 4d3f
00000320: a4e8 afc0 d15c 94c0 b8b5 c6c0 30e6 ed3f
00000330: 3b13 8ebf 6896 583e 815c 0ec0 4f08 73bf
00000340: 2a71 4140 cb76 adbf f643 183f 2862 6440
00000350: 82e4 a3bf 2239 5a40 25ef 08c0 41f6 21c0
00000360: f9a2 96bf d0ae 95bf 647c bfbe 1046 78c0
00000370: e459 1940 8262 da3e 468f 2ec0 1ebe efbe
00000380: e576 8a40 8c4f 9140 d8fc 85bc b7ac d3bf
00000390: bccd 7c40 d8f6 89c0 7839 d03f 2b6d 82c0
000003a0: b0c3 a040 0c3f c3bf f19b 4640 d76f d33e
000003b0: 298b a8c0 d775 a840 7ac7 a9bf 9cc0 22c0
000003c0: a6ca 3a40 5f02 5ac0 963f 4e3e 426e 16bf
000003d0: 4842 dabf 906c 6a40 e998 4abf c907 5d40
000003e0: 707b a9bf 403b 603d d8eb 00c0 3751 ae3f
000003f0: edda 66bf f8ca d63e 2459 56bf 762c e0bf
-4.2957025 -4.53183 -2.8378606 -3.2641053 5.8533993 1.3355868 1.3910141 3.261657
1.9930978 -1.6292952 -1.2409475 1.2199945 -2.3810053 -3.7040641 -0.7251303 -0.8708285
3.5148492 2.1323614 1.556378 1.6088481 -3.938559 -3.2276561 -2.6298504 -4.1938667
2.801302 3.9049516 0.9706161 0.10766363 3.7499273 1.4084408 -3.2334132 -5.7953167
-2.4059827 0.8346857 -2.4808917 4.6230392 1.0003245 3.3197718 -3.7344122 0.943622
1.6548402 -1.8421165 1.478472 1.930578 -0.5760523 8.435703 -3.3484714 -3.7038085
3.8666623 -0.9798821 -1.4564075 0.3189063 -0.7583201 -6.8835664 4.6978006 -3.391969
-3.6653132 -2.4365776 -0.79150015 -2.0601747 -4.309677 -5.393928 -0.021635056 -1.6135113
-3.1261382 1.4547715 1.1704075 -2.902858 -0.19474351 2.4340603 4.202294 -2.0069153
-0.25794214 2.6025724 -4.076046 0.313949 -2.547993 3.3610175 4.1045294 2.4617782
-2.0561943 -1.6040194 -3.8808782 1.0927081 0.64319754 0.25544742 1.0868745 -2.026498
-1.72415 1.0646092 -3.69516 -0.7324008 0.84958833 2.135395 1.6759303 2.7778864
-2.1163526 2.1159358 1.5668111 -3.0257335 6.0780396 -0.76913536 3.790951 0.18076825
-4.1851444 1.7328134 1.7750026 5.215436 0.42471972 -0.060423158 -1.3509195 -4.8413367
-6.1745977 2.3204446 -0.8122554 -0.09856886 0.27367043 -6.0025744 -2.1229033 -0.8088073
-0.24752939 1.6498226 2.6103163 -2.2610936 -0.9648062 4.49955 3.3871474 -4.9184875
0.44556165 -0.71928585 -5.209964 -0.77482116 -6.066067 -4.651019 -4.064058 -0.21153986
0.8921411 -0.70920664 -7.2995424 1.4189068 3.1870985 2.9536028 -1.4259182 0.6753127
-4.250168 3.5116765 -0.77825403 2.1803129 0.041879803 1.9880507 -3.4959042 -1.3488898
-2.9648342 -2.5183077 2.8326857 -1.2241405 3.507083 -0.4125087 2.1786196 -2.893621
-1.435292 2.8218236 -3.710031 4.1950564 2.9008932 5.2516174 -2.9176378 0.020650579
5.258516 -2.688055 1.0766251 3.2333097 4.2019043 1.3266039 3.343277 -2.8762674
-0.37781847 0.91655385 0.93045074 -0.2733541 -0.15212214 -0.6906713 1.7144438 0.6506264
-1.2230718 -0.6493275 -2.431699 0.7531011 0.2860794 -0.5767846 -0.62879777 -0.5769329
2.3152676 -2.5285034 0.023329973 1.42671 0.09517932 2.3752966 -3.2380395 0.80229485
-5.4971485 -4.63633 -6.2096825 1.8585873 -1.1099619 0.21151125 -2.224396 -0.9493455
3.022532 -1.3551878 0.594787 3.568491 -1.280411 3.409737 -2.1395962 -2.5306551
-1.1768485 -1.1693974 -0.3739959 -3.8792763 2.3961115 0.4265328 -2.7274947 -0.46824735
4.3270135 4.5409603 -0.016355917 -1.6537083 3.950057 -4.3113823 1.6267538 -4.075826
5.0238876 -1.5253615 3.103268 0.41296265 -5.2669873 5.2643847 -1.3264 -2.543006
2.9186187 -3.4063947 0.20141444 -0.5876199 -1.7051477 3.6628761 -0.7913957 3.4536002
-1.3240795 0.054744005 -2.0143948 1.3618535 -0.90177804 0.41951728 -0.8372977 -1.7513568

2.bias f4 [64]
00000000: e66c 5bc0 5daa a3bf c2d5 543f 1647 ae3e
00000010: 0842 3540 9a6b d33f f163 03c0 968c 9fc0
00000020: 44b8 8cbf dc45 d7bf f8ca 86c0 9156 4ec0
00000030: cde1 32bf df94 2f40 694b da40 0070 dfbf
00000040: 9a28 d03e 7e11 a4bf a02b dc3f 0ef6 2040
00000050: bf8b 3bc0 6c0a 98be 647a 5c40 5fee 1140
00000060: f0a3 b8be 66a1 a3bf 2038 72bf 0513 65bf
00000070: 98d2 d03e 900d 723f 8839 55c0 8e76 9d3f
00000080: 7b43 a73f c3ff d0be 4a93 5bc0 9b95 073f
00000090: 2a8a 58bf 9ad7 493f 7e82 863f c777 84c0
000000a0: 71f3 bdbf 617d e03f 0c64 3dbf 98f0 dd3f
000000b0: 9cfd 5c40 e40b 35bf 3e55 3740 e645 adbf
000000c0: b2f9 90bf e176 4640 0a22 2e40 7502 1240
000000d0: 0cc5 083f 15e8 c3be 74e5 493f f8f5 c6c0
000000e0: 7a96 e43f 4e6a 653f 8882 57c0 38d9 63be
000000f0: 19ed ebbf 3aa1 f4bf 0b48 b840 0395 32c0
-3.4285216 -1.2786366 0.8313867 0.3403861 2.8321552 1.6517212 -2.052975 -4.9859114
-1.0993733 -1.6818194 -4.2122765 -3.2240336 -0.69875795 2.7434614 6.8217053 -1.7456055
0.40655977 -1.2817838 1.7200813 2.515018 -2.9304044 -0.2969545 3.4449701 2.280174
-0.36062574 -1.278363 -0.9461689 -0.89482147 0.4078567 0.94551945 -3.3316364 1.2301805
1.3067468 -0.4082013 -3.4308648 0.52962655 -0.8458582 0.78844607 1.0508573 -4.1396213
-1.4839917 1.7538263 -0.73980784 1.7339048 3.452979 -0.7072127 2.8645778 -1.3536956
-1.1326201 3.1010058 2.7208276 2.2814 0.5342567 -0.38263002 0.7886574 -6.2175255
1.7858422 0.89615333 -3.367342 -0.22250831 -1.8431731 -1.9111702 5.7587943 -2.790345

4.weight f4 [5, 64]
00000000: 3b4a 6740 9890 693f ccae 9540 e0d5 85be
00000010: 80bd 733f 03f5 8140 82d3 5dbf b83e 633e
00000020: 2d83 4f40 b051 5940 f655 b73f 5f06 be3f
00000030: 1725 a8bf 885e d63f 3128 8e40 3216 21c0
00000040: 75b7 d8bf 6522 88c0 4e99 a5c0 606c 933f
00000050: 1e98 c73e d1d7 30c0 786c b2bd dd6b 8040
00000060: ec3c 1a3e 9bba 2140 e842 853f e092 343f
00000070: 9844 fc3e a811 9b3d 785f a8bf eaff 69c0
00000080: 42a3 6140 b05c 03c0 14f1 88c0 9c24 1240
00000090: 52bc a0bf 749f 1840 28bb 9fbe c3bc 3040
000000a0: 34b9 c8bd b62d 7d40 2e57 6ac0 ccca 25c0
000000b0: d36a 3bbf a1ce 0bbf 237d 353f 6c38 343f
000000c0: 597e 9bc0 54fe f93e 8c34 12c0 539a 0dc0
000000d0: b0f4 a5bf 188c 883d 033d 9040 862b afbf
000000e0: 8371 2340 3ae9 c0bf 8409 fcbf f1fd 533f
000000f0: 5534 83c0 c45c 8d3f 9ad5 5fc0 c420 213f
00000100: 167e 1fc0 0bfa f8bf eed3 f23f 96b0 0dbf
00000110: b084 3dc0 2609 c83f 1aaa cc3f c653 2140
00000120: fb77 f6bf 53e8 7840 86e8 81c0 cd5b e7bf
00000130: 16a6 ddbf 906c 7340 22c8 3ac0 1aeb 0940
00000140: 50de 0dbf f813 e0be c990 e73f b87d 78be
00000150: 7adf 74c0 4dcd 8f40 97b3 05be 42d0 243e
00000160: 9b75 31c0 9aae 26c0 4ed8 a73f a89e 11bf
00000170: 6656 ffbf dfa8 2f40 dd37 6b3f f621 d03f
00000180: b4a6 a840 3d79 bdbf 2c07 1cc0 f540 acbf
00000190: 7a84 80bf 3872 5040 7a36 d03f 24d6 a4bf
000001a0: ae27 00bf 8252 2a40 76b9 efbe 6866 0abf
000001b0: fc0f efc0 a492 7c40 4cbb d0bf 7141 a23f
000001c0: 79c9 ee3d a27e 873f c986 0840 0305 55c0
000001d0: 78ab a5bf c09f b1bc 3ac7 073f a4c1 65c0
000001e0: ef29 ea3f c6ab e5bf d863 933e f8ff 8b3e
000001f0: a05e f73d 41e8 7cc0 bcdd fcbe 8d02 e0c0
00000200: 29af 5fc0 c4a7 7bbf 1a6a c13f 10c9 143f
00000210: 760f 0c3e 1442 95c0 61a7 683f c18d b33f
00000220: a83e d1bf 8a04 65c0 3986 6dc0 43aa 9740
00000230: b89a 1f3f 37cc 9840 c4e1 cd3f 214c ca40
00000240: d674 14c0 0008 fe3f 8c7a 2cc0 e425 833e
00000250: a6e2 a53f b781 d4bf ae8b 8c3f 28f8 1fc0
00000260: 0479 0b3f d0fd 9ebe caef a0bf 55b5 1140
00000270: 53a5 5ac0 f47f 0340 e73f bac0 1d07 32be
00000280: 286f 22c0 6238 2e40 b840 403d 8081 3c40
00000290: 1019 c0bf 059c b2bd e455 a73e 9857 473f
000002a0: 206b babf 5482 c83e 2881 1b40 bb20 d4bf
000002b0: 20d4 eebf 4b46 b9bf d3a7 c13f ea79 3fbf
000002c0: 669a a03f 380e cebe 5602 7a40 f287 03c0
000002d0: af24 d13e e029 bcbd 5204 05bf 9899 d8bf
000002e0: b826 193f 7011 abbf 46cb 74bf 1cb2 0abf
000002f0: b89c 283f df36 31bf e2c0 423e 0e29 3240
00000300: fe82 8b40 4637 423f c648 0d40 1b55 a03e
00000310: 3479 193f b825 a7be 10ae b63d 787d 3940
00000320: 34ca ac3e 8e78 63bf 66bc 29c0 822b a3bf
00000330: dcbe 9a40 c027 0f3f 4846 423f 8a7d 053f
00000340: 00b0 7abf be89 803f 4697 603f 3063 cd3f
00000350: 1904 4540 3410 cf3e c40e 2040 da4a 7340
00000360: daae 2cc0 ca77 143f 6889 383e 7c03 49bf
00000370: 98af 4fc0 4277 0c40 8ec4 5540 001a 193b
00000380: fc10 b140 e032 91bf 5e7c 163f 5b54 de3f
00000390: 7cd9 debf 3452 ac40 f470 df40 c786 72c0
000003a0: 100b 1ec0 6186 7ac0 211f 723f dd0e 1fc0
000003b0: 624d 0f40 e65e 24c0 3dc5 2240 a980 8abf
000003c0: 7ad7 a33e b65c cfc0 eedd 1f3f dc91 5bc0
000003d0: cf04 d840 e89d 6dc0 4043 2a3f dc04 4f3e
000003e0: 3d1e e03f 9090 2cc0 444f 9140 df32 8ebe
000003f0: 305d 923e 2632 92bf 2dba 8340 8cb4 183d
3.6139057 0.9123626 4.6775875 -0.26139736 0.9521103 4.0611587 -0.8665086 0.22191894
3.2423813 3.3956108 1.4323108 1.4845694 -1.3136319 1.6747599 4.442406 -2.5169797
-1.6930987 -4.2541986 -5.174964 1.1517448 0.38983244 -2.7631724 -0.08712095 4.013167
0.15062302 2.5270145 1.0411043 0.70536613 0.49271083 0.07571727 -1.3154135 -3.6562448
3.5255895 -2.0525322 -4.2794285 2.2834845 -1.2557471 2.3847322 -0.31197476 2.761521
-0.0980095 3.955915 -3.661571 -2.5905027 -0.73209876 -0.54612166 0.7089407 0.7039859
-4.8591733 0.4882685 -2.2844572 -2.2125442 -1.2965298 0.06667346 4.5074477 -1.3685157
2.5538032 -1.5071175 -1.9690404 0.8280936 -4.100138 1.1043935 -3.4974122 0.6294062
-2.4920707 -1.9451307 1.8970926 -0.55347574 -2.9612236 1.5627792 1.5989411 2.5207381
-1.9255365 3.88918 -4.059634 -1.807489 -1.731631 3.8035011 -2.9184651 2.1549745
-0.55417347 -0.43765235 1.809106 -0.24266708 -3.82614 4.493811 -0.1305679 0.16095069
-2.772803 -2.6044068 1.3112886 -0.56882715 -1.9948242 2.744682 0.91882116 1.6260364
5.2703495 -1.4802624 -2.4379377 -1.3457323 -1.0040429 3.2569714 1.6266625 -1.287785
-0.50060546 2.6612859 -0.46821183 -0.5406251 -7.470701 3.9464502 -1.6307158 1.2676221
0.116595216 1.058552 2.1332266 -3.328431 -1.2942953 -0.02168262 0.5303837 -3.589944
1.8294047 -1.7943046 0.28787112 0.27343726 0.12078595 -3.9516757 -0.4938792 -7.0003114
-3.495066 -0.98302865 1.5110505 0.581193 0.13677773 -4.664316 0.908804 1.4027635
-1.6347246 -3.578402 -3.7113173 4.739534 0.6234546 4.7749286 1.6084523 6.321793
-2.319631 1.9846191 -2.6949797 0.25614846 1.2959793 -1.6602086 1.0980127 -2.4995213
0.5448153 -0.3105302 -1.2573178 2.2766926 -3.4163406 2.0546846 -5.8203006 -0.17385526
-2.5380344 2.7221913 0.04693672 2.945404 -1.5007648 -0.087211646 0.32682717 0.7786803
-1.4563942 0.39161932 2.429758 -1.6572489 -1.8658485 -1.4474577 1.5129341 -0.747954
1.2547119 -0.40245223 3.9063926 -2.0551724 0.408483 -0.091876745 -0.5195972 -1.6921873
0.59824705 -1.3364697 -0.9562267 -0.54178023 0.65864134 -0.6922435 0.19018891 2.7837558
4.3597403 0.7586559 2.2075667 0.3131493 0.59950566 -0.32645965 0.089199185 2.898283
0.3374802 -0.88855827 -2.652124 -1.2747653 4.8357983 0.5592003 0.7588849 0.5214468
-0.97924805 1.0042036 0.87730825 1.6045895 3.078375 0.4044205 2.5009012 3.8014436
-2.698172 0.57995284 0.18021166 -0.7852094 -3.2450924 2.194779 3.3401217 0.0023361444
5.5333233 -1.1343651 0.5878352 1.7369493 -1.7410121 5.3850346 6.982538 -3.7894762
-2.4694252 -3.9144518 0.9457875 -2.4852822 2.239098 -2.5682921 2.5432885 -1.0820514
0.32000333 -6.4800673 0.6244801 -3.4307775 6.750587 -3.7127628 0.66508865 0.20216697
1.7509228 -2.6963234 4.540926 -0.27773187 0.2858672 -1.1421554 4.1164765 0.037281558

4.bias f4 [5]
00000000: e0ed d73e 452a b53d 285b 47c0 2c4f 8340
00000010: 3883 d23f
0.42173672 0.08845953 -3.1149387 4.1034145 1.6446295
