demo/experiments/genetic_algorithm/ga_experiment_2021_02_12_160407/problem_19.model (torch, 26149 bytes, 6 tensors)

0.weight f4 [64, 22]
-3.2616296 1.7894676 1.8481905 -0.62415457 5.7481866 4.3637247 -0.37430897 -0.7768386
-1.2897578 0.516062 3.4297378 -1.0302107 -2.5469038 -2.0784342 4.816946 0.1177894
0.2760393 1.7660264 -3.378458 1.7553841 -2.3529344 -0.06598532 1.021777 0.46172154
-1.258223 -0.78297377 1.5607768 1.9422872 -9.491577 -0.33070445 -0.5154401 4.8760557
-0.47678837 -3.4333491 -4.16215 -1.3410356 -0.31005204 2.6765466 0.7907374 2.1232502
-1.7839904 1.770537 -1.9983428 -3.7335467 -0.35020828 -3.162802 -0.81987846 -2.1247387
4.046174 -0.2178619 4.285316 -1.5673741 5.369383 1.5716593 0.7483611 -3.8461492
-1.7157724 3.4540846 1.0544696 2.2381446 -1.9269015 -1.957737 -3.2928584 0.48717272
0.26844335 2.0545964 -0.6021327 0.4683013 -0.9794873 1.4027884 1.4991661 2.890824
0.31161138 -1.3676428 -0.59101117 -3.0890894 5.5914183 -4.072334 -4.366969 3.2985895
1.9758966 1.9836999 -0.8410641 -1.0218629 0.6506586 -0.28870273 -0.38523668 -2.3043272
-0.35758555 -1.5812284 3.3276887 -3.6300814 -0.5973614 2.0322926 1.1630888 -1.6556661
-1.0811307 0.21325108 2.9907827 1.9624176 -3.112056 -2.9405184 1.5613922 -1.6851029
3.810834 -0.117936015 2.141017 0.28432253 -1.5719528 -3.4760413 1.5725335 -1.745517
0.38687885 1.0049435 1.0376322 1.4030269 -1.4111066 0.2284857 0.54411644 -0.7696148
-3.984528 0.3062621 0.74148023 -0.20568372 2.055645 1.6160741 8.0584345 -0.20865142
-4.6432886 -0.5339663 -2.8314395 3.302586 5.381165 0.29577607 -4.669914 -1.8836402
1.1839819 0.58635455 2.857701 -2.96347 -1.8748009 -0.36599168 -1.6617006 2.22435
-1.3724309 2.8585918 0.20537984 -0.3965326 -3.437955 -4.8059616 2.854138 1.5683291
1.4458766 -2.3506823 -0.9296185 -1.33708 -0.64039034 0.45670834 -0.9814532 0.6290184
-1.207891 -3.6908305 -1.6884954 -1.3470976 1.6263024 0.39576536 -1.5271815 0.037673593
1.3053126 1.9454136 -2.8328605 4.0797486 1.311748 -2.1081502 -1.907818 4.081518
0.41916126 -1.734793 2.092547 0.89601135 -4.315914 -0.5531217 -0.39693704 3.7904334
3.1340735 4.3310885 2.1868153 -0.7847104 -2.5340183 -3.8764634 -2.512679 -4.3397274
0.59577453 0.15860902 1.4647291 -2.0978973 -1.4068274 2.2949073 -1.557486 2.1154623
-2.64541 -1.0333407 4.057987 0.11054629 2.9417925 -0.6706073 0.14906174 -5.019951
0.47001523 -0.62325084 -0.06091971 3.2557995 2.0118647 -3.6044698 1.7824178 4.0764694
0.7579331 -1.6351334 1.6592648 0.1043151 -0.091617525 0.33879817 1.525196 1.6264188
-4.1147995 1.0535474 0.3192045 -1.2872672 -3.3551617 2.4528942 1.6149751 0.14624763
-0.048285842 0.088344336 1.2975836 -2.9723225 3.1703625 -1.5767288 2.1735585 2.663398
0.8440614 -3.3468523 0.0235264 1.6943611 3.5245278 0.60605687 1.8534834 -0.44650036
-0.00906685 -1.0195177 -2.8244646 0.7757777 -1.3527496 -0.33952343 -0.8444957 -0.99750704
00000000: 8abe 50c0 460d e53f 8291 ec3f 98c8 1fbf
00000010: 25f1 b740 a2a3 8b40 6da5 bfbe e5de 46bf
00000020: c916 a5bf a41c 043f d380 5b40 f2dd 83bf
00000030: 7900 23c0 1105 05c0 6c24 9a40 923b f13d
00000040: 0655 8d3e 270d e23f a838 58c0 6db0 e03f
00000050: 7a96 16c0 5023 87bd 97c9 823f c466 ec3e
00000060: 740d a1bf f870 48bf 89c7 c73f de9c f83f
00000070: 80dd 17c1 1852 a9be e2f3 03bf a608 9c40
00000080: 9b1d f4be febb 5bc0 5530 85c0 0ea7 abbf
00000090: 24bf 9ebe 8a4c 2b40 c46d 4a3f 55e3 0740
000000a0: cc59 e4bf f5a0 e23f b2c9 ffbf 6ef2 6ec0
000000b0: 804e b3be 596b 4ac0 8ee3 51bf b8fb 07c0
000000c0: 427a 8140 3117 5fbe 4f21 8940 b79f c8bf
000000d0: fcd1 ab40 222c c93f 9894 3f3f 4f27 76c0
000000e0: 6e9e dbbf b90f 5d40 dcf8 863f c33d 0f40
000000f0: b5a4 f6bf 2097 fabf 31be 52c0 b46e f93e
00000100: 6871 893e 827e 0340 5e25 1abf 30c5 ef3e
00000110: aebf 7abf 928e b33f ade4 bf3f 4303 3940
00000120: 878b 9f3e eb0e afbf 824c 17bf a4b3 45c0
00000130: e6ec b240 8f50 82c0 36be 8bc0 171c 5340
00000140: 2eea fc3f e1e9 fd3f fa4f 57bf 67cc 82bf
00000150: 9091 263f d8d0 93be be3d c5be 197a 13c0
00000160: 7415 b7be b165 cabf daf8 5440 4153 68c0
00000170: adec 18bf 1511 0240 18e0 943f deec d3bf
00000180: 7e62 8abf 7e5e 5a3e fc68 3f40 8030 fb3f
00000190: ed2b 47c0 7431 3cc0 b3db c73f 74b1 d7bf
000001a0: b4e4 7340 7088 f1bd 6c06 0940 b992 913e
000001b0: c035 c9bf 7677 5ec0 c748 c93f 1a6d dfbf
000001c0: fc14 c63e fda1 803f 22d1 843f 6396 b33f
000001d0: 249f b4bf 28f8 693e 374b 0b3f 7a05 45bf
000001e0: 8202 7fc0 63ce 9c3e a6d1 3d3f c19e 52be
000001f0: b08f 0340 84db ce3f 59ef 0041 b8a8 55be
00000200: d295 94c0 04b2 08bf 4e36 35c0 925d 5340
00000210: 8132 ac40 f66f 973e ef6f 95c0 1f1b f1bf
00000220: b88c 973f 551b 163f 93e4 3640 7ea9 3dc0
00000230: 7af9 efbf 4363 bbbe 9bb2 d4bf c05b 0e40
00000240: d1ab afbf 2bf3 3640 184f 523e 5206 cbbe
00000250: 7407 5cc0 70ca 99c0 32aa 3640 02bf c83f
00000260: 7c12 b93f 9471 16c0 7afb 6dbf 7025 abbf
00000270: 9ff0 23bf add5 e93e 8440 7bbf 5a07 213f
00000280: 2c9c 9abf 9136 6cc0 9e20 d8bf b26d acbf
00000290: ad2a d03f c2a1 ca3e af7a c3bf a04f 1a3d
000002a0: 7c14 a73f 5003 f93f 964d 35c0 4d8d 8240
000002b0: 5ce7 a73f efeb 06c0 6133 f4bf cc9b 8240
000002c0: 4e9c d63e b20d debf 4aec 0540 0061 653f
000002d0: f81b 8ac0 6299 0dbf 553b cbbe 7696 7240
000002e0: a994 4840 4798 8a40 c8f4 0b40 c8e2 48bf
000002f0: 5b2d 22c0 fa17 78c0 bccf 20c0 0cdf 8ac0
00000300: ae84 183f 676a 223e 3e7c bb3f f343 06c0
00000310: ec12 b4bf c3df 1240 b45b c7bf bc63 0740
00000320: 664e 29c0 8244 84bf 08db 8140 1866 e23d
00000330: 5446 3c40 ecac 2bbf a4a3 183e 70a3 a0c0
00000340: d6a5 f03e 5e8d 1fbf f286 79bd 055f 5040
00000350: 64c2 0040 a2af 66c0 4426 e43f 7072 8240
00000360: e707 423f 0d4c d1bf ca62 d43f 28a3 d53d
00000370: f8a1 bbbd f476 ad3e 9f39 c33f 7e2e d03f
00000380: 70ac 83c0 a4da 863f c66e a33e 2cc5 a4bf
00000390: f8ba 56c0 38fc 1c40 81b7 ce3f f0c1 153e
000003a0: 60c7 45bd e0ed b43d 3817 a63f 883a 3ec0
000003b0: 38e7 4a40 40d2 c9bf 951b 0b40 1d75 2a40
000003c0: 6814 583f d432 56c0 70ba c03c d3e0 d83f
000003d0: dd91 6140 8b26 1b3f f23e ed3f b29b e4be
000003e0: 208d 14bc 8e7f 82bf 07c4 34c0 5e99 463f
000003f0: e626 adbf 04d6 adbe df30 58bf 9f5c 7fbf

0.bias f4 [64]
-2.0918798 0.7974085 4.642347 4.0815377 -1.4952719 -2.4780068 -0.17178944 -1.3171359
0.7076026 -0.30421942 1.4011683 3.524692 0.4930489 0.52894264 2.5993686 1.9973391
0.15749192 0.59046125 -5.737189 -2.3951085 -4.267007 3.7496932 4.477701 2.853274
-2.024767 2.1054254 -5.3547244 -0.7402198 2.4849424 -8.52281 -1.904496 -1.2402923
-2.2831001 1.3562822 3.8508773 -2.2448764 -0.9559256 0.89637864 1.4097424 -2.97564
1.085608 -1.0116336 0.3132195 2.3340905 -1.4235166 -0.9112508 -0.43983006 -2.5709238
-3.8734784 1.7608036 -1.1364765 0.48111027 -4.185033 -0.6218089 -0.11006683 -2.4702055
1.4458774 -2.5035882 0.94261545 2.8557634 -2.0978246 5.026896 -2.460607 0.43838733
00000000: 5ce1 05c0 f722 4c3f 1b8e 9440 f59b 8240
00000010: 1265 bfbf aa97 1ec0 92e9 2fbe e997 a8bf
00000020: 7225 353f a6c2 9bbe 7c59 b33f 8e94 6140
00000030: e870 fc3e c968 073f 0e5c 2640 cfa8 ff3f
00000040: 9045 213e 7828 173f 0d97 b7c0 7549 19c0
00000050: 528b 88c0 f9fa 6f40 5449 8f40 0b9c 3640
00000060: c895 01c0 4abf 0640 e759 abc0 0b7f 3dbf
00000070: 4c09 1f40 6e5d 08c1 86c6 f3bf e6c1 9ebf
00000080: 501e 12c0 a89a ad3f c674 7640 0eac 0fc0
00000090: 8ab7 74bf 1279 653f 7072 b43f e370 3ec0
000000a0: 34f5 8a3f 367d 81bf 4e5e a03e bd61 1540
000000b0: cb35 b6bf bc47 69bf 6831 e1be 048a 24c0
000000c0: 12e7 77c0 0362 e13f 1078 91bf 1654 f63e
000000d0: caeb 85c0 de2e 1fbf b86a e1bd d917 1ec0
000000e0: 8312 b93f ca3a 20c0 3f4f 713f d4c4 3640
000000f0: c242 06c0 55dc a040 967a 1dc0 4e74 e03e

2.weight f4 [64, 64]
4.245361 -0.8469559 0.7272744 0.6426561 -0.059035495 0.31621897 -2.3021524 0.5983955
0.6741651 3.809228 0.06894398 -0.5440063 3.0477064 -3.5104032 0.07277413 0.14298022
-4.513618 -1.7776492 -0.8370486 0.43056202 -1.252939 1.8162498 -5.5632515 -0.61606854
0.46476993 0.68256986 -1.3426489 -1.8401909 -3.4418418 4.362946 -2.1708877 -1.1969146
-3.2685924 -1.647158 -3.3187358 2.6523159 1.5593193 0.45064044 -0.08352214 -1.982449
3.292323 -2.9407938 -5.8390503 1.2205951 3.6159825 -4.399586 -2.9386854 2.1084719
2.9378657 1.307929 4.2364 3.312318 -4.7004995 2.850006 -1.0930889 6.671021
0.2704603 1.5774796 -1.1957983 -1.5020189 -0.8025633 0.66919166 -0.15776156 -0.114510894
-1.6378547 1.8773037 1.369383 -6.428414 -0.9030752 -2.7794237 0.12824094 0.4718424
-1.5234333 -1.2273645 -6.104294 -1.1591454 3.3597927 -1.9198915 2.2431645 -2.2822776
0.7875899 2.1276696 -3.5823944 2.7752862 0.23842116 0.9419974 -6.450564 3.7494042
-1.1601572 0.57142913 -4.07763 1.8451711 -1.0201778 0.3069895 1.6550964 0.5648772
0.42588913 0.23610932 2.0691562 1.5895438 -0.10549134 2.0422125 1.6008712 3.0512228
1.9818633 -1.3395014 -2.991404 2.6754212 0.7436185 4.3749056 -3.720724 5.3700223
-1.3670752 -0.24678597 -1.4721084 4.8059006 -0.04993725 1.8471234 -3.2731886 -1.9167609
1.3221864 -0.73478186 -1.3294604 0.81779015 0.92830336 -0.6185653 -0.07944131 -0.29801157
-3.0406926 -0.08126837 -0.11217308 1.7300324 -1.0734048 1.2659965 -0.567668 3.8279738
-0.6424569 -1.2769411 -0.8921298 0.24090749 -0.7053534 -0.433305 -0.40612328 -2.817416
1.4117326 0.94598275 -2.2050984 0.017260224 -2.5949001 -1.6204739 0.46535683 1.7355244
1.491776 1.3283468 2.154342 1.5883691 0.15909919 -2.2483578 0.059119046 -0.24620569
-2.0935535 3.3234437 -1.368991 -0.61346483 -5.684066 -5.443284 0.3770071 -2.8564386
1.1048641 1.675104 0.9302803 -0.039686568 -2.536068 2.1699994 1.2324549 4.185234
2.7533398 -2.1959085 -2.7416792 -2.184494 -0.7767443 -5.0565643 1.7702571 2.6114738
-4.086911 0.21687734 0.4605031 -1.7404792 -2.351891 -1.7847309 0.7242148 -1.2983923
-1.6790574 -2.9656327 -1.4023746 2.734406 -2.4776766 1.2490696 -4.3638825 0.72163284
-1.3966045 3.477015 5.2455187 -2.476658 3.0679898 1.0244546 0.5602182 2.4606807
1.146264 1.1211383 1.0897242 -0.30678487 -3.3769739 5.457562 0.5458947 2.0635748
1.830879 -4.9194274 -0.21038866 -2.462523 4.105794 3.0145495 1.129688 1.360931
-0.043140054 -2.1532555 -1.2280359 3.5239544 -0.98944557 0.5704715 -1.4076865 2.3644547
-1.3239663 -0.068850756 0.12747459 2.2680035 -0.86523527 1.6706852 -0.18355083 -0.24646652
0.24154139 2.4025548 -0.48475593 0.6151927 1.741276 4.026913 5.355298 -5.683671
-1.1173443 -1.7344737 -0.45303154 1.5945748 -1.6755259 0.4233142 3.5657978 0.9568639
00000000: ffd9 8740 1ad2 58bf a82e 3a3f 1c85 243f
00000010: 34cf 71bd 74e7 a13e 7756 13c0 7330 193f
00000020: 1696 2c3f 64ca 7340 8032 8d3d ff43 0bbf
00000030: 9f0d 4340 72aa 60c0 9a0a 953d 6869 123e
00000040: 8f6f 90c0 028a e3bf d148 56bf a072 dc3e
00000050: 4e60 a0bf e07a e83f 2806 b2c0 abb6 1dbf
00000060: 53f6 ed3e e6bc 2e3f ebdb abbf 608b ebbf
00000070: 2347 5cc0 419d 8b40 d3ef 0ac0 7f34 99bf
00000080: 9e30 51c0 13d6 d2bf 2b66 54c0 8bbf 2940
00000090: c697 c73f 58ba e63e a80d abbd e4c0 fdbf
000000a0: 6cb5 5240 f735 3cc0 80d9 bac0 763c 9c3f
000000b0: 426c 6740 69c9 8cc0 6c13 3cc0 34f1 0640
000000c0: fe05 3c40 386a a73f 9790 8740 05fd 5340
000000d0: 7e6a 96c0 8066 3640 56ea 8bbf 0179 d540
000000e0: c679 8a3e daea c93f eb0f 99bf 2842 c0bf
000000f0: ca74 4dbf 2550 2b3f 3f8c 21be b084 eabd
00000100: 39a5 d1bf 7d4b f03f f147 af3f 91b5 cdc0
00000110: f02f 67bf 14e2 31c0 9851 033e 5495 f13e
00000120: ddff c2bf 481a 9dbf 6056 c3c0 e05e 94bf
00000130: d806 5740 01bf f5bf 0290 0f40 d610 12c0
00000140: 7e9f 493f bd2b 0840 f345 65c0 4a9e 3140
00000150: ad24 743e be26 713f 056b cec0 3df6 6f40
00000160: 0880 94bf 2e49 123f f27b 82c0 912e ec3f
00000170: 3095 82bf ba2d 9d3e 33da d33f cb9b 103f
00000180: 240e da3e a4c6 713e 0e6d 0440 2c76 cb3f
00000190: d80b d8bd 9cb3 0240 59e9 cc3f 3c47 4340
000001a0: b2ad fd3f c874 abbf 2a73 3fc0 1a3a 2b40
000001b0: c85d 3e3f 3aff 8b40 5820 6ec0 39d7 ab40
000001c0: 52fc aebf 76b5 7cbe 0c6e bcbf f0c9 9940
000001d0: 008b 4cbd 8a6e ec3f ec7b 51c0 6c58 f5bf
000001e0: 673d a93f aa1a 3cbf c22b aabf b25a 513f
000001f0: 4aa5 6d3f 4c5a 1ebf 20b2 a2bd f994 98be
00000200: b59a 42c0 0870 a6bd 00bb e5bd b471 dd3f
00000210: 5465 89bf 2c0c a23f b152 11bf 86fd 7440
00000220: 0e78 24bf ce72 a3bf 9e62 64bf 74b0 763e
00000230: 0a92 34bf 27da ddbe 64ef cfbe 8b50 34c0
00000240: a7b3 b43f ed2b 723f 5520 0dc0 5065 8d3c
00000250: d812 26c0 b06b cfbf 4043 ee3e aa25 de3f
00000260: 84f2 be3f 4507 aa3f bde0 0940 ae4f cb3f
00000270: e6ea 223e 18e5 0fc0 d026 723d 581d 7cbe
00000280: c8fc 05c0 4db3 5440 193b afbf 080c 1dbf
00000290: dee3 b5c0 622f aec0 1307 c13e e4cf 36c0
000002a0: 306c 8d3f cf69 d63f da26 6e3f 628e 22bd
000002b0: f04e 22c0 45e1 0a40 15c1 9d3f 70ed 8540
000002c0: b836 3040 c489 0cc0 ac77 2fc0 c0ce 0bc0
000002d0: b7d8 46bf 60cf a1c0 c997 e23f 6322 2740
000002e0: fac7 82c0 1815 5e3e 10c7 eb3e 06c8 debf
000002f0: 6285 16c0 1072 e4bf 2466 393f b831 a6bf
00000300: 5aeb d6bf edcc 3dc0 0381 b3bf 8200 2f40
00000310: 4192 1ec0 83e1 9f3f eda4 8bc0 eebc 383f
00000320: f0c3 b2bf 6a87 5e40 4adb a740 9181 1ec0
00000330: f259 4440 5421 833f 766a 0f3f cb7b 1d40
00000340: c7b8 923f 7681 8f3f 157c 8b3f e812 9dbe
00000350: 5720 58c0 59a4 ae40 c1bf 0b3f 9c11 0440
00000360: 3e5a ea3f f36b 9dc0 2070 57be fa99 1dc0
00000370: aa62 8340 61ee 4040 9e99 903f fd32 ae3f
00000380: a0b3 30bd f0ce 09c0 4830 9dbf 7888 6140
00000390: 4e4c 7dbf 6c0a 123f 122f b4bf 3a53 1740
000003a0: ba77 a9bf a001 8dbd b388 023e f826 1140
000003b0: 0f80 5dbf 03d9 d53f c0f4 3bbe b861 7cbe
000003c0: a056 773e 75c3 1940 ee31 f8be 457d 1d3f
000003d0: 22e2 de3f 79dc 8040 9a5e ab40 a2e0 b5c0
000003e0: 2305 8fbf 3c03 debf c0f3 e7be 071b cc3f
000003f0: a277 d6bf a4bc d83e 0836 6440 08f5 743f

2.bias f4 [64]
-3.435998 -0.9636727 1.1414555 3.4817383 0.23683545 6.3169713 2.3665543 1.4877403
2.5788648 -1.4968839 1.8878342 -1.8159331 -0.13105929 2.6789823 3.153278 4.8074174
1.5680112 0.38049904 2.2685065 1.9711133 -3.462199 -1.5282571 -0.6480794 -0.077029705
0.8576037 0.5427566 -0.55612254 -3.6737857 0.52374566 0.586413 -5.638158 1.3054433
3.1870203 0.9970668 1.9018178 1.0439165 -2.1331685 -0.70378983 -0.8377451 -0.07824105
2.442148 -1.1207533 -5.881466 -1.1443067 0.39434475 0.8381405 2.2647738 -3.2051768
0.8553438 0.7299839 -0.18933637 0.83446795 -2.6373205 1.8657039 -1.7209562 4.7739267
2.677861 0.44701856 0.9105203 3.1718483 4.3647547 -0.23575579 2.5434723 -1.5237142
00000000: 64e7 5bc0 41b3 76bf 371b 923f cdd4 5e40
00000010: fe84 723e a124 ca40 a075 1740 466e be3f
00000020: 1f0c 2540 e499 bfbf 8da4 f13f 7f70 e8bf
00000030: 6834 06be 7274 2b40 4fcf 4940 5dd6 9940
00000040: 97b4 c83f c5d0 c23e 362f 1140 714d fc3f
00000050: ab94 5dc0 ee9d c3bf 88e8 25bf c0c1 9dbd
00000060: eb8b 5b3f 19f2 0a3f 0c5e 0ebf 4e1f 6bc0
00000070: 3214 063f 2a1f 163f ca6b b4c0 c418 a73f
00000080: 24f8 4b40 c53f 7f3f c46e f33f 0e9f 853f
00000090: d585 08c0 922b 34bf 7676 56bf d83c a0bd
000000a0: 274c 1c40 d874 8fbf f834 bcc0 a478 92bf
000000b0: 8ee7 c93e 6090 563f 0ef2 1040 9e21 4dc0
000000c0: d0f7 5a3f 3ae0 3a3f 65e1 41be b19f 553f
000000d0: dcc9 28c0 63cf ee3f 4b48 dcbf 02c4 9840
000000e0: 1362 2b40 9edf e43e dc17 693f 90ff 4a40
000000f0: 12ac 8b40 f769 71be 40c8 2240 1109 c3bf

4.weight f4 [5, 64]
1.6706069 -3.1378539 -0.20166281 1.3721981 -0.38980556 0.62154114 -0.14068878 -2.7135046
4.4190617 -3.2233868 -3.3960981 1.5186082 -0.7209406 0.8027143 -2.0186849 6.089981
1.4583228 -1.0841806 -0.9455892 -0.96048164 -5.5394497 -2.759562 -2.249441 -0.2492683
0.5531187 1.3266959 -2.562965 -0.3847702 4.304887 -0.35574722 -0.9195275 -3.502747
-5.487117 2.2582977 3.4015615 1.4201419 -3.5628796 -4.4778123 1.4625611 -1.8469259
-0.25017762 -5.5891237 -1.378821 0.31394488 -0.8404865 -4.130428 -2.2741313 -2.1962333
0.65706205 -3.410194 0.018714786 -1.7975664 -2.509451 -0.6376681 4.7905173 -1.645283
-0.93141806 2.5308156 8.062664 -2.5929577 -0.4727339 5.207772 3.7857604 -3.347441
-3.0123653 0.16397995 -0.22237799 4.2864685 -5.512534 -0.7299789 -3.840346 -2.480832
3.4908764 5.0350385 -1.6281482 1.6916078 -0.39558652 -2.0085368 0.25714308 0.8090058
2.2236507 -1.6636231 0.3521356 -0.0824818 0.93885213 -3.1927624 -2.2840009 -2.9638953
-2.5391166 0.8196727 1.9928759 0.3344934 -1.3980258 0.7473339 -3.979625 -1.7039523
-3.6408434 0.079790115 -1.2111702 -0.3426473 -0.08305168 -1.8635685 0.45235857 0.81436884
-1.2430309 -4.1033454 0.53564334 1.4337324 1.3677822 -2.644013 -1.187637 2.5135267
0.45632303 0.7470528 -1.0773431 -0.53934324 4.0866523 0.21040499 -3.87074 -1.3117137
-0.34536287 0.010527223 1.3327686 -0.014369726 -0.9260618 0.4091773 -2.2743983 3.9603405
-1.0197675 3.5363452 -2.6835124 -3.1933396 -5.6021132 1.5519366 3.1934423 -0.17785835
2.586998 -2.477864 -0.7322986 -0.44070637 -4.8991623 1.7164683 -1.5528553 -1.0225728
0.13226324 1.3266383 -2.569764 -0.12739295 -1.2360698 -1.1016904 -1.1906438 1.3365861
-2.2546668 1.1990995 1.0068312 1.4101523 -6.874843 0.63793004 -1.1883824 2.38235
-4.027631 2.090814 -0.11764738 2.0178013 -6.251296 -4.0703287 -1.886699 -0.6707854
0.2697456 -0.62803614 4.4148617 -0.96933544 0.82628363 1.9444748 2.3577456 -1.6758832
1.6458163 -1.1819148 1.2040641 -2.05094 4.081419 2.3153949 3.226173 0.28008828
-3.6593728 0.71808773 0.7707635 1.9036586 -1.388716 -7.561355 -0.4850099 -2.309359
-1.9473071 1.3964612 0.84900576 1.5258923 -1.6807241 6.3727927 -2.3838732 4.7532988
4.015695 5.2923837 -0.7459384 0.35463008 2.218493 1.2263279 2.4763308 -0.81102717
-3.3935347 -0.41033596 2.6893046 0.9189898 -3.1798646 -1.9643356 3.5839162 -1.8387858
-0.11717522 6.2483826 -1.3603152 2.98898 1.8520881 5.6591644 -2.770161 1.3077617
1.8175309 2.8725262 4.1162267 -1.2066768 1.839521 -3.1795478 1.6248947 -0.64402604
0.7318729 -1.2041806 1.0783126 -1.8995111 -2.8099165 -0.53391576 0.79259366 3.966828
-7.8894863 1.0213248 0.37651244 0.87250614 -3.416681 2.8583856 -3.9727294 -1.801384
-1.5128577 -0.79832363 -2.1277547 2.6799793 3.1344614 -2.2514534 2.8134685 -0.27539772
00000000: 72d6 d53f 99d2 48c0 b280 4ebe 30a4 af3f
00000010: 9894 c7be 521d 1f3f b810 10be 0faa 2dc0
00000020: f468 8d40 f84b 4ec0 ac59 59c0 c161 c23f
00000030: 908f 38bf af7e 4d3f 2232 01c0 20e1 c240
00000040: 52aa ba3f 6ec6 8abf 2212 72bf 20e2 75bf
00000050: 2c43 b1c0 aa9c 30c0 d7f6 0fc0 3040 7fbe
00000060: 3099 0d3f 2cd1 a93f 9e07 24c0 9a00 c5be
00000070: a2c1 8940 8024 b6be 2766 6bbf 022d 60c0
00000080: 7696 afc0 f387 1040 2fb3 5940 36c7 b53f
00000090: 3806 64c0 3d4a 8fc0 3435 bb3f 1168 ecbf
000000a0: 4817 80be 1ada b2c0 357d b0bf 62bd a03e
000000b0: 202a 57bf 772c 84c0 5e8b 11c0 168f 0cc0
000000c0: 3835 283f 9e40 5ac0 c04f 993c a816 e6bf
000000d0: d89a 20c0 373e 23bf eb4b 9940 a298 d2bf
000000e0: 6a71 6ebf e2f8 2140 ac00 0141 05f3 25c0
000000f0: 2e0a f2be 11a6 a640 e649 7240 793c 56c0
00000100: 98ca 40c0 5cea 273e 0eb7 63be c02a 8940
00000110: ae66 b0c0 e6df 3abf 3bc8 75c0 f4c5 1ec0
00000120: 856a 5f40 091f a140 2967 d0bf 9b86 d83f
00000130: 518a cabe de8b 00c0 42a8 833e 011b 4f3f
00000140: 4b50 0e40 9af1 d4bf 1e4b b43e 38ec a8bd
00000150: 9d58 703f 3856 4cc0 122d 12c0 76b0 3dc0
00000160: e380 22c0 12d6 513f 8f16 ff3f b842 ab3e
00000170: 82f2 b2bf 4651 3f3f 2db2 7ec0 1c1b dabf
00000180: 9403 69c0 0069 a33d a007 9bbf 786f afbe
00000190: 0017 aabd 6a89 eebf 8b9b e73e 7a7a 503f
000001a0: a31b 9fbf 9b4e 83c0 ec1f 093f 8b84 b73f
000001b0: 7d13 af3f 8237 29c0 7d04 98bf 9fdd 2040
000001c0: 2ca3 e93e da3e 3f3f 61e6 89bf 6612 0abf
000001d0: dbc5 8240 6874 573e 34ba 77c0 3ce6 a7bf
000001e0: 67d3 b0be 607a 2c3c 2998 aa3f 006f 6bbc
000001f0: 6312 6dbf b07f d13e be8f 11c0 3876 7d40
00000200: be87 82bf 7b53 6240 abbe 2bc0 ad5f 4cc0
00000210: 8344 b3c0 dca5 c63f 5c61 4c40 8020 36be
00000220: 6091 2540 5395 1ec0 ec77 3bbf 44a4 e1be
00000230: f0c5 9cc0 3cb5 db3f f6c3 c6bf aae3 82bf
00000240: 0470 073e 49cf a93f 0377 24c0 4c73 02be
00000250: 8937 9ebf 3104 8dbf 0467 98bf 4115 ab3f
00000260: 764c 10c0 187c 993f d8df 803f df7f b43f
00000270: b7fe dbc0 624f 233f ea1c 98bf 6c78 1840
00000280: 5ae2 80c0 e6cf 0540 1cf1 f0bd a823 0140
00000290: 9e0a c8c0 2240 82c0 5a7f f1bf 98b8 2bbf
000002a0: 181c 8a3e fac6 20bf 8c46 8d40 5e26 78bf
000002b0: 5387 533f 8de4 f83f 4ee5 1640 5783 d6bf
000002c0: 1caa d23f fc48 97bf c61e 9a3f 9a42 03c0
000002d0: fc9a 8240 6e2f 1440 9e79 4e40 bb67 8f3e
000002e0: 2a33 6ac0 99d4 373f c250 453f 16ab f33f
000002f0: 72c1 b1bf 9ff6 f1c0 3853 f8be 8acc 13c0
00000300: 5c41 f9bf 3ebf b23f 7158 593f 7050 c33f
00000310: f821 d7bf ebed cb40 6191 18c0 061b 9840
00000320: 9380 8040 355b a940 d2f5 3ebf 1392 b53e
00000330: cafb 0d40 50f8 9c3f 347c 1e40 7a9f 4fbf
00000340: ac2f 59c0 8e17 d2be 911d 2c40 ea42 6b3f
00000350: e782 4bc0 596f fbbf e25e 6540 555d ebbf
00000360: 90f9 efbd c0f2 c740 cf1e aebf 734b 3f40
00000370: 3911 ed3f e017 b540 514a 31c0 bc64 a73f
00000380: daa4 e83f 78d7 3740 21b8 8340 6374 9abf
00000390: 6d75 eb3f b67d 4bc0 8dfc cf3f e4de 24bf
000003a0: 065c 3b3f 9722 9abf 2606 8a3f 2e23 f3bf
000003b0: acd5 33c0 b4ae 08bf 6be7 4a3f 83e0 7d40
000003c0: ac76 fcc0 c5ba 823f 3dc6 c03e 905c 5f3f
000003d0: e7aa 5ac0 caef 3640 3341 7ec0 c093 e6bf
000003e0: 52a5 c1bf f05e 4cbf 222d 08c0 c884 2b40
000003f0: 049b 4840 d017 10c0 de0f 3440 ee00 8dbe

4.bias f4 [5]
0.734426 -1.2602754 -2.2578936 1.9563868 -1.6904483
00000000: 5803 3c3f b450 a1bf 5481 10c0 e26a fa3f
00000010: 9c60 d8bf
