demo/experiments/genetic_algorithm/ga_experiment_2021_02_12_160407/problem_23.model (torch, 26149 bytes, 6 tensors)

0.weight f4 [64, 22]
-0.3340433 -2.653132 -0.31460986 1.2291896 -2.196313 0.85678685 -2.404215 0.04931891
2.474964 -0.76034904 -4.0717416 0.7954284 -0.033321068 -1.1713779 -1.6850458 -1.6022547
3.8753262 -4.0600405 0.52999157 -0.3721646 4.8794465 -2.447022 4.2675886 -1.4957232
-0.6091211 0.836054 4.6683145 -1.3174338 1.7799933 1.7333292 -3.406682 -1.8709809
0.2946062 2.9222622 -1.0966935 -2.9547853 -6.8168287 -0.577284 -1.9669605 -1.619399
1.6073905 0.48419097 -1.2439482 -1.4888989 5.9783163 -1.7485098 -4.20063 0.62952346
-0.03797543 1.5460846 -0.7359633 2.912786 1.2801946 -1.4382175 0.025066286 4.702994
1.4588864 -1.6016369 0.3983946 0.80020994 1.6234081 2.3269506 -0.22258127 -0.044439256
-1.9409461 -2.4796932 -1.096406 0.23715636 -1.6721251 0.4407396 2.0568945 -1.0950627
1.7912735 -2.6849544 1.0079522 2.2156637 1.7840818 3.6015232 -2.9493232 0.59406525
0.23568654 -3.5273678 2.1968884 1.5604326 2.5644271 3.0847297 0.7970222 3.0186753
-4.420122 -3.13924 1.6389916 -2.1158543 1.0069788 -3.3179364 -1.3723954 -1.832682
-5.215092 1.8381093 0.6421962 4.2701907 2.8490205 -1.4439363 2.2037587 0.9591793
-5.0267973 -0.50391686 1.3363134 -3.2514563 -0.14390835 -2.5961468 0.9857683 -1.864343
1.9526463 2.0389535 0.23753548 -2.3120995 -0.28444162 -1.0950489 1.8260723 4.9074216
-2.2675266 1.7307019 3.6023712 2.968222 0.5050068 2.435863 1.295941 -5.7858357
4.6198964 -1.4511553 -0.7473562 -1.1004084 -0.26492262 -2.556132 0.6496632 -0.1475725
-0.59893894 -2.8157248 -3.223894 -0.07922776 5.2128773 -0.9920829 0.31973344 -3.5206194
-1.6393197 -1.8292031 -0.06944054 2.6501985 2.884441 0.8479053 0.87232804 5.796063
2.1455927 0.5213363 -1.6455786 1.6662773 1.954375 -3.3571763 0.43092716 2.2469645
-1.4020201 2.0756276 -2.643492 -1.5419948 4.375158 -0.18028384 -0.84434927 -2.7420292
-0.38347387 0.4698374 -3.7038155 -3.5488636 3.1992707 -1.4678555 1.6865985 3.3744707
-3.0355031 -6.8386965 2.6413538 -2.4161444 0.2691477 -1.1284311 1.53616 -0.6513649
-3.360768 -4.689566 -4.223605 0.6995435 1.3251698 -1.4260633 0.5064194 3.8813217
0.6336085 2.8779638 1.5764983 0.955001 -0.0074437708 -6.22568 4.1043444 -0.91987634
-2.4599607 -0.034999847 -0.92288554 1.1104298 0.81996787 -0.218176 -0.658562 2.35821
0.39954504 3.7342126 -3.4342608 -0.8324807 2.677781 -4.2175546 -1.5687456 -0.83404255
-2.9854202 -2.5841093 2.5315976 -0.40551817 -2.0995944 -2.286045 2.9384196 -0.12071282
0.1749177 -2.0182078 -3.6914086 -3.2842102 -0.7660836 -2.5486422 2.419984 -1.3842257
0.12439513 -3.4825976 0.49411428 2.0384457 -1.2755566 -1.7631059 -0.14707112 1.008214
1.3410262 -0.8107162 -0.69960046 0.5897112 -4.0080104 3.323939 0.42061502 -1.6958002
2.1005454 -3.3553693 1.1694535 1.2663038 3.5674171 -2.7309282 2.932238 -1.5519067
00000000: b907 abbe eacc 29c0 8b14 a1be 1656 9d3f
00000010: 6490 0cc0 6256 5b3f a9de 19c0 a002 4a3d
00000020: cf65 1e40 3ca6 42bf b54b 82c0 32a1 4b3f
00000030: ac7b 08bd b6ef 95bf 95af d7bf af16 cdbf
00000040: 5805 7840 daeb 81c0 87ad 073f 5c8c bebe
00000050: 6d24 9c40 029c 1cc0 1690 8840 dc73 bfbf
00000060: 5cef 1bbf a307 563f d562 9540 aca1 a8bf
00000070: d2d6 e33f bbdd dd3f 1407 5ac0 4d7c efbf
00000080: a0d6 963e 5806 3b40 7460 8cbf 341b 3dc0
00000090: 7623 dac0 e2c8 13bf 5dc5 fbbf 7748 cfbf
000000a0: f9be cd3f e1e7 f73e b239 9fbf 3d94 bebf
000000b0: 5e4e bf40 2bcf dfbf 906b 86c0 7328 213f
000000c0: 208c 1bbd 1ae6 c53f 1768 3cbf 166b 3a40
000000d0: 6bdd a33f 8317 b8bf d057 cd3c ed7e 9640
000000e0: cabc ba3f 7002 cdbf 61fa cb3e 8fda 4c3f
000000f0: d6cb cf3f c2ec 1440 58ec 63be f005 36bd
00000100: ec70 f8bf 4bb3 1ec0 0857 8cbf 1ed9 723e
00000110: 3208 d6bf 9fa8 e13e 29a4 0340 042b 8cbf
00000120: 7348 e53f 4bd6 2bc0 9404 813f 6fcd 0d40
00000130: cb5c e43f 5b7f 6640 b6c1 3cc0 a914 183f
00000140: d057 713e 65c0 61c0 d299 0c40 41bc c73f
00000150: 931f 2440 366c 4540 a609 4c3f fa31 4140
00000160: a471 8dc0 4fe9 48c0 7aca d13f 286a 07c0
00000170: aee4 803f 1259 54c0 a7aa afbf 5395 eabf
00000180: 09e2 a6c0 2a47 eb3f f866 243f 67a5 8840
00000190: 5a56 3640 e8d2 b8bf 620a 0d40 c68c 753f
000001a0: 86db a0c0 b200 01bf 510c ab3f dc17 50c0
000001b0: b65c 13be 4527 26c0 505b 7c3f cba2 eebf
000001c0: 50f0 f93f 377e 0240 803c 733e 70f9 13c0
000001d0: 55a2 91be 902a 8cbf bdbc e93f 9909 9d40
000001e0: 281f 11c0 a487 dd3f 408d 6640 59f7 3d40
000001f0: 2048 013f 2ee5 1b40 65e1 a53f 9125 b9c0
00000200: 31d6 9340 75bf b9bf bc52 3fbf 2fda 8cbf
00000210: f0a3 87be ab97 23c0 5450 263f 3f1d 17be
00000220: 1054 19bf d634 34c0 4754 4ec0 2a42 a2bd
00000230: e4cf a640 25f9 7dbf 1ab4 a33e d451 61c0
00000240: 3ad5 d1bf 5423 eabf d836 8ebd da9c 2940
00000250: ae9a 3840 5210 593f e450 5f3f 5979 b940
00000260: 6451 0940 4c76 053f 52a2 d2bf 9348 d53f
00000270: f628 fa3f fadb 56c0 7ca2 dc3e 44ce 0f40
00000280: 6575 b3bf 15d7 0440 f92e 29c0 1660 c5bf
00000290: 4b01 8c40 549c 38be 4627 58bf 687d 2fc0
000002a0: b056 c4be 878e f03e 500b 6dc0 9520 63c0
000002b0: dac0 4c40 b0e2 bbbf 76e2 d73f 54f7 5740
000002c0: af45 42c0 9ad6 dac0 f10b 2940 1ca2 1ac0
000002d0: bacd 893e 6e70 90bf e4a0 c43f dabf 26bf
000002e0: d316 57c0 ed10 96c0 c627 87c0 4815 333f
000002f0: 2a9f a93f 3e89 b6bf b4a4 013f 9367 7840
00000300: 2b34 223f 8f30 3840 b2ca c93f f27a 743f
00000310: e0ea f3bb c538 c7c0 ca56 8340 047d 6bbf
00000320: ff6f 1dc0 005c 0fbd 3a42 6cbf 9022 8e3f
00000330: 6ae9 513f 8869 5fbe 8597 28bf eaec 1640
00000340: 2b91 cc3e 57fd 6e40 eeca 5bc0 751d 55bf
00000350: c460 2b40 35f6 86c0 a8cc c8bf d083 55bf
00000360: 2011 3fc0 0c62 25c0 b205 2240 14a0 cfbe
00000370: c15f 06c0 904e 12c0 110f 3c40 4838 f7bd
00000380: a01d 333e 512a 01c0 0a40 6cc0 8030 52c0
00000390: 0e1e 44bf f41c 23c0 05e1 1a40 4f2e b1bf
000003a0: e0c2 fe3d e1e2 5ec0 8cfc fc3e e575 0240
000003b0: 7045 a3bf 74ad e1bf d099 16be 280d 813f
000003c0: bfa6 ab3f 198b 4fbf 0419 33bf 50f7 163f
000003d0: 9f41 80c0 6bbb 5440 da5a d73e fb0f d9bf
000003e0: 566f 0640 5fbe 56c0 a7b0 953f 3e16 a23f
000003f0: 9050 6440 87c7 2ec0 caa9 3b40 e1a4 c6bf

0.bias f4 [64]
-1.3635052 -2.7582157 -3.911583 0.6451819 3.8358598 -0.37577242 -0.39692068 -3.2403545
3.7727466 3.0045443 1.2690662 -1.562607 -0.47063446 2.0510328 -4.6817627 -1.2456734
-1.5592247 2.0358472 -4.4680257 5.715061 -3.4812682 -3.8393016 -0.34157455 2.9198267
1.9411451 0.05693215 -1.4254777 -3.4657671 3.3974464 -1.9832467 2.588099 -1.0400836
-1.5443393 -0.6064008 1.9522743 4.569168 -4.6163116 0.7814404 0.29555154 -0.108106345
-0.81689745 -1.3098146 -1.0050544 -0.21677911 0.7688753 0.3296312 1.0004777 2.6402175
-0.2527262 -3.1814325 1.27563 -2.4979308 -0.495978 0.76385194 -0.7245225 0.15244496
1.423081 -2.576417 -0.75710654 -2.839549 0.582731 -0.2875886 -4.2144036 -3.277319
00000000: 5787 aebf 9b86 30c0 6057 7ac0 a42a 253f
00000010: ba7e 7540 3e65 c0be 3039 cbbe f861 4fc0
00000020: ae74 7140 744a 4040 c370 a23f 8203 c8bf
00000030: 00f7 f0be 1f44 0340 00d1 95c0 3a72 9fbf
00000040: ad94 c7bf 524b 0240 11fa 8ec0 c8e1 b640
00000050: 19cd 5ec0 1eb7 75c0 dce2 aebe 71de 3a40
00000060: 7177 f83f b031 693d 0e76 b6bf 21cf 5dc0
00000070: c36f 5940 07db fdbf 6aa3 2540 7621 85bf
00000080: e9ac c5bf 153d 1bbf 20e4 f93f a036 9240
00000090: d3b8 93c0 7a0c 483f 8852 973e dc66 ddbd
000000a0: 3120 51bf 01a8 a7bf 9fa5 80bf 58fb 5dbe
000000b0: 03d5 443f 6cc5 a83e a70f 803f 53f9 2840
000000c0: 5465 81be 979c 4bc0 d847 a33f 19de 1fc0
000000d0: d4f0 fdbe cd8b 433f 4e7a 39bf 881a 1c3e
000000e0: 8527 b63f 04e4 24c0 bcd1 41bf 2cbb 35c0
000000f0: dc2d 153f d03e 93be 65dc 86c0 98bf 51c0

2.weight f4 [64, 64]
2.5671532 1.0473619 4.1279583 -1.7935674 -2.344559 -3.7772017 1.0833304 -0.84826523
1.733082 -1.6194652 -2.4365425 -2.9651668 1.5441595 0.5914823 -0.6642947 -2.8442736
2.1602492 0.6447692 1.5013093 0.7239787 -1.3415296 -0.47597182 -3.4875982 -2.513103
-2.3030314 5.272816 -1.5095518 2.996525 -1.5918436 -2.6881673 -0.48819956 -0.88222945
-3.2641888 -2.6816244 -3.7265408 3.0040135 -0.6396422 -1.2089396 0.27291632 -0.44305003
-2.9669669 -2.6637003 1.2896286 2.7458887 3.8276405 1.3038261 -0.99467707 1.7872694
2.1517332 -0.15642613 -4.628572 2.6054018 0.74526215 -1.2770596 -1.0925366 -1.9338105
-4.602245 2.1422305 1.3188834 1.7080076 0.5462617 -0.14076066 -0.63746256 -2.4008012
1.602227 0.06825641 1.8565423 5.737772 0.9867517 0.9257982 1.1754003 -1.9504704
-1.8726674 -0.7046721 2.047096 -2.5189862 1.4069446 -0.0918864 -1.10048 -0.22678983
0.33683592 2.9329515 0.36744902 -2.9936159 2.29585 -1.2899768 -0.11590439 1.2189873
-1.725044 2.2906854 1.0227208 -1.2600272 -0.016991973 -1.7922062 -0.120765805 -0.95697826
4.256237 1.7032332 -1.3221676 2.235951 1.5348663 0.052613407 -0.6954032 -1.7062471
0.84461886 0.8009484 -3.3084006 -2.0317163 2.197394 1.0230604 2.7456102 2.0414608
0.58080196 0.25644386 4.3586993 3.8802602 1.1624097 4.1064806 0.040394902 -0.59432125
2.4436512 -2.5875251 0.40445364 -4.235764 0.4934209 0.84965557 3.1071405 2.2764235
1.419545 0.77904946 -1.355734 -2.1720116 2.8024497 1.4669952 -1.9300092 0.3527435
-1.7700692 2.7136772 0.92578423 -0.65660954 3.5874286 -0.8544228 -0.5615051 -0.58277303
-0.45617658 -1.4642317 0.66480297 3.9974627 5.3707294 -1.2322981 -0.2292724 0.4321171
1.5738475 0.30798846 2.6816783 4.8002195 3.3724322 1.7759829 -1.9787275 -4.3456736
0.4683316 0.624269 -1.340275 -1.4102303 -1.3596215 -0.6095599 -0.86894923 0.43417114
-2.949401 5.0433693 -0.7677023 -2.3803742 4.6531944 3.6192179 2.42675 -3.8075476
-0.09850216 -2.6755552 -1.4669161 3.4832304 2.1839695 2.6075015 0.7085351 -2.3290517
-2.513467 0.77126694 0.056898862 -0.76351833 3.7775881 0.11996937 -2.627143 -5.0859375
-1.3884501 -1.5339789 -1.8156499 -0.4603442 1.3494035 0.76231444 1.0492525 -3.5646515
0.30354357 3.3947656 0.4688921 1.3253727 -1.7658236 -1.0152584 1.0593557 1.3306856
-1.0926791 1.2746396 1.2443749 -3.6528447 0.09684622 -0.7678214 0.42227262 1.0615441
-0.5723525 0.35770768 -2.4560957 1.2230821 -0.00894475 -1.1978321 -3.5696461 -1.2657471
-0.70701146 1.0017542 2.0856116 -0.46435672 -3.374681 0.9201319 1.0235189 2.7785
0.5239865 -0.48932138 1.7828752 0.400074 0.5980652 -0.61946344 -0.16498971 -2.3950508
5.096716 -1.9930319 -0.16672796 -3.056458 3.2223668 -3.075397 -0.41636512 3.2485287
0.77703977 -3.3081121 1.3199141 0.33843717 0.8887298 -3.6157336 -2.6716247 0.4689411
00000000: 3d4c 2440 f40f 863f 3c18 8440 9e93 e5bf
00000010: 410d 16c0 acbd 71c0 92aa 8a3f e927 59bf
00000020: a2d5 dd3f a34a cfbf 50f0 1bc0 4bc5 3dc0
00000030: 05a7 c53f 626b 173f 380f 2abf 9408 36c0
00000040: 8641 0a40 980f 253f e72a c03f ab56 393f
00000050: 3eb7 abbf 94b2 f3be cf34 5fc0 aed6 20c0
00000060: de64 13c0 e9ba a840 fe38 c1bf 11c7 3f40
00000070: 88c1 cbbf ef0a 2cc0 4bf5 f9be cad9 61bf
00000080: 78e8 50c0 bc9f 2bc0 a57f 6ec0 c241 4040
00000090: 97bf 23bf 88be 9abf b0bb 8b3e 74d7 e2be
000000a0: c9e2 3dc0 117a 2ac0 8d12 a53f a4bc 2f40
000000b0: 10f8 7440 c6e3 a63f 28a3 7ebf 3ec5 e43f
000000c0: ffb5 0940 2c2e 20be 431d 94c0 e7be 2640
000000d0: 80c9 3e3f b076 a3bf 3dd8 8bbf 1a87 f7bf
000000e0: 9745 93c0 4e1a 0940 2cd1 a83f fe9f da3f
000000f0: cfd7 0b3f 9023 10be bf30 23bf baa6 19c0
00000100: c615 cd3f 04ca 8b3d 2ea3 ed3f d49b b740
00000110: c29b 7c3f 1c01 6d3f 8473 963f 04a9 f9bf
00000120: 91b3 efbf 6465 34bf 9f03 0340 1237 21c0
00000130: c316 b43f f02e bcbd 87dc 8cbf 983b 68be
00000140: c275 ac3e 7ab5 3b40 4722 bc3e 6797 3fc0
00000150: 35ef 1240 f61d a5bf 485f edbd c707 9c3f
00000160: 3ece dcbf 979a 1240 84e8 823f 9248 a1bf
00000170: c032 8bbc 0367 e5bf 1054 f7bd 87fc 74bf
00000180: 1833 8840 8c03 da3f ca3c a9bf d219 0f40
00000190: 8076 c43f 2881 573d f205 32bf 4e66 dabf
000001a0: f138 583f f40a 4d3f d6bc 53c0 a407 02c0
000001b0: 1aa2 0c40 a5f3 823f 14b8 2f40 4ba7 0240
000001c0: 70af 143f 9c4c 833e 777a 8b40 2f56 7840
000001d0: d7c9 943f 4a68 8340 2075 253d 7025 18bf
000001e0: c864 1c40 039a 25c0 8c14 cf3e 618b 87c0
000001f0: aaa1 fc3e 0783 593f 64db 4640 ecb0 1140
00000200: a7b3 b53f c96f 473f b188 adbf 3d02 0bc0
00000210: 565b 3340 80c6 bb3f 8b0a f7bf cc9a b43e
00000220: a191 e2bf e3ac 2d40 3200 6d3f 9017 28bf
00000230: 6e98 6540 74bb 5abf ccbe 0fbf 9d30 15bf
00000240: fa8f e9be f26b bbbf 8730 2a3f 6ed6 7f40
00000250: 04dd ab40 f2bb 9dbf 62c6 6abe 743e dd3e
00000260: d673 c93f aab0 9d3e 9ea0 2b40 669b 9940
00000270: eed5 5740 6853 e33f f146 fdbf c20f 8bc0
00000280: 29c9 ef3e 18d0 1f3f 228e abbf 6d82 b4bf
00000290: 1408 aebf 1e0c 1cbf 7573 5ebf ae4b de3e
000002a0: fcc2 3cc0 4863 a140 2388 44bf 0d58 18c0
000002b0: f8e6 9440 44a1 6740 df4f 1b40 dcae 73c0
000002c0: 80bb c9bd 4c3c 2bc0 e8c3 bbbf 3fed 5e40
000002d0: 28c6 0b40 4ee1 2640 8e62 353f 2f0f 15c0
000002e0: a5dc 20c0 c071 453f c80e 693d f075 43bf
000002f0: 01c4 7140 80b2 f53d 1c23 28c0 00c0 a2c0
00000300: bcb8 b1bf 6c59 c4bf 3767 e8bf 3cb2 ebbe
00000310: 41b9 ac3f 0a27 433f e84d 863f 4023 64c0
00000320: 106a 9b3e d743 5940 a012 f03e d0a5 a93f
00000330: 8206 e2bf fdf3 81bf f898 873f e853 aa3f
00000340: e9dc 8bbf 6427 a33f ad47 9f3f 35c8 69c0
00000350: 5057 c63d f18f 44bf 1e34 d83e ade0 873f
00000360: b285 12bf 7625 b73e ac30 1dc0 f48d 9c3f
00000370: 008d 12bc 9052 99bf 1575 64c0 0004 a2bf
00000380: b4fe 34bf 7b39 803f a97a 0540 2ac0 edbe
00000390: c6fa 57c0 c48d 6b3f ab02 833f f2d2 3140
000003a0: fb23 063f 5588 fabe 4135 e43f 80d6 cc3e
000003b0: cd1a 193f 2895 1ebf 10f3 28be 8348 19c0
000003c0: 4c18 a340 ab1b ffbf bcba 2abe 029d 43c0
000003d0: 423b 4e40 4ed3 44c0 cf2d d5be e5e7 4f40
000003e0: 14ec 463f 1cb8 53c0 f2f2 a83f a347 ad3e
000003f0: cc83 633f 2e68 67c0 e6fb 2ac0 0c19 f03e

2.bias f4 [64]
1.162163 -1.4861674 3.1932888 4.2493873 -3.5982325 -1.6467652 -5.0072846 -1.76969
-0.5809807 1.144755 2.1122172 3.9661903 -3.5101328 -1.2451186 -3.3041975 2.9749825
0.5332403 0.56994843 0.8255798 -0.04442185 1.6422414 0.5336045 3.7418413 -0.22827804
0.23475802 0.7950126 0.25976658 1.0410061 4.2244844 -4.592789 4.8775926 -0.34584528
3.649106 2.392913 0.47592396 2.3632617 5.859482 -1.1307847 0.68575656 -0.29875535
-3.6506486 0.2581185 1.267539 -1.7812618 -3.0811965 0.43162036 -0.39335847 -3.070629
0.96847874 -0.4596435 0.9628668 -1.3955991 -0.8265599 1.6922082 2.7413573 -2.9726753
3.98006 -2.6001046 1.1361132 -0.8957746 0.024796069 0.411335 -2.312849 5.934401
00000000: c2c1 943f bc3a bebf d85e 4c40 fbfa 8740
00000010: 7149 66c0 34c9 d2bf ad3b a0c0 3485 e2bf
00000020: 27bb 14bf 5587 923f 912e 0740 10d6 7d40
00000030: 04a6 60c0 0c60 9fbf f977 53c0 1d66 3e40
00000040: 7082 083f 24e8 113f 3359 533f b0f3 35bd
00000050: f734 d23f 4e9a 083f 547a 6f40 b8c1 69be
00000060: 6864 703e f285 4b3f 2000 853e b03f 853f
00000070: fa2e 8740 21f8 92c0 3d15 9c40 a212 b1be
00000080: f48a 6940 7d25 1940 4eac f33e ae3f 1740
00000090: e080 bb40 8ebd 90bf be8d 2f3f 76f6 98be
000000a0: 3aa4 69c0 1c28 843e b83e a23f 6300 e4bf
000000b0: 5332 45c0 58fd dc3e 4866 c9be 2f85 44c0
000000c0: 39ee 773f 6556 ebbe 707e 763f fea2 b2bf
000000d0: 6e99 53bf 479a d83f 6672 2f40 5040 3ec0
000000e0: 4eb9 7e40 1d68 26c0 286c 913f 7c51 65bf
000000f0: 2021 cb3c 809a d23e b805 14c0 9de6 bd40

4.weight f4 [5, 64]
3.3593044 -2.0948331 -0.56097996 -1.8861778 -0.21985757 1.6864549 3.822517 -0.06957322
0.75543845 -2.6075854 -1.9802461 1.1225548 1.6103581 -1.9503789 -3.560546 -3.7618508
-1.6851029 -2.3045712 2.3852746 1.5422328 0.17881572 1.0702708 -1.3566793 -0.8058325
-2.3616674 0.004238963 2.5334878 -0.12707946 -0.96822965 -2.8846068 2.120235 -0.2459259
2.1048512 -2.147574 1.6604023 -0.6764479 -2.94364 1.0679135 -0.38120055 0.34245765
-3.1979733 1.450906 0.10949209 -3.4251075 -3.2775707 -4.333523 -3.2801313 -0.91830134
2.4889793 2.8171425 0.7315266 -0.6932491 3.082672 4.917796 -1.2164716 -2.3791602
-3.0679712 -2.4294512 -7.658513 1.4808297 0.67762285 -3.716704 1.3132157 -0.36812937
-1.1243112 2.920774 -2.3219275 1.5270619 -1.9837468 1.7677736 2.7234786 0.7269847
0.41491932 2.9754784 -1.97841 3.9762888 -0.39718765 -1.4246244 -3.823497 -0.88836735
-4.2576766 1.1335765 0.55512047 3.115858 -3.1939821 -0.6215614 -0.69464576 1.4648525
0.12735963 0.48441494 -0.32442942 -1.0616422 -3.8496585 0.61396 -1.1873055 -0.37547547
1.3347951 -1.5172085 -0.38920033 3.3633862 1.3502791 -1.2637583 -1.113735 -4.3837914
-0.12671316 0.6436961 -5.6230135 3.3716526 -1.8242722 0.6430004 1.7640499 2.674078
1.553761 3.980928 0.9323118 0.7744263 -2.1799097 2.7083344 2.4499078 3.2483103
-0.7806439 1.411229 -3.2646263 -2.0982573 -2.3315384 -2.2874768 3.2484179 1.5689387
0.09348339 -1.127298 4.550485 -0.64754516 2.3543777 -2.3501472 1.4950808 1.3213869
-3.1654015 -2.032097 -0.040140063 -0.38270053 1.7685447 -1.2420669 -1.1883265 4.322813
1.4947441 0.34595 3.0400953 -2.347624 -5.1766896 2.4998112 -1.9252542 0.21172488
-1.2363611 -1.3085089 2.4125948 -0.08800006 -0.44253826 4.0054646 -1.9244164 -1.3304224
3.607841 0.638687 1.0345423 1.3089617 1.5269129 1.8466107 -0.85956985 -1.10004
-3.8598359 1.4015751 0.97435474 1.2500365 -4.140084 4.5283337 -0.8008729 -2.0927703
3.258314 -1.5152633 -0.22536409 -4.3019233 -4.746385 1.2647717 -0.49054617 6.79445
-3.0017233 -4.38278 1.4304371 2.8215091 -0.51480114 3.9416032 -1.2169712 -2.5248713
-1.2809432 2.8378222 0.108462095 0.47199607 -2.743927 -4.1066995 1.5174927 -0.14195228
1.9152288 0.06797683 1.1089023 1.0883863 -2.1144915 -3.767316 3.1875536 2.1150863
0.7167371 2.8704972 -0.82969075 -3.888135 4.1302648 -1.0766885 -4.340462 0.3495556
-2.4918818 -0.46240002 -0.08842647 1.2579741 -1.4184549 -1.3322705 2.5513847 0.04260847
-4.448407 0.2478481 2.4876227 1.5585768 1.6407794 1.3349099 -1.3734691 -2.4672658
2.1193745 -0.25437802 -2.7765908 -2.9666176 0.08186561 1.3286176 0.089345425 -1.3368603
0.7886709 -1.247812 0.691813 -0.6168378 -0.46999323 -0.19894889 -1.2197964 2.5444682
-1.6131188 1.9994265 -2.9561663 -1.2655091 -6.109364 -3.8513756 2.071304 0.73493165
00000000: d8fe 5640 bf11 06c0 629c 0fbf 466e f1bf
00000010: 5822 61be c1dd d73f 1ea4 7440 687c 8ebd
00000020: 6a64 413f aee2 26c0 b478 fdbf e0af 8f3f
00000030: 3720 ce3f 04a6 f9bf fcdf 63c0 2ac2 70c0
00000040: 74b1 d7bf 187e 13c0 57a8 1840 e267 c53f
00000050: 781b 373e a2fe 883f aba7 adbf 0a4b 4ebf
00000060: 8f25 17c0 00e7 8a3b aa24 2240 1e21 02be
00000070: e6dd 77bf 669d 38c0 eeb1 0740 00d4 7bbe
00000080: e2b5 0640 da71 09c0 1088 d43f b12b 2dbf
00000090: 9964 3cc0 64b1 883f b82c c3be 9c56 af3e
000000a0: 98ab 4cc0 4ab7 b93f 643d e03d f634 5bc0
000000b0: b8c3 51c0 38ac 8ac0 aced 51c0 cc15 6bbf
000000c0: 704b 1f40 104c 3440 5445 3b3f c678 31bf
000000d0: 804a 4540 965e 9d40 57b5 9bbf 2944 18c0
000000e0: a459 44c0 217c 1bc0 8a12 f5c0 d48b bd3f
000000f0: b178 2d3f 7ade 6dc0 7417 a83f 747b bcbe
00000100: 6ee9 8fbf f6ed 3a40 769a 14c0 c476 c33f
00000110: 6aeb fdbf 6846 e23f 794d 2e40 ab1b 3a3f
00000120: 4e70 d43e 3d6e 3e40 8a3c fdbf 847b 7e40
00000130: 2e5c cbbe 185a b6bf 2db4 74c0 0b6c 63bf
00000140: e33e 88c0 0919 913f 601c 0e3f 386a 4740
00000150: 346a 4cc0 a61e 1fbf 4ed4 31bf 4980 bb3f
00000160: 906a 023e 3c05 f83e 9d1b a6be e4e3 87bf
00000170: ce60 76c0 7c2c 1d3f a0f9 97bf 523e c0be
00000180: 91da aa3f e333 c2bf 4445 c7be b841 5740
00000190: f2d5 ac3f d5c2 a1bf de8e 8ebf 0548 8cc0
000001a0: 18c1 01be 45c9 243f baef b3c0 28c9 5740
000001b0: c081 e9bf ad9b 243f 63cc e13f 1824 2b40
000001c0: a4e1 c63f 86c7 7e40 fcab 6e3f cd40 463f
000001d0: a483 0bc0 5a55 2d40 4acb 1c40 51e4 4f40
000001e0: 47d8 47bf 27a3 b43f a3ef 50c0 d949 06c0
000001f0: ed37 15c0 0566 12c0 14e6 4f40 fcd2 c83f
00000200: 3874 bf3d 4d4b 90bf 939d 9140 85c5 25bf
00000210: 20ae 1640 d068 16c0 cf5e bf3f 3523 a93f
00000220: f095 4ac0 e10d 02c0 e869 24bd 53f1 c3be
00000230: ac5f e23f 0cfc 9ebf 151b 98bf 7c54 8a40
00000240: c653 bf3f 5c20 b13e ec90 4240 793f 16c0
00000250: 71a7 a5c0 e8fc 1f40 bb6e f6bf 68ce 583e
00000260: 1541 9ebf 387d a7bf f467 1a40 6039 b4bd
00000270: 6094 e2be c42c 8040 4753 f6bf 484b aabf
00000280: dee6 6640 fe80 233f e26b 843f 0f8c a73f
00000290: e271 c33f bd5d ec3f c50c 5cbf 1cce 8cbf
000002a0: 8d07 77c0 d066 b33f 506f 793f 3201 a03f
000002b0: 917b 84c0 1ce8 9040 0206 4dbf f3ef 05c0
000002c0: 3788 5040 26f4 c1bf d8c5 66be 5ba9 89c0
000002d0: 63e2 97c0 0ae4 a13f de28 fbbe 226c d940
000002e0: 3c1c 40c0 bc3f 8cc0 9018 b73f 9b93 3440
000002f0: 02ca 03bf 3a43 7c40 b6c5 9bbf 7e97 21c0
00000300: f2f5 a3bf e19e 3540 6021 de3d 78a9 f13e
00000310: 809c 2fc0 156a 83c0 333d c23f f05b 11be
00000320: 3826 f53f 7037 8b3d 83f0 8d3f 3e50 8b3f
00000330: d453 07c0 b51b 71c0 e100 4c40 935d 0740
00000340: 157c 373f 3ab6 3740 9d66 54bf 34d7 78c0
00000350: 212b 8440 eed0 89bf 11e5 8ac0 f4f8 b23e
00000360: fe7a 1fc0 b2bf ecbe f018 b5bd 4c05 a13f
00000370: ee8f b5bf d787 aabf e349 2340 3886 2e3d
00000380: 5a59 8ec0 e4cb 7d3e 3635 1f40 727f c73f
00000390: 0f05 d23f 54de aa3f d6cd afbf afe7 1dc0
000003a0: d5a3 0740 d63d 82be aab3 31c0 10dd 3dc0
000003b0: 28a9 a73d 2410 aa3f bcfa b63d 3d1e abbf
000003c0: 56e6 493f 4eb8 9fbf a81a 313f 15e9 1dbf
000003d0: f4a2 f0be 42b9 4bbe 4a22 9cbf 91d8 2240
000003e0: ad7a cebf 35ed ff3f d431 3dc0 34fc a1bf
000003f0: e97f c3c0 f07c 76c0 3f90 0440 7b24 3c3f

4.bias f4 [5]
3.1772652 -1.9070694 0.45735002 1.5525455 2.755346
00000000: 5058 4b40 da1a f4bf c829 ea3e d0b9 c63f
00000010: 9757 3040
