demo/experiments/genetic_algorithm/ga_experiment_2021_02_12_160407/problem_7.model (torch, 26149 bytes, 6 tensors)

0.weight f4 [64, 22]
0	0xbdd049f8	-0.101703584
1	0x3f224056	0.6337942
2	0x4033ae2c	2.8075056
3	0xc064ff6c	-3.5780897
4	0x3fcafabb	1.5857767
5	0xbfd48a5e	-1.6604726
6	0xc013946a	-2.3059335
7	0xc0d221a5	-6.566607
8	0x4031bcb2	2.777142
9	0x3ea76526	0.32694358
10	0x3f1bec4c	0.60907435
11	0x3e36a848	0.17837632
12	0xc04092e9	-3.0089667
13	0xbea99d6f	-0.33127925
14	0x3fa6adf9	1.3021842
15	0x4030bbac	2.7614546
16	0x3fd02416	1.6261013
17	0xbf24880e	-0.642701
18	0xc004bc25	-2.0739834
19	0xc02e264e	-2.721088
20	0x40864ab7	4.1966205
21	0x3f805081	1.0024568
22	0xc09fbb06	-4.99158
23	0xc0478822	-3.117684
24	0xbea90ca2	-0.3301745
25	0xbe92f9ba	-0.2870615
26	0x3f702636	0.93808305
27	0xbf812792	-1.0090201
28	0x40744809	3.8168967
29	0x3f98d31a	1.1939423
30	0xc0d6ce0f	-6.7126536
31	0xc097af58	-4.7401543
32	0xc039bf38	-2.902296
33	0xc0448f64	-3.0712519
34	0xbf2c05a9	-0.67196137
35	0xbf8a4f98	-1.080554
36	0x40000afe	2.000671
37	0xbdc2a750	-0.095045686
38	0x40309e96	2.7596793
39	0xbf416f5c	-0.75560546
40	0xbff7d844	-1.9362874
41	0xbef86229	-0.4851239
42	0x40d60b23	6.6888595
43	0x3f2f1da0	0.6840458
44	0xbfed90c9	-1.855981
45	0x3d06a9c0	0.03287673
46	0xbf6a11b8	-0.91433287
47	0xbfa4896e	-1.285444
48	0xc0661e75	-3.595609
49	0x3eae1b84	0.34005368
50	0x3f31ee5b	0.69504327
51	0xbfefea6c	-1.8743415
52	0xbf89f1c0	-1.0776901
53	0xbfb2b77e	-1.3962247
54	0x4097cec8	4.743992
55	0xbfc22cb8	-1.5169897
56	0xc02fd4c6	-2.7473617
57	0x40906b0d	4.5130677
58	0x3fe271e8	1.7691011
59	0xc04b11ed	-3.172969
60	0xbfe3eff9	-1.7807609
61	0xbff5a804	-1.9191899
62	0x4055d9c2	3.341416
63	0xbfb6310d	-1.4233719
64	0x3e225558	0.15852869
65	0x40954d61	4.6656957
66	0xbfc7417e	-1.5566862
67	0x3ff653b6	1.9244297
68	0xc043ab58	-3.057333
69	0xbff687ff	-1.9260253
70	0xbf10486c	-0.56360507
71	0x3e6b58a0	0.22983027
72	0xc08d2efb	-4.411985
73	0x4075a99f	3.8384778
74	0xbfcbb70f	-1.591524
75	0x40debef8	6.9608116
76	0x3f99fb06	1.2029731
77	0xbee6b6e4	-0.4506141
78	0xbf9bc737	-1.217017
79	0xc0613469	-3.5188239
80	0x4039f0c4	2.9053202
81	0x40792c2b	3.8933208
82	0x3fb763c6	1.4327323
83	0x3fb6137a	1.4224694
84	0xbf305015	-0.68872195
85	0xbf2fdf97	-0.68700546
86	0xbebfe7be	-0.37481493
87	0x400a6e79	2.1629927
88	0xbef7dc84	-0.48410428
89	0xbe9b043a	-0.30276662
90	0xc010a1e3	-2.2598808
91	0x40d61477	6.689998
92	0xbe148b0c	-0.14506167
93	0x401a3806	2.4096694
94	0xbeacfc20	-0.33786106
95	0x4087b91c	4.2413464
96	0xbef70880	-0.48248672
97	0x4002f1af	2.0460012
98	0x40509578	3.2591228
99	0xc01192e6	-2.274591
100	0x40395898	2.8960323
101	0x3f96f81e	1.1794469
102	0x40560754	3.3441973
103	0xbf9e8b76	-1.238631
104	0x3e721c08	0.23643506
105	0x3f9bd6b6	1.21749
106	0xc01b9556	-2.4309897
107	0xc02ecd67	-2.7312868
108	0x4026015e	2.5938334
109	0xc0b14749	-5.539952
110	0x3fda8e46	1.7074668
111	0x400bcad9	2.1842558
112	0x3fc3ca7a	1.5296166
113	0x3d21ae48	0.03947285
114	0xc01bef51	-2.4364817
115	0xc0ec6da0	-7.388382
116	0xbfd80399	-1.6876098
117	0x4041e96c	3.029872
118	0x3e9f43fa	0.3110655
119	0xc01425dc	-2.3148108
120	0x3ea47738	0.32122207
121	0xbf3cc968	-0.7374482
122	0xbf29de1c	-0.66354537
123	0xbf252404	-0.6450808
124	0xbf1b45c8	-0.6065335
125	0x4001cfbf	2.0283048
126	0x3f5bc2d8	0.8584418
127	0x3ff945e5	1.9474455
128	0xbec5fffe	-0.3867187
129	0xc04311b2	-3.047955
130	0x3e88acce	0.2669434
131	0x40484c26	3.1296477
132	0x408b2a50	4.348915
133	0xbf6f1d48	-0.93404055
134	0xbfe63e61	-1.7987787
135	0xbfa61f5a	-1.2978318
136	0xbd04c668	-0.032415777
137	0x400df5fb	2.2181385
138	0x3e6c1810	0.23056054
139	0xc02d0890	-2.7036476
140	0x3e198e48	0.14995682
141	0x3da4c7c0	0.08045912
142	0xbd8f7150	-0.070040345
143	0xbfe3690b	-1.7766432
144	0xbf112c80	-0.56708527
145	0xc0472d3c	-3.112136
146	0xbf5df8c4	-0.8670771
147	0x401ea799	2.4789793
148	0xbe66a998	-0.22525632
149	0x3c7f2600	0.015573025
150	0x3fa4b594	1.2867913
151	0xbfa13d12	-1.2596762
152	0xc0638319	-3.5548766
153	0x403d392e	2.956615
154	0xbec4f213	-0.38465938
155	0xc03cdeee	-2.9511065
156	0x407c488e	3.9419284
157	0xbecbb5b0	-0.39787054
158	0x4057f6f9	3.374449
159	0x3f279518	0.65461874
160	0xbfa7f9b2	-1.3123076
161	0xc013d558	-2.3098965
162	0x3f24dc9c	0.64399123
163	0x3e76c32c	0.2409789
164	0xc0bf7cc9	-5.9839826
165	0x3fd51ff6	1.6650379
166	0xbe8066e8	-0.2507851
167	0x3e893858	0.268008
168	0xbf69146e	-0.910468
169	0x3e8115ac	0.25211847
170	0x3e1d7640	0.1537714
171	0xc0156ba4	-2.3346949
172	0x3fa4b4cc	1.2867675
173	0xbfba185f	-1.4538687
174	0x406bc33c	3.6837912
175	0x3f9e3fa4	1.2363172
176	0x3f12730c	0.572068
177	0x3e85a23c	0.26100338
178	0x3f06d412	0.52667344
179	0x4035cc10	2.84058
180	0x3fe936f3	1.8219894
181	0x400e807c	2.226592
182	0xc049b19f	-3.1514661
183	0x3f77bee6	0.9677566
184	0x3f3571ab	0.7087657
185	0x40155308	2.3331928
186	0x3e830290	0.25587893
187	0x400124f4	2.0178804
188	0xc04b5b61	-3.1774523
189	0x4075e04a	3.8418145
190	0x3fafbd65	1.3729674
191	0xbf083410	-0.5320444
192	0x3f797088	0.97437334
193	0xbff79cf6	-1.9344776
194	0x3e8c22a0	0.27370167
195	0xc0189cc4	-2.3845682
196	0x401ff8e3	2.4995658
197	0xc001a99e	-2.0259776
198	0xbe0a8170	-0.13525939
199	0xbed39a08	-0.41328454
200	0xbe516188	-0.20447361
201	0x402aa6af	2.6664236
202	0xc02bcf0e	-2.6845126
203	0xbfd6d3d0	-1.678339
204	0x3eb82f74	0.35973704
205	0xbf40e169	-0.7534395
206	0xc06495b2	-3.5716367
207	0xbf9c6254	-1.2217507
208	0xbf0f4628	-0.55966425
209	0x3f099a23	0.5375082
210	0xbfae6536	-1.3624637
211	0x3f8040ad	1.0019737
212	0x3eed2528	0.4631741
213	0x3f14dabe	0.58146274
214	0xc0128c1a	-2.2898011
215	0xbf33a64a	-0.7017561
216	0xc08baeec	-4.365103
217	0xbfbbc190	-1.4668446
218	0x407e37e8	3.9721622
219	0xbe8f29e0	-0.27961636
220	0x40100281	2.2501528
221	0xc0a27d78	-5.077816
222	0x4078f3ac	3.8898726
223	0xc07c9bff	-3.9470212
224	0x3fee4137	1.8613652
225	0x3fb45163	1.4087337
226	0x3f499078	0.78736067
227	0xc08827f8	-4.254879
228	0xc027eaea	-2.623713
229	0xc08c9b7b	-4.3939795
230	0x40323c1c	2.7849188
231	0x3f77e4dc	0.96833587
232	0x3f49ce75	0.78830653
233	0xc05315e8	-3.298212
234	0x3fd28b23	1.6448711
235	0xbf5b5402	-0.8567506
236	0x3f8fc6c2	1.1232531
237	0x3fb8f992	1.4451163
238	0x3f41baec	0.75675845
239	0x3f237f81	0.6386643
240	0x3ef78a44	0.48347676
241	0x3f04b1b6	0.51833665
242	0xc0976838	-4.731472
243	0xc020d1ad	-2.5127976
244	0x3f5538d2	0.83289826
245	0xc02d705f	-2.7099836
246	0xbfd3614f	-1.6514071
247	0x3fc2e708	1.5226755
248	0x3d96cfae	0.073638305
249	0x3fa88148	1.3164454
250	0x400cbe5b	2.1991184
251	0xbf80dcbc	-1.0067363
252	0x3f2d2df4	0.67648244
253	0xbf53cf18	-0.82737875
254	0x400bbb00	2.1832886
255	0x4039c5df	2.902702

0.bias f4 [64]
0	0x3f8dce37	1.1078557
1	0xc0056d03	-2.0847785
2	0x40158590	2.336277
3	0xbfe05608	-1.7526255
4	0x402a7905	2.6636364
5	0xbf7ce4ce	-0.9878663
6	0xbf083636	-0.5320772
7	0x3fc9c0d1	1.5761968
8	0xc08901b5	-4.2814584
9	0xbf925868	-1.143323
10	0xbfa0773e	-1.253639
11	0x3ff31687	1.899125
12	0x3f93a410	1.1534443
13	0x3f99eec8	1.2025995
14	0xbfed9f34	-1.856421
15	0xbfc4f274	-1.5386491
16	0x405a1810	3.4077187
17	0x3e8aa5d1	0.27079633
18	0x403c0c52	2.938252
19	0x3fcb2fdf	1.5873984
20	0x3ee10900	0.4395218
21	0xc0b9ea34	-5.8098392
22	0xbf25766a	-0.6463381
23	0xc0459151	-3.0869944
24	0xbe39f2fc	-0.18159097
25	0x3f0ca543	0.5493967
26	0x3f69bf76	0.9130777
27	0xbf15fd9b	-0.58590096
28	0x3fa39fc3	1.278313
29	0x40597576	3.3977942
30	0x408d843a	4.422391
31	0x3f2a85d5	0.6661046
32	0xbf4d17e6	-0.8011459
33	0xbe8db1e1	-0.27674773
34	0x3ead06b2	0.3379417
35	0xbfbc0270	-1.4688244
36	0xbe9b30d8	-0.30310702
37	0x3feb1e50	1.8368626
38	0xc00838db	-2.1284702
39	0x4087a390	4.238716
40	0x3f9bf00d	1.2182633
41	0xc0a17678	-5.0457115
42	0x4025331c	2.5812445
43	0xc00d5aae	-2.2086596
44	0xbec354d8	-0.38150668
45	0xc0a9de72	-5.308404
46	0x406f1372	3.7355618
47	0x3fd5aa05	1.6692511
48	0x400d67c7	2.209459
49	0xbfc7791b	-1.5583833
50	0x401e7850	2.4760933
51	0xbfe0c074	-1.7558732
52	0x40628790	3.539524
53	0x3f715606	0.94271886
54	0xbfed7f47	-1.8554467
55	0x3ecb6017	0.39721748
56	0xbed321f4	-0.41236842
57	0x3e49eeb4	0.19719964
58	0x402f7831	2.741711
59	0xbfc9c0a4	-1.5761914
60	0x4005d382	2.0910344
61	0x3ff575fe	1.9176633
62	0xbe93d36c	-0.2887224
63	0xc00865c5	-2.1312115

2.weight f4 [64, 64]
0	0x3fa92392	1.321398
1	0x4074e0ea	3.8262277
2	0xbcb987c0	-0.022647738
3	0x403cfc3c	2.9528952
4	0xc09ce9c4	-4.903536
5	0xc076fd3f	-3.859207
6	0x3ff70830	1.9299374
7	0x3f9b0f06	1.211396
8	0xc05807f3	-3.3754852
9	0x40022c8c	2.033969
10	0xbfe0df2d	-1.7568108
11	0xbdcc0ea4	-0.0996373
12	0xbf12c56f	-0.5733251
13	0xc0a8bde8	-5.273182
14	0xbf9cfa4f	-1.2263888
15	0xc026e40e	-2.6076694
16	0x3fd038c0	1.6267319
17	0xbf5095d4	-0.8147862
18	0x40278214	2.6173143
19	0x3fa28620	1.2697182
20	0x403e3f4e	2.9726138
21	0x3d5bcd90	0.053662837
22	0x3fcf428e	1.6192186
23	0xbf35c3d1	-0.7100192
24	0x403e8375	2.9767735
25	0xc0bebd21	-5.960587
26	0xc004ed64	-2.0769892
27	0x3f85b744	1.0446553
28	0x3eb722c7	0.3576872
29	0xbf71e900	-0.94496155
30	0x404e665f	3.2249982
31	0xc00f966e	-2.2435565
32	0x402a1e4a	2.6580987
33	0x3f3001ca	0.6875273
34	0xbf8b7ba6	-1.089711
35	0xc02375c9	-2.554064
36	0xc01b64c0	-2.4280243
37	0x409401d9	4.6252255
38	0xc023f131	-2.5615962
39	0x3f11565f	0.56772417
40	0x3f17aeba	0.59250987
41	0xc09d0e4c	-4.907995
42	0x3f810c33	1.0081848
43	0x3feb8e45	1.8402792
44	0xbf8d70d2	-1.1050055
45	0x40796212	3.8966107
46	0x3f4f7a24	0.81045747
47	0x3d402e70	0.046919286
48	0x40677553	3.616536
49	0xbe5a9abd	-0.2134809
50	0x4021ad4d	2.5262024
51	0x40a2c7e2	5.0868998
52	0x3f371676	0.7151865
53	0xbf82a24c	-1.0205779
54	0xc022a40b	-2.5412624
55	0xc0304519	-2.7542174
56	0xbf07a4da	-0.5298592
57	0x3fbd6596	1.4796627
58	0x3ed6ef7a	0.4197958
59	0xbf92e9f6	-1.1477649
60	0xc00f9c4a	-2.2439141
61	0x40292d70	2.6433983
62	0xc099aca6	-4.8023252
63	0xbf75eacb	-0.9606139
64	0x3fb601b9	1.4219276
65	0x3fa064ae	1.2530725
66	0xbe3eb5b4	-0.18624002
67	0x40366ef8	2.850523
68	0x40567a7a	3.3512254
69	0x402c2cc6	2.6902328
70	0xbf2a7df0	-0.66598415
71	0xbfab21d5	-1.33697
72	0x3f81810b	1.0117506
73	0xbf31f60f	-0.6951608
74	0x4000ba24	2.0113611
75	0x404693d8	3.1027737
76	0x3fc65fea	1.5498021
77	0xc0106298	-2.2560177
78	0x3ef22cd0	0.47299814
79	0xc016683a	-2.3501115
80	0x3e720d92	0.23637989
81	0x3fe5b2bc	1.794517
82	0xbfbecbef	-1.4905986
83	0x4015cfaa	2.3407998
84	0xc060ba85	-3.5113842
85	0x3f8178fc	1.0115047
86	0x3fcd08ab	1.601827
87	0x3f4cc943	0.799946
88	0xbefc4f5e	-0.49279302
89	0x40a75538	5.2291527
90	0x3ec1c550	0.3784585
91	0x3f8386d6	1.0275524
92	0x3fc90c9a	1.5706971
93	0xbd2e3d60	-0.042539
94	0x3fcd93d2	1.6060736
95	0xbff0a760	-1.8801079
96	0x4064a29e	3.5724254
97	0xc018a592	-2.3851056
98	0x3f460278	0.77347517
99	0xbfd187ac	-1.6369529
100	0xbffb81f6	-1.9649036
101	0xc014312a	-2.3155007
102	0x40095827	2.1460054
103	0xbda898a0	-0.08232236
104	0x3fcedda9	1.6161395
105	0xc000a3c9	-2.0099967
106	0xbe9c29ce	-0.30500644
107	0x3f838b2a	1.0276845
108	0xc02256c0	-2.5365448
109	0x3fa46c27	1.2845505
110	0xbe815334	-0.2525879
111	0x40249c01	2.5720217
112	0x40955e76	4.667781
113	0x4018bac5	2.3863995
114	0x40929913	4.581186
115	0xbfe7184c	-1.805429
116	0xc00343d8	-2.0510159
117	0xbfb48057	-1.4101666
118	0xc03a3e75	-2.910062
119	0xbe61da44	-0.22055918
120	0xbec9f0b0	-0.39441442
121	0x408b9218	4.3615837
122	0xbe17e220	-0.14832354
123	0xbf6a93be	-0.91631687
124	0xbf93e66e	-1.1554697
125	0xc07b4a68	-3.9264164
126	0xbf9bedb3	-1.2181915
127	0xc072bc33	-3.7927368
128	0x3ff2a31f	1.8956031
129	0x3efed19c	0.49769294
130	0x4003a05e	2.056663
131	0x405e2812	3.4711957
132	0x3fe2910b	1.7700514
133	0x3f6ab7fa	0.91686976
134	0xc00b3fd9	-2.175772
135	0xbec8fa20	-0.3925333
136	0x4027008a	2.609408
137	0x40236565	2.5530636
138	0xbfb67561	-1.4254571
139	0x402f1d50	2.736164
140	0xc0295f6c	-2.646449
141	0xbea1cdfe	-0.31602472
142	0xc0b6b53f	-5.709625
143	0xbf7dd928	-0.9915948
144	0x3fb2bcd8	1.396388
145	0x3ee5d6c2	0.4489041
146	0xc059930c	-3.3996
147	0xbfd0a6af	-1.6300868
148	0x401ca960	2.4478378
149	0x40147f5a	2.320273
150	0x3f95cacb	1.1702513
151	0x402719ec	2.6109571
152	0xbc118478	-0.008881681
153	0x404b78bf	3.1792448
154	0x3f489ee6	0.7836746
155	0x40871120	4.2208405
156	0x3ea2a640	0.31767464
157	0x4058462a	3.3792825
158	0xc09fac9a	-4.9898195
159	0xbfe4b47e	-1.7867582
160	0xbeab00e3	-0.33399114
161	0xbd2f4da0	-0.04279864
162	0xbfe57194	-1.7925286
163	0xbeed4569	-0.46342018
164	0xbfc39124	-1.5278668
165	0xc0306b3e	-2.7565455
166	0xc0a7f76f	-5.2489543
167	0x3ebabeaa	0.3647359
168	0x40454a2f	3.0826528
169	0xbf885eb4	-1.0653901
170	0xbf98b5e1	-1.1930505
171	0x4005ed07	2.092592
172	0x4043ccd6	3.0593772
173	0xbed79308	-0.42104363
174	0x3e169332	0.14704588
175	0x407fd8b3	3.9976013
176	0x3fd1c6af	1.6388758
177	0x3fd8373a	1.6891854
178	0xbf0e74fc	-0.55647254
179	0xbfcc7704	-1.5973821
180	0x40d26fff	6.5761714
181	0xc054bf89	-3.3241904
182	0x402b13c7	2.673082
183	0xbf6d6a0c	-0.9273994
184	0x40771d86	3.861177
185	0x3f569f30	0.8383665
186	0x40242680	2.5648499
187	0x4085002d	4.1562715
188	0x3e32dd6e	0.17467281
189	0xc03f9c4c	-2.9939146
190	0xbfa7be09	-1.3104869
191	0xbf73a53c	-0.95174
192	0x40302806	2.7524428
193	0xbc752180	-0.0149616
194	0x3e0348d6	0.12820753
195	0xbf813226	-1.0093429
196	0x40485ccc	3.1306639
197	0x3f9ce650	1.2257786
198	0xbe76c650	-0.24099088
199	0x3ee4a8e8	0.44660115
200	0xbf982946	-1.1887596
201	0x3f5ee569	0.870688
202	0x3f0dcda4	0.5539191
203	0xbfdf52e2	-1.7447169
204	0xbfdc406c	-1.720716
205	0x408bd738	4.370022
206	0xbdf85ea8	-0.12127429
207	0xbf915d1d	-1.1356541
208	0x40cdf087	6.4356112
209	0xbfd93dd4	-1.6971993
210	0xbfe1e68c	-1.7648482
211	0x3f882ee9	1.0639316
212	0xc006012e	-2.093822
213	0x409060c5	4.5118127
214	0x3f16f426	0.5896629
215	0xc0123f7f	-2.2851255
216	0xc0c1dfd6	-6.0585737
217	0x40914f36	4.5409193
218	0xc04261b1	-3.0372126
219	0xbf1cbc48	-0.61224794
220	0xc097461a	-4.7273073
221	0x40ebb017	7.3652453
222	0xbfc599c7	-1.5437554
223	0x4006a012	2.10352
224	0xbfa123f8	-1.2589102
225	0x400caef8	2.1981792
226	0xbf4c6e85	-0.7985614
227	0x40086256	2.131002
228	0xbf3591cb	-0.7092559
229	0x402d9324	2.7121058
230	0x3fba8fa6	1.4575088
231	0x3f6b53a2	0.9192449
232	0xc0e8ffcc	-7.281225
233	0x3ea031ef	0.31288096
234	0xbf64337c	-0.8914106
235	0xbcd1c180	-0.025604963
236	0xc070a1ab	-3.7598674
237	0x3ff589ca	1.9182675
238	0x3f27802a	0.6542994
239	0xc02e8da0	-2.727394
240	0xbfb4493e	-1.4084852
241	0x40a44313	5.133188
242	0xbdc45ed4	-0.095883995
243	0xbd210d00	-0.03931904
244	0xbfa2b612	-1.2711813
245	0xbf8724fb	-1.055816
246	0xbed39818	-0.41326976
247	0xbf861df8	-1.0477896
248	0x402f92e1	2.7433398
249	0xc01cc9eb	-2.449824
250	0x3e73bd0c	0.23802584
251	0x4007cc67	2.1218507
252	0xbffedee4	-1.9911771
253	0x4046d7c0	3.1069183
254	0x3f9f6ff6	1.2456043
255	0xbf5920ac	-0.8481548

2.bias f4 [64]
0	0xc04484dc	-3.070609
1	0x3ef3d190	0.4762082
2	0xbf86061a	-1.0470612
3	0x409aadc0	4.8337097
4	0xbff4637e	-1.9092863
5	0x3ec69bc8	0.38790727
6	0x3fa63fa7	1.2988175
7	0xbf334268	-0.700232
8	0x404c57a0	3.1928482
9	0xc00eb1e4	-2.2296076
10	0xbf954a9a	-1.1663392
11	0xbfea145c	-1.8287463
12	0x40112f42	2.2685094
13	0xbfb6ea5f	-1.4290274
14	0x3fe5d9ac	1.7957053
15	0x3f683320	0.9070301
16	0x401286c4	2.2894754
17	0xbfba2130	-1.4541378
18	0x3fc24e32	1.5180113
19	0x408f6cf5	4.4820504
20	0x40055c06	2.0837417
21	0xc0cb80c0	-6.3594666
22	0xbfed040a	-1.8516858
23	0x3de9be90	0.114133
24	0x3fb3e8ce	1.4055421
25	0xc018ee56	-2.3895469
26	0xbfabfcce	-1.3436525
27	0x4008bda9	2.136576
28	0xbfddd812	-1.7331564
29	0xc00343fb	-2.0510242
30	0xc02693cc	-2.6027708
31	0x4016ea74	2.35806
32	0xbfbb7e54	-1.4647927
33	0xbfd976b2	-1.6989348
34	0xbfc3fd3a	-1.5311654
35	0x40220a76	2.5318885
36	0xc04db468	-3.2141361
37	0xbfb8622d	-1.4404961
38	0x401ec499	2.4807494
39	0xc0094fee	-2.1455035
40	0xbf3c6859	-0.7359672
41	0xbe71d910	-0.23617959
42	0x3eaf8d87	0.34287664
43	0x3ff43eb7	1.9081639
44	0xbfbb6a8c	-1.464189
45	0xc0399d7c	-2.900237
46	0xc008b46c	-2.136012
47	0x406d1654	3.7044878
48	0x3edd2edc	0.43199813
49	0x403b1fd8	2.9238186
50	0x407053a5	3.7551053
51	0x40591826	3.392099
52	0x3f32ae85	0.69797546
53	0xbf86986c	-1.0515265
54	0x40a13eae	5.0389013
55	0xbf0fc8fe	-0.56166065
56	0xc0b62a24	-5.692644
57	0xbd63f580	-0.05565405
58	0xc033d780	-2.810028
59	0xbe504eec	-0.20342606
60	0xbee43cc5	-0.44577613
61	0x3e1b1264	0.15143734
62	0xbf8cb278	-1.0991964
63	0xbf81cdef	-1.0140971

4.weight f4 [5, 64]
0	0x3fbcaec2	1.4740832
1	0x3ebe8324	0.37209427
2	0xbf9d7c6d	-1.2303597
3	0x3eef0a18	0.46687388
4	0xbf83a3b3	-1.0284332
5	0xbf1e1a28	-0.6175866
6	0xc08caf3d	-4.3963914
7	0xbea88c85	-0.32919708
8	0xc00d1bd3	-2.2048233
9	0xbd6a4200	-0.05719185
10	0xc0a4efd6	-5.154277
11	0x40845efa	4.136594
12	0x3fe885ac	1.8165793
13	0x4080332e	4.0062475
14	0xc0449c0f	-3.072025
15	0xc08e5e32	-4.4489985
16	0xbf9f5ea7	-1.2450761
17	0xbf8bfc90	-1.0936451
18	0xc081d6c6	-4.0574675
19	0x3ef84754	0.4849192
20	0x3de3c288	0.11121088
21	0x4031f97f	2.780853
22	0xbfdbf549	-1.718423
23	0xc0bc99d8	-5.8937798
24	0xc0542812	-3.3149457
25	0x406c897e	3.6958919
26	0x409a9ec3	4.83188
27	0x3da54e90	0.08071625
28	0xbf3dc226	-0.7412437
29	0x40a79b8a	5.2377367
30	0xbfd71549	-1.6803371
31	0x3ff2ac14	1.8958764
32	0x3ed76bae	0.4207434
33	0x400edb6c	2.2321424
34	0x4010a740	2.2602081
35	0xc00912e2	-2.1417775
36	0x40153acb	2.3317134
37	0x3f2a0377	0.66411537
38	0x3f10d779	0.56578785
39	0xbfa0500f	-1.2524432
40	0x3f9c00f8	1.2187796
41	0x3fc8841d	1.5665318
42	0xbff5f986	-1.9216774
43	0xbf2a7588	-0.6658559
44	0xc001b2b0	-2.0265312
45	0x3f4ec542	0.8076974
46	0xbf8c8fbc	-1.0981364
47	0x4051b970	3.2769432
48	0xc00ca7e9	-2.1977484
49	0x3f615880	0.88025665
50	0xc061465f	-3.51992
51	0x3fd1a412	1.6378195
52	0x3ec96925	0.3933803
53	0x404cc7ef	3.199703
54	0xc08ee38e	-4.4652777
55	0xbe4027b0	-0.1876514
56	0xc003b69b	-2.0580204
57	0x3ed2b997	0.4115722
58	0xc012435b	-2.285361
59	0xbf42f589	-0.76155907
60	0xbfbbea5c	-1.4680896
61	0x3fa60fc0	1.2973557
62	0xbebe2b9f	-0.37142655
63	0x3f82301f	1.0170935
64	0xbee2ca7c	-0.44295108
65	0xbfdb328b	-1.71248
66	0x40b02dd1	5.505593
67	0x3febeb6c	1.843122
68	0x3e695464	0.22786099
69	0x4015cb97	2.3405511
70	0x402a3307	2.6593645
71	0x3f9de5f6	1.2335804
72	0x3ff01d8e	1.8759019
73	0x3f6f550e	0.9348916
74	0x40544d08	3.3172016
75	0x3ea39242	0.31947523
76	0x40374404	2.8635263
77	0x3f330990	0.69936466
78	0xbf814b27	-1.010106
79	0xbfe116ec	-1.758512
80	0x4005fdde	2.0936198
81	0x4015b1d7	2.3389795
82	0x3f998fcb	1.1997007
83	0x3f8f9870	1.1218395
84	0xc0157937	-2.3355234
85	0xbfb0e024	-1.3818402
86	0xbdb24fc0	-0.08706617
87	0x401f715a	2.4912934
88	0x4090e79e	4.5282736
89	0x409a0c83	4.8140273
90	0x3f834d61	1.0257989
91	0x404d36b2	3.2064633
92	0xc0019974	-2.024991
93	0x3ffccf40	1.9750748
94	0x4017cce3	2.3718803
95	0x3eb0e754	0.3455149
96	0x40e605ee	7.188224
97	0x3ff1368d	1.8844773
98	0x3facd41a	1.3502228
99	0xc03684bb	-2.8518512
100	0xbfa10caf	-1.2581996
101	0xbf370e06	-0.71505773
102	0xc084f380	-4.154724
103	0xc01dbabe	-2.4645228
104	0xbfc3f5c4	-1.5309377
105	0xbfe5d35a	-1.7955124
106	0xc0032567	-2.0491579
107	0x3a872e00	0.0010313392
108	0x3f551496	0.83234537
109	0x4028aa2c	2.6353865
110	0xbfcb848b	-1.5899824
111	0xbeda3c02	-0.42623907
112	0x3f1b5c11	0.6068736
113	0x3f7001ca	0.9375273
114	0x3f1cb170	0.6120825
115	0xc0212a84	-2.51822
116	0xbf50b13b	-0.8152043
117	0x3ee87012	0.45398003
118	0x3f347ee1	0.705061
119	0x3ff82746	1.9386985
120	0xc0209e37	-2.5096567
121	0xbfffe4f6	-1.9991748
122	0x3fadc7c4	1.3576589
123	0xbec7fd04	-0.39060223
124	0xbdff3f10	-0.124632
125	0x3fd08664	1.6291013
126	0xbf1f3468	-0.6218934
127	0x4025b23c	2.5890036
128	0x3f49cd28	0.7882867
129	0xc0af2678	-5.473446
130	0x400dee15	2.2176564
131	0xbfc27eb8	-1.5194921
132	0xbf82a642	-1.0206988
133	0x3f5c20ef	0.8598775
134	0x400f3948	2.2378712
135	0xc084414d	-4.1329713
136	0x3df8ce90	0.12148774
137	0x3f0f5682	0.55991375
138	0x3fcc8504	1.5978093
139	0x3f1955f4	0.5989678
140	0x3fef317d	1.8686978
141	0x3f4ee0a4	0.80811524
142	0x403a625b	2.9122531
143	0x3f314cc3	0.69257754
144	0x3ef94193	0.48682842
145	0xc013fc23	-2.3122642
146	0xc04cd586	-3.2005324
147	0x3f1de7be	0.61681736
148	0xc0a24e5f	-5.072067
149	0xc00cf0df	-2.2022016
150	0xc002d440	-2.0442047
151	0xbf98c302	-1.1934512
152	0x40c6337c	6.1937847
153	0xc012ebb1	-2.2956355
154	0xbf57f1bf	-0.8435325
155	0x3fec6cf1	1.8470746
156	0xbf83dfb8	-1.0302649
157	0xbffc33fe	-1.9703367
158	0xc045c0b0	-3.0898857
159	0x3fad06f4	1.3517747
160	0xbee85ce8	-0.45383382
161	0x3ee88da6	0.4542057
162	0x3f238c78	0.63886213
163	0xc049809d	-3.148475
164	0x3d6db7c0	0.058036566
165	0xbfecb4e0	-1.8492699
166	0xc0d6c428	-6.711445
167	0xc08107e7	-4.0322146
168	0x40586569	3.3811896
169	0x3f080f4b	0.53148335
170	0x3f737446	0.95099294
171	0xbed4bbb9	-0.4154947
172	0x3f06899f	0.52553743
173	0xbf885025	-1.0649458
174	0x400c9698	2.1966915
175	0xbd077a60	-0.03307569
176	0xbf970ce6	-1.1800811
177	0xc0564570	-3.3479881
178	0x40286ca9	2.631632
179	0x3f35fb78	0.71086836
180	0x400f6421	2.2404864
181	0x401cbbdf	2.4489667
182	0xc042195e	-3.0327983
183	0xc018f084	-2.38968
184	0xc00c4176	-2.1914954
185	0xbffd928a	-1.9810345
186	0x3fb5403f	1.4160231
187	0xbff808e2	-1.9377711
188	0x3ebcb0b4	0.36853564
189	0xc00593f6	-2.0871558
190	0x3fea5828	1.8308153
191	0x3f2f4e9e	0.68479335
192	0x3f0285a0	0.50985146
193	0x402c0814	2.687993
194	0xbfca030b	-1.5782179
195	0xbd7467a0	-0.059669137
196	0xbf19fee5	-0.60154563
197	0xbf3ca88c	-0.7369468
198	0x40385eda	2.8807893
199	0x40802401	4.004395
200	0xc0178bbc	-2.3679037
201	0xc00934a0	-2.143837
202	0xc0174809	-2.3637717
203	0xc04adc41	-3.1696932
204	0xbe3c9990	-0.18417954
205	0xc01510b4	-2.3291445
206	0xbf699f20	-0.9125843
207	0xc093f05c	-4.6230907
208	0xbf85d663	-1.0456051
209	0xc08a6271	-4.324517
210	0x3ea140aa	0.31494647
211	0xc08b3e69	-4.3513684
212	0x401c3c15	2.441167
213	0x3e09f018	0.13470495
214	0x406fff56	3.7499595
215	0xc0690049	-3.6406424
216	0x4077a2c4	3.8693094
217	0x4056787a	3.3511033
218	0x3ff1f02f	1.8901423
219	0xbf8894fa	-1.0670464
220	0xbf1c2544	-0.6099436
221	0x3f9eb5c0	1.2399216
222	0xc04a5804	-3.161622
223	0x400bb29e	2.182777
224	0xbdb5aac8	-0.088704646
225	0xbecf72d2	-0.40517288
226	0xbe91ff70	-0.28515196
227	0x3fc15c60	1.5106316
228	0x3ee8518f	0.45374724
229	0xbf61a5a6	-0.88143384
230	0x3fcad9ea	1.5847752
231	0x3f7143ec	0.94244266
232	0x400ef550	2.2337227
233	0xc082115f	-4.0646205
234	0xbf8ee502	-1.1163638
235	0x3fc80e5e	1.5629385
236	0x409ffbf4	4.999506
237	0x4019a4c1	2.4006808
238	0xc098c04e	-4.7734747
239	0x3f639908	0.8890538
240	0x402ce2b0	2.701336
241	0x3fff6a62	1.995434
242	0xbd889020	-0.06668115
243	0xbf3c77b5	-0.7362016
244	0xbf40f3bc	-0.7537191
245	0xc084d00a	-4.1503954
246	0xc04694c2	-3.1028295
247	0xc02eae5e	-2.7293925
248	0xc03c06e8	-2.9379215
249	0xbd91cfb0	-0.07119691
250	0xc01d3d37	-2.4568613
251	0xbf06cf98	-0.5266051
252	0xbee28d4f	-0.44248435
253	0xbf9ff34c	-1.2496123
254	0x4073a400	3.8068848
255	0x3fa92bea	1.3216527

4.bias f4 [5]
0	0x3e8116e3	0.25212774
1	0x3f7a81c6	0.9785427
2	0xbf89f214	-1.0777001
3	0x3f2b54d9	0.6692634
4	0xc008049f	-2.125282
