demo/experiments/genetic_algorithm/ga_experiment_2021_02_12_160407/problem_48.model (torch, 26149 bytes, 6 tensors)

0.weight f4 [64, 22]
000000 29 47 5c 40 2f c7 a3 bf dd fc 32 3f fe 70 4a 40
       3.4418433 -1.2795161 0.6991709 3.1631465
000010 ee 41 2e c0 c0 01 a1 bf 62 02 d3 3f 70 b5 ab 3e
       -2.722774 -1.2578659 1.6485102 0.33536863
000020 84 e6 fa 3f d0 a9 bf be cd 82 a3 bf 94 0c b8 3f
       1.9601598 -0.37434244 -1.2774292 1.4378839
000030 ad fb b4 bf 3c 7e 0e 3f 30 d2 bb 3f c0 8a c3 be
       -1.4139305 0.5566137 1.4673519 -0.38191795
000040 0d 33 cb 3e 54 a5 10 3f 76 b7 08 c0 3a 89 f7 3f
       0.39687386 0.5650227 -2.1361976 1.9338753
000050 d9 a4 ac bf 80 32 d0 bf 96 58 ea bf a2 65 ae 3e
       -1.3487808 -1.6265411 -1.8308284 0.34061915
000060 5a 23 2e bf 83 5c 1e 3f b0 d2 f7 3f e5 27 17 c0
       -0.6802269 0.6185991 1.9361172 -2.36181
000070 82 73 41 3d 46 27 b7 3f b9 2d 26 c0 c8 d3 ac 3d
       0.047229297 1.430886 -2.5965407 0.084388316
000080 fb 2a da 40 ca 28 39 3f 09 1a e7 3f 22 3c fe be
       6.8177466 0.72327864 1.805482 -0.49655253
000090 5e 1e 0d bf a8 11 77 3d 2d cd 0f 40 5f 5b 6c c0
       -0.5512446 0.060319573 2.246898 -3.6930768
0000a0 15 35 4f 3f 6b f9 b2 3f 8b e1 0b 40 c8 8d 83 40
       0.8094037 1.3982366 2.185641 4.1110573
0000b0 91 25 cf bf 52 26 fb bf cf 75 cd 3e 86 25 71 40
       -1.6183339 -1.962107 0.40128943 3.7679152
0000c0 7a 30 f3 be dc 7d c6 3d 3b 8b b2 bf 77 05 0c 3f
       -0.47497922 0.096919745 -1.394874 0.5469584
0000d0 71 64 99 40 99 66 19 c0 ac fa 4e 40 66 ef 6c c0
       4.793511 -2.396887 3.2340498 -3.7021117
0000e0 90 e2 26 3e 2c bf b5 c0 e2 c6 db 3f 54 cc e2 be
       0.16297364 -5.6795864 1.7170069 -0.44296515
0000f0 27 de a2 40 fb 37 01 be ab 1b 83 bf 18 b9 e8 bf
       5.089618 -0.12619011 -1.0242819 -1.8181486
000100 0e 7e 11 c0 75 f2 1c c0 c9 b4 a5 3f c8 52 43 40
       -2.2733188 -2.4522984 1.2945796 3.0519276
000110 c0 85 25 40 1b 82 3b 40 cc e9 ab 3f a7 45 61 40
       2.5862885 2.929816 1.3430724 3.5198762
000120 af e6 60 3f 18 c9 e3 bd 3c 35 38 be d2 68 54 3e
       0.87851995 -0.1112234 -0.17989057 0.20743111
000130 94 f5 09 bf 0b 79 61 bf 9f d8 64 bf 81 3d da bf
       -0.5389035 -0.8807532 -0.8939304 -1.705002
000140 34 9e b4 3f d0 01 18 3f 7b 3d b6 bf ad 50 97 c0
       1.411078 0.59377766 -1.4237512 -4.728598
000150 8b 82 37 c0 00 e1 1e 40 dc a1 e7 bf e0 49 51 be
       -2.8673427 2.482483 -1.809627 -0.20438337
000160 4b 3c dc 3f b6 bd 52 c0 ae 6c 1e bf 8b be 9f be
       1.72059 -3.292829 -0.6188458 -0.3120006
000170 95 51 34 40 b2 19 3b 3f 02 47 a3 3f b3 1d 33 40
       2.8174794 0.7308608 1.2756045 2.7986877
000180 b6 e0 38 40 a4 dc 48 40 fc 84 ec be fd a0 d7 3f
       2.8887153 3.1384668 -0.4619521 1.6846005
000190 ac b3 44 bf aa e6 ad 3f 2b b2 8a 40 a2 46 7d bf
       -0.7683666 1.3586018 4.334249 -0.989359
0001a0 d4 9e d5 be a2 55 01 be 5a e7 22 40 f0 be bc 3e
       -0.4172274 -0.12630323 2.5453706 0.36864424
0001b0 56 4a cd 3e e1 1e 57 3f 56 db 26 c0 47 9d 29 40
       0.40095776 0.8403149 -2.6071372 2.6502244
0001c0 88 c9 b4 be 70 31 44 3e ac 28 d1 be 36 62 d2 bf
       -0.35310006 0.19159484 -0.40851343 -1.6436222
0001d0 b8 be 7a 40 ff 4a 83 bf db 47 f8 3f b8 86 5d 40
       3.9178905 -1.0257262 1.9396929 3.4613476
0001e0 b2 49 e3 bf 98 c8 17 bf a3 92 97 c0 99 64 75 c0
       -1.7756865 -0.59290457 -4.73665 -3.834265
0001f0 8a 14 90 bf 46 63 9a 40 a5 ce 8c 40 6a 97 9d bf
       -1.1256268 4.8246183 4.400225 -1.2311833
000200 fc 0c d8 3f 18 95 3f 40 f4 d4 4d 3f 92 56 84 3e
       1.6878963 2.993475 0.80403066 0.25847298
000210 8c 1c 14 c0 31 d2 27 c0 96 2a 00 40 52 20 89 bf
       -2.3142424 -2.622204 2.0025992 -1.0712988
000220 19 c9 8f c0 39 6e a9 bf e2 27 0b c0 ab 33 a1 bf
       -4.493298 -1.3236762 -2.1743093 -1.2593893
000230 bf a9 2b bf c5 af 76 c0 3d 81 d5 3f b8 56 af bf
       -0.67055887 -3.8544781 1.6680065 -1.369834
000240 bb ef 12 bf e0 0b 1f 3c a6 4f ff 3f e5 77 c9 bf
       -0.5739705 0.009707421 1.9946182 -1.5739714
000250 99 ef 9d 40 6c 60 b4 bd c8 35 1c c0 41 9d 4a c0
       4.9354978 -0.088074535 -2.4407825 -3.165848
000260 20 7c c0 3f 09 0c 8c 3f c5 d4 98 3f 67 27 9c bf
       1.503788 1.0941173 1.1939932 -1.2199525
000270 d2 82 ec bf 86 07 20 40 2d 5d 57 40 7c a8 cc 3f
       -1.8477423 2.5004592 3.365062 1.5988917
000280 13 59 27 c0 f8 de 5d 3e e4 21 56 3f c8 1f a2 bf
       -2.6148117 0.21667087 0.83645463 -1.2665949
000290 e8 c8 72 3f 76 0f 84 be 0d 8b 19 c0 f0 c1 cd bf
       0.9483781 -0.25793046 -2.399112 -1.607481
0002a0 83 43 8f c0 54 78 2e bf b3 18 81 40 d6 31 07 3f
       -4.476991 -0.68152356 4.034265 0.5281042
0002b0 ac bd 85 3e 89 d4 b0 3f 40 40 0e c0 76 58 2d be
       0.2612127 1.381486 -2.2226715 -0.16928276
0002c0 18 1e ea bd a4 5f da bf 66 c3 1a bf 6c c8 2c c0
       -0.11431521 -1.7060437 -0.60454404 -2.6997328
0002d0 84 06 1e 3f f0 97 78 3e e6 0b 74 3f 40 4f a6 bd
       0.6172869 0.2427671 0.95330656 -0.081205845
0002e0 c4 41 cf bf 90 77 30 c0 d0 fc 16 bf 10 0a c4 bf
       -1.6191945 -2.7572975 -0.5897951 -1.5315571
0002f0 9e fe e6 3f 58 d1 cd bd a8 ee 3c c0 00 21 64 bc
       1.8046453 -0.10049695 -2.9520664 -0.013923883
000300 12 f8 10 bf 95 e3 2b bf b0 cd 23 bf 7f fb 0d 40
       -0.56628525 -0.6714414 -0.6398573 2.218475
000310 8b ca 30 3f 5b b2 5f be ac 45 22 c0 9c a1 0a 40
       0.69059056 -0.21845381 -2.5355024 2.1661139
000320 ae a3 44 3f be e3 85 bf da 86 14 bf f6 de 5d 3e
       0.76812255 -1.0460126 -0.5801827 0.21667084
000330 4c f4 15 c0 1c c1 7c 3f 70 a7 ea 3d 80 cd c4 be
       -2.3430357 0.9873216 0.114577174 -0.38438034
000340 f8 14 01 3d 55 a4 30 40 fc cc 1f 40 06 d4 08 c0
       0.031514138 2.76003 2.4968863 -2.137941
000350 da 39 1b 40 b2 90 7c 40 25 c8 95 be ae 76 3c c0
       2.425406 3.9463315 -0.2925426 -2.9447436
000360 6d 8f 43 bf d9 ce 8f 40 ba 36 43 40 60 b0 39 bf
       -0.76390725 4.494 3.0502152 -0.7253475
000370 f5 5a 4e c0 b2 44 cd 3f 64 79 ba bf 6e 6b 8e 3f
       -3.2243016 1.6036589 -1.4568295 1.1126535
000380 25 2f 5b bf b2 b5 05 c0 a2 f0 19 40 ce bb c4 bf
       -0.8561881 -2.0892148 2.405312 -1.5369813
000390 78 8d 61 c0 da 9f 7d 3f f9 f6 bd 3f ed 64 13 c0
       -3.5242596 0.9907204 1.4840995 -2.303035
0003a0 36 24 e2 bf b0 94 31 c0 b3 3e cc bf 79 a7 2b c0
       -1.7667301 -2.7747002 -1.5956634 -2.6820967
0003b0 f0 80 17 bf 10 82 e5 bf 74 47 50 bf b6 50 66 40
       -0.5918112 -1.7930317 -0.8135903 3.5986762
0003c0 e0 f4 42 c0 0b 8e 17 3f fe 67 2c 3d b0 68 72 3e
       -3.046196 0.59201115 0.042091362 0.23672748
0003d0 94 a3 32 c0 0a 83 54 40 7c b1 82 bf 8d 59 4f c0
       -2.791234 3.320498 -1.0210414 -3.2398407
0003e0 48 9f 88 3d b0 e5 97 3e 11 26 e1 3f e6 89 2c c0
       0.066710055 0.29667425 1.7589742 -2.6959167
0003f0 fb cd 1b 3f 1c e8 ad bf b5 6e a4 bf 19 67 ef bf
       0.60861176 -1.3586459 -1.2846285 -1.8703338

0.bias f4 [64]
000000 db 95 41 40 0a 3d c8 bf 51 d9 d2 3f 68 3b 11 40
       3.0247715 -1.5643628 1.647257 2.2692509
000010 60 44 b4 3e aa b4 6f 3f 25 37 36 40 74 c1 a0 c0
       0.35208416 0.93635046 2.8471158 -5.023615
000020 e0 3e 31 40 af 42 6d 3f fe 17 ce 3f d0 b1 1d bf
       2.7694626 0.92679876 1.6101072 -0.61599445
000030 52 a8 0c bf 22 2b ff 3f 8e a7 44 40 b0 74 80 bd
       -0.54944336 1.9935038 3.0727267 -0.062722564
000040 e4 c3 73 40 ab d8 49 bf ed 6a 89 c0 a4 8b 4a 40
       3.8088312 -0.78846234 -4.2943025 3.164773
000050 d7 33 ad 3f 78 57 06 40 20 46 85 40 b2 f5 86 bf
       1.3531445 2.0990887 4.16481 -1.054373
000060 49 00 47 40 76 65 84 be 9b 74 3b c0 64 75 ae be
       3.1093924 -0.2585866 -2.928992 -0.34073937
000070 c9 81 e9 3f d9 32 d8 be 70 3d 56 bf 53 11 b7 3f
       1.8242732 -0.42226294 -0.83687496 1.4302162
000080 63 9f c1 bf ae db ca bf b2 10 91 c0 46 b4 29 3f
       -1.5126766 -1.5848291 -4.533288 0.662907
000090 7e 2f 55 40 e4 3b 74 3e 4e 0d db 3f 52 8f b3 bf
       3.3310237 0.23850971 1.7113435 -1.4028113
0000a0 60 ce 68 3c d3 63 8c 40 a8 7e c3 be cf 79 91 c0
       0.01420936 4.3871856 -0.3818257 -4.546119
0000b0 27 54 8d c0 da 3d 36 c0 0a 2e e8 bf c4 06 5b c0
       -4.4165225 -2.8475251 -1.813905 -3.422288
0000c0 dc 86 6f 3f 54 af 27 3f a6 6c 54 3e 01 74 8c bf
       0.93565154 0.65501904 0.20744571 -1.0972902
0000d0 45 86 f5 3e ae 38 2c 3f 3e 85 af 3f 58 f0 7d c0
       0.47954002 0.67273986 1.3712537 -3.9677944
0000e0 4b 9f 73 bf 67 36 b2 3f b4 68 af 40 ae e8 97 bf
       -0.95164937 1.3922852 5.481531 -1.1867883
0000f0 20 d7 5e c0 ec 7f 7c bd 6e 5e 80 3f b5 4c 82 bf
       -3.4818802 -0.061645433 1.0028818 -1.0179659

2.weight f4 [64, 64]
000000 f8 08 87 bd 2b 05 0f c0 e4 31 0b be 74 4a cc bf
       -0.065935075 -2.2346904 -0.1359325 -1.5960221
000010 1a 23 8c bf ce 7b 42 c0 77 51 80 40 90 5d d7 bf
       -1.0948212 -3.0388064 4.0099444 -1.6825428
000020 36 f5 80 bf f2 44 ac 3f 0e e3 92 bf d5 53 27 bf
       -1.0074832 1.345854 -1.1475542 -0.6536229
000030 d3 cc 08 40 0e bd 12 bf 92 37 d1 bf 96 16 03 40
       2.1375015 -0.57319725 -1.6345084 2.0482535
000040 04 ea 8a 3e 7c 5c 57 40 dc 7d 08 40 7d fe 8d 3e
       0.27131665 3.3650198 2.1326818 0.27733222
000050 4f 54 83 40 ac dd e6 3d ac 5d a5 c0 de c3 78 3f
       4.1040416 0.11272749 -5.1676846 0.9717387
000060 45 91 86 bf 16 0a 6d bf 94 66 83 3f 0c 4f e2 3e
       -1.0513083 -0.92593515 1.0265679 0.44200933
000070 16 bd eb 3f 49 34 d0 3f 32 ca db 40 b6 d9 14 c0
       1.841708 1.6265956 6.868432 -2.325788
000080 4c 67 0e c0 97 79 d8 bf 6e 67 46 bf 49 91 85 40
       -2.2250547 -1.6912106 -0.7750157 4.173985
000090 ac 16 16 bf c6 c2 a2 3f 3e 24 0d 40 ac e3 82 c0
       -0.58628345 1.271569 2.205337 -4.090292
0000a0 e0 2a 81 c0 08 a3 a6 bf a2 03 20 40 16 91 6f 40
       -4.036484 -1.3018503 2.5002217 3.7432303
0000b0 46 e7 97 3f 94 6a 19 c0 4e 9e e6 bd 17 69 ec 3f
       1.1867454 -2.39713 -0.11260663 1.8469571
0000c0 71 d4 06 c0 5a 76 50 bf 1a 7c 06 c0 14 ac cb 3f
       -2.1067164 -0.8143059 -2.1013246 1.5911889
0000d0 e9 0c 0b c0 76 6d d7 3f 1a be 2d c0 60 a1 f8 3c
       -2.172663 1.683028 -2.7147279 0.030350387
0000e0 30 b6 97 3f a0 37 a7 bd e4 e7 5a bf 52 9d 7e bf
       1.1852474 -0.081649065 -0.85510087 -0.994588
0000f0 3c 05 d5 bf e0 0f a5 3f dc 1d 11 c0 6c 5f c2 bf
       -1.6642222 1.289547 -2.2674475 -1.518537
000100 3c c0 2b 40 fc 76 1d c0 e7 81 81 3f 0b 01 32 3f
       2.683608 -2.4603872 1.0117768 0.6953284
000110 70 b7 b9 3d 80 73 d4 bd 44 cd 4d 3f ce c2 87 3e
       0.09068191 -0.103735924 0.80391335 0.26515812
000120 6a bf 14 c0 c8 8b ef be a5 d5 27 bf 30 32 2d c0
       -2.324183 -0.46786332 -0.6556037 -2.7061882
000130 07 5b b7 40 b8 fe 9c 3f 39 48 f7 bf a6 7b 3f 40
       5.7298617 1.2265234 -1.9318916 2.991922
000140 c0 70 e0 bf 77 22 ec 3f d2 a5 2b c0 66 5b f3 3f
       -1.7534409 1.8448018 -2.6819959 1.9012268
000150 9f 90 0c 40 10 65 09 3f 63 3f 92 40 30 a9 44 bf
       2.196327 0.53669834 4.5702376 -0.7682066
000160 6a 8a 07 3f 6c ef 45 40 30 99 4c 3d 6c 2e 81 3f
       0.5294558 3.0927382 0.04995078 1.0092292
000170 28 4b 82 bf b4 61 b2 3e 23 ef f7 bf 06 dc 80 c0
       -1.0179186 0.34840167 -1.9369854 -4.0268583
000180 65 d5 eb 3f 78 6a 50 3d 7e cf b0 bf fe f3 59 40
       1.8424498 0.050882787 -1.3813322 3.405517
000190 fa 56 cc bf 28 36 73 bf 28 5e 48 3d 61 55 5e 40
       -1.5964043 -0.9500451 0.04891792 3.473961
0001a0 78 f2 86 bf a8 83 81 bf 3a f2 20 c0 6e 58 af be
       -1.0542746 -1.0118303 -2.5147843 -0.34247154
0001b0 6c 36 1c bf 4b 00 b6 40 00 77 0a 3f fc a1 45 c0
       -0.6102054 5.687536 0.5408783 -3.0880117
0001c0 49 12 36 c0 0c 01 9b 3f 57 c6 18 3f 43 3d 6f be
       -2.844866 1.2109694 0.5967764 -0.23363213
0001d0 cd d0 b8 40 d6 be e7 3f 4c fc 69 40 d7 8c bf bf
       5.7754884 1.8105114 3.656024 -1.4964856
0001e0 be 6d e1 bf bc 97 eb 3f 71 9e 00 c0 dd 06 86 3f
       -1.7611616 1.8405681 -2.0096705 1.0470845
0001f0 76 85 c3 be bc 42 10 40 9c fb b2 3e 0b 43 94 3f
       -0.3818776 2.2540731 0.34957588 1.158296
000200 8b a3 3e 40 07 02 2f c0 bd 10 4e 40 f6 d2 69 3f
       2.9787319 -2.7344987 3.2197716 0.91337526
000210 44 f8 3a 40 ed b8 55 40 ec 5f f3 c0 94 8c 37 40
       2.921403 3.339412 -7.605459 2.8679552
000220 ec c9 5a 40 1c ab bf be a3 0e 4d 40 bb 6e 3a c0
       3.4185743 -0.37435234 3.2040184 -2.9130085
000230 89 66 22 40 5a 34 f9 bf 4d db 3d 40 f3 2f f8 3f
       2.5375082 -1.9469101 2.96651 1.9389633
000240 24 17 05 40 7e 05 43 c0 be 7c cc 3e 33 36 b5 3f
       2.0795374 -3.0472102 0.3993892 1.4157165
000250 4a 67 37 3f 17 9d 5d bf c4 8b a9 bf ea e7 96 40
       0.7164198 -0.86567825 -1.3245778 4.71581
000260 48 45 12 c0 91 a3 03 3f 40 17 81 c0 3e 4e 52 3f
       -2.2854786 0.5142146 -4.034088 0.8215064
000270 df 6b 2e 40 b4 9f 2e c0 80 23 95 c0 9c e0 84 be
       2.725334 -2.7284975 -4.6605835 -0.25952613
000280 d0 7c ea 3e 00 11 20 c0 99 59 cf be 29 0f 1a 3f
       0.4579835 -2.5010376 -0.40498045 0.6017938
000290 2b 9c cc bf 00 4d 43 bc 0d eb 89 bf 80 5f 30 3f
       -1.5985159 -0.011920214 -1.0774857 0.6889572
0002a0 5d bf aa c0 10 4e 40 be 4f af 19 c0 21 ce d6 3f
       -5.33586 -0.18779778 -2.401325 1.6781656
0002b0 c0 bf 0e bd 98 a4 d3 bf c2 00 a5 bf 10 ce 06 bf
       -0.034850836 -1.6534605 -1.2890856 -0.52658176
0002c0 ab e9 12 40 d8 50 e9 3d 70 a6 11 40 17 c3 32 3f
       2.295512 0.11392373 2.2757835 0.69828933
0002d0 96 07 7c c0 c8 1f 80 c0 40 f1 10 3d 2a ba 2e 3e
       -3.937963 -4.0038795 0.035386324 0.17063203
0002e0 0c 44 ca 3e dd d7 ce bf 88 82 aa bd d0 21 96 3f
       0.3950504 -1.6159626 -0.08325678 1.1729069
0002f0 e6 ef ab be 27 f9 30 40 0a 97 1b 40 6c da ae bf
       -0.33581465 2.765207 2.4310937 -1.3660407
000300 c9 3f 08 c0 fc 2f 24 3f 1e 81 5d 3f fe 0a 3b 40
       -2.1288931 0.6413572 0.8652514 2.922546
000310 30 d5 ea 3f de 8c 35 bf 4a 18 56 3e c8 b7 41 40
       1.834631 -0.7091807 0.20907703 3.026842
000320 c7 24 4c 3f 70 1a 92 3f 5a 9e af 40 b2 e6 41 c0
       0.7974362 1.1414318 5.48808 -3.0297055
000330 cf 3f 2b c0 10 34 db 3d 0a a1 e7 bf cd ea a2 3e
       -2.6757696 0.107032895 -1.809602 0.31819764
000340 7c 09 d9 bf 17 1e d2 3f 52 ae af bf 00 ea c7 3f
       -1.6956019 1.6415433 -1.3725073 1.5618286
000350 be aa 77 bf 0c 3b 18 bf 0a 09 0f c0 4e c2 24 40
       -0.96744907 -0.594651 -2.2349267 2.5743594
000360 1d 35 b4 3e d6 b2 25 40 12 ea 64 40 6a 55 45 bf
       0.35196772 2.5890403 3.5767865 -0.77083457
000370 97 4b cf 3f 46 7e 07 c0 4c 76 99 3f 72 c4 74 bf
       1.6194943 -2.117082 1.1989226 -0.9561225
000380 fe d3 d1 3f d6 e8 02 c0 34 ef 78 be e0 e1 c3 3f
       1.639282 -2.0454612 -0.24309999 1.5303307
000390 8b 06 11 3f 10 2b 11 bf 90 d3 0d be 63 4d 26 c0
       0.5665061 -0.56706333 -0.13850236 -2.5984733
0003a0 7a 4c 5c c0 30 b4 1f 3c 98 58 93 be ac fe 25 c0
       -3.4421678 0.00974755 -0.2877853 -2.593669
0003b0 14 ca d8 3f 24 03 1b 3f ce f9 1c 40 3b 08 04 40
       1.6936669 0.6055167 2.4527469 2.0630023
0003c0 9b 1b 60 3f 84 e6 ce bf 9c 9e 19 c0 b3 91 20 bf
       0.8754212 -1.6164098 -2.4003057 -0.6272232
0003d0 b4 12 8c bf 64 fc 9f 3f 5f 2c 30 40 52 e5 d1 bf
       -1.0943208 1.2498899 2.7527082 -1.6398108
0003e0 0d 06 36 c0 1a 15 63 c0 ee ad a9 bf 1c f0 be bf
       -2.8441193 -3.548163 -1.3256204 -1.4917026
0003f0 02 69 e4 3e de 3a ae 3f de e5 2d c0 75 a0 0c 40
       0.44611365 1.3611715 -2.717155 2.1972935

2.bias f4 [64]
000000 f8 2e d1 40 d7 d0 2e c0 b8 f1 7a bf 50 23 1e 40
       6.5369835 -2.7314966 -0.98025084 2.4709053
000010 3d 44 9e 40 22 5c 06 c0 a9 68 5c 40 1e 36 34 c0
       4.94583 -2.0993733 3.443888 -2.815803
000020 90 bf e1 3d 0a 2e 98 be 03 9a 80 3f b8 3b df 3c
       0.11022866 -0.29722625 1.0047001 0.027250156
000030 20 a2 d7 3d ec b7 cc be 87 cc 1b bf f4 bc d6 3f
       0.1052897 -0.3998407 -0.6085896 1.6776414
000040 2e 31 02 40 36 1a 27 be 6e 24 35 bf 8c 07 4c be
       2.0342517 -0.16318592 -0.7075871 -0.19924754
000050 5c 66 8d 3f 10 14 3f c0 bb 9c ac 3f e4 c9 53 bf
       1.1046863 -2.9855995 1.348533 -0.82729936
000060 1e 3e 30 3f 11 8e f2 bf 18 65 d3 be 94 10 70 3e
       0.68844783 -1.8949605 -0.41288066 0.23443824
000070 37 24 67 40 fb 4e 05 c0 d5 60 df 3f d8 88 96 be
       3.6115854 -2.0829456 1.7451426 -0.29401278
000080 6e e0 0d c0 38 ec 89 be 08 a1 58 3d a6 d6 0b c0
       -2.216823 -0.26938033 0.052887946 -2.184976
000090 94 a5 61 be 16 c3 1f 40 11 91 98 3f 4c 52 78 bf
       -0.2203582 2.496282 1.1919271 -0.97000575
0000a0 f2 f5 de bf d5 16 e6 be 6c 64 71 3f 8d d7 a8 3f
       -1.7418807 -0.44939294 0.94293857 1.3190781
0000b0 26 5c 02 bf ab 5c 46 40 10 0f c6 40 15 79 43 c0
       -0.5092186 3.099406 6.1893387 -3.0542653
0000c0 f6 54 fb be e5 e9 2d c0 60 60 30 3d 01 c5 79 c0
       -0.49088258 -2.7174008 0.04306066 -3.9026492
0000d0 98 7e 13 c0 d6 c8 48 40 ed a6 62 40 3f e9 08 c0
       -2.3046017 3.137258 3.5414383 -2.1392362
0000e0 9d a2 be be 7f e5 36 40 32 38 43 be 4c 39 cb bf
       -0.3723344 2.8577573 -0.19064406 -1.5876861
0000f0 36 01 21 40 e4 50 04 c0 f2 31 e7 3f c0 6e 8d 40
       2.515699 -2.0674372 1.8062117 4.4197693

4.weight f4 [5, 64]
000000 de 0d a1 bf da 94 92 3f 5c a5 8d c0 16 ae d3 40
       -1.2582357 1.1451676 -4.4264355 6.6150007
000010 7a b2 13 3f ae 18 41 3f 38 67 46 c0 ce 95 0c 40
       0.5769421 0.75428283 -3.10005 2.1966434
000020 f1 36 b4 40 db a2 86 3f f6 87 ec bf 41 69 b0 bf
       5.6317067 1.051845 -1.8478992 -1.3782121
000030 95 61 28 3f 9e 33 d1 bf 9e aa d2 3e bb 6d c7 bf
       0.657739 -1.6343877 0.41145796 -1.5580362
000040 b6 7c 80 c0 b7 31 19 c0 fe dd b4 3f 2f 65 8c c0
       -4.0152235 -2.3936594 1.4130247 -4.3873515
000050 ea 67 90 40 52 ec 21 bf f6 26 92 3f e3 67 86 bf
       4.512685 -0.6325122 1.141814 -1.0500454
000060 92 78 e6 3f a4 c3 6b 3f 50 e3 74 3f 08 9d 1a c0
       1.8005545 0.920954 0.9565935 -2.4158344
000070 26 0c cf 3e 3e 3b 9d be ae 81 45 40 2e 31 b1 bf
       0.40438956 -0.3070926 3.08604 -1.3843133
000080 8b 68 8d 40 f0 20 2f 40 c0 82 33 be 68 9d c8 3e
       4.4190116 2.7363853 -0.17530346 0.3918259
000090 18 c3 22 c0 18 81 ff be 56 ec 1c 40 73 45 02 40
       -2.5431576 -0.49903178 2.4519248 2.0354888
0000a0 79 d9 18 40 c1 3d fd bf 82 ff 4e c0 80 d5 c9 bf
       2.3882735 -1.9784471 -3.234345 -1.576828
0000b0 b2 7d 70 3f 04 ee c8 be 1e 46 39 3f 53 62 5c bf
       0.93941796 -0.39244092 0.72372615 -0.8608753
0000c0 b7 b2 16 3f c6 51 b7 bf 2e c0 dc bf 48 9b 66 3f
       0.5886645 -1.432183 -1.7246149 0.9008069
0000d0 0e 20 21 40 e5 78 41 40 b2 35 8b 3e ed bf 45 40
       2.5175815 3.0230038 0.27189404 3.0898392
0000e0 fb b2 92 3f 08 c7 6c bf 75 dd 2d 3f 39 fb a0 bf
       1.146087 -0.924912 0.6791604 -1.2576667
0000f0 88 d4 1c 40 2e 1f cc c0 b1 13 f3 3f f0 1a 9f be
       2.4504719 -6.378806 1.8990384 -0.3107524
000100 ae ca 95 c0 f6 5d a7 3f b0 c7 a7 3f 93 6d b7 3f
       -4.680991 1.307555 1.3107815 1.4330314
000110 73 05 9f bf 28 bb 19 3e 7e 51 6f 40 90 ae 0d bd
       -1.2423538 0.150128 3.739349 -0.034590304
000120 3b 6e a2 40 30 55 e8 bf 49 ea a8 c0 76 df 0e bf
       5.075956 -1.8150997 -5.2785993 -0.55809724
000130 02 5e ed 3f 6d 8f 9b 3f 65 89 c1 c0 d8 33 c4 3d
       1.8544314 1.2153145 -6.048022 0.09580201
000140 96 e7 9d bf 81 c0 ab be 84 91 0d be d0 a1 d3 3c
       -1.23363 -0.33545306 -0.13825041 0.025833994
000150 d0 e9 6f be 5b 97 70 bf 7d 2b 2a 3f fa 4d 1a c0
       -0.23429036 -0.9398095 0.6647261 -2.4110093
000160 e9 dd 3a bf b2 ac be 3f f0 fb 0a 3d 11 e8 43 bf
       -0.7299486 1.4896452 0.033931673 -0.7652598
000170 e6 3f a5 3f 6a 0c e2 3f 8b 77 86 3f f8 29 45 3e
       1.2910125 1.7660038 1.0505232 0.19254291
000180 b6 f3 d9 3f 8e 2d 4f 40 45 8b 13 c0 ec 15 a5 bf
       1.70275 3.2371554 -2.3053753 -1.2897315
000190 91 1f 0b c0 00 29 7c 3d 58 69 f6 3f ad 81 9f c0
       -2.1738017 0.06156254 1.9250898 -4.9845796
0001a0 15 5b 49 40 05 8c 8b 40 7a de c4 3f 44 8f a7 3f
       3.1461842 4.360842 1.5380394 1.3090596
0001b0 c1 fb 4a c0 60 15 91 3f d0 bb c6 3e 38 f6 bc be
       -3.1716158 1.1334648 0.38815165 -0.369066
0001c0 d8 2b 49 bf f5 31 32 c0 85 5a 88 3f d1 1d c6 bf
       -0.78582525 -2.7842991 1.0652624 -1.5477849
0001d0 e7 ee 2b c0 24 d2 58 40 35 dd 0b 40 62 94 d1 c0
       -2.6864564 3.387826 2.1853764 -6.549363
0001e0 ae a2 90 bf f9 bb 2c 3f 1b 05 6b 40 22 61 b1 3f
       -1.1299646 0.67474324 3.6721866 1.3857768
0001f0 fb 1e e6 3f 94 c3 64 bf 34 68 34 bf 40 e5 ae 3e
       1.7978204 -0.8936093 -0.704715 0.3415928
000200 fc b8 08 be 1e dd cb 3f 7a ba 40 c0 6b f6 ce 3f
       -0.13351816 1.5926855 -3.0113816 1.6168951
000210 2c f4 7d 40 e6 04 17 bf 51 ab 27 3f b9 bc 34 bf
       3.968028 -0.5899185 0.65495783 -0.7060047
000220 f1 60 43 40 15 2a 29 c0 9a 72 af 3f 84 59 e1 3f
       3.0527918 -2.6431935 1.3706849 1.7605443
000230 d2 84 73 40 2c 4f b5 bf 54 19 f3 3e bc 44 0d 40
       3.8049817 -1.4164786 0.4748026 2.2073202
000240 59 b8 02 bf fe e4 cd 3f 0f d3 1d 40 3b 3b 0d c0
       -0.5106254 1.6085508 2.466007 -2.2067401
000250 c4 cc af 3f 36 68 04 bf 1c e9 48 3f b0 ed f8 3f
       1.3734365 -0.51721513 0.78480697 1.9447536
000260 5d ee d2 bf 4c 9f 0d bf 1d cd bd 3f 2a 8a 57 3f
       -1.6478993 -0.5532119 1.4828221 0.84195197
000270 fa e5 a4 3f e8 cc ab be 29 46 8a bf 21 bd 95 3f
       1.2882683 -0.3355477 -1.0802661 1.1698343
000280 02 af 58 3e 60 1b 8a 40 de 52 75 40 7f 73 34 40
       0.2116051 4.3158417 3.8331828 2.8195493
000290 ae 61 ab 3f 64 63 53 40 b0 96 4e 3f ea ed 6c c0
       1.3389184 3.3029413 0.8069868 -3.7020211
0002a0 81 d8 5b 40 7c 1a 54 bf 8c bf d2 bf 50 fb f0 bf
       3.4350893 -0.8285291 -1.6464705 -1.8826694
0002b0 20 eb 7f 40 ce f7 8f bf b1 85 6d 3f e2 36 c1 3e
       3.998726 -1.1247499 0.9278212 0.37737185
0002c0 20 74 4d c0 02 61 5f c0 98 e0 8b c0 3c ec 30 3f
       -3.2102127 -3.490296 -4.371166 0.69110465
0002d0 86 0f c6 3f 68 23 60 3f 44 6b a8 3e 72 66 8d c0
       1.5473487 0.87554026 0.32894337 -4.4187555
0002e0 c0 60 5a bd 60 6a cd be 50 5b e1 bd 8a ef a9 3f
       -0.053314924 -0.4012022 -0.110037446 1.3276227
0002f0 04 52 87 bd f3 22 a2 be 7f db 9f bf 96 95 d7 bf
       -0.0660744 -0.3166729 -1.248886 -1.6842525
000300 26 b8 90 bf 49 7b 4b c0 eb 73 ce bf 65 d5 4a 40
       -1.1306198 -3.1793997 -1.6129125 3.1692746
000310 38 95 52 40 2f f5 09 c0 86 0f f3 c0 7c bc 99 40
       3.2903576 -2.1555898 -7.595645 4.8042583
000320 e0 be be 3f 76 e6 3b 40 aa 88 15 40 55 af fe 3f
       1.4902 2.9359412 2.3364663 1.9897257
000330 36 9d bd be 16 e7 5c bf 29 de 39 40 fe c3 91 bf
       -0.37034005 -0.8629011 2.9041846 -1.1387937
000340 2e b5 b3 be 68 d8 28 be c0 1a 63 3f b1 85 ab 3f
       -0.35099167 -0.16488802 0.8871269 1.3400174
000350 d4 a7 8f 3e 44 24 4a 3f da bc 2f 3f 0f 75 43 c0
       0.2805773 0.78961587 0.6864754 -3.0540197
000360 a2 37 e9 bf db 32 d0 3f c8 7e 0b bf e3 64 e5 bf
       -1.8220103 1.626552 -0.5449033 -1.7921413
000370 5d b2 64 bf c2 c9 ec 3e f3 32 12 40 14 03 83 3f
       -0.8933466 0.4624768 2.2843597 1.0235314
000380 a8 6e 4c 3e c2 14 24 40 b4 7c 2e 40 a4 d8 83 3f
       0.19964087 2.563767 2.7263613 1.0300488
000390 34 14 f3 3f 2b 4d aa 3f fa df 9e bf 47 e5 92 bf
       1.899054 1.33048 -1.2412102 -1.147622
0003a0 07 e2 41 c0 f0 09 f3 3d ac cc 5b c0 dd 69 76 3f
       -3.0294206 0.1186713 -3.4343672 0.96255285
0003b0 c5 fe 1b c0 55 b6 1f 40 d2 10 3b c0 5a 19 51 c0
       -2.437425 2.4955037 -2.9229016 -3.2671723
0003c0 4e 37 9d bf 25 ae 18 bf a8 74 1d bf 30 85 5b 40
       -1.2282503 -0.59640723 -0.6150613 3.4300041
0003d0 e8 7e 31 be 4a 59 e9 3f 49 f4 96 bf 8e ec 68 c0
       -0.17333567 1.8230374 -1.17933 -3.6394382
0003e0 3c 45 e9 3f ca b9 97 3f 18 73 ce 3f 51 3f f4 bf
       1.8224254 1.1853573 1.6128874 -1.9081823
0003f0 b8 c0 d3 bf e8 3f 05 3d 3d c5 2f 40 68 90 b2 c0
       -1.6543188 0.03253165 2.7464135 -5.5801277

4.bias f4 [5]
000000 fc 30 25 3e 66 e1 15 40 4d 63 84 3f ff f4 ed be
       0.16131967 2.3418822 1.0342804 -0.4647598
000010 29 64 01 40
       2.0217383
