demo/experiments/genetic_algorithm/ga_experiment_2021_02_12_160407/problem_42.model (torch, 26149 bytes, 6 tensors)

0.weight f4 [64, 22]
000000 b8 ac 40 c0 6c 5b c2 3e 50 25 92 3f 16 e4 88 3f
       -3.010542 0.37960374 1.1417637 1.0694606
000010 71 ff 8e 3f 1e 99 09 40 90 d9 c4 bf 83 0e 10 c0
       1.1171705 2.1499705 -1.5378895 -2.2508857
000020 6c 0d 9f 3d 6c df d9 bf 34 ba 82 3e fe d8 fd 3f
       0.07766232 -1.7021308 0.25532687 1.9831846
000030 27 cf 61 bf a4 40 81 3f e0 08 be bc 22 0c fc be
       -0.88206714 1.0097852 -0.023197591 -0.49228007
000040 5f 7f a1 bf fd 70 ed 3f db b3 78 c0 8b 33 93 3e
       -1.2616996 1.8550106 -3.8859775 0.28750262
000050 00 ab 41 3f b6 70 f5 3e 66 6f 9b 3f 62 b4 b8 3e
       0.7565155 0.47937554 1.2143371 0.3607512
000060 e0 bb 0f bf 6c 5f 56 bf 72 33 e8 3f 39 1d c2 bf
       -0.5614605 -0.8373935 1.81407 -1.5165168
000070 8c 3a 3a 40 22 21 3a 3f 68 18 0a 40 0e ab 46 c0
       2.9098234 0.72706807 2.1577396 -3.1041903
000080 05 09 da bf fc 30 29 3e 60 c1 32 bf 66 7a 91 3f
       -1.7034003 0.16522592 -0.69826317 1.1365478
000090 64 5a 82 3e af 3d 0e c0 b2 89 dd bf 95 54 af 3f
       0.25459588 -2.2225149 -1.7307646 1.3697687
0000a0 a0 20 de 3f ba 06 89 3f f5 78 22 40 2c c4 16 be
       1.7353706 1.0705178 2.5386326 -0.14723271
0000b0 19 a7 94 3e 4d a5 8f bf d0 19 08 40 c5 88 86 bf
       0.29033735 -1.1222321 2.1265755 -1.0510489
0000c0 16 17 1a c0 a8 c1 09 3f 2c b6 16 c0 1a 02 d4 bf
       -2.407659 0.5381112 -2.354869 -1.6563141
0000d0 d0 cb 51 bf f5 fb 92 40 6a fd fb bf f5 38 40 40
       -0.8195162 4.5932565 -1.9686711 3.0034764
0000e0 01 3b 33 bf 2e bd b6 bf 78 32 76 c0 70 95 ff 3e
       -0.7001191 -1.4276483 -3.8468304 0.499187
0000f0 c6 8c 3b c0 a8 2e 8c bf 44 68 3a 3f 2b 54 9c 40
       -2.9304671 -1.0951738 0.72815347 4.8852744
000100 f0 23 15 c0 f9 da 72 c0 92 83 28 40 78 29 e1 3e
       -2.3303185 -3.794615 2.6330304 0.4397695
000110 b3 bc 94 3f c4 58 8c c0 04 8f ca be 00 0a 57 be
       1.1620086 -4.3858356 -0.39562237 -0.20999908
000120 aa 6f 23 bf 3a 24 d7 3f 4d fd 2f 40 be 9e 98 3f
       -0.6384226 1.680793 2.7498353 1.1923444
000130 be 5a 24 be 1a 27 3d c0 9c 86 d3 bf cb a7 9c 3f
       -0.1605024 -2.9555116 -1.6525455 1.2238706
000140 6f 51 25 c0 dc 61 34 bf b4 2d 98 40 ce 69 aa bf
       -2.5830953 -0.7046182 4.755579 -1.3313539
000150 9a 11 89 40 b2 ff d7 3f d3 ae e8 3f 00 a9 3d 40
       4.2833986 1.6874907 1.8178352 2.96344
000160 ac 8d 5c bd 3d 0d 22 bf df 02 b9 bf 25 3b 11 c0
       -0.053846046 -0.6330145 -1.4454001 -2.269235
000170 74 e5 a2 bf 72 23 b4 3f 4c b6 3c bf 68 9b 8c bd
       -1.2726274 1.4073317 -0.7371566 -0.06865579
000180 08 af 57 c0 1c 0d af 3f 3e 36 86 bf 0d 05 91 bf
       -3.370058 1.3675876 -1.0485303 -1.1329666
000190 e8 58 9b bd 6c 42 ed 3f 5e 1d 58 c0 ae b2 6c 3f
       -0.07585317 1.8535895 -3.3767924 0.92460144
0001a0 3b ff 26 c0 e0 ca fb bf bd 37 0b bf 4e 18 44 40
       -2.609328 -1.9671288 -0.54381925 3.0639834
0001b0 84 30 68 c0 06 2b c2 bf 76 91 17 bf da 25 e6 3e
       -3.6279612 -1.516938 -0.5920633 0.44950753
0001c0 c3 c6 34 bf 9b 81 21 c0 7e c4 1c bf 56 eb 32 c0
       -0.70615786 -2.5235355 -0.61237323 -2.7956138
0001d0 fd 86 a5 bf 51 56 0c 40 e7 e2 03 c0 d8 7d 1c bf
       -1.293182 2.1927683 -2.060724 -0.6112952
0001e0 00 92 dc bc 86 1c 08 c0 03 17 21 40 3c 4b 62 40
       -0.026925087 -2.126741 2.5170295 3.535842
0001f0 97 f7 2f c0 84 09 06 bf dc e0 ac 40 65 c5 8a 40
       -2.7494867 -0.5235827 5.4024487 4.336596
000200 85 ab eb bf bd 2b 64 3e 60 b3 2b c0 41 53 52 3f
       -1.8411719 0.2228231 -2.6828232 0.82158285
000210 5e bd a5 bf f4 33 c4 be 41 2c 07 c0 2f b3 af 3f
       -1.2948415 -0.38320887 -2.112076 1.3726557
000220 78 da 02 bf 5c ac 3c bf 50 f4 a4 be db 5b 6c c0
       -0.51114607 -0.737005 -0.32217646 -3.6931064
000230 7b a9 d4 3f e6 6c 39 3e d0 31 b0 3f 8a 93 bb 3f
       1.6614221 0.18107948 1.3765202 1.46544
000240 02 4e 80 40 a9 ee d2 bf 62 a0 4e 40 9c 34 4d bf
       4.0095224 -1.6479083 3.228539 -0.801584
000250 9e 2a 2e bf 00 13 0e bc f2 70 4f 3f 30 fc f9 be
       -0.6803378 -0.008671522 0.81031716 -0.48825216
000260 f4 81 eb c0 3a 93 c8 be ae e8 0e 40 11 5b b0 bf
       -7.3596134 -0.39174825 2.2329516 -1.3777791
000270 89 99 a9 c0 9c 22 a6 3d 42 16 8d bf d9 cc 26 40
       -5.299992 0.0811207 -1.1022418 2.606253
000280 2b df 33 40 b1 ec 98 c0 db 1e c0 3e 8e 22 5d 3f
       2.810496 -4.778893 0.3752354 0.8638085
000290 20 5c d3 3c 95 48 31 3f 58 a6 a7 bf a6 6b 16 c0
       0.025800765 0.69251376 -1.3097639 -2.3503203
0002a0 66 a3 af 3f d0 72 f7 bd 10 45 07 3e 3c a1 09 40
       1.372174 -0.120824456 0.13209939 2.150466
0002b0 fe 8d 9e bf 14 df df 3f f6 25 bd c0 70 8b f3 3e
       -1.2387083 1.7489953 -5.910884 0.4756732
0002c0 6a 14 5a 40 b6 5b 67 bf ee 6b cb bf d8 f0 37 40
       3.407496 -0.90374315 -1.5892313 2.874075
0002d0 94 0d 4e bf 9a 46 7d 3f 1a 0c e3 bf 28 95 42 3d
       -0.8048947 0.98935854 -1.7738068 0.047505528
0002e0 bf 0d af bf 7e b5 25 3f 40 2f ab bf 55 f5 c7 40
       -1.367607 0.6473006 -1.3373795 6.2486978
0002f0 2a 0b 43 c0 d4 fa 82 3f fb bf 69 c0 8a ac 1f 40
       -3.0475564 1.0232797 -3.6523426 2.494906
000300 ed 82 9f bf f9 58 af bf ca 56 19 c0 20 86 a1 bd
       -1.246183 -1.3699027 -2.3959222 -0.078869104
000310 d0 ca e6 bf e1 b1 0b 3f dc f3 27 bf 72 05 dc bf
       -1.8030643 0.54568297 -0.65606475 -1.7189162
000320 00 00 cc 3e f2 ce 92 bf 1a 0c 23 bf 3c a5 ad 3f
       0.3984375 -1.1469405 -0.6369034 1.356605
000330 34 8f 19 bf 88 cf 15 c0 be 4b 62 3f 6d 83 14 40
       -0.59984136 -2.3407917 0.88396823 2.3205216
000340 9a 10 83 3f a4 94 88 40 0a 67 c0 bf d7 d5 3f 3e
       1.0239441 4.2681446 -1.5031445 0.18733917
000350 a0 eb d7 3f 38 3d 5d 3e 5a b4 e1 3f 68 1a 7e bf
       1.6868782 0.21605384 1.7633164 -0.9925904
000360 ec c3 bd 3f 4e f8 ac bf 60 cc ae bb 90 c1 ab 3e
       1.4825416 -1.3513277 -0.005334422 0.33546114
000370 72 dd eb 3f 68 8c 4c c0 57 02 59 c0 92 f9 f7 bf
       1.8426955 -3.1960697 -3.3907678 -1.9373038
000380 4f 8d 87 3f 1a ef 19 3f 20 f8 7d 3f 7b b3 80 bf
       1.0589999 0.60130465 0.99206734 -1.0054773
000390 58 0d 11 bf 22 81 34 c0 f4 6e 5c 40 97 62 6c c0
       -0.56660986 -2.8203816 3.444272 -3.6935174
0003a0 b5 7f 93 bf 60 d9 01 bd dc 09 23 bf 00 e4 cd bb
       -1.1523348 -0.031701446 -0.6368692 -0.0062832832
0003b0 78 6d e0 3f f2 47 c6 3f 74 8a b4 bf 09 fc c1 bf
       1.7533407 1.5490706 -1.4104753 -1.515504
0003c0 fe 0d 4f bf cc 8c 00 bf 5f 06 21 bf 89 41 bd be
       -0.80880725 -0.5021484 -0.62900347 -0.36964062
0003d0 b7 2d 51 bf 27 1c 2d 40 20 20 16 3e 12 84 65 40
       -0.8171038 2.7048433 0.14660692 3.586186
0003e0 3e 35 3f bf 12 01 a1 3f 5c dd 4e 3f c4 77 8a bf
       -0.74690616 1.2578452 0.8080652 -1.08178
0003f0 8d f2 80 3f 4a 07 0e c0 ac 5d 52 40 c0 d7 43 3f
       1.0074021 -2.219195 3.2869673 0.76501083

0.bias f4 [64]
000000 99 39 53 c0 4a 8e 5d 3f 7a 6c d3 bf 77 9a df bf
       -3.3003905 0.8654524 -1.651748 -1.7469014
000010 5a e9 32 40 1f 58 7d c0 56 d1 80 c0 98 00 86 bf
       2.7954926 -3.9585035 -4.0255537 -1.0468931
000020 f6 62 a3 bf 10 80 1d bd 46 af 34 40 eb 03 83 3f
       -1.2764575 -0.038452208 2.8231978 1.0235571
000030 9e 84 43 40 25 d5 2c bf 4a 4c 95 bf 7e a6 c9 bf
       3.0549693 -0.6751273 -1.1663907 -1.5753934
000040 0e 02 e3 bf af 4c 36 3f 8b 4e 74 c0 cd 14 98 c0
       -1.7735002 0.7121076 -3.817294 -4.752539
000050 83 85 b3 3f 81 56 05 40 20 9b e9 bf 34 d1 75 40
       1.402512 2.0834048 -1.8250465 3.8408937
000060 10 7b 8d be f7 ca 4c 3f 21 73 a3 40 10 a1 8c bf
       -0.27632952 0.799972 5.107804 -1.0986652
000070 10 55 e3 be 56 01 1f 40 e5 23 aa 3f bf 75 09 c0
       -0.44400835 2.4844565 1.3292204 -2.1478117
000080 4a 60 ad bf 54 5e ee bf 22 ce 59 40 7b df 51 3f
       -1.354501 -1.8622537 3.4032063 0.8198163
000090 d9 92 9c 3f 55 da 1a 40 a2 8a 28 40 19 78 13 c0
       1.2232314 2.419576 2.6334615 -2.3042052
0000a0 92 b5 a0 3f e0 56 4b 3e c3 7c 9f 40 d2 0b 0a 40
       1.2555411 0.19857359 4.9839797 2.1569715
0000b0 93 98 81 40 a5 8f 64 bf f7 e7 d6 3e bc 2c f5 bf
       4.049875 -0.89281684 0.4197385 -1.9154277
0000c0 d1 b8 91 bf fb 23 8c 40 66 5f bf be 94 d9 ab c0
       -1.1384526 4.379392 -0.3737747 -5.37031
0000d0 e2 d0 4c 40 8a 6b 46 bf 6c e4 b9 40 dc 47 79 c0
       3.2002492 -0.7750784 5.8091335 -3.895011
0000e0 f0 78 6a c0 1f be 63 bf 68 49 2c c0 30 e0 04 bf
       -3.6636314 -0.88961977 -2.6919804 -0.5190458
0000f0 ba 32 68 bf 1a 95 45 c0 5d 6d 84 40 88 f2 e4 bf
       -0.907024 -3.0872254 4.13835 -1.7886515

2.weight f4 [64, 64]
000000 f3 11 19 40 ae 5b 17 40 e0 d4 2c bd fc 40 ae 3f
       2.3917205 2.3649707 -0.0421952 1.3613582
000010 ea 16 bb bf bc 24 21 40 49 fb ed bf 4e de 59 c0
       -1.4616368 2.517867 -1.8592311 -3.4041934
000020 77 98 a0 3f 26 c6 16 40 e0 f9 2e 40 ef ea 02 c1
       1.2546529 2.355844 2.7340012 -8.182357
000030 83 e5 3c c0 c1 0d ab 40 f4 7e 02 bf b2 04 ac 40
       -2.9515083 5.345429 -0.50974965 5.375573
000040 a9 7e 83 40 f0 43 c3 3e e3 87 59 40 63 bf ff 3e
       4.1092114 0.3813777 3.3989189 0.49950704
000050 3a e6 e1 bf 97 f1 55 40 b7 64 01 40 80 1d 1a 40
       -1.7648385 3.3428705 2.0217721 2.4080505
000060 48 13 ba bf 83 9e 53 40 d2 51 aa 40 49 02 0b c0
       -1.4537134 3.3065498 5.322488 -2.1720145
000070 fc f8 21 bf ea 29 ac bf 78 85 ac 3f 52 13 ea 3f
       -0.63270545 -1.3450291 1.3478231 1.8287146
000080 32 a0 1b c0 98 fd 61 3f 4a 99 81 40 13 4f bb c0
       -2.4316525 0.8827758 4.049962 -5.8534026
000090 e2 fc 7b c0 53 8e 01 40 c2 f0 15 3f 38 4b 4a be
       -3.9373097 2.0243118 0.5857049 -0.19755256
0000a0 45 fb 29 40 fa 14 8d bf ee 80 4e 40 6c ed 21 bf
       2.6559613 -1.1022027 3.2266192 -0.632529
0000b0 ae 39 92 3f f6 8a d3 3f 78 60 83 bf 5d 66 93 40
       1.1423852 1.6526783 -1.0263815 4.6062455
0000c0 9f d6 1e c0 0f e9 91 c0 86 cd c8 bf 8a 86 1f bf
       -2.4818494 -4.5596995 -1.5687721 -0.62314665
0000d0 69 57 1d c0 60 46 a3 3f 7a ab 63 40 ee 00 ce bf
       -2.45846 1.2755852 3.557341 -1.6094034
0000e0 2b 46 6e c0 fe 70 21 bf 8f fb e0 3f 88 3b 2c c0
       -3.7230327 -0.6306304 1.757677 -2.6911335
0000f0 56 fa 03 40 a8 4e 6f 3e de a7 b3 3f 8a 07 e1 bf
       2.0621543 0.23369849 1.4035604 -1.7580426
000100 9e 61 24 40 c5 ea ba 40 dd cf 02 c0 98 d9 a0 c0
       2.568458 5.8411584 -2.043937 -5.0265617
000110 72 f9 fd 3e eb 6c aa be d3 54 ae 3f 7c 50 a9 c0
       0.49604374 -0.33286223 1.3619636 -5.2910748
000120 a6 61 44 3f fc 3f 78 40 35 ec 11 40 7a 47 32 3f
       0.767115 3.8789053 2.280042 0.69640315
000130 5c 4f 53 bf 38 7e 26 bf da 82 12 c0 b2 28 4b c0
       -0.8254297 -0.65036345 -2.2892365 -3.1743588
000140 a1 bc df bf 2c f7 d6 bf 4b 36 0b c0 6b 08 22 3f
       -1.747944 -1.6794181 -2.1751888 0.63294095
000150 69 eb c3 c0 0c 67 2d 40 55 b1 79 c0 48 fb 83 40
       -6.1224866 2.7094145 -3.9014485 4.124424
000160 56 aa 8b c0 07 9c 82 40 ce f2 95 3f a4 8c 86 40
       -4.364543 4.0815463 1.1714723 4.204668
000170 63 37 10 bf da b6 46 3f 71 6c 5b 40 d9 09 bd bf
       -0.56334513 0.7762276 3.4284937 -1.476863
000180 60 14 51 bd 64 c1 20 bf 9b d1 87 bf f4 b3 8a bf
       -0.05104482 -0.6279509 -1.0610842 -1.0836167
000190 cc 6f 77 be e2 18 fc 3f d8 2d 72 3e 1e 94 a6 bf
       -0.24163741 1.9695094 0.236503 -1.3013952
0001a0 40 2f a5 3f 76 70 0f c0 53 09 02 c0 a8 17 e1 be
       1.2905045 -2.241239 -2.031819 -0.4396336
0001b0 54 70 30 c0 56 fb 16 bf 07 81 6d 3f 25 68 05 3f
       -2.756856 -0.5897726 0.92775005 0.52112037
0001c0 30 f8 49 c0 c6 1e f7 bf 39 d8 a4 40 85 45 c0 40
       -3.1557732 -1.9306266 5.1513944 6.0084863
0001d0 90 26 5d be 2a c9 30 3f f7 9b f1 bf 64 03 a6 bd
       -0.21596742 0.6905695 -1.8875722 -0.081061155
0001e0 5e 1b 53 40 f9 63 2d c0 20 b9 27 c0 46 c2 34 c0
       3.2985454 -2.7092268 -2.6206741 -2.8243575
0001f0 40 24 3e be 98 a3 23 3e e2 60 31 40 4c 59 c1 bf
       -0.18568516 0.15980375 2.7715383 -1.5105376
000200 84 00 b7 3f 20 bd be bf 22 d1 02 c0 e9 3e 63 c0
       1.4297032 -1.4901466 -2.0440145 -3.5507147
000210 6a e6 9e bf b2 d5 e8 bd 3e e6 29 3f f1 32 06 40
       -1.2414067 -0.11368884 0.66366947 2.0968592
000220 9f c5 09 3f 99 ae a0 c0 b8 12 8e be 54 b3 31 3f
       0.5381717 -5.021313 -0.27748656 0.6941426
000230 a4 79 b6 3f a0 7e 09 40 3e f8 94 40 77 76 a1 c0
       1.4255872 2.1483536 4.655303 -5.045711
000240 b2 14 6e c0 ee 8a ce bf 48 40 72 c0 04 2f 81 c0
       -3.7200131 -1.6136148 -3.7851734 -4.036989
000250 9c ae ad 3f 64 33 06 be 84 48 1b 3f 30 95 14 40
       1.3568912 -0.13105541 0.60657525 2.3216057
000260 f3 b7 01 c0 38 a6 fd bf 06 0c 48 3f 08 c9 bb be
       -2.0268524 -1.9816351 0.78143346 -0.36676812
000270 94 8f 70 3f 2e b6 8c 40 b3 77 66 bf b0 28 5b 3f
       0.9396908 4.3972387 -0.90026397 0.8560896
000280 fa be b3 bf dc e2 fd 3e f4 b7 1c 3e 4c 0a 0f 40
       -1.4042656 0.49587142 0.15304548 2.2350035
000290 1a 9e c2 3f 6c f8 35 40 f3 95 69 c0 d4 c9 26 c0
       1.5204499 2.8432875 -3.6497772 -2.6060686
0002a0 e8 4c 2c 3e ce aa 2d 40 f9 c3 89 be 30 8a ef bd
       0.16826212 2.71355 -0.26907328 -0.11696279
0002b0 de c0 bc bf 67 60 dd 3f c8 11 8d bf e9 24 77 be
       -1.4746358 1.7295045 -1.1021051 -0.24135174
0002c0 e5 bc d8 3f e9 ee 2e c0 c0 0d 51 3e d2 85 86 bf
       1.6932646 -2.733332 0.20415401 -1.0509589
0002d0 0c 37 ca bd 2f fa 4a bf 08 72 42 3e 4b bd 70 3f
       -0.098737806 -0.79288 0.18988812 0.9403884
0002e0 a0 5e 67 bd bc 96 0a 40 c4 f4 d4 bf c1 a6 8d c0
       -0.056486726 2.16545 -1.6637197 -4.4266057
0002f0 f7 03 e2 bf 5a 26 0e 40 ec 10 ab be 17 60 a3 3f
       -1.765746 2.2210908 -0.33411348 1.2763699
000300 80 23 e3 3d 9f ef 84 3f 16 9e 3a 40 02 52 de 3f
       0.110907555 1.0385627 2.9158988 1.7368777
000310 2e f9 49 c0 8e b2 94 c0 5c f2 e1 3f a6 a1 85 40
       -3.1558337 -4.646796 1.7652087 4.1759825
000320 1c d3 6c 40 42 4a 24 bf 51 96 af 3f ee 66 41 40
       3.700385 -0.6417581 1.3717748 3.0219073
000330 40 4b 25 c0 08 c6 2c be 27 82 21 c0 cc 11 8e c0
       -2.582718 -0.16872418 -2.5235689 -4.4396725
000340 ca 49 df 3f 12 6d 84 c0 80 59 42 bc d4 89 53 40
       1.7444394 -4.1383142 -0.011862159 3.3052874
000350 34 83 9d bf 7d 50 b1 bf 74 c7 11 40 0e 5d 24 40
       -1.2305665 -1.3852688 2.2777987 2.5681796
000360 2f cb d8 3f b7 f3 f0 bf fd 41 60 40 70 8e 86 bd
       1.6937007 -1.8824376 3.5040276 -0.065701365
000370 b0 e0 36 c0 de ad 0d 40 0b 54 e6 bf 78 cc 27 3f
       -2.8574638 2.213737 -1.7994398 0.6554637
000380 bd b0 80 c0 77 1e a9 be 55 fc 94 c0 04 9f 18 40
       -4.0215745 -0.33031055 -4.6558022 2.3847055
000390 f2 13 78 40 46 a6 e3 bf 80 3a 34 3c 90 ae 1b 3e
       3.8762174 -1.7785118 0.011000276 0.15203309
0003a0 ec 21 d7 3e 9b 22 e2 bf 74 37 cf 3e 17 27 c7 bf
       0.42018068 -1.7666811 0.40471995 -1.5558804
0003b0 30 b9 53 c0 0e cf 74 c0 b6 8c d2 3f e9 bc 18 40
       -3.308178 -3.8251376 1.6449192 2.3865302
0003c0 42 91 56 bf d2 ad 62 3f a0 dd 17 3f 92 6b 0c c0
       -0.83815396 0.8854648 0.5932255 -2.1940656
0003d0 42 fc 9a bf 44 71 ea 3f 5c 36 84 3f a4 6d 4b c0
       -1.2108233 1.8315816 1.0329089 -3.178567
0003e0 ec 2a 61 c0 e3 37 4b 40 c0 e7 7a 40 aa ed 8c bf
       -3.5182447 3.175286 3.920395 -1.1010029
0003f0 62 e8 16 c0 5f 32 9e 3f 1b 41 92 bf 62 05 82 40
       -2.3579335 1.2359122 -1.1426119 4.063157

2.bias f4 [64]
000000 8e 57 8c c0 5a db ac be c5 83 25 c0 c8 67 0b 3e
       -4.385688 -0.33761102 -2.5861676 0.13613808
000010 08 ad f1 3f fe dd 92 be d6 df c0 bd c2 9c 76 be
       1.888093 -0.28684992 -0.09417693 -0.24083236
000020 a0 f7 c7 3c 00 90 d6 bd fe c4 1d 40 11 6c 48 c0
       0.024410069 -0.104766846 2.4651484 -3.1315958
000030 44 be 9c c0 05 27 03 40 be bf f7 bf 82 9d a3 40
       -4.898226 2.0492566 -1.935539 5.112977
000040 8d c9 04 40 54 db 24 40 bc db 32 be 70 ce 4a 40
       2.0748017 2.5758867 -0.17466635 3.16885
000050 ea 1f e1 3f 60 0a b5 3f e0 e9 52 bd 2c 01 d4 bf
       1.7587864 1.4143791 -0.05149257 -1.6562858
000060 c0 48 0f c0 b4 1c 1d bf 07 62 03 c0 e8 6a 05 3e
       -2.2388153 -0.6137192 -2.052858 0.13029063
000070 f0 83 fe 3e 75 15 02 bf be 71 9d 3f 33 3c cb c0
       0.49710035 -0.5081399 1.2300336 -6.3510985
000080 dc 8b d4 3f aa 3b 54 3f a2 22 38 40 44 d2 97 bf
       1.6605182 0.8290354 2.8771138 -1.1861043
000090 66 3c aa 3f 33 64 93 c0 2d ba 44 c0 55 cf 0f c0
       1.3299682 -4.6059813 -3.0738633 -2.2470295
0000a0 9d 9d ba 3f 70 64 ae 3f 30 24 3e be 74 19 03 3f
       1.457935 1.3624401 -0.18568492 0.51210713
0000b0 d0 0f e1 bf 9f 2f 2d 40 50 55 d3 3f 18 53 43 40
       -1.758295 2.7060316 1.651041 3.0519466
0000c0 b6 d3 94 3e 30 ae c0 40 9e 1b 28 40 93 f4 31 40
       0.29067773 6.021263 2.6266856 2.7805526
0000d0 2a 94 22 bf 4c 02 65 40 42 c9 bf bf fa a8 4a 40
       -0.6350733 3.5782652 -1.4983294 3.1665635
0000e0 e0 36 43 bf 0a 5f 3c c0 ca 0b bb 3e c8 b9 d3 bf
       -0.7625561 -2.9433007 0.36532432 -1.6541071
0000f0 f8 e3 6a 3e 88 b2 c4 bf dc dd 0d c0 1a 20 25 40
       0.22938526 -1.5366983 -2.2166662 2.5800843

4.weight f4 [5, 64]
000000 ac 3d 69 bf 8e b9 06 bf 0c 49 90 3f 1d 1a e7 c0
       -0.9110973 -0.52626884 1.1272292 -7.2219377
000010 80 ce 01 c0 e6 28 55 c0 f0 46 01 bd b6 10 ad 3f
       -2.0282288 -3.3306212 -0.031561792 1.3520725
000020 e5 de c4 3f 10 c4 03 3d d4 22 2f c0 7b 3b bd 3e
       1.5380522 0.0321694 -2.7365007 0.36959442
000030 c2 2a 23 c0 f4 75 50 40 31 35 44 c0 b8 a1 85 bf
       -2.5494847 3.2571993 -3.0657465 -1.0439978
000040 35 0c 9a 3f 50 f7 8c bf b6 1e d9 c0 76 25 18 c0
       1.2034975 -1.1012974 -6.784999 -2.3772864
000050 08 0f 03 c0 71 cb 50 bf 24 97 7c 40 c7 a5 db bf
       -2.0477924 -0.81560427 3.946725 -1.7159966
000060 00 0f 6b c0 16 55 4b bf 0d 64 4d c0 38 d8 2b 40
       -3.6727905 -0.79426706 -3.2092316 2.685072
000070 48 d3 69 c0 58 65 07 be f0 ce f8 be 80 82 c1 bc
       -3.6535206 -0.13222253 -0.4859538 -0.023621798
000080 78 7d 18 40 3d 55 b2 40 a5 1b 5c 3f 4a 33 88 be
       2.382658 5.572905 0.8597968 -0.2660163
000090 48 75 f4 3f 65 11 67 3e 9e d1 8f 3f ec ad 64 be
       1.9098291 0.22565229 1.1235845 -0.22331971
0000a0 7e 8f 2f c0 46 e8 26 c0 d0 45 df bf 16 29 11 bf
       -2.743133 -2.6079268 -1.744318 -0.5670332
0000b0 54 cd 5f 40 0c b7 bc bf 15 3c 3b c0 c6 6f 5b c0
       3.4969072 -1.4743361 -2.925542 -3.428697
0000c0 ca 7d c0 40 b0 11 cb c0 a3 76 87 bf 64 37 a4 40
       6.015355 -6.345909 -1.058308 5.1317616
0000d0 4c 9c 0d 3f d5 7b 30 c0 ff 11 1e 40 7d fa 82 3f
       0.55316615 -2.757558 2.4698484 1.0232693
0000e0 80 56 4a bd df 58 69 3f be 5e 9b be 5c 37 02 c0
       -0.0493989 0.9115123 -0.3034572 -2.0346289
0000f0 c2 79 ca 3f ec 4c 84 be 54 7c 51 bf 34 98 f1 3f
       1.5818408 -0.25839937 -0.81830335 1.8874574
000100 e5 da 42 be 94 5b a6 c0 dc c6 8d bf 1d 3a 1b c0
       -0.19028814 -5.198679 -1.1076312 -2.425422
000110 cd ba 2d 3f 1c c0 cc be 6f 0c 64 3d 30 a5 84 40
       0.6786316 -0.39990318 0.05567592 4.1451645
000120 72 2a f2 bf 8a 14 fd bf 90 f2 e9 3d 04 33 9b 3f
       -1.8919203 -1.9771893 0.11423218 1.2124944
000130 31 da 1a 40 ea 8b 3a 40 06 82 59 40 49 99 ce bf
       2.4195673 2.9147897 3.398561 -1.6140529
000140 da 56 3e 40 28 d1 2c c0 67 21 6d bf 61 1e 90 40
       2.974051 -2.700266 -0.9262909 4.5037084
000150 04 56 ca 3f 1e 9f e4 be 2c 21 de be 99 31 35 40
       1.58075 -0.44652647 -0.43384683 2.8311522
000160 3b 6a 3e c0 56 84 5f 40 d4 56 fd bf c6 a1 12 c0
       -2.9752338 3.4924521 -1.9792123 -2.2911239
000170 64 85 07 c0 99 0c 65 bf 98 10 4d c0 9e 0b 8b bf
       -2.1175165 -0.8947235 -3.2041378 -1.086292
000180 9e 15 b5 bf 8f 60 3b 40 6c 32 fd 3f 06 3b 0e 40
       -1.4147222 2.9277685 1.9781013 2.2223525
000190 49 d1 77 c0 6a 6c 32 c0 22 56 51 bf 06 ec 42 c0
       -3.8721488 -2.787867 -0.81772053 -3.0456557
0001a0 41 4e 93 40 a2 84 24 3f c0 f1 91 40 46 f8 97 c0
       4.6033025 0.6426488 4.5607605 -4.749057
0001b0 36 e7 07 c0 e6 0e 59 bf af 37 54 40 87 49 8f 3f
       -2.123487 -0.8478836 3.3158987 1.1194314
0001c0 ca b4 0e 3f 2d fc 52 40 4d f8 93 bf 00 49 41 c0
       0.5574461 3.2966416 -1.156015 -3.0200806
0001d0 78 a1 39 40 b4 01 31 3f 23 f2 2a bf c0 cf 97 be
       2.9004803 0.69143224 -0.6677572 -0.29650688
0001e0 76 4b a8 3f b8 0a df 3f 28 f7 0b bf d8 08 65 40
       1.3148029 1.7425146 -0.54674006 3.5786648
0001f0 73 d8 a5 bf df 77 91 bf 14 9b fa bf fc 5a 48 3f
       -1.295668 -1.1364707 -1.9578576 0.7826383
000200 5f d4 99 bf c1 bc 0f c0 7c 0e bc 3f 10 35 f5 3f
       -1.2017936 -2.2458956 1.469192 1.9156818
000210 ec 0e df 3f c1 9e 26 40 76 2d f2 bf b4 3d 63 bf
       1.7426429 2.6034396 -1.8920124 -0.88766026
000220 ed 6e 84 bf 30 d3 ad bf b9 15 82 c0 78 44 b5 bd
       -1.0346352 -1.3580074 -4.0651517 -0.0885095
000230 bc 2b 8e bf f4 18 10 bf 58 bd 87 40 b0 d4 50 c0
       -1.1107097 -0.56288075 4.2418633 -3.2629814
000240 e0 cd 5f c0 ce 60 05 bf 36 24 41 40 8a da 2d 3f
       -3.4969406 -0.5210084 3.0178351 0.6791159
000250 a8 3f a1 c0 d6 0e ef 3f bc e2 c2 bf 57 f7 28 40
       -5.0390205 1.8676403 -1.5225444 2.6400964
000260 04 92 00 3f ae da af bf 3d 55 20 3f 30 64 eb bf
       0.502228 -1.3738611 0.62630063 -1.838995
000270 78 cb 0a 40 0d 59 d4 bf c2 27 8d c0 59 0e 34 40
       2.1686687 -1.6589676 -4.4111032 2.8133757
000280 54 d8 38 c0 fe af 85 3e c4 c6 63 c0 54 fb 81 3f
       -2.8882036 0.26110834 -3.5590067 1.0154824
000290 6a da 5a 40 fa 59 f3 bf 30 84 63 bf 0a d8 85 c0
       3.419581 -1.9011834 -0.8887358 -4.182622
0002a0 30 f7 35 3f 0e e9 cf 3f e4 94 fb 3e 6c 98 ef 3e
       0.71080303 1.6242998 0.49137032 0.46795976
0002b0 cd 75 62 c0 11 1f 02 c0 33 b3 0a 41 a9 6c 0e be
       -3.53844 -2.0331461 8.66875 -0.13908638
0002c0 41 59 40 c0 78 37 93 3f 14 48 0c 3e 48 85 67 bf
       -3.0054476 1.1501303 0.1369937 -0.90437746
0002d0 5c a9 36 3e 00 54 86 3f 08 e9 4b c0 b5 39 2f 3f
       0.17838043 1.0494385 -3.186098 0.6844743
0002e0 da 2d 9e 3e be 73 46 c0 99 03 32 40 d3 4f 26 c0
       0.30894357 -3.1008143 2.7814696 -2.598622
0002f0 04 b8 19 be 03 da 10 bf c4 08 26 c0 b0 d2 d7 3e
       -0.15011603 -0.5658266 -2.594285 0.4215293
000300 74 f9 c1 bf bb 61 41 40 2d 3a 8e c0 f1 82 ad 40
       -1.5154252 3.02159 -4.4446015 5.422234
000310 bc c6 b4 3e 44 68 cc c0 22 0c e9 3f 2a f7 79 40
       0.35307872 -6.3877277 1.8206828 3.9057107
000320 40 97 ac 3f d6 14 7a bf 83 18 b9 bf ee 80 bc bf
       1.3483658 -0.97688043 -1.4460605 -1.4726846
000330 38 2b 5f 3f c4 17 2b 3f f6 71 f3 3e 40 fc 69 40
       0.8717532 0.6683314 0.47547883 3.656021
000340 0e 00 24 c0 33 5d 0a c0 18 8a 32 3e f6 24 88 bf
       -2.5625033 -2.1619384 0.17435491 -1.063628
000350 3e 8c 76 3f 28 7f 87 c0 8e 1e f4 be cc 39 30 c0
       0.9630774 -4.234272 -0.4767956 -2.7535276
000360 80 ce 6d bd 4c e4 55 c0 7d 0d 05 40 5a d7 38 40
       -0.058058262 -3.3420591 2.0789483 2.888144
000370 1a 10 11 c0 f7 e3 63 c0 f8 73 ea bf 5b f2 b2 3f
       -2.2666078 -3.5607889 -1.8316641 1.3980211
000380 22 92 e4 3f 41 6a c3 40 90 62 74 3f 72 a2 73 3f
       1.7857096 6.1067204 0.95462894 0.95169747
000390 22 79 f8 be 32 f6 06 c0 e4 c7 a1 bf 80 be 5d 3d
       -0.48529917 -2.1087766 -1.2639127 0.054136753
0003a0 28 14 a3 3f b2 64 49 c0 10 ae 5f 3e 3f 02 8a 3e
       1.2740526 -3.146771 0.21843743 0.2695484
0003b0 ca 5b 87 bf de 6a e7 be 0b 6d 93 3f 99 f7 c9 be
       -1.0574887 -0.4519872 1.1517652 -0.39446715
0003c0 b6 4a d5 bf 73 35 20 40 c5 9d 81 bf 2d c0 9f 40
       -1.6663425 2.5032623 -1.0126272 4.992209
0003d0 98 89 d5 3e 12 5b 55 bf a8 30 2f 3e 25 ea 9c c0
       0.41706538 -0.8334209 0.17108405 -4.903582
0003e0 18 74 e5 3f 06 d1 fb bf 9b d4 98 3f 76 c6 2b c0
       1.7926054 -1.9673164 1.1939882 -2.683988
0003f0 b2 1a b6 bf a7 dd 7c 40 82 de b4 3f 27 49 40 40
       -1.4226897 3.9510286 1.4130404 3.0044649

4.bias f4 [5]
000000 b3 c8 48 40 a7 61 2b c0 92 54 a4 3f 79 2a fc 3f
       3.1372497 -2.6778352 1.2838309 1.9700462
000010 70 c7 0a 40
       2.1684227
