demo/experiments/genetic_algorithm/ga_experiment_2021_02_12_160407/problem_39.model (torch, 26149 bytes, 6 tensors)

0.weight f4 [64, 22]
0	0xbf237f66	-0.6386627
1	0x4089e201	4.3088384
2	0x3f0b4082	0.54395306
3	0xc0672025	-3.611337
4	0x40211116	2.5166678
5	0xbfbdf76b	-1.4841131
6	0x4023414f	2.5508611
7	0xc03267c9	-2.7875845
8	0xbece69cb	-0.4031509
9	0x4075b42b	3.8391216
10	0xbf987dfd	-1.1913449
11	0x3f7171cc	0.94314265
12	0x3fe04895	1.752215
13	0xc083b626	-4.115985
14	0x40a78a62	5.2356424
15	0xc07e1811	-3.970219
16	0xc09cdd08	-4.9019814
17	0xbf5c0ebe	-0.85959995
18	0xc0a838a2	-5.256913
19	0xbfa01f41	-1.2509538
20	0xc0054030	-2.0820427
21	0xbfdb011c	-1.7109714
22	0x4006a0f7	2.1035745
23	0xc0443c16	-3.0661674
24	0x3f11879f	0.56847566
25	0xbfdcff60	-1.7265434
26	0x3e180e48	0.14849198
27	0x3fc5c3f1	1.5450422
28	0xc0807710	-4.014534
29	0x3f2a3878	0.66492414
30	0x3eb08f58	0.34484363
31	0x3fa3bdae	1.2792261
32	0x401d9004	2.461915
33	0xbfd472e8	-1.6597567
34	0x3f0a4b0e	0.54020774
35	0xc012dca7	-2.2947176
36	0xbe2bca58	-0.16776407
37	0x3ff6d6ea	1.9284337
38	0x3f6f5a85	0.93497497
39	0x3fe7f8cf	1.8122805
40	0x3f40a294	0.75248075
41	0xbffdbcdd	-1.9823261
42	0xc0acf833	-5.4052978
43	0xc0391f4c	-2.8925352
44	0xbd8e2788	-0.06941134
45	0x3fc0dc63	1.5067257
46	0x3e486a18	0.19571722
47	0xc0e99fb6	-7.300746
48	0xbd990550	-0.074717164
49	0xbf5c9a7e	-0.86173236
50	0xbf116ac8	-0.5680356
51	0xbf8c0e40	-1.0941849
52	0x3f3a8c6a	0.72870505
53	0x402530d8	2.5811062
54	0xbff05a8e	-1.8777635
55	0x3fa8c7d7	1.3185986
56	0x3d8fb910	0.0701772
57	0xbfa9b399	-1.3257934
58	0xbf3bcddc	-0.7336099
59	0x3f4095ee	0.75228775
60	0x3f866212	1.0498679
61	0x3ef73e2d	0.48289624
62	0xc0471846	-3.1108565
63	0xc0096dab	-2.1473186
64	0xbdd8ff70	-0.10595596
65	0x3f0dd932	0.5540954
66	0xbf80adc9	-1.0053035
67	0x40818d8b	4.048528
68	0xbfe27722	-1.7692606
69	0x40441b60	3.0641708
70	0xbfc71366	-1.5552795
71	0x3fc686c0	1.5509872
72	0x40053e80	2.0819397
73	0x400cbb05	2.1989148
74	0x3e5a3b18	0.21311605
75	0x3fd7445d	1.6817738
76	0x402b2bb0	2.6745415
77	0x3fe2341a	1.767215
78	0x3e75db22	0.24009374
79	0xbe6f3d69	-0.2336327
80	0xc0323aa6	-2.7848296
81	0x3fb9459c	1.4474368
82	0xbf9a8fa5	-1.2075087
83	0xbe8f56c4	-0.27995884
84	0xc005ff75	-2.0937169
85	0xc04734e8	-3.1126041
86	0x4008b421	2.1359942
87	0xc03d2fb1	-2.9560359
88	0xbe343a20	-0.17600298
89	0x3e08ba47	0.13352309
90	0x401e684a	2.4751153
91	0xbeb087e0	-0.34478664
92	0x408c4d33	4.3844237
93	0xc0431e66	-3.0487304
94	0xbf9a1cf4	-1.2040086
95	0xc02a8fa4	-2.6650171
96	0xc085f3d8	-4.186016
97	0x3f452a1e	0.7701739
98	0x3f29e5ea	0.66366446
99	0xbfa190d2	-1.2622321
100	0x3f6f1b4a	0.93401015
101	0xbe846308	-0.25856805
102	0xc0106e4a	-2.2567315
103	0x4054e5cc	3.3265257
104	0x407b58a1	3.9272845
105	0x4081ebc8	4.060032
106	0xbf947517	-1.1598233
107	0x40232838	2.5493298
108	0xc02107a2	-2.5160909
109	0x4055ccb0	3.3406181
110	0x3f5de264	0.8667357
111	0x4015c232	2.3399777
112	0xbfa641a8	-1.2988787
113	0xc08414cf	-4.12754
114	0x409f7b50	4.983803
115	0x3f6849d2	0.9073764
116	0x401a8b62	2.4147573
117	0x3eb28c92	0.34872872
118	0xc05f328a	-3.4874597
119	0x40322e34	2.78407
120	0x403bbf30	2.9335442
121	0xc07af444	-3.9211588
122	0x3fa1a084	1.262711
123	0xc0868065	-4.203173
124	0xc0abd2c2	-5.3694773
125	0x402abeca	2.6678948
126	0xbe6a81b0	-0.22901034
127	0x3c1ae358	0.009453617
128	0x3e07f6ea	0.13277784
129	0x3f5ab5ea	0.8543383
130	0x3fc723d0	1.5557804
131	0xc08d0a19	-4.4074826
132	0x3f9dd3fc	1.2330317
133	0xc0864d17	-4.1969104
134	0xc04bb5fe	-3.182983
135	0x40a14a66	5.040332
136	0xbf53042b	-0.82428235
137	0xbeeec063	-0.46631154
138	0xbf334689	-0.70029503
139	0x4078ebe5	3.8893979
140	0xc0aab96d	-5.335135
141	0xc019652c	-2.3968
142	0x3f7cb11a	0.98707736
143	0x4009ee66	2.1551757
144	0x40484368	3.1291142
145	0xbff30cf9	-1.8988334
146	0x3f26c78c	0.65148234
147	0xbf4d9b03	-0.80314654
148	0xc0370487	-2.8596513
149	0xbfb9ff92	-1.4531119
150	0x40065239	2.0987685
151	0x3db1cdcc	0.08681831
152	0x3fbac5cc	1.4591613
153	0xbfdf3788	-1.7438822
154	0x3fa64947	1.2991112
155	0x3fe02478	1.7511129
156	0x3f66b596	0.9012083
157	0x4008962c	2.1341658
158	0xbf1e64ba	-0.61872447
159	0xbeb2806a	-0.34863597
160	0xc0320ed0	-2.782154
161	0xbf8c720b	-1.0972303
162	0xc025336e	-2.581264
163	0x3fe53f45	1.7909933
164	0x402da40f	2.7131383
165	0x3fa9ed7e	1.3275602
166	0x40520a38	3.2818737
167	0x3ff9eba0	1.9525032
168	0xbff20d37	-1.8910283
169	0x3f95d45b	1.1705431
170	0x3ec037e8	0.37542653
171	0xbf6b6125	-0.91945106
172	0x406c166a	3.688868
173	0x400e5166	2.2237182
174	0x405eceee	3.48138
175	0xc038cd0d	-2.8875153
176	0xbfc77ed9	-1.5585586
177	0x3ef38d40	0.47568703
178	0x3ff88f16	1.9418666
179	0xbdcdc5e0	-0.10047507
180	0x3fd8f8b7	1.6950902
181	0xc0606b9b	-3.5065677
182	0xc0100c7e	-2.2507625
183	0x3f3c861d	0.7364214
184	0xbf767ca4	-0.96283937
185	0x40364ee7	2.8485658
186	0xbf506b9f	-0.81414217
187	0xbf2c1c6e	-0.6723088
188	0x3faae6d6	1.3351696
189	0xc027b34f	-2.6203191
190	0xbdba37c8	-0.09092671
191	0xbf905a09	-1.1277477
192	0x4006c329	2.1056616
193	0x3fdab464	1.7086301
194	0x3e34f092	0.17669895
195	0xc0626d04	-3.5379038
196	0xc061076a	-3.5160775
197	0xbb3a3a00	-0.0028415918
198	0x408d51f0	4.416252
199	0xbf39cd06	-0.72578466
200	0xbfcd6502	-1.604645
201	0xbe8f3900	-0.27973175
202	0x4008378e	2.1283908
203	0xbf41f19d	-0.757593
204	0x402b22e5	2.6740048
205	0xc0991db4	-4.784876
206	0x4008a039	2.1347792
207	0x3f39bf2b	0.72557324
208	0xc08f23ee	-4.473136
209	0x3ea60a90	0.32429934
210	0x3d6bbf44	0.057555452
211	0xbfe90d5b	-1.8207201
212	0x3ff69724	1.9264874
213	0xbd8d8300	-0.06909752
214	0x40c5ba88	6.17902
215	0xbfb57f32	-1.4179442
216	0xc01a0550	-2.4065742
217	0xc000b19a	-2.01084
218	0x3e02d359	0.12775935
219	0xc0851578	-4.1588707
220	0x3f189211	0.5959788
221	0xbf5b3582	-0.8562852
222	0x40b992e8	5.799183
223	0x3ffa20a9	1.9541217
224	0x4009fd21	2.1560748
225	0x3e891eaa	0.26781207
226	0xbfc03a34	-1.5017762
227	0x40309604	2.7591562
228	0xc001fa04	-2.0308847
229	0x40b23844	5.5693684
230	0xbf333259	-0.699987
231	0xbe9f1ada	-0.31075174
232	0xbf829583	-1.0201877
233	0x3e769768	0.24081194
234	0xbf85e24c	-1.0459685
235	0xc0190a17	-2.3912408
236	0x40be26af	5.942222
237	0x40056ba2	2.0846944
238	0x4022045b	2.5315158
239	0x3efbaac0	0.4915371
240	0x4039275e	2.8930278
241	0x3fde13f0	1.7349834
242	0xc0b7c310	-5.7425613
243	0x4001a996	2.0259757
244	0x3e6bb7b6	0.23019299
245	0x3fa0b16a	1.2554142
246	0xbfbc2556	-1.4698894
247	0xbf3818c8	-0.71912813
248	0x3fcc75cc	1.5973449
249	0xc000bd1d	-2.0115426
250	0x3f95db8b	1.1707624
251	0xbf5c4d2c	-0.86055255
252	0x402ec448	2.73073
253	0x3f497bfc	0.7870481
254	0xbe71223e	-0.23548219
255	0x40a2013c	5.0626507

0.bias f4 [64]
0	0xbfbf8b11	-1.4964315
1	0x3eb1d9d5	0.34736505
2	0x3ffe3336	1.9859378
3	0x40121e2c	2.2830915
4	0x3f8da8f9	1.1067191
5	0xbf16d085	-0.58911926
6	0xc0ae2f8a	-5.443303
7	0xbcd68ff8	-0.026191697
8	0x3f83220b	1.0244764
9	0x3f5359ac	0.82558703
10	0x3da8afac	0.08236632
11	0xbfe6648a	-1.7999432
12	0x3f85e02c	1.0459037
13	0xbfd3720d	-1.651918
14	0xc0116294	-2.2716417
15	0xbfc10f06	-1.508271
16	0x3ee6d8b0	0.45087194
17	0xbfa12b10	-1.2591267
18	0x3ed8cad0	0.42342234
19	0xbffa2c74	-1.9544816
20	0xc019dcec	-2.404109
21	0x3ef44ed1	0.47716382
22	0xc02dfd5d	-2.718589
23	0x3eaa952e	0.3331694
24	0xc049d770	-3.1537743
25	0xbf85fefe	-1.0468442
26	0xbf1cb489	-0.61212975
27	0x3efacaab	0.48982748
28	0xbebf969d	-0.37419596
29	0xbf43928d	-0.76395494
30	0xbe9aa1ae	-0.30201477
31	0x3e8c8816	0.27447575
32	0x3fc15043	1.5102619
33	0xc010978c	-2.2592497
34	0xc0259c34	-2.587659
35	0x3fe9ebb6	1.8275058
36	0xc001c4fc	-2.027648
37	0xbf75ebd6	-0.9606298
38	0xc03811e2	-2.8760915
39	0xbfa13aaa	-1.2596028
40	0xbf968da0	-1.176197
41	0x3fada01f	1.356449
42	0x406fccb7	3.7468698
43	0x3e86e620	0.26347446
44	0xbf0dcbc2	-0.55389035
45	0x4094544d	4.6352906
46	0x3fd8a04f	1.6923922
47	0x3fa44436	1.2833316
48	0x3fabc60b	1.3419813
49	0x3e32039e	0.17384192
50	0xbf944216	-1.1582668
51	0x3db280e0	0.08715987
52	0xbf652800	-0.8951416
53	0xbed3cd99	-0.41367796
54	0xc03648f9	-2.848204
55	0xbe2740ac	-0.16333264
56	0x3fa1f630	1.2653255
57	0xc03327d8	-2.7993069
58	0xbfe8902e	-1.8169
59	0xbc3817ac	-0.011236113
60	0x3dde2aa0	0.10847974
61	0xc084ca8f	-4.1497264
62	0x3e45cdd0	0.19316792
63	0xbffee078	-1.9912252

2.weight f4 [64, 64]
0	0x3f17583c	0.5911901
1	0x3f2f64a8	0.68512964
2	0xbf997fb6	-1.1992099
3	0x3fb67604	1.4254766
4	0x403a5de2	2.9119802
5	0x3f882bcd	1.0638367
6	0xbfe26168	-1.7685976
7	0x3f3ccd82	0.7375108
8	0x3f5ec508	0.87019396
9	0x40764aa0	3.8483047
10	0x4067b9e5	3.620721
11	0xbf49d664	-0.7884276
12	0x3d9355e8	0.0719412
13	0xbfb62327	-1.4229478
14	0x403ddcd9	2.9666045
15	0xbc0a8ba0	-0.008456141
16	0x4057ca42	3.3717198
17	0x407bd4ea	3.9348702
18	0xbfa8fd9f	-1.3202399
19	0xbff02fee	-1.8764627
20	0x3f8f2a2f	1.1184748
21	0x3cea8740	0.028628945
22	0xbfcf699d	-1.6204106
23	0x3fbb1d09	1.4618236
24	0x40390316	2.8908134
25	0x3f24dabe	0.64396274
26	0x3f22fa94	0.636636
27	0x3fe94fc5	1.8227469
28	0xbe972cb4	-0.29526293
29	0xbe782a2a	-0.24234834
30	0x3f2dfa2e	0.6795987
31	0x3f7b14a6	0.9807838
32	0xc0958d64	-4.6735096
33	0xbf546ee1	-0.8298169
34	0xc0ad1406	-5.4086943
35	0x3f7b38c1	0.98133475
36	0xc08ba2de	-4.3636312
37	0xc0536369	-3.3029425
38	0xbf63f87a	-0.8905102
39	0xbff6d0a5	-1.9282423
40	0x402fce06	2.7469497
41	0x4052f290	3.2960548
42	0xbde07d48	-0.109613955
43	0x40445fd6	3.0683494
44	0xc0a70ede	-5.220565
45	0xc07e6945	-3.9751751
46	0x3eb4e035	0.35327306
47	0xc04a9756	-3.1654868
48	0xbfb555b1	-1.4166776
49	0xbebc526c	-0.36781633
50	0xbfead277	-1.8345479
51	0xbfb66eda	-1.4252579
52	0x4056277c	3.34616
53	0xc000ee66	-2.0145507
54	0xbf71b4ac	-0.9441631
55	0xbff20b90	-1.8909779
56	0x3f88dccc	1.0692382
57	0xc07ce000	-3.9511719
58	0x3ff6473b	1.9240488
59	0x3eaff884	0.3436929
60	0xbf5a0402	-0.85162365
61	0xbf2acbf8	-0.6671748
62	0xbd73b530	-0.059498966
63	0x3dd979d6	0.106189415
64	0xc0901a09	-4.503178
65	0xbfa816ea	-1.3131993
66	0xbf21ddae	-0.6322888
67	0x407d1618	3.9544735
68	0xbe3138a0	-0.17306757
69	0xbf633bdf	-0.8876323
70	0xbf964fbd	-1.1743084
71	0x3ed769d4	0.42072928
72	0x40106acb	2.2565181
73	0xbf3e8abf	-0.7443046
74	0x40c80f48	6.2518654
75	0x4063f042	3.5615392
76	0x3fd25fe2	1.6435511
77	0xbfe74db7	-1.8070592
78	0x3ed8d134	0.4234711
79	0xc095a116	-4.675914
80	0x3fe0af25	1.755345
81	0xc05cdd60	-3.4510117
82	0x3fc20d84	1.5160375
83	0xbf958af6	-1.1683033
84	0x3f40ebec	0.7535999
85	0x3f31bccd	0.6942871
86	0x4062daf2	3.5446134
87	0xc063fd50	-3.562336
88	0x3f86ea37	1.0540227
89	0xbfe94d2a	-1.8226674
90	0x3fcbd1a1	1.5923349
91	0xbff0b3fa	-1.8804924
92	0xc07dd97e	-3.9663997
93	0xbebe9ff2	-0.37231404
94	0x3ef41c94	0.47678053
95	0xbf9dbaf7	-1.2322682
96	0x3e74c784	0.23904234
97	0x403c17b6	2.9389472
98	0x3fefc31a	1.8731415
99	0x3f0834cb	0.53205556
100	0xc0128a0b	-2.2896755
101	0x4065ad43	3.5887
102	0x3e8619e9	0.26191643
103	0x3ef84278	0.48488212
104	0x3f11e09b	0.56983346
105	0xbfa3ba40	-1.2791214
106	0x3f86e331	1.0538083
107	0x40597a8f	3.3981054
108	0x3e76c1f0	0.24097419
109	0xbee21cd0	-0.44162607
110	0x3fc7964c	1.5592742
111	0x3e71e57f	0.23622702
112	0x3ef0885e	0.4697904
113	0xc02881fb	-2.6329334
114	0xbfa3bd56	-1.2792156
115	0xbeca5040	-0.3951435
116	0x3f0e362d	0.55551416
117	0x402a983f	2.6655424
118	0x3f7d1471	0.98859316
119	0xc01118fa	-2.2671494
120	0xbfbaae88	-1.4584513
121	0x3fd5d34a	1.6705105
122	0x403ec6b7	2.9808786
123	0x3ebd6730	0.36992788
124	0x3f3f40ae	0.7470807
125	0xbfcfa960	-1.6223564
126	0xbf60eead	-0.8786419
127	0x40022884	2.0337229
128	0xbf3c7b61	-0.7362576
129	0x4054b51e	3.3235545
130	0xbff8a5d6	-1.9425609
131	0xbdf70bb0	-0.12062776
132	0x4037a698	2.869543
133	0x3f154770	0.5831213
134	0x3fbbb2c5	1.4663931
135	0x4039d434	2.9035769
136	0x3efe685c	0.49688995
137	0x3f6b18a5	0.9183448
138	0xbf385a0e	-0.7201241
139	0xbe42f42f	-0.19038461
140	0x404e172a	3.2201638
141	0xc0a7bdd5	-5.241923
142	0x3f915744	1.1354756
143	0x3e5b394e	0.21408579
144	0x3eb3d47a	0.35123044
145	0xc07853fa	-3.8801255
146	0xbfd588d0	-1.6682377
147	0xc0a6c848	-5.2119484
148	0x40a16625	5.043719
149	0xbd4e7860	-0.050407767
150	0x3fc047ba	1.5021889
151	0x3f07ea58	0.53091955
152	0xbfba8429	-1.4571582
153	0x401fc1f5	2.4962132
154	0xbc93f270	-0.01805994
155	0xbfdae958	-1.7102461
156	0x4054b910	3.3237953
157	0x400a3276	2.15933
158	0x403e691d	2.9751656
159	0xc0565315	-3.348821
160	0xbf21a8a2	-0.6314794
161	0xc0974376	-4.726985
162	0x3f38969d	0.7210482
163	0xbf3307bd	-0.6993368
164	0xbfdcd716	-1.7253139
165	0x3fff7340	1.9957047
166	0xbfc82632	-1.5636656
167	0xbf8a3e56	-1.0800273
168	0xbfc3dbc6	-1.5301445
169	0xc036e7a4	-2.8578882
170	0xc0a0978c	-5.0184994
171	0x40104c63	2.2546623
172	0x3ee3da6b	0.44502577
173	0xbf9e122f	-1.2349299
174	0x3fd3cc63	1.6546749
175	0xbf861e8c	-1.0478072
176	0xc07df0c0	-3.9678192
177	0x3eecaafc	0.462242
178	0x404ad6f4	3.1693697
179	0x3fda2c6e	1.7044809
180	0xbf88716e	-1.0659616
181	0x3fadf48e	1.3590257
182	0xbef214ae	-0.47281402
183	0x3f3535c5	0.7078517
184	0x4083775f	4.1083217
185	0xc09cd13e	-4.9005423
186	0x3ef48a78	0.47761893
187	0x3fbe4eda	1.4867814
188	0x40268223	2.601693
189	0xc084ce7d	-4.150206
190	0x401537de	2.3315349
191	0x3ef70160	0.48243237
192	0xbddecbf0	-0.10878742
193	0xbff42db6	-1.907645
194	0x3fb53d92	1.4159415
195	0xbde01640	-0.10941744
196	0xbebe766d	-0.37199727
197	0xc0535fac	-3.3027143
198	0x4026957e	2.6028743
199	0x3fac3928	1.3454943
200	0x3f0bea0e	0.54654014
201	0xbf200846	-0.62512624
202	0xc04397e9	-3.0561469
203	0x4023777a	2.5541673
204	0x3ed8d2d8	0.4234836
205	0xbf21c198	-0.63186026
206	0xbf6e1ab2	-0.93009484
207	0x3f4d73fb	0.802551
208	0xc029f37d	-2.6554863
209	0xbf89224d	-1.0713593
210	0xbd78c798	-0.060737222
211	0x4058b4b1	3.3860285
212	0x3d401568	0.046895415
213	0xc01bc1db	-2.433707
214	0xc01bc849	-2.4340994
215	0x3e9f1704	0.31072247
216	0xbf9ce0c2	-1.2256091
217	0x406de862	3.7173085
218	0xc0309edc	-2.759696
219	0x3fd58ecc	1.6684203
220	0xbec1de25	-0.37864795
221	0xbfe92b86	-1.8216407
222	0xbe83f81e	-0.25775236
223	0xbfa6b632	-1.3024352
224	0x3f8e49c8	1.1116266
225	0x3f354716	0.70811594
226	0xbf07df52	-0.53075135
227	0x3f1be2a4	0.608927
228	0x3fbd59b6	1.4793003
229	0xc0659d12	-3.5877118
230	0xc01ebfd0	-2.4804573
231	0xc04cf520	-3.2024612
232	0xc0529c7d	-3.2908013
233	0xc0a94046	-5.289096
234	0xbfef5c92	-1.8700125
235	0x403cac1c	2.9480047
236	0xbfc14500	-1.5099182
237	0xc003d984	-2.060151
238	0x3f3c724b	0.736119
239	0x4034c15d	2.824302
240	0x4002b6d8	2.04241
241	0xbf8c9f5b	-1.0986131
242	0xbfe0dde2	-1.7567713
243	0xbea82d4d	-0.32847062
244	0x400b8093	2.1797225
245	0xbfc9bc50	-1.5760593
246	0x3e58de7b	0.2117862
247	0xc068f5ab	-3.6399944
248	0xbfdf33c4	-1.7437673
249	0xc002dc54	-2.0446978
250	0xbf21bd4d	-0.63179475
251	0x3f0b88c1	0.54505545
252	0x409ffb7a	4.999448
253	0xc07c2981	-3.9400332
254	0x3f6dcfd6	0.9289526
255	0x400ae682	2.170319

2.bias f4 [64]
0	0x402a1d59	2.6580412
1	0x3ddbaf90	0.10726845
2	0x406ba865	3.682153
3	0x3ed8eb58	0.42367053
4	0x3e1d905c	0.153871
5	0x3f244eac	0.64182544
6	0xbe015eb0	-0.12633777
7	0x3f0e04f4	0.5547631
8	0xbfc085d5	-1.5040842
9	0x40237811	2.5542033
10	0x3f9852c3	1.1900257
11	0x3eec2149	0.46119145
12	0xc02c3ba6	-2.6911407
13	0xc003ab7e	-2.057342
14	0x3f874cbc	1.0570292
15	0x3e928592	0.2861753
16	0x4081d6f0	4.0574875
17	0x3f5bd1aa	0.85866797
18	0xbfffddb3	-1.9989532
19	0x40353284	2.8312082
20	0xbf845622	-1.0338786
21	0xc0610d24	-3.516427
22	0x4022b8c3	2.542527
23	0xbffba34a	-1.9659207
24	0xc00c8102	-2.195374
25	0x4017594d	2.3648255
26	0xc01c7833	-2.4448364
27	0x3f52764f	0.82211775
28	0x40025ef7	2.0370462
29	0x3eeafbf2	0.45895344
30	0xc01a2985	-2.4087842
31	0xbf6bd6f1	-0.9212485
32	0x3fddcdbc	1.732841
33	0xbf1176fa	-0.5682217
34	0xc00c9e47	-2.1971605
35	0xc018bbe1	-2.3864672
36	0xc07efa8f	-3.984043
37	0xc07d3f46	-3.956987
38	0xbf453a48	-0.77042055
39	0xbf34945c	-0.7053888
40	0xbf2bdb76	-0.67131746
41	0x4069d4de	3.6536174
42	0x3f28308c	0.65699077
43	0xbf9144ab	-1.1349081
44	0x3f88a7c8	1.0676203
45	0x3e10b798	0.14132535
46	0x3f8c70d8	1.0971937
47	0xc02b7bf4	-2.6794405
48	0x3fe604c6	1.7970207
49	0x40675b57	3.61495
50	0x3fcb552a	1.5885365
51	0xc0486c8a	-3.1316247
52	0x40276878	2.6157513
53	0x402342f2	2.550961
54	0xc05fe10e	-3.4981112
55	0xbe2d4018	-0.16918981
56	0xc0089a3a	-2.1344132
57	0xbe3d35b4	-0.18477517
58	0x3ef39df8	0.47581458
59	0x3fb116c8	1.3835077
60	0xbfaf34f4	-1.3688035
61	0xbf300f1a	-0.68773043
62	0x3f4eb78a	0.8074881
63	0x3fe6b5e6	1.8024261

4.weight f4 [5, 64]
0	0x401f7298	2.4913692
1	0x3c8d3f6c	0.017242156
2	0xbe6b0700	-0.22951889
3	0x4000580f	2.0053747
4	0xbdb91000	-0.09036255
5	0xbf0b296e	-0.5436009
6	0xbda99358	-0.08280057
7	0x3f9dc25c	1.2324939
8	0xbfc8b1b7	-1.5679234
9	0xbdedc270	-0.11609352
10	0x40851d94	4.1598606
11	0xc0c3cce6	-6.118762
12	0xc0a9494f	-5.290199
13	0xbf36f13d	-0.7146185
14	0xbfc9ba0c	-1.5759902
15	0xc0382ebe	-2.877853
16	0xc0020b62	-2.0319448
17	0x404e5c4e	3.2243838
18	0x3e8d2ac0	0.27571678
19	0xc026f3c8	-2.6086292
20	0x40944258	4.6330986
21	0xbfb72200	-1.4307251
22	0xc0231964	-2.5484247
23	0x401edc14	2.4821825
24	0xc02a6166	-2.6621947
25	0x3f58d086	0.8469318
26	0xbf86d8f2	-1.0534956
27	0xbfa0ef94	-1.2573113
28	0x402c0fbb	2.68846
29	0x3dfcebd2	0.12349667
30	0x3d595b70	0.053065717
31	0xbee0b458	-0.4388759
32	0xc08bf819	-4.3740354
33	0x3f20c5e1	0.6280194
34	0xbf4f1576	-0.8089212
35	0xc0045c02	-2.0681157
36	0xc098cad9	-4.7747617
37	0x40c01420	6.0024567
38	0xc0a8e18e	-5.2775335
39	0x3fd410a9	1.6567584
40	0x3ff5d5be	1.9205854
41	0x401dac9b	2.46366
42	0xbe90a73b	-0.28252587
43	0xc09c2b61	-4.8802953
44	0xbfd00a08	-1.6253061
45	0xc019caee	-2.4030108
46	0xc04fa478	-3.2444134
47	0xc04218ff	-3.0327756
48	0x40173dd5	2.363149
49	0xbfff7b76	-1.9959552
50	0xc067c186	-3.6211867
51	0xc0ab2b3f	-5.349029
52	0xc02d9423	-2.7121665
53	0x3e8c6f50	0.27428675
54	0xbe6dca68	-0.23221743
55	0xbf2797f2	-0.65466225
56	0xc00a1f70	-2.1581688
57	0xbf914481	-1.1349031
58	0x3f55525c	0.83328795
59	0x3d419368	0.04725972
60	0xbf97d040	-1.1860428
61	0x407ccafa	3.9498887
62	0x403cc1d2	2.9493299
63	0xbfbe2478	-1.4854879
64	0x3e937c96	0.2880599
65	0x406002a1	3.5001605
66	0xc021ff2f	-2.5312002
67	0x3faa1ff2	1.3290999
68	0x3f8c3687	1.095414
69	0xbe7b96b8	-0.24569213
70	0x403420ce	2.8145022
71	0xc0566631	-3.3499873
72	0x3ed5a33c	0.417261
73	0x3f3a1132	0.7268249
74	0xbfbc1351	-1.4693395
75	0x3ff0729d	1.8784977
76	0xbfa18797	-1.2619504
77	0xbe9cca62	-0.30623156
78	0xbe0bd300	-0.13654709
79	0xbfd2d9ab	-1.6472677
80	0x3f00ef87	0.5036549
81	0x40036462	2.0530019
82	0x40873edc	4.2264233
83	0x400391d2	2.0557752
84	0x4052f0da	3.2959504
85	0x3d28643c	0.041111216
86	0xbf971f01	-1.1806337
87	0xbf6d0b76	-0.92595613
88	0xbf0126b3	-0.50449675
89	0x3dffda78	0.124928415
90	0x3ffa5d33	1.9559692
91	0xbff0a90a	-1.8801587
92	0xbf8c2695	-1.0949274
93	0xc01a50ed	-2.4111893
94	0x3f6ad3be	0.9172934
95	0xc00c082a	-2.1879983
96	0xc007c0ae	-2.1211352
97	0xbf280f07	-0.6564793
98	0x40571c7a	3.361113
99	0xc020f2bc	-2.5148153
100	0xbf88d3e2	-1.0689662
101	0x3ecbf60c	0.39836156
102	0x3b84bb00	0.0040506124
103	0x3e49b678	0.19698513
104	0x402a6950	2.6626778
105	0xc038cb4e	-2.8874087
106	0x408e9cd5	4.4566445
107	0xc08ea8b3	-4.458093
108	0xc01df64e	-2.4681582
109	0xbfaa11e2	-1.3286707
110	0xbf14ff06	-0.58201635
111	0xbfeadca0	-1.834858
112	0xbfb99b02	-1.450043
113	0xc007d45e	-2.1223369
114	0xbec79b5e	-0.38985723
115	0xc01bd9be	-2.435165
116	0x400fc9ac	2.246684
117	0xbe7f1c70	-0.24913192
118	0xc0238934	-2.5552492
119	0x3ef23884	0.47308743
120	0x404db174	3.2139559
121	0x3f824c52	1.0179541
122	0xc081df0a	-4.0584764
123	0xc0a3da4c	-5.1203976
124	0xbf71a293	-0.94388694
125	0xbfb7187f	-1.4304351
126	0x3fc26c4a	1.5189297
127	0xbef62380	-0.4807396
128	0x40a04aad	5.0091157
129	0xbe04b9e0	-0.1296153
130	0xbf8cf52a	-1.1012318
131	0x3f9b5bc8	1.2137384
132	0xc087ce7e	-4.2439566
133	0x3d5850a0	0.052811265
134	0x3eaab59c	0.33341682
135	0x4055f314	3.3429613
136	0xc04b44c4	-3.1760721
137	0x3ffce774	1.9758134
138	0x3f218f90	0.63109684
139	0x402ddf1f	2.7167432
140	0x4004ec60	2.0769272
141	0xbfc4f94b	-1.5388578
142	0xbffdbddd	-1.9823567
143	0x407a1f31	3.9081538
144	0x3fb26152	1.393595
145	0x3f3ba0e3	0.7329237
146	0xbff057c6	-1.8776786
147	0x3f93dec3	1.1552356
148	0xc041b12f	-3.0264394
149	0xc046c1a8	-3.1055698
150	0x3e8f3e10	0.27977037
151	0xc0a50728	-5.1571236
152	0xc0966c74	-4.700739
153	0xc04d0c1e	-3.2038646
154	0xbd8f1c2a	-0.06987794
155	0x40bade3b	5.8396277
156	0x3f0ea06d	0.5571354
157	0x400b6c16	2.178472
158	0x402746f6	2.613706
159	0xc01e8320	-2.4767532
160	0xc04a8f7e	-3.165008
161	0x3ce81228	0.02832897
162	0x3de912f8	0.11380571
163	0x3f99d382	1.2017672
164	0x3e847288	0.2586863
165	0x3f633a30	0.8876066
166	0x3eac9ab5	0.33711782
167	0xc0091076	-2.1416297
168	0x3ecd6477	0.4011571
169	0x3f81d4c1	1.0143052
170	0xc0298fa0	-2.6493912
171	0x4020cc82	2.5124822
172	0xbfe43bc3	-1.7830738
173	0x4047d79e	3.1225352
174	0xbfe47def	-1.7850932
175	0xbe1fff60	-0.15624762
176	0x3ebb8ecc	0.36632383
177	0x3e46e256	0.19422278
178	0xbf0cd2a6	-0.55008924
179	0xc00d47e9	-2.207514
180	0xbfdfdb7a	-1.7488854
181	0xbec9774c	-0.3934883
182	0xc070f7e1	-3.7651293
183	0xbfd5f512	-1.6715415
184	0x3ee41d1c	0.4455346
185	0x3e04595c	0.12924713
186	0xc0577e40	-3.3670807
187	0x4010a133	2.2598388
188	0x40293685	2.6439526
189	0xbf0c24e4	-0.5474379
190	0xbfadcc4e	-1.3577974
191	0x3f1c552a	0.6106745
192	0x3f7db634	0.99106145
193	0x3f0dc7d2	0.55383027
194	0xc0205189	-2.5049765
195	0xbfabc37f	-1.3419036
196	0xbf89b43f	-1.0758132
197	0xbe843bb0	-0.25826788
198	0x402bfe23	2.6873863
199	0xc00220e0	-2.0332565
200	0x3f464323	0.7744619
201	0xbf5ce751	-0.8629046
202	0xbf4a4f5c	-0.7902734
203	0x4001390a	2.0191064
204	0x40c90c11	6.282723
205	0x3fdd52c6	1.7290885
206	0xbeb7b0a8	-0.35876966
207	0x400740a6	2.1133208
208	0x405539af	3.3316457
209	0x3fb72f88	1.431138
210	0xbf6b7ca9	-0.9198709
211	0xbf2ef13b	-0.6833684
212	0xc092a8c1	-4.5831
213	0x40999e4b	4.800573
214	0x3fb596fc	1.4186702
215	0x3fba51a9	1.4556171
216	0x3efa12b8	0.48842406
217	0x3fa0db90	1.2567005
218	0x3ffe7145	1.9878317
219	0x3eebfba0	0.46090412
220	0xbf903cbd	-1.1268536
221	0xbf87e24c	-1.0615935
222	0x3fb035d7	1.3766431
223	0x3fa480d3	1.2851814
224	0x3f95e4d5	1.1710459
225	0xc02a6ba9	-2.662821
226	0x3fdb4eeb	1.7133459
227	0x401e81a2	2.4766622
228	0x3eb27916	0.34858006
229	0xc09e66b2	-4.950036
230	0x3ff38937	1.902625
231	0x3f5624a0	0.83649635
232	0xc00fcea4	-2.2469873
233	0x3e72a472	0.23695543
234	0x3ed09b12	0.4074331
235	0xc03105e0	-2.7659836
236	0xc0b4ed85	-5.653994
237	0x40961952	4.690591
238	0x3f80f8e8	1.007596
239	0xbfde71f2	-1.7378523
240	0xc0242554	-2.5647783
241	0xc0034c83	-2.051545
242	0x3fc19607	1.512391
243	0x409dc67e	4.93048
244	0xc0829bca	-4.081517
245	0xbfd55568	-1.6666689
246	0xbea9708f	-0.33093688
247	0x3f48034e	0.7813004
248	0xc0016e1d	-2.0223458
249	0x403d1eba	2.9550004
250	0xc006b928	-2.105051
251	0x3d1976f0	0.037466943
252	0xc0b6d46d	-5.713431
253	0x400962db	2.1466587
254	0x3f484ee5	0.78245384
255	0x3f034cd1	0.5128909

4.bias f4 [5]
0	0xc0501d66	-3.2517943
1	0x40a23817	5.069347
2	0xbede8a08	-0.43464684
3	0x3fdcd3eb	1.7252172
4	0xbf81a2b4	-1.0127778
