demo/experiments/genetic_algorithm/ga_experiment_2021_02_12_160407/problem_53.model (torch, 26149 bytes, 6 tensors)

0.weight f4 [64, 22]
-2.0680642 3.585556 -3.105427 0.39974844 2.6484046 -3.8455105 0.19194245 -3.3296785
-0.6412102 3.3443425 -0.8014282 2.5765934 -2.6408896 -6.5184956 3.5816636 -0.062012345
2.3310528 2.0420384 -0.39672363 -1.4258739 -2.7259772 4.147799 4.0662246 4.8009872
-1.614125 0.10376078 -0.13341674 -0.7075022 0.58156204 -4.3169837 -2.2373233 1.8990505
5.0759325 2.4089465 0.4236973 -1.0471405 -1.3946518 -0.96067095 3.4364321 -1.0206379
0.665787 -0.7013159 -1.2426612 -0.25013316 -4.314865 0.9858633 -0.70911455 -3.682939
-4.8859844 0.40661 2.080772 1.7730685 -2.8624904 1.605264 -0.721 1.9907722
4.391145 1.5477298 -2.0076597 0.46119964 0.9441191 -3.588883 -0.18731672 2.745397
0.704189 -1.1066244 -3.0927496 0.71695995 1.5664 0.30765995 2.8227115 -0.27718925
-1.9862702 0.6932108 -1.454757 0.082576215 -2.320082 2.2621975 -1.1563939 4.187648
-1.4951379 2.403122 1.5792633 0.60576594 -0.3552705 -3.1621728 5.1866245 1.8786263
0.6458644 -0.4053105 -1.6635332 1.4380488 5.5231557 0.8383249 -1.8988991 2.0541186
5.3781724 0.44165832 -2.7993608 -1.281445 1.4863572 0.11279136 -2.7850933 -5.542128
-4.9106073 -1.7235432 1.6056305 -2.4483945 0.80167294 3.0680134 -3.7153687 0.5935999
-0.49222803 3.0922186 -3.70365 0.9307187 4.593199 3.4897687 -1.0712457 2.664051
-0.84321094 2.2421021 -4.569556 -0.2622501 1.6150727 1.0116954 -4.4237175 2.6560643
0.4882012 -3.8588254 6.9143515 -2.3069477 -2.966387 -2.267094 4.509856 -0.95428467
3.4341006 0.21959913 -1.3566985 1.6302326 1.1446922 -3.819779 -0.71914697 0.08948797
-2.863397 -0.7488047 -1.5146981 0.96817577 4.4628963 1.0596725 -0.56523263 -1.4247296
2.9753165 -2.3886514 1.0114627 0.9772997 4.0522614 1.5453026 -2.278448 -3.4473436
-1.0146457 -3.739124 5.8592424 -0.6307083 -3.3329558 -0.9680412 3.436264 1.1834233
-1.3686079 -2.0494068 5.785373 0.79046905 -1.99815 0.73235285 0.039803147 2.6931548
-0.8639214 -4.587257 4.7387905 0.11196399 3.1893528 1.4659804 1.2649692 -3.7030292
-1.454675 -0.208377 1.0285583 -3.8399665 2.002984 1.442204 3.1989713 0.36680663
-2.5738904 -1.1642439 1.9654733 -4.5049663 1.5399958 -0.8560741 3.0886369 1.4145952
-0.2458381 3.828417 2.173115 -0.6312389 -0.1421231 -0.18223488 1.8448907 -2.4518883
6.930255 0.41705906 -2.12642 2.2005873 -3.0546691 0.17463553 0.27577204 0.09040868
-0.26767796 4.291718 1.6266448 -1.5882766 0.19352752 -2.325059 -2.9075766 1.6164262
4.4278307 -2.2096066 -0.42458236 0.1439541 1.1847632 2.531101 0.3681069 -0.76671
-3.819456 -0.015792489 3.122508 1.182248 -2.973678 -0.53861487 2.1957552 -4.155958
6.89657 -0.50819856 -1.637073 -0.1979458 -0.9009258 -0.72284365 -2.7255487 3.6182132
-2.1902297 -4.693467 -2.0754702 -0.121189654 -3.6058795 2.313805 -1.5801704 1.4449495
00000000: 2a5b 04c0 c079 6540 51bf 46c0 d4ab cc3e
00000010: 767f 2940 d81c 76c0 908c 443e 7419 55c0
00000020: 5a26 24bf b509 5640 662a 4dbf e8e6 2440
00000030: 5604 29c0 8497 d0c0 fa39 6540 a800 7ebd
00000040: f82f 1540 c2b0 0240 5c1f cbbe 0983 b6bf
00000050: 6976 2ec0 c5ba 8440 831e 8240 b0a1 9940
00000060: a69b cebf 8880 d43d 669e 08be dd1e 35bf
00000070: 40e1 143f bb24 8ac0 4e30 0fc0 1614 f33f
00000080: 0a6e a240 2e2c 1a40 daee d83e b308 86bf
00000090: f383 b2bf 88ee 75bf 81ee 5b40 43a4 82bf
000000a0: 0471 2a3f 7089 33bf 860f 9fbf 7411 80be
000000b0: 6013 8ac0 8a61 7c3f 8888 35bf 46b5 6bc0
000000c0: fc59 9cc0 302f d03e 5e2b 0540 e9f3 e23f
000000d0: 0b33 37c0 4a79 cd3f 7593 38bf a0d1 fe3f
000000e0: 4384 8c40 031c c63f 7f7d 00c0 5c22 ec3e
000000f0: cab1 713f 42b0 65c0 f4cf 3fbe 96b4 2f40
00000100: bb45 343f dea5 8dbf 9cef 45c0 b08a 373f
00000110: cc7f c83f 9b85 9d3e 4ea7 3440 c0eb 8dbe
00000120: 1a3e febf 4376 313f 7a35 babf b81d a93d
00000130: 397c 14c0 d8c7 1040 b704 94bf 3601 8640
00000140: ae60 bfbf c0cc 1940 4d25 ca3f 7a13 1b3f
00000150: 04e6 b5be 0a61 4ac0 d4f8 a540 d476 f03f
00000160: 5f57 253f dc84 cfbe a8ee d4bf fc11 b83f
00000170: b1bd b040 769c 563f 200f f3bf ae76 0340
00000180: fd19 ac40 0a21 e23e ba28 33c0 6406 a4bf
00000190: f440 be3f 28ff e63d f83e 32c0 1d59 b1c0
000001a0: b223 9dc0 109d dcbf 4d85 cd3f 7fb2 1cc0
000001b0: 703a 4d3f 555a 4440 9ac8 6dc0 2af6 173f
000001c0: 5005 fcbe e9e6 4540 9a08 6dc0 9543 6e3f
000001d0: 7cfb 9240 5f58 5f40 941e 89bf d07f 2a40
000001e0: acdc 57bf 9a7e 0f40 ce39 92c0 a545 86be
000001f0: b4ba ce3f 3c7f 813f 188f 8dc0 f5fc 2940
00000200: 82f5 f93e fff6 76c0 5e42 dd40 08a5 13c0
00000210: 49d9 3dc0 1118 11c0 be50 9040 004c 74bf
00000220: 4ec8 5b40 98de 603e 4ca8 adbf 76ab d03f
00000230: 4685 923f 4277 74c0 041a 38bf 7845 b73d
00000240: e541 37c0 aab1 3fbf a1e1 c1bf 5eda 773f
00000250: 0cd0 8e40 59a3 873f 16b3 10bf 8a5d b6bf
00000260: 966b 3e40 aadf 18c0 9c77 813f 5030 7a3f
00000270: 20ac 8140 7acc c53f 18d2 11c0 47a1 5cc0
00000280: e9df 81bf cf4d 6fc0 ea7e bb40 1976 21bf
00000290: 264f 55c0 8cd1 77bf c0eb 5b40 6a7a 973f
000002a0: 8b2e afbf 7b29 03c0 c721 b940 2e5c 4a3f
000002b0: 61c3 ffbf 7a7b 3b3f a008 233d a65c 2c40
000002c0: f429 5dbf cfca 92c0 2ca4 9740 604d e53d
000002d0: 5b1e 4c40 3fa5 bb3f 83ea a13f 6efe 6cc0
000002e0: ca32 babf c860 55be cca7 833f 03c2 75c0
000002f0: e430 0040 249a b83f f2bb 4c40 14ce bb3e
00000300: 9fba 24c0 f205 95bf a194 fb3f af28 90c0
00000310: 951e c53f ac27 5bbf 3aac 4540 7511 b53f
00000320: fcbc 7bbe c904 7540 5114 0b40 df98 21bf
00000330: b888 11be c89b 3abe 6125 ec3f bdeb 1cc0
00000340: a6c4 dd40 c488 d53e 4417 08c0 6cd6 0c40
00000350: b37f 43c0 a8d3 323e fe31 8d3e 3028 b93d
00000360: 160d 89be c155 8940 e635 d03f a64c cbbf
00000370: 142c 463e c4cd 14c0 bc15 3ac0 0ee7 ce3f
00000380: cab0 8d40 326a 0dc0 dc62 d9be b468 133e
00000390: 52a6 973f 8ffd 2140 8278 bc3e 1b47 44bf
000003a0: f871 74c0 405f 81bc 2cd7 4740 e753 973f
000003b0: be50 3ec0 aae2 09bf 4187 0c40 9cfd 84c0
000003c0: b4b0 dc40 4d19 02bf 9c8b d1bf 4eb2 4abe
000003d0: 13a3 66bf 480c 39bf 646f 2ec0 ce90 6740
000003e0: b92c 0cc0 e230 96c0 81d4 04c0 4832 f8bd
000003f0: bbc6 66c0 6215 1440 0643 cabf 1bf4 b83f

0.bias f4 [64]
1.2843568 -4.8958406 -4.336695 -0.5153921 4.6462884 1.2292551 1.0080949 0.3596803
-3.3203824 2.0025926 0.18478417 1.7731187 4.9783726 -2.851031 -3.055673 2.7609456
1.7956777 5.8725467 0.014127433 1.0390396 -2.1599102 -0.04264331 -1.2995011 1.6742415
-3.7781322 -0.20256421 0.8771401 0.6267649 1.9116721 2.1984017 -0.18772602 6.677139
-0.24055934 -0.48199588 -1.0947777 0.51145303 -1.4091237 -2.7466626 -1.3020291 1.1972886
0.9406428 -4.265935 0.99674803 0.6235807 -0.021834016 0.8384627 2.2071683 -1.39428
-1.6144234 0.7282175 -1.2911057 -1.4797219 0.28728434 3.0189843 -0.5939679 -1.0833709
-2.994952 0.047012284 2.6946466 -2.21414 -0.9598278 0.2752484 0.26412803 1.3546963
00000000: ce65 a43f baaa 9cc0 35c6 8ac0 bdf0 03bf
00000010: 65ae 9440 3b58 9d3f 4109 813f 0428 b83e
00000020: 2581 54c0 7a2a 0040 1038 3d3e 8ef5 e23f
00000030: d44e 9f40 4b77 36c0 2590 43c0 55b3 3040
00000040: c4d8 e53f e7eb bb40 c076 673c 40ff 843f
00000050: f83b 0ac0 c0aa 2ebd 0d56 a6bf 8c4d d63f
00000060: ebcc 71c0 fe6c 4fbe 418c 603f aa73 203f
00000070: acb1 f43f 9db2 0c40 403b 40be 1fab d540
00000080: 3055 76be 2ac8 f6be ad21 8cbf 96ee 023f
00000090: 2a5e b4bf 52c9 2fc0 e4a8 a6bf c140 993f
000000a0: f7cd 703f 8a82 88c0 e12a 7f3f fca2 1f3f
000000b0: 40dd b2bc 7ea5 563f 3f42 0d40 c477 b2bf
000000c0: 6da5 cebf 766c 3a3f f442 a5bf 8767 bdbf
000000d0: ef16 933e 0a37 4140 480e 18bf e6ab 8abf
000000e0: 4bad 3fc0 f48f 403d 1775 2c40 78b4 0dc0
000000f0: 46b7 75bf 5ced 8c3e ca3b 873e b066 ad3f

2.weight f4 [64, 64]
-2.1179118 -1.7202966 3.1482458 7.822717 -0.27101743 1.839203 -3.3144877 -0.34769654
-0.9310558 -1.2235804 -2.6537566 -2.6565654 -2.7120373 4.905306 4.0373654 1.264138
0.70793635 -2.128281 4.9752526 5.329969 -3.5857544 -5.0791802 1.4568431 -2.1292472
-2.3106174 5.0539966 1.5099802 2.2635777 0.46775597 2.772729 -0.29615247 -2.9225779
-4.2760887 -3.3639672 -1.9246014 0.3426715 0.09864351 1.5190113 2.4693356 0.6888534
1.2077675 0.2021567 -2.3431659 1.1299214 3.1455126 5.657028 0.48990512 -2.6867275
1.8763497 -3.4042087 -1.829261 3.6460323 -5.178441 0.37397468 1.7742467 0.80348676
2.6050034 -1.0118315 1.0097173 -0.62200797 -0.2927881 1.3668764 2.0002484 -0.6178913
-4.3363767 0.23458615 -0.20659342 -0.27208492 0.52460253 0.030542612 -0.3007168 -1.3908063
2.904029 1.6145895 -2.9398286 0.09441614 -1.9843049 3.0091448 -5.0991745 1.4625602
-2.0112672 4.001318 -1.3374634 -0.69038814 -0.89369893 6.474617 -0.9650663 0.43974823
-3.7734203 -0.4200622 2.015654 2.7256005 3.5229166 2.2108405 2.609559 1.0955259
2.7045877 2.8664818 3.831985 1.755728 -0.21048617 2.9285638 4.9828897 -1.690974
1.9829682 1.1273592 -0.7036883 0.7097484 3.774729 0.31126595 2.682264 2.6893446
-1.6495829 1.3582578 -2.3294435 1.086915 1.049157 -2.637714 0.5188873 -2.418363
-2.3015113 2.1178098 1.4842515 2.6356025 3.5399117 3.0629745 0.66698813 5.955612
-1.9288344 -3.582015 -3.2151747 2.1284285 -6.25621 -2.9554167 3.0710466 2.1882558
-4.3809514 2.7291706 3.7413845 -1.1760244 -1.6652312 -2.226945 -1.3370115 4.687613
1.2666363 4.928615 -0.13485646 3.1504087 -0.005631745 2.1213675 5.1363707 -3.4115787
-0.18289238 -2.1761932 3.063486 2.9088993 -4.1141195 3.5496202 -1.8191369 -0.58192194
1.8462992 -3.0490763 -2.0953827 -0.096568644 2.7071142 -2.862802 -3.0695047 0.458897
5.6699533 1.157949 -4.740231 5.4586253 -3.3633046 4.3607416 -0.109533325 -0.6045697
0.36654484 -0.8501755 -1.2798779 -1.524187 2.614984 4.500402 -2.5141323 -1.5162723
-0.714329 -0.9691908 1.6204101 0.2904523 0.9700469 -1.8321587 1.2400573 4.0401525
1.8798323 -4.37131 2.0275228 -2.8191528 -0.18861878 -3.7383916 0.066716194 -4.336628
-3.1155653 -1.1337783 0.8653456 2.4986274 1.6711344 -0.168154 3.8791897 4.1615486
-3.8010776 -0.55066884 -2.7320027 -1.5980656 0.65426886 -2.0272326 -2.9830961 -0.7904113
-6.159444 1.1372559 -0.33169818 -5.0366635 3.3548408 -4.240898 -1.2363825 0.669833
0.3387133 -0.02076149 -1.5037458 1.3079728 0.53412616 4.3228254 3.7517734 -3.5756304
0.6029172 3.1489484 -2.029039 1.827284 0.1994434 -7.280699 1.2203093 2.148166
-2.4476304 -1.4913559 1.6277535 -0.9754459 -0.038297236 5.518811 5.28432 4.6933117
-1.4882331 -1.7089632 0.3840886 -2.9981592 0.48109734 1.1453664 -0.26462728 -0.48859674
00000000: de8b 07c0 ae32 dcbf dc7c 4940 b353 fa40
00000010: ccc2 8abe 016b eb3f 9120 54c0 4805 b2be
00000020: ac59 6ebf 489e 9cbf 26d7 29c0 2b05 2ac0
00000030: 0592 2dc0 44f8 9c40 1932 8140 46cf a13f
00000040: 513b 353f c235 08c0 4535 9f40 1b8f aa40
00000050: 007d 65c0 a588 a2c0 d679 ba3f 9645 08c0
00000060: 28e1 13c0 57ba a140 0847 c13f 75de 1040
00000070: b67d ef3e 6474 3140 4ca1 97be 840b 3bc0
00000080: b8d5 88c0 3d4b 57c0 5759 f6bf a472 af3e
00000090: 9c05 ca3d f66e c23f 9809 1e40 b258 303f
000000a0: 2098 9a3f 2a02 4f3e 6ef6 15c0 44a1 903f
000000b0: 1450 4940 6006 b540 d8d4 fa3e 58f3 2bc0
000000c0: 3a2c f03f 8ede 59c0 3925 eabf 9858 6940
000000d0: cab5 a5c0 9c79 bf3e 841a e33f 4fb1 4d3f
000000e0: 60b8 2640 b283 81bf 6b3e 813f ea3b 1fbf
000000f0: 52e8 95be cef5 ae3f 1204 0040 202e 1ebf
00000100: 99c3 8ac0 5a37 703e 3a8d 53be b74e 8bbe
00000110: 5a4c 063f 8034 fa3c 8df7 99be f105 b2bf
00000120: 9cdb 3940 deaa ce3f 2726 3cc0 405d c13d
00000130: b4fd fdbf d495 4040 702c a3c0 2c35 bb3f
00000140: 9ab8 00c0 cc0a 8040 0032 abbf 47bd 30bf
00000150: 74c9 64bf 1030 cf40 960e 77bf ae26 e13e
00000160: b87f 71c0 6512 d7be 7a00 0140 3d70 2e40
00000170: 7777 6140 697e 0d40 0403 2740 313a 8c3f
00000180: f717 2d40 7074 3740 3e3f 7540 b2bb e03f
00000190: b089 57be 976d 3b40 d573 9f40 d671 d8bf
000001a0: e7d1 fd3f 4e4d 903f eb24 34bf 12b2 353f
000001b0: 2995 7140 405e 9f3e 37aa 2b40 391e 2c40
000001c0: 8825 d3bf 64db ad3f 9a15 15c0 0820 8b3f
000001d0: c74a 863f 4ed0 28c0 ccd5 043f 76c6 1ac0
000001e0: f64b 13c0 328a 0740 f4fb bd3f b6ad 2840
000001f0: ea8d 6240 c607 4440 bcbf 2a3f 6094 be40
00000200: 0ce4 f6bf bc3f 65c0 6cc5 4dc0 2c38 0840
00000210: df32 c8c0 8c25 3dc0 078c 4440 620c 0c40
00000220: c130 8cc0 bbaa 2e40 d872 6f40 f887 96bf
00000230: 4c26 d5bf 4486 0ec0 3123 abbf ed00 9640
00000240: 2321 a23f 37b7 9d40 d017 0abe 4ca0 4940
00000250: 808a b8bb 7cc4 0740 265d a440 4e57 5ac0
00000260: 2448 3bbe c046 0bc0 2810 4440 682b 3a40
00000270: dea6 83c0 fa2c 6340 7ad9 e8bf d6f8 14bf
00000280: 8853 ec3f 1124 43c0 c01a 06c0 c8c5 c5bd
00000290: 5c41 2d40 2638 37c0 c472 44c0 8cf4 ea3e
000002a0: 4270 b540 ac37 943f f9af 97c0 0fad ae40
000002b0: 6240 57c0 328b 8b40 0253 e0bd 14c5 1abf
000002c0: c4ab bb3e 1aa5 59bf 0ad3 a3bf 8f18 c3bf
000002d0: e65b 2740 4b03 9040 8be7 20c0 3615 c2bf
000002e0: 44de 36bf e31c 78bf 9969 cf3f 2ab6 943e
000002f0: fe54 783f 2d84 eabf 33ba 9e3f ee48 8140
00000300: 589e f03f c6e1 8bc0 efc2 0140 006d 34c0
00000310: 4825 41be cf41 6fc0 80a2 883d a8c5 8ac0
00000320: 6c65 47c0 a61f 91bf 4a87 5d3f 83e9 1f40
00000330: bbe7 d53f 9030 2cbe a544 7840 682b 8540
00000340: db44 73c0 a2f8 0cbf 22d9 2ec0 6a8d ccbf
00000350: 2a7e 273f 2ebe 01c0 0ceb 3ec0 6558 4abf
00000360: 2a1a c5c0 9a91 913f 58d4 a9be 592c a1c0
00000370: b6b5 5640 70b5 87c0 c841 9ebf 2d7a 2b3f
00000380: d46b ad3e 0014 aabc be7a c0bf a76b a73f
00000390: 7ebc 083f 9654 8a40 0e1d 7040 21d7 64c0
000003a0: c858 1a3f 5f88 4940 c6db 01c0 71e4 e93f
000003b0: e43a 4c3e 7cfb e8c0 1833 9c3f 8d7b 0940
000003c0: faa5 1cc0 c0e4 bebf 3a5a d03f d3b6 79bf
000003d0: 90dd 1cbd 1a9a b040 2619 a940 9c2f 9640
000003e0: 6c7e bebf 4ebf dabf 43a7 c43e d7e1 3fc0
000003f0: 6452 f63e 5e9b 923f 3a7d 87be 5a29 fabe

2.bias f4 [64]
-0.93927103 -0.63701147 0.9353021 0.51376486 -4.561468 0.03148997 0.82656026 1.3100905
0.7649367 -1.3034062 -2.8072886 0.13616094 -3.8212502 -2.691576 -1.3313265 -2.219663
-1.6923227 -1.921309 -0.19003826 -4.8511405 -1.1625975 -0.44910133 0.40530068 -0.45214832
-0.017486066 1.1134667 1.9919103 -0.15299535 -1.4723037 0.33727437 -3.5769992 1.5260644
-1.8159837 0.20020318 1.5777586 1.4781326 0.87079513 -2.964786 -1.4323676 3.6982098
-1.5094866 -1.1821047 -2.985293 -4.192866 6.8423395 1.6791439 -0.51246333 -2.4164999
-2.6307802 0.94785064 2.22984 4.496125 1.3828238 -0.5335252 -2.7149527 1.2153567
1.2722518 -1.2389717 1.0904237 -2.3278472 0.6781059 -0.48024666 0.9782801 -4.763334
00000000: 1174 70bf 2f13 23bf f56f 6f3f 1886 033f
00000010: 8cf7 91c0 a0fb 003d 7499 533f 0cb1 a73f
00000020: e4d2 433f 04d6 a6bf 9eaa 33c0 c66d 0b3e
00000030: 5d8f 74c0 c842 2cc0 e868 aabf f50e 0ec0
00000040: 089e d8bf 74ed f5bf 6499 42be 8b3c 9bc0
00000050: ffcf 94bf 9cf0 e5be 9283 cf3e fc7f e7be
00000060: f03e 8fbc 1486 8e3f ebf6 fe3f d0aa 1cbe
00000070: 7374 bcbf 3aaf ac3e 8eed 64c0 1456 c33f
00000080: 2772 e8bf 1002 4d3e fef3 c93f 7333 bd3f
00000090: 6eec 5e3f 0ebf 3dc0 d257 b7bf 78af 6c40
000000a0: db36 c1bf 354f 97bf 0a0f 3fc0 f52b 86c0
000000b0: 72f4 da40 30ee d63f cc30 03bf efa7 1ac0
000000c0: b45e 28c0 57a6 723f b3b5 0e40 42e0 8f40
000000d0: 5f00 b13f 1c95 08bf c9c1 2dc0 cf90 9b3f
000000e0: 26d9 a23f a096 9ebf 0193 8b3f 73fb 14c0
000000f0: 5998 2d3f e4e2 f5be 9170 7a3f 3b6d 98c0

4.weight f4 [5, 64]
-0.9932909 -1.3142594 1.2019341 1.0555868 -4.1871433 0.27366996 -2.5190077 -1.777888
0.67802227 -3.2318835 1.6296326 -1.50104 3.3947394 -0.24947622 -0.80148846 1.6115856
-1.8606064 2.1253645 -0.93142825 -1.2883109 2.5084982 -1.3779312 -3.8647156 0.6944543
1.5309706 0.2547195 -3.1157444 -0.575152 -3.8742225 -0.8243892 -2.2144446 -1.0303696
0.7188132 2.9316707 -2.2466347 -0.40824372 4.758214 0.25859416 -2.3036463 1.6369452
2.5227585 0.9209815 1.8590267 3.874721 1.0316705 -1.526876 -0.043560013 -0.5976411
1.5629047 -2.4347034 0.5899563 4.237887 1.1860964 -0.4746976 -0.65166163 -1.0680853
0.7727784 4.7606277 -1.0456939 -1.063885 2.760205 4.2288346 -2.421843 -0.008669376
1.4945112 0.49342442 0.80180424 2.8881786 0.76555884 -2.6691706 0.12016097 -1.0097787
-0.048803806 4.198679 -2.006635 -2.0080104 -0.2409786 -2.43007 2.3931797 0.49492514
2.7431228 2.3043106 -1.2297738 -1.2916167 -4.33533 -1.823834 -2.5958726 0.273234
1.3032815 -2.5159285 -5.3076143 -2.4105144 -0.8818783 -0.6851193 2.510106 2.3523536
-0.16335618 -0.14838576 -2.3462906 0.19262242 1.1482472 -2.5192947 1.5492699 0.4963832
3.1578581 2.6276133 2.5712824 4.4649973 1.5917115 -5.2113614 -1.1172132 -0.3793571
1.7219716 -2.770204 -5.4266148 1.4655262 -0.2523637 1.7477227 1.650692 0.73747313
1.2442791 0.12022808 3.906598 0.27761203 2.923666 -0.19544464 -2.2496884 1.0221708
-0.7824713 -2.4083755 -3.5073085 1.1007032 -0.16898406 -0.49270332 -3.2072346 0.78794265
-2.3460176 5.07947 -2.176783 -2.039784 0.2085408 0.36967957 -1.9053581 -2.3169951
1.1885959 0.82272553 1.289491 -0.6945344 2.2288175 -3.3400877 -3.08379 -0.46300817
-0.012480557 -3.122539 -0.74929136 -1.0225812 -4.350694 0.1658842 -0.9551016 -2.4915595
-3.2655482 4.0689316 -1.3163154 -2.4501343 -0.051181346 -2.0048504 -3.5427918 3.0086513
0.47150436 -1.8448442 -2.0004373 2.6392477 -3.2830896 0.564737 -0.03835749 1.2410026
-2.3040736 2.476969 -0.1368736 -1.9102895 1.4894272 -0.27827212 -1.0861319 1.9955412
-0.7463264 -0.43782485 -0.12188327 -1.1784441 -1.5385135 0.52975404 3.8830705 -2.1862345
0.35006875 0.4407711 3.3870962 -3.884417 0.57560915 1.4702308 1.6631219 -0.21513736
3.6783056 5.173561 -2.3319912 0.32239622 2.967496 -0.7750622 -1.7191362 2.3583581
2.930308 2.5897207 -1.2748612 0.017456532 -2.400004 1.8888677 2.7332203 -0.49637616
-2.4341502 2.4056685 2.7037997 1.2886244 3.1633623 2.057377 -2.7428975 0.7995758
-2.3512309 2.6922257 0.62213755 2.4808815 -3.0476918 -3.3867419 0.65192664 2.243785
1.1717612 -2.159127 -1.9159274 2.0777047 -0.0906384 -1.8044009 1.5534232 0.52132857
1.4037027 1.843541 2.1355429 -0.9775958 -3.3370304 2.2878366 -2.8524194 -3.5822315
-0.45446372 -1.8787009 0.40775642 -3.53485 1.1199594 -1.5669823 0.30928978 1.1482921
00000000: 5048 7ebf a739 a8bf fad8 993f 781d 873f
00000010: 14fd 85c0 781e 8c3e 6c37 21c0 d591 e3bf
00000020: de92 2d3f 2ed7 4ec0 cd97 d03f 1422 c0bf
00000030: 6943 5940 b276 7fbe 592e 4dbf 7048 ce3f
00000040: 5a28 eebf f905 0840 1572 6ebf 5fe7 a4bf
00000050: 3c8b 2040 0d60 b0bf 8057 77c0 c2c7 313f
00000060: d8f6 c33f 986a 823e 5b68 47c0 293d 13bf
00000070: 43f3 77c0 2c0b 53bf 76b9 0dc0 27e3 83bf
00000080: 2404 383f 7ea0 3b40 ddc8 0fc0 5205 d1be
00000090: 4a43 9840 7466 843e f16e 13c0 6c87 d13f
000000a0: e074 2140 72c5 6b3f 96f4 ed3f 6efb 7740
000000b0: c70d 843f ac70 c3bf fc6b 32bd 02ff 18bf
000000c0: 430d c83f 2ed2 1bc0 6007 173f c59c 8740
000000d0: 02d2 973f 900b f3be 4cd3 26bf 05b7 88bf
000000e0: ced4 453f 1057 9840 4cd9 85bf 622d 88bf
000000f0: 33a7 3040 9d52 8740 7aff 1ac0 000a 0ebc
00000100: 254c bf3f 20a2 fc3e 0b43 4d3f ebd7 3840
00000110: aafb 433f b1d3 2ac0 f416 f63d 6e40 81bf
00000120: 80e6 47bd 945b 8640 b56c 00c0 3e83 00c0
00000130: 18c3 76be 4486 1bc0 db29 1940 d466 fd3e
00000140: 538f 2f40 d379 1340 3a69 9dbf b253 a5bf
00000150: 06bb 8ac0 6473 e9bf c722 26c0 54e5 8b3e
00000160: eed1 a63f f904 21c0 fad7 a9c0 de45 1ac0
00000170: c7c2 61bf fa63 2fbf 94a5 2040 f68c 1640
00000180: d846 27be 70f2 17be a029 16c0 d03e 453e
00000190: c4f9 923f 203c 21c0 7a4e c63f f025 fe3e
000001a0: 591a 4a40 d12a 2840 e48f 2440 42e1 8e40
000001b0: 34bd cb3f 79c3 a6c0 d800 8fbf 183b c2be
000001c0: 9169 dc3f 064b 31c0 d4a6 adc0 5d96 bb3f
000001d0: d135 81be 61b5 df3f e049 d33f 0acb 3c3f
000001e0: 8a44 9f3f 243a f63d b405 7a40 2a23 8e3e
000001f0: 581d 3b40 a422 48be e5fa 0fc0 7ed6 823f
00000200: 0a50 48bf d322 1ac0 be77 60c0 d8e3 8c3f
00000210: 280a 2dbe 9c43 fcbe 5543 4dc0 9cb6 493f
00000220: 2725 16c0 058b a240 6a50 0bc0 d28b 02c0
00000230: b88b 553e a446 bd3e c6e2 f3bf a649 14c0
00000240: e923 983f 249e 523f 0b0e a53f 02cd 31bf
00000250: f2a4 0e40 ffc3 55c0 d15c 45c0 680f edbe
00000260: 407b 4cbc aed7 47c0 8fd1 3fbf f1e3 82bf
00000270: e338 8bc0 8cdd 293e 8a81 74bf b675 1fc0
00000280: befe 50c0 b034 8240 067d a8bf 00cf 1cc0
00000290: 88a3 51bd 784f 00c0 1abd 62c0 be8d 4040
000002a0: 0569 f13e db23 ecbf 2a07 00c0 6fe9 2840
000002b0: 241e 52c0 9b92 103f be1c 1dbd 2cd9 9e3f
000002c0: f175 13c0 a986 1e40 9828 0cbe 5e84 f4bf
000002d0: 8da5 be3f af79 8ebe 5f06 8bbf e56d ff3f
000002e0: 3f0f 3fbf 942a e0be f09d f9bd 42d7 96bf
000002f0: 03ee c4bf f69d 073f 3a84 7840 44eb 0bc0
00000300: 363c b33e c0ac e13e 2fc6 5840 4a9a 78c0
00000310: 1f5b 133f 8630 bc3f 2ee1 d43f f84c 5cbe
00000320: 5c69 6b40 d08d a540 583f 15c0 1e11 a53e
00000330: 74eb 3d40 7a6a 46bf a80c dcbf 57ef 1640
00000340: 2b8a 3b40 fcbd 2540 a72e a3bf 0001 8f3c
00000350: aa99 19c0 6bc6 f13f 15ed 2e40 0425 febe
00000360: 1ec9 1bc0 79f6 1940 0e0b 2d40 a5f1 a43f
00000370: 8774 4a40 11ac 0340 a28b 2fc0 00b1 4c3f
00000380: 917a 16c0 6d4d 2c40 6844 1f3f c3c6 1e40
00000390: 620d 43c0 61c0 58c0 aae4 263f 2c9a 0f40
000003a0: 45fc 953f 232f 0ac0 1c3d f5bf 1df9 0440
000003b0: a0a0 b9bd 9cf6 e6bf 92d6 c63f ca75 053f
000003c0: 88ac b33f 27f9 eb3f bcac 0840 b843 7abf
000003d0: e891 55c0 ea6b 1240 0a8e 36c0 4843 65c0
000003e0: 78af e8be 4579 f0bf 73c5 d03e fb3a 62c0
000003f0: d45a 8f3f e092 c8bf 3b5b 9e3e 3cfb 923f

4.bias f4 [5]
-2.0531094 0.19584101 -4.2833576 2.2775245 -2.772347
00000000: 2566 03c0 8c8a 483e 4411 89c0 f6c2 1140
00000010: 226e 31c0
