demo/experiments/genetic_algorithm/ga_experiment_2021_02_12_160407/problem_27.model (torch, 26149 bytes, 6 tensors)

0.weight f4 [64, 22]
000000 32 af 04 40 c2 eb 30 c0 ce e0 34 40 4e 91 07 3f
       2.073193 -2.7643895 2.826221 0.5295609
000010 b0 e9 8e 3f 04 e3 03 c0 1e a2 7e c0 5e 27 ad 40
       1.1165066 -2.060731 -3.9786448 5.4110556
000020 30 8b c3 3f ac ed 53 40 e5 95 1c 40 52 c7 6d 3f
       1.5276852 3.3113813 2.4466488 0.92882264
000030 a0 d8 59 3e 34 1a 4d 40 8d d4 cd 3f 13 44 01 c0
       0.21274042 3.2047243 1.608049 -2.01978
000040 06 e8 88 3f ec 62 a7 3d 05 ca 68 3e a6 d1 ff 3e
       1.0695808 0.08173165 0.22733314 0.49964637
000050 9d 09 60 bf 20 ad ba bf 0f 45 2d 3f 97 95 1c c0
       -0.8751467 -1.4584084 0.676835 -2.4466302
000060 f5 cf c0 40 3e 5f 67 bf 1b e5 f7 3f 83 0d d2 c0
       6.0253854 -0.90379703 1.9366792 -6.5641494
000070 6d ba 39 c0 f0 96 86 3f bb 1f 9f 40 ec 65 9e 40
       -2.9020035 1.0514812 4.9726233 4.9499416
000080 81 3a 03 bf 98 f2 6c 3d d9 a2 81 c0 00 fc 86 3f
       -0.51261145 0.057848543 -4.051129 1.0545654
000090 c6 98 68 c0 94 6e 83 c0 c4 02 48 40 ed 17 1f c0
       -3.6343246 -4.1072483 3.1251688 -2.4858353
0000a0 b0 c4 1a 40 f2 2b 0d 40 32 1e 12 bf 12 a3 fa 40
       2.4182549 2.2058072 -0.57077324 7.832406
0000b0 12 e8 62 3f 82 73 b4 3e e1 71 ad bf 6b aa c0 bf
       0.8863536 0.35244375 -1.3550378 -1.5052007
0000c0 ac 05 7b be 29 8d a7 bf a6 5a 90 3e 68 a0 41 bc
       -0.24513882 -1.3089954 0.2819416 -0.011818029
0000d0 28 27 9b be 32 0d 6a 40 e6 24 be bf a8 9a e1 bf
       -0.3030331 3.6570554 -1.485501 -1.7625322
0000e0 24 3d 94 40 6e ad 1c 3f 66 5f 59 40 6a fd 05 c0
       4.6324635 0.6120213 3.3964477 -2.0935922
0000f0 85 ad 89 40 94 f2 e5 bf 15 cc 98 40 5a 40 0f 40
       4.3024316 -1.7964654 4.7749124 2.2383027
000100 e0 20 6b c0 f0 b3 70 c0 c0 e9 82 3f 66 f8 ac bf
       -3.6738815 -3.7609825 1.0227585 -1.3513305
000110 3f 0e b1 bf 8b 39 eb bf ea 78 0a c0 42 3c 55 c0
       -1.3832473 -1.8376936 -2.16363 -3.3318028
000120 16 67 d1 40 aa 16 90 3e 12 01 0f 40 30 c4 9f 40
       6.5438337 0.2814229 2.2344403 4.9926987
000130 5e 15 1e bf d6 72 af bf 61 03 cc 3f 60 5a c4 3d
       -0.61751354 -1.370692 1.5938531 0.0958755
000140 d6 84 a6 40 a6 e1 ae bf 4c 07 8d bf 72 2f 41 c0
       5.2037153 -1.3662612 -1.1017852 -3.0185208
000150 db c6 85 bf 70 fc 84 40 8c 73 fc 3f 5b c5 18 40
       -1.0451311 4.155815 1.9722762 2.3870456
000160 5b 5e 40 c0 bf 97 02 bf e2 e2 14 40 26 38 47 c0
       -3.005759 -0.51012796 2.3263478 -3.112802
000170 b0 41 57 be ae 7e 7f 3f 2b 28 6a bf 14 13 bc 3f
       -0.21021152 0.9980267 -0.9146754 1.4693322
000180 8e 2c 03 40 e8 67 3d 3f 1a ee dc 3e 5c 03 b4 be
       2.0495944 0.73986673 0.43150407 -0.35158813
000190 d3 f5 19 40 6e 67 7c 3f d2 0c d3 c0 a2 48 b8 bf
       2.405629 0.9859532 -6.595315 -1.4397166
0001a0 ea 03 77 c0 ca ca b2 bf f4 23 9d bf 14 49 66 40
       -3.859614 -1.3968136 -1.2276597 3.5982103
0001b0 3e 6d 6e c0 8c 4d 37 3f 97 c7 cd 3f da ee 46 bf
       -3.7254176 0.716027 1.6076535 -0.7770821
0001c0 4c 14 5d bf 98 9b 1c bf 94 f1 5c bf 43 54 fd bf
       -0.86359096 -0.6117492 -0.8630612 -1.979134
0001d0 7e 3b 3b 40 15 10 34 bf 40 df a9 3f 08 35 a4 bf
       2.925506 -0.7033704 1.3271255 -1.2828684
0001e0 e9 81 fb bf 8c 3e f4 be 06 f4 73 40 7b 42 6b bf
       -1.964902 -0.4770397 3.811769 -0.91898316
0001f0 6e 1b 26 40 88 14 8a 3e 4b 3c 26 40 f2 6e 90 c0
       2.5954242 0.2696879 2.59743 -4.513543
000200 9b 8e e1 3e 10 bd 23 c0 c0 8d 37 c0 9c ee 24 40
       0.44054112 -2.5584145 -2.8680267 2.5770636
000210 e3 0c 6f c0 54 85 44 be a2 7e 42 3f aa f7 0c bf
       -3.7351615 -0.19191486 0.75974476 -0.55065405
000220 a3 cf d9 be 62 d0 92 40 79 9a ea be 1a 4c 2c 40
       -0.42541227 4.5879374 -0.45820978 2.6921449
000230 5b d4 3a c0 90 75 b7 bf aa a6 dd bf 88 d0 92 3f
       -2.9192111 -1.4332752 -1.7316487 1.1469889
000240 fa 1f 3d c0 de ab 7f 40 04 5e 5d 40 58 b1 23 c0
       -2.9550767 3.994865 3.4588633 -2.5576992
000250 e0 44 64 c0 a6 30 5a 3f a8 4f cc 3e 10 0a 91 3e
       -3.5667038 0.8523048 0.39904523 0.2832799
000260 d5 9f 06 40 76 9b 54 c0 fa 04 c7 bf 57 07 0e 40
       2.1035054 -3.3219886 -1.5548394 2.219198
000270 51 21 e4 3f 1a 22 9c 3e 99 8f 20 bf 2c 42 25 3f
       1.7822667 0.30494767 -0.6271911 0.64554095
000280 49 86 d5 3f 58 3b 00 c0 92 e2 16 c0 3c 9a 83 3e
       1.6681606 -2.003622 -2.3575788 0.2570361
000290 a0 2c fa 3c 68 7a 4d c0 e2 45 d0 bf c3 dd 40 c0
       0.030538857 -3.210596 -1.6271327 -3.0135353
0002a0 90 f4 e1 c0 04 ba 13 bf e0 ba 9f 3e 58 1c 25 c0
       -7.061104 -0.5770571 0.31197262 -2.579855
0002b0 48 5e 1a c0 fa 05 87 40 74 96 4d be f5 77 53 3f
       -2.4120045 4.2194796 -0.20076925 0.82604915
0002c0 cc 31 26 3f 48 e4 0d bf 6d 07 34 c0 d6 b6 5e c0
       0.64919734 -0.55426455 -2.8129532 -3.4799094
0002d0 ff 90 01 bf 52 73 60 40 42 d3 f8 3f 0a 83 a0 bf
       -0.5061187 3.5070386 1.9439471 -1.253999
0002e0 78 4b 00 3f 9a 50 7e 40 06 1a 34 40 48 af 3b 40
       0.50115156 3.9736695 2.8140883 2.9325733
0002f0 b2 45 10 40 38 5c 25 40 7f 2e 99 bf 96 b3 4c c0
       2.2542539 2.5837536 -1.1967314 -3.198461
000300 4c e8 38 40 2d 50 51 c0 28 c2 f3 bf 07 36 d6 3e
       2.8891783 -3.2705185 -1.9043627 0.41838095
000310 08 30 32 bf 66 1d 13 40 af c1 50 c0 90 2c 8f bf
       -0.6960454 2.2986693 -3.2618215 -1.1185474
000320 c1 4e f8 3f 3e e6 11 c0 f0 99 f0 bf cc 41 f4 3e
       1.9399034 -2.2796779 -1.8796978 0.4770645
000330 6c fc 8d bf 62 d2 6e c0 c4 06 64 40 48 97 60 40
       -1.1092658 -3.7315907 3.562913 3.5092335
000340 74 69 39 3f 49 9a 32 40 f5 19 78 40 9b b0 e9 bf
       0.72426534 2.7906668 3.8765843 -1.8257021
000350 7d 9c 44 bf 01 5f 09 41 a8 9c d2 3f 09 74 38 bf
       -0.7680128 8.585694 1.6454058 -0.72052056
000360 fc a4 8d 40 17 df 02 bf e8 b9 09 40 5d 00 de bf
       4.4263897 -0.5112166 2.1519718 -1.7343861
000370 a6 31 c6 bf 6b 6e f6 3f 6e be f1 bf ba 92 4e c0
       -1.5483902 1.9252447 -1.888624 -3.2277055
000380 80 38 a7 bf ac 94 23 3e cd 17 c6 3f ae 20 a8 3f
       -1.3064117 0.15974683 1.5476013 1.3134973
000390 03 cd a0 40 a4 dd 87 3d 94 41 f1 bf 86 89 80 c0
       5.025026 0.066340715 -1.8848138 -4.0167875
0003a0 16 94 6b c0 ef 1b 5d 40 3b ef fb bf 64 bf e4 bd
       -3.6809134 3.45483 -1.9682382 -0.11169317
0003b0 ae 9c f8 bf 21 51 86 40 62 31 86 3f eb 49 48 3f
       -1.9422815 4.1974034 1.048382 0.7823779
0003c0 0c 9e 49 3f 66 b9 1b bf 51 0d 9a 3f e6 5c 64 40
       0.78756785 -0.6082977 1.2035314 3.56817
0003d0 ce af c7 be 46 13 b2 bf fb 78 a3 3f 47 24 23 40
       -0.39001316 -1.3912132 1.2771295 2.5490892
0003e0 75 e9 d9 bf 23 35 84 c0 4c 91 f2 3f 94 83 04 bf
       -1.702437 -4.1314864 1.8950591 -0.5176327
0003f0 c8 a3 9b 40 ad 41 12 c0 0e f1 47 40 64 30 a8 be
       4.863743 -2.2852585 3.1240878 -0.3284942

0.bias f4 [64]
000000 b9 1e 83 3f 71 cd 0e c0 fd 74 88 40 12 8f ce 3f
       1.0243751 -2.2312891 4.264281 1.6137412
000010 3c 93 c3 3f 7c 5c 43 3f b5 2d 76 40 54 c5 ec bf
       1.5279307 0.76312995 3.8465397 -1.849772
000020 f1 7b 4d c0 4e b3 18 c0 56 63 25 3f 1a b0 10 be
       -3.2106898 -2.385944 0.646047 -0.14129677
000030 4d db f1 bf ed 90 51 3f b0 9b bb bf cd c6 6c bf
       -1.889505 0.81861764 -1.4656887 -0.92490846
000040 c3 db 3f 40 65 90 7a c0 ec fd 0c c0 7d af c1 bf
       2.9977882 -3.9150631 -2.2029982 -1.513168
000050 d4 7f a1 bf 26 f5 2c c0 4e e4 db 3f 33 da cb c0
       -1.2617135 -2.7024627 1.7179048 -6.3703856
000060 fe 45 de 3f 10 f2 17 3f 48 11 9e c0 76 ba 2b 40
       1.736511 0.59353733 -4.9396095 2.6832557
000070 26 f7 6a 3f 6c f4 8d 3f ed fb 1f bf f0 94 26 c0
       0.9178337 1.1090217 -0.62493783 -2.6028404
000080 94 43 c5 bf 90 3a e4 bf ee 99 67 c0 81 ed d7 bf
       -1.5411248 -1.7830372 -3.6187701 -1.6869355
000090 40 fc 8f 40 17 2d b8 c0 c2 2c 64 bf fc bf dc be
       4.499542 -5.755504 -0.89130795 -0.43115222
0000a0 96 59 0c c0 cd ca 8a 3f cb e2 62 3f 40 8b be 3f
       -2.192968 1.084314 0.8862731 1.4886246
0000b0 1e a4 83 3e 9a a9 45 c0 93 3a 17 40 9e 69 33 c0
       0.2571115 -3.0884767 2.36295 -2.8033214
0000c0 be 71 dc 40 4f 53 62 bf e8 5d ae c0 d3 dd 22 40
       6.8888845 -0.8840837 -5.448963 2.544789
0000d0 2b ae 09 40 a6 76 7c bf 86 44 1d 3f 4e 63 0d bf
       2.1512554 -0.98618543 0.61432683 -0.5522965
0000e0 3e c2 1c 40 d4 f9 8b bf 15 ae b8 3f 5a 4e f5 bf
       2.4493556 -1.0935616 1.4428126 -1.9164536
0000f0 98 98 0a 3e 48 21 1b c0 2d 25 28 c0 85 2e 89 c0
       0.13534772 -2.4239063 -2.627269 -4.2869287

2.weight f4 [64, 64]
000000 c0 c5 c0 3e 90 f8 77 3e 62 81 50 40 14 4e 60 bf
       0.3765087 0.24215913 3.257897 -0.8761914
000010 2c ea 17 40 4f 90 c9 3e fa 02 c8 bf a6 3e 0f 3f
       2.3736677 0.3936791 -1.5625908 0.5595497
000020 67 0c 84 3f 2c d7 64 bf 6f aa 52 bf db 97 09 c0
       1.0316285 -0.89390826 -0.8229131 -2.1498935
000030 7c d6 4b bf 64 42 b6 c0 bf bd 51 40 07 cf 9d bf
       -0.7962415 -5.6956043 3.2772062 -1.2328805
000040 54 02 1c bf dd 01 84 c0 78 f7 d3 c0 7f 95 a0 c0
       -0.6094105 -4.1252275 -6.6239586 -5.018249
000050 58 01 aa c0 02 b3 3f bf ab 8e 5a bf 04 2e 27 bf
       -5.312664 -0.7488252 -0.85373944 -0.6530459
000060 ee 47 e5 be 3a 87 59 bf 04 de 24 bf 54 34 e6 bf
       -0.4478144 -0.84971964 -0.6440127 -1.7984719
000070 18 0e df 3f d6 cb 39 c0 ef 06 d1 bf 62 68 5b c0
       1.7426176 -2.9030662 -1.6330241 -3.428246
000080 52 87 97 bf ac df 0f 40 e0 9f 0b 40 8a b8 02 c0
       -1.1838171 2.2480268 2.181633 -2.0425134
000090 55 99 85 c0 64 51 86 be 14 ef 5f 3e bc 2a 5c 3f
       -4.1749673 -0.2623397 0.21868545 0.8600271
0000a0 12 94 e5 3f c8 8e 06 3f a4 56 ba bf dd ea 8a 3e
       1.7935812 0.52561617 -1.4557691 0.2713231
0000b0 a9 53 0f c0 35 b8 9e 40 86 73 89 40 9c 2c 6d 40
       -2.2394812 4.959986 4.295352 3.7058477
0000c0 1c bd 56 bf 82 94 d2 3e 62 0e 5b 40 66 fe 7d 3f
       -0.8388231 0.41128927 3.4227529 0.99216306
0000d0 6e 7f 13 40 da 28 82 3f 78 9c b5 bf dd 10 53 3f
       2.3046527 1.0168717 -1.4188375 0.82447606
0000e0 71 98 95 3f 64 4a 2d be 52 cb b4 3f b5 68 1c bf
       1.1687146 -0.16922909 1.4124548 -0.6109727
0000f0 fa 7b 1e 40 59 b4 a9 c0 d4 07 82 3f 20 9d 4f 3d
       2.476317 -5.303265 1.0158639 0.050686955
000100 25 99 b5 bf 92 e1 14 c0 44 4d b3 bf ec 41 9c 3e
       -1.4187361 -2.3262677 -1.4007955 0.30519044
000110 84 93 e6 3f de 1b 95 be 37 e8 96 c0 64 7e fb bf
       1.8013768 -0.29122823 -4.7158465 -1.9647946
000120 94 37 38 3f 01 98 62 40 74 f4 26 c0 be bf 35 40
       0.71959805 3.5405276 -2.6086702 2.839828
000130 b2 db ab 3f 9e 09 d3 bf 18 6a 39 c0 f2 ef a5 3f
       1.3426421 -1.648731 -2.8971004 1.296385
000140 9c 2b c0 3f 2a 36 4b c0 0e 1e 04 40 68 d6 2a bf
       1.5013309 -3.175181 2.0643344 -0.6673341
000150 83 47 06 40 a9 cc 39 40 88 0c 9d 3f d8 dc ed bf
       2.0981147 2.9031165 1.2269449 -1.8583021
000160 44 bf dc 3f 92 62 5a 40 6c c0 37 3f be 09 78 c0
       1.724587 3.4122663 0.7177799 -3.8755946
000170 eb 4c 4e 40 fe c6 cb c0 fa 91 28 40 86 3b 9e bf
       3.2234447 -6.368041 2.6339097 -1.2361915
000180 0e 24 86 40 7f 40 3e c0 79 ec c6 bf e3 b5 93 3f
       4.191901 -2.9726865 -1.5540916 1.1539882
000190 48 bf 65 c0 1e 2c 89 c0 a1 82 88 3f a4 41 90 3e
       -3.5898 -4.2866354 1.0664865 0.2817508
0001a0 51 5d e4 3f c0 a2 bb 3f a6 07 31 bf d8 a7 d6 bf
       1.7840978 1.4659042 -0.69152296 -1.6769972
0001b0 bf db 04 40 04 46 06 41 6c 54 de 3f 1c eb b6 be
       2.0759122 8.392094 1.7369514 -0.3572625
0001c0 73 57 d8 3e 7a 8e 08 be 0c 0e 3e 40 21 4a 91 3f
       0.42254218 -0.133356 2.9696074 1.1350747
0001d0 5c 7d 1d 3f 24 92 36 be 89 b8 ac bf 1a 97 2c 40
       0.6151941 -0.17829186 -1.3493816 2.6967225
0001e0 0e b5 e9 bf 25 f8 3c 40 73 3a 88 c0 5a b5 86 40
       -1.8258379 2.9526455 -4.257135 4.2096376
0001f0 ac 80 eb 3e 44 50 f9 bf 85 91 7b 3f 6f a0 84 3f
       0.45996606 -1.947762 0.9826892 1.036146
000200 5f 2f 06 bf 2c e4 cf 3e 58 97 ca bf fc 16 40 c0
       -0.5241603 0.4060377 -1.5827436 -3.0014029
000210 82 96 3d bf e5 09 ff 3f d4 13 62 bf 6e 58 1f c0
       -0.7405778 1.9924895 -0.88311505 -2.4897723
000220 2e 46 b4 3e 6a cf ae 3f db 30 d0 3f 5a 3b f8 bf
       0.35209793 1.3657048 1.626491 -1.9393113
000230 50 46 15 c0 96 1f bb 40 ab d8 af bf 60 cc 90 bd
       -2.3324165 5.8476057 -1.3737997 -0.070702314
000240 20 89 36 be 1a 1b 03 c0 68 8a 69 40 0d fe 8c c0
       -0.17825747 -2.0485291 3.6490726 -4.406012
000250 14 0d e4 3f 7d 01 0c c0 a7 95 bc bf ae 9c 70 3e
       1.7816491 -2.1875908 -1.473317 0.23497269
000260 52 43 30 40 88 a6 3a bf 3b e5 6f 3f 1d c2 e7 be
       2.754109 -0.72910357 0.9370915 -0.45265284
000270 d0 6e 7f c0 67 07 89 40 ef 05 80 3f d6 70 8b 40
       -3.9911385 4.2821536 1.0001811 4.357524
000280 ff 35 24 40 a3 a1 8f c0 84 e7 32 c0 ca 23 de 3e
       2.5657957 -4.488481 -2.7953806 0.4338668
000290 31 4b b7 3f 29 fe 03 c0 bc c8 95 40 40 1d e9 bf
       1.4319822 -2.0623877 4.6807537 -1.8212051
0002a0 65 70 36 3f 20 07 47 3d 38 89 1a 3f ba 36 d6 3e
       0.7126525 0.04859078 0.6036563 0.41838628
0002b0 d2 10 5c bf 68 f9 60 3e 64 35 6d 3f 92 e5 11 40
       -0.85963166 0.21970141 0.9265959 2.2796369
0002c0 06 78 0e 40 5b a3 11 40 ad af 63 c0 32 ec c3 3f
       2.2260756 2.2755954 -3.5575974 1.5306456
0002d0 0a ca 2f 40 c6 a3 aa 3e 62 05 6d bf a1 09 6b bf
       2.7467065 0.33328074 -0.9258634 -0.9181157
0002e0 a6 4c 26 40 a1 69 b7 bf 8a 47 0c bf 74 9f 0c c0
       2.5984282 -1.432911 -0.5479666 -2.1972322
0002f0 7d ba 5c 40 4c ea 68 3f 4e 13 b8 3e e1 f7 05 c0
       3.4488823 0.9098251 0.35952228 -2.0932543
000300 f5 6a bb c0 c2 c8 22 be 73 f0 8d 40 64 5c cf be
       -5.8568063 -0.15896896 4.4356017 -0.40500176
000310 cd c5 89 3f a9 f3 66 3f ec 78 ee 3e b2 1f 84 bf
       1.0763489 0.90215546 0.4657663 -1.0322173
000320 34 7a 2a bf 12 d9 3a c0 0a 01 47 40 ad cd 82 be
       -0.6659272 -2.919499 3.1094384 -0.25547543
000330 ee 66 53 3f 50 fb f7 bf 3c 8f 1a 40 8c c8 19 c0
       0.82578933 -1.937357 2.4149923 -2.4028654
000340 cd 21 81 c0 76 7b a2 bf 41 a5 1d 40 d0 cd f4 bf
       -4.035376 -1.2693927 2.4632113 -1.9125309
000350 ae 11 b9 3f 4e 9f 69 3f 48 d3 28 3f 9c f4 a7 bf
       1.445852 0.91258705 0.6594739 -1.3121524
000360 dd d4 3c 3f 4b 05 ea bf 5a 21 55 bf da 1f 0f c0
       0.73762304 -1.8282865 -0.83254015 -2.236319
000370 68 e4 34 3f aa 75 0b c0 b4 a7 90 bf 65 35 2c c0
       0.7066102 -2.1790566 -1.1301179 -2.690759
000380 d3 aa 01 c0 f5 d3 0b c0 fd 9a 94 3f 18 1c fb 3f
       -2.0260513 -2.1848118 1.1609799 1.9617949
000390 98 ba 31 40 4e 20 6d 40 a1 f2 3f 40 52 87 33 c0
       2.7770138 3.7050967 2.999184 -2.8051343
0003a0 eb 07 e3 bf 4c 0e 42 bf 4c 15 b4 3e 04 db da bf
       -1.7736791 -0.75803065 0.35172498 -1.7098088
0003b0 5c 44 04 40 23 ac 44 c0 69 7d 58 40 e5 08 20 c0
       2.0666723 -3.0730064 3.3826544 -2.5005429
0003c0 65 93 70 c0 9b 71 c0 c0 e0 b5 7f 40 89 4d 08 c0
       -3.7589962 -6.013868 3.9954758 -2.1297324
0003d0 cf 6f b8 c0 57 f0 46 40 f8 1f 13 bf e2 a2 1c c0
       -5.7636485 3.1084192 -0.57470655 -2.4474416
0003e0 b5 60 19 bf b2 b7 5e 40 e7 a7 98 bf bb a6 01 40
       -0.5991319 3.4799619 -1.192624 2.0258014
0003f0 12 d3 79 c0 b8 45 21 bf 44 4f 4d bf b0 cb 18 bf
       -3.9035077 -0.6299701 -0.80199075 -0.596858

2.bias f4 [64]
000000 d9 f0 34 40 20 0e 15 3e b9 63 ac 3e 7c 7f 2e 3e
       2.8272002 0.1455617 0.33669832 0.17040819
000010 d0 f9 e8 3d 0c 39 dc bf 02 99 e4 bf b5 69 69 c0
       0.11375773 -1.7204909 -1.7859194 -3.6470768
000020 84 63 de 3e 7b 38 ce bf c0 ed 76 bf 23 9f 03 40
       0.434353 -1.6110986 -0.9645653 2.056588
000030 3b ac 9a bf f4 a3 1f c0 c6 3b a0 c0 b2 c9 71 3e
       -1.208381 -2.494382 -5.0072966 0.23612097
000040 73 f7 87 c0 3e ca 22 c0 3a d0 25 40 b2 a2 e4 bc
       -4.248956 -2.543594 2.5908341 -0.02790961
000050 a6 33 51 40 34 91 e6 3f 00 66 22 3f de 1a 86 3f
       3.2687774 1.8013062 0.6343689 1.0476949
000060 c3 61 ef be 95 e0 25 c0 e2 3a 5d 3f 68 44 5f 40
       -0.46754274 -2.5918324 0.86417973 3.4885502
000070 80 a2 48 40 c5 c7 02 c0 f3 f5 04 40 a1 58 db 3f
       3.1349182 -2.043443 2.0775115 1.7136422
000080 f3 e7 7b c0 1a e7 53 be c0 de af 3d a0 18 e8 bd
       -3.936032 -0.20693627 0.08587408 -0.11332822
000090 89 84 17 40 e5 55 4b c0 39 bc 87 bf 64 09 2b bf
       2.3674643 -3.1771176 -1.0604316 -0.66811204
0000a0 1b 95 df 3f de 7c 81 3e c8 1c 8b 3e 66 88 fb 3f
       1.7467378 0.2529058 0.27170396 1.9651
0000b0 8b 09 5e 40 87 df 05 c0 30 51 c1 be 39 35 f3 bf
       3.4693325 -2.091768 -0.37757254 -1.9000617
0000c0 b1 8c 80 c0 8b 89 ac 3f 5c 6b ff bf 81 2e 01 40
       -4.0171742 1.3479475 -1.9954638 2.0184634
0000d0 ef 75 99 40 c8 e2 62 c0 6b c0 80 40 66 c3 0c c0
       4.795646 -3.5450916 4.0234885 -2.1994262
0000e0 de 23 97 bf 05 d4 40 40 77 ea af bf a7 87 7c be
       -1.1807821 3.0129406 -1.3743428 -0.24661122
0000f0 00 7c 4c bd d1 21 a4 bf 12 a8 fe 3f 4c 9c e7 3e
       -0.049922943 -1.282282 1.9895041 0.45236433

4.weight f4 [5, 64]
000000 8c a2 7f be 88 e5 b7 40 94 60 ee 3f c4 74 22 40
       -0.2496435 5.746769 1.8623223 2.5383768
000010 47 dc 54 40 fd 54 73 40 80 b5 92 3d 2c ee 04 c0
       3.3259447 3.8020623 0.07163525 -2.0770369
000020 f8 dd 5e 3f 90 24 c2 bf 86 12 ba be b7 23 29 c0
       0.8705745 -1.5167408 -0.36342257 -2.6428049
000030 60 fd 50 3f 88 36 f9 3e 98 02 da 3d 73 29 02 c0
       0.8163662 0.48674417 0.10645026 -2.0337799
000040 61 8b 44 40 e8 ac dd 3e 26 9b 08 c0 d0 b1 f1 3e
       3.071007 0.4329598 -2.1344695 0.47205973
000050 bf b8 41 c0 92 3b 01 40 ec eb 10 3f cc 44 a1 be
       -3.026901 2.019261 0.5660999 -0.314978
000060 87 5c f2 3e 4a 77 2c c0 56 15 b2 bf ea 80 87 40
       0.47336218 -2.6947808 -1.3912761 4.2344866
000070 6d 3c 81 40 e1 da 1f 3f 80 1b 27 bd 5a 58 a0 c0
       4.038626 0.6244336 -0.04079771 -5.010785
000080 f6 05 24 40 ad 11 6d 40 8b d8 f5 3f 10 50 37 40
       2.5628638 3.7042038 1.9206709 2.8642616
000090 6d 96 d7 be 0e a3 47 3f b9 0e 60 3f 42 45 0d c0
       -0.42106953 0.77983177 0.87522465 -2.2073522
0000a0 72 7e f1 3f 8b 36 e6 bf 38 83 76 3f 57 89 3e c0
       1.8866713 -1.7985395 0.96293974 -2.9771326
0000b0 c1 b5 02 c0 c6 a7 df be 77 55 91 c0 f6 d0 4a bf
       -2.0423434 -0.43682688 -4.5416827 -0.792251
0000c0 68 cd 5a 3f 0b e8 c0 bf 3a 69 1a 40 b4 62 0f c1
       0.85469675 -1.5070814 2.4126725 -8.961597
0000d0 d4 32 4c 3f 88 1f 77 3c 76 d4 96 be f3 e6 30 c0
       0.7976506 0.015083201 -0.2945897 -2.764096
0000e0 64 18 f7 bf 71 97 63 bf 88 cb c7 bd 00 07 94 3e
       -1.9304318 -0.88902956 -0.097556174 0.2891159
0000f0 0c ed bb 3f 22 94 83 3f 6a db 9b 3f f7 60 92 c0
       1.4681716 1.0279582 1.2176335 -4.5743365
000100 e4 be 21 3f 58 55 0c bf 8d 06 60 3d e8 50 b9 40
       0.631819 -0.54817724 0.054693747 5.7911263
000110 20 09 2f bf 8c 2d 3e 3f ee 02 4b c0 91 5f 0f c0
       -0.683733 0.7428825 -3.1720538 -2.240208
000120 53 67 f2 bf 84 73 18 40 16 d3 d9 bf 42 22 e8 bf
       -1.8937782 2.3820505 -1.7017543 -1.8135455
000130 94 36 a5 3e 63 d6 81 bf b6 45 7d c0 c0 f1 41 3f
       0.32268202 -1.0143551 -3.9573798 0.75759506
000140 c2 12 e3 bf 18 2b b3 3e e8 46 ec be 99 91 37 3f
       -1.77401 0.34993815 -0.46147847 0.7170654
000150 cd 0d 9b c0 8c ec 43 bf 3e 8a 85 40 33 5f 0e c0
       -4.8454347 -0.76532817 4.1731253 -2.2245605
000160 35 bb 3d 40 c4 20 48 c0 e2 b2 72 bf 35 77 8b c0
       2.9645512 -3.1269999 -0.94804204 -4.3583016
000170 56 e4 75 40 64 fc 6b be d6 6f 5d bf 46 3a 99 bf
       3.8420615 -0.23045498 -0.86498773 -1.1970909
000180 14 e5 95 3f f3 7c 70 3f 28 ef 71 3e ce 04 ab c0
       1.1710534 0.9394066 0.23626387 -5.3443365
000190 94 c0 0d bf a6 9d 7f c0 d5 38 8c bf ba f7 5d c0
       -0.55371976 -3.993997 -1.0954844 -3.468245
0001a0 2b 45 0c c0 3d db e8 bf 5b e3 ad bf aa b5 a1 bd
       -2.1917217 -1.8191906 -1.3585008 -0.07895978
0001b0 3b 6f 31 c0 3b a5 20 c0 7d d3 4c bf 6e 83 d1 3f
       -2.772414 -2.5100849 -0.80010206 1.6368234
0001c0 99 36 a3 c0 66 63 94 be 59 5c aa 3f 89 06 1f 3f
       -5.1004148 -0.28982085 1.3309432 0.62119347
0001d0 96 b8 3f 3f f6 38 36 c0 c1 d0 5e 3f 39 39 f1 3f
       0.7489103 -2.8472266 0.87037283 1.8845588
0001e0 7b 5c 07 c0 ee da 7c 40 5d ec 0e c0 5e 40 34 c0
       -2.1150196 3.9508624 -2.2331765 -2.8164287
0001f0 96 af 06 3d a4 e2 78 bf e2 a8 f1 3f 07 46 a0 bf
       0.032882296 -0.97220826 1.8879664 -1.2521371
000200 16 28 34 bf 09 21 22 c0 cd f8 8b c0 5e 94 cf 3f
       -0.70373666 -2.5332663 -4.374121 1.6217153
000210 67 86 9c c0 b6 d0 99 bf 6e ff 18 be 57 c8 e5 3e
       -4.8914065 -1.2016819 -0.14941189 0.4487941
000220 8b 97 ca c0 ea 5f 9e c0 fe 9a 5e 3f 45 49 30 c0
       -6.330999 -4.9492083 0.8695525 -2.754472
000230 ed b5 bc bf 9e 77 c7 be 90 7d 58 3d af fe b7 40
       -1.4743019 -0.38958448 0.05285412 5.7498393
000240 48 2d 21 c0 3c 64 a1 40 49 a6 e5 bf 1c 45 0b 40
       -2.5183887 5.0434856 -1.7941371 2.176093
000250 15 07 17 bf 9f 1f 8e bf 86 eb 06 40 4b cf 91 40
       -0.5899518 -1.11034 2.1081252 4.5565543
000260 7c 44 f6 3e cf 77 49 3f 01 ed 28 bf 09 58 0a c0
       0.48099124 0.7869844 -0.6598664 -2.1616232
000270 1e 66 a7 3f dd 02 0d 40 f9 2d a8 c0 1a 81 e3 bf
       1.3078039 2.2032998 -5.255612 -1.7773774
000280 30 7d 1f be 08 3c 63 3e af a3 a3 c0 f1 77 2c c0
       -0.15575099 0.22190869 -5.113731 -2.6948206
000290 3e 50 c0 bf b5 51 da 3f 8e e2 1c 40 d8 91 81 bf
       -1.5024488 1.7056185 2.4513278 -1.0122633
0002a0 60 70 0a be 08 78 11 c0 da 25 5f c0 22 ad 95 3f
       -0.1351943 -2.2729511 -3.4866853 1.1693461
0002b0 b9 64 6c bf 9c cf 95 40 04 82 11 c0 ba ea 5b c0
       -0.9234119 4.681593 -2.2735605 -3.4362016
0002c0 2e ce 4a 40 48 b6 b1 40 17 c5 5f c0 9e 6b ca 3f
       3.1688342 5.553501 -3.4964044 1.5814092
0002d0 0f cd 75 c0 bc 78 c3 3e b4 3b 97 bf 4a 09 98 be
       -3.8406408 0.3817805 -1.1815095 -0.29694587
0002e0 bd 87 5c 3f 55 6d 55 3f 7a 6c 5b c0 0e 63 85 c0
       0.8614462 0.8336995 -3.428496 -4.1683416
0002f0 12 e2 2f 40 16 0d 40 40 9d bb 84 bf 57 d5 32 40
       2.7481732 3.0007987 -1.0369755 2.7942712
000300 8b 2a c4 3f 1a aa 39 c0 f6 8f 50 bf 7a be 1a 3e
       1.5325483 -2.9010072 -0.81469667 0.15111724
000310 34 01 0d 40 fc af 8c be a5 5e 63 bf 9f f3 11 bf
       2.2031984 -0.27478015 -0.8881629 -0.5701236
000320 60 25 97 bf 80 96 ea 3f bd 0f c3 bf 72 ff a3 3f
       -1.1808281 1.8327179 -1.5239178 1.2812331
000330 7e 78 b2 be 90 ac db be 2c 3d 55 40 4c ee 3e c0
       -0.34857553 -0.42905092 3.3318586 -2.9832945
000340 47 b4 2f c0 21 de 0c c0 8c 7d 87 be 1a 9d b4 40
       -2.7453783 -2.2010577 -0.26462972 5.6441774
000350 26 d3 8f bf 92 98 3f c0 18 a7 0e bf 36 a1 ac bf
       -1.1236312 -2.9936872 -0.55723715 -1.3486698
000360 db d3 4e bf 80 fd 83 bf c6 e2 b9 c0 2c 01 94 bf
       -0.80792016 -1.0311737 -5.8089323 -1.1562858
000370 82 ea 86 40 44 a0 16 40 8a 55 8f c0 e8 e1 5e be
       4.2161264 2.3535318 -4.479192 -0.21765864
000380 26 3b d9 bf 10 5c 79 bd 60 87 9f bf ad 86 d5 bf
       -1.6971176 -0.060878813 -1.2463188 -1.6681725
000390 d5 0b c9 3e e8 ee de 3e 53 c6 cb be 72 ef 9a c0
       0.3926684 0.43541646 -0.39799747 -4.841729
0003a0 18 f1 a3 40 53 0d 23 40 ca f0 9d c0 f2 e2 2f 3f
       5.1231804 2.5476882 -4.935643 0.68705666
0003b0 95 aa 07 41 0a 27 b3 3f 2f f8 de 40 66 02 b6 3f
       8.479146 1.3996289 6.967796 1.4219482
0003c0 9c 1a 23 be 3c 37 b5 3f c8 e2 ad bf bf 12 22 40
       -0.1592812 1.4157481 -1.3584833 2.5323942
0003d0 cd 06 96 3f 94 f1 67 3f 80 fd 19 be e6 af 80 c0
       1.1720825 0.90602994 -0.15038109 -4.021472
0003e0 b7 82 56 bf e0 dd 95 bf 13 d2 73 40 ef e3 9b 3f
       -0.83793205 -1.1708336 3.809697 1.2178935
0003f0 8d 6f ad bf b4 f7 72 c0 26 38 a5 be 9c 48 9b 3f
       -1.3549668 -3.7963686 -0.322694 1.2131534

4.bias f4 [5]
000000 0c 65 a5 40 84 5c 21 40 ae a6 05 3f 88 81 08 40
       5.168585 2.5212717 0.5220746 2.132906
000010 8d 00 4c bf
       -0.7968834
