demo/experiments/genetic_algorithm/ga_experiment_2021_02_12_160407/problem_0.model (torch, 26149 bytes, 6 tensors)

0.weight f4 [64, 22]
-0.63318115 2.685237 -0.41117406 -1.4314933 -2.7019255 0.69909716 -3.262144 -3.9078302
4.5612884 -1.2545244 -0.3434149 -2.9178271 1.7966816 -1.5241995 4.2870846 -2.9358377
3.6707335 0.7980604 1.4032505 1.0184588 -1.4405115 -2.4268346 -1.9708852 -2.1190717
2.5737677 -0.9504167 -2.7666507 -5.592728 1.8804305 4.7368116 -1.3466314 -2.7200642
-3.8476288 -0.03889084 0.14990503 0.93434286 3.8266816 1.2079762 0.19557291 2.0909674
-0.1599806 -1.9637667 0.5333608 -2.0673237 2.4217665 -3.809733 0.14073348 -2.619139
0.70661 1.0928807 5.5705795 4.3579273 -0.73720175 -0.8629829 -1.1839538 -1.5354018
0.30095798 1.127981 -4.209283 4.932381 -0.27047172 2.8959558 -3.3969307 1.9711517
-1.1190169 0.07490165 -4.5211506 -1.5343003 0.27817047 -1.2959673 -3.0472112 3.2056649
-3.217387 5.3299685 -4.1585665 5.488966 1.9461964 -3.7012098 -2.834661 0.049471974
-1.2406785 0.2297085 0.6471497 0.6770338 -1.9220687 -1.5304763 -2.9952545 2.7654781
4.923703 2.7055144 -3.2983646 -1.8881278 1.1992031 1.9508913 -1.8421535 0.42767292
-0.012211442 0.7748616 -3.0365937 -1.007227 2.2401686 -3.1322255 -0.5925424 -4.6562104
-0.68139535 0.29656196 2.0720608 -0.625396 2.389227 -2.6810534 -3.2814233 2.3845894
-0.36422193 0.029779673 -2.899983 0.9063734 2.2394545 -2.2842739 -2.67843 2.4764946
-1.9388809 1.4723084 -1.8177195 -2.782879 -0.6749066 1.7406356 -1.653779 0.90712357
4.725768 -0.48584253 -2.3873453 1.3168204 3.1940675 2.7619932 -3.8501952 -0.06227517
-2.9806352 1.4814001 4.155693 -0.22560006 1.9309797 2.2754369 -0.015592143 2.5867414
-0.66334933 -0.5059063 -1.0196202 -0.36070836 3.4198596 0.27848905 3.648659 4.0485315
-0.33815205 -1.0671647 4.292518 0.60419756 1.0011432 4.1983104 0.5341215 1.2394543
1.2672725 2.4220438 -2.1690376 2.2778208 -1.095144 -3.3481047 -5.362784 -3.230517
-0.32857126 3.7343853 -2.3579144 -0.9889113 0.050875373 -3.5217113 -1.0643475 2.1572773
1.8853052 -2.2698808 2.897562 -1.5368054 0.653162 -3.575191 -4.581649 -4.8523846
-2.840281 0.2486558 -3.6369615 2.8080225 -1.8673984 -0.75763386 -1.586422 -1.1699097
5.4212337 2.5952072 2.4702044 1.3812261 2.4882934 0.8163087 -2.7036288 0.40316027
1.8293349 0.64870936 -4.0414906 1.69742 1.9905002 -3.5080042 3.8731604 -1.8922075
-0.61058426 -2.0628262 4.6695414 -0.23593676 -3.401734 -2.57822 1.9679627 1.054069
0.12191433 2.416095 2.921533 -0.7098329 -1.8016334 -0.26225954 -2.7894363 -1.2823018
0.11907065 3.3566988 -0.7685861 1.4624213 0.8225957 -1.0991879 -4.1281404 1.6641428
-0.41090178 -2.2118845 1.3826853 1.2573104 -1.6899433 1.4468576 -1.0122879 -4.855732
-1.2477385 0.91832316 0.022767961 2.6369615 3.40418 1.1620891 -1.6479774 -2.2466874
-5.147073 -5.2347584 1.9400771 -0.36605272 -0.120544314 -3.8880155 2.0198827 1.6526195
00000000: 2918 22bf ecda 2b40 6885 d2be 2c3b b7bf
00000010: 59ec 2cc0 08f8 323f f8c6 50c0 e419 7ac0
00000020: 13f6 9140 4194 a0bf 14d4 afbe aebd 3ac0
00000030: aaf9 e53f f818 c3bf cc2f 8940 c4e4 3bc0
00000040: 4ced 6a40 b04d 4c3f b69d b33f dc5c 823f
00000050: ae62 b8bf 4251 1bc0 f745 fcbf df9e 07c0
00000060: 9cb8 2440 824e 73bf ce10 31c0 a1f7 b2c0
00000070: f2b1 f03f f693 9740 6b5e acbf 8815 2ec0
00000080: 8d3f 76c0 004c 1fbd b480 193e 1831 6f3f
00000090: 5ae8 7440 f79e 9a3f 4444 483e 69d2 0540
000000a0: f4d1 23be b55c fbbf 558a 083f 084f 04c0
000000b0: 39fe 1a40 aad2 73c0 701c 103e f99f 27c0
000000c0: 65e4 343f 84e3 8b3f 3042 b240 2474 8b40
000000d0: 41b9 3cbf 73ec 5cbf cc8b 97bf 0c88 c4bf
000000e0: 2a17 9a3e ae61 903f 72b2 86c0 11d6 9d40
000000f0: 457b 8abe 5757 3940 5067 59c0 b34e fc3f
00000100: f23b 8fbf 0966 993d 44ad 90c0 f463 c4bf
00000110: 5c6c 8e3e 42e2 a5bf 8205 43c0 9d29 4d40
00000120: abe9 4dc0 1a8f aa40 fa12 85c0 9ca5 af40
00000130: f71c f93f 9fe0 6cc0 166b 35c0 20a3 4a3d
00000140: 8ece 9ebf b438 6b3e 9aab 253f 1652 2d3f
00000150: 5906 f6bf a6e6 c3bf 40b2 3fc0 98fd 3040
00000160: fa8e 9d40 2627 2d40 6818 53c0 2cae f1bf
00000170: 7d7f 993f ceb6 f93f b0cb ebbf f2f7 da3e
00000180: 8012 48bc 545d 463f 8d57 42c0 d0ec 80bf
00000190: ec5e 0f40 6276 48c0 dcb0 17bf adff 94c0
000001a0: ed6f 2ebf f8d6 973e a59c 0440 f419 20bf
000001b0: 18e9 1840 6196 2bc0 d702 52c0 1d9d 1840
000001c0: 4c7b babe 80f4 f33c 5299 39c0 1608 683f
000001d0: 3953 0f40 8b31 12c0 666b 2bc0 e37e 1e40
000001e0: 402d f8bf 9a74 bc3f 08ab e8bf b11a 32c0
000001f0: aec6 2cbf 26cd de3f 08af d3bf 4039 683f
00000200: 7e39 9740 5ac0 f8be 44ca 18c0 928d a83f
00000210: 9a6b 4c40 7fc4 3040 9969 76c0 4014 7fbd
00000220: bac2 3ec0 859e bd3f 70fb 8440 b403 67be
00000230: 582a f73f c2a0 1140 3076 7fbc 2c8d 2540
00000240: 43d1 29bf 1383 01bf ea82 82bf c4ae b8be
00000250: fbde 5a40 1e96 8e3e a183 6940 928d 8140
00000260: 4422 adbe da98 88bf 4f5c 8940 b1ac 1a3f
00000270: 7625 803f 8f58 8640 30bc 083f 70a6 9e3f
00000280: fc35 a23f c402 1b40 83d1 0ac0 d1c7 1140
00000290: ae2d 8cbf 5947 56c0 ed9b abc0 cac0 4ec0
000002a0: 7e3a a8be 2b00 6f40 12e8 16c0 4a29 7dbf
000002b0: b262 503d b863 61c0 8a3c 88bf d510 0a40
000002c0: ae51 f13f ba45 11c0 a871 3940 0ab6 c4bf
000002d0: a035 273f eecf 64c0 de9c 92c0 bc46 9bc0
000002e0: 2ac7 35c0 a09f 7e3e fac3 68c0 a4b6 3340
000002f0: e906 efbf 4bf4 41bf e00f cbbf 9abf 95bf
00000300: bf7a ad40 e017 2640 d417 1e40 04cc b03f
00000310: 3340 1f40 9bf9 503f 4108 2dc0 066b ce3e
00000320: a527 ea3f d111 263f e453 81c0 0f45 d93f
00000330: b6c8 fe3f 2483 60c0 dce1 7740 db33 f2bf
00000340: 404f 1cbf 5805 04c0 e26c 9540 6899 71be
00000350: 03b6 59c0 8e01 25c0 34e6 fb3f bceb 863f
00000360: 38ae f93d 4da1 1a40 66fa 3a40 9cb7 35bf
00000370: ec9b e6bf e246 86be 2086 32c0 7722 a4bf
00000380: 50db f33d 27d4 5640 0fc2 44bf 9f30 bb3f
00000390: a295 523f 30b2 8cbf ba19 84c0 a202 d53f
000003a0: b861 d2be 848f 0dc0 d5fb b03f 8cef a03f
000003b0: 1050 d8bf a132 b93f a692 81bf 2862 9bc0
000003c0: e5b5 9fbf 3a17 6b3f e083 ba3c fac3 2840
000003d0: 16de 5940 56bf 943f ecf0 d2bf bac9 0fc0
000003e0: d2b4 a4c0 2483 a7c0 7254 f83f 436b bbbe
000003f0: f0df f6bd 3fd5 78c0 c245 0140 0989 d33f

0.bias f4 [64]
4.300686 1.0718797 -3.0028386 -0.8943249 5.3008285 2.3085456 3.0687156 -0.7299435
2.4483614 0.49286547 -3.4098177 0.507467 2.1818118 0.86379075 -3.9243581 -0.1628829
3.1162713 -1.9587009 1.4945632 -0.4089138 2.395865 2.3403568 -0.9456501 1.6894339
-1.2329355 1.365401 -0.9905626 -2.853622 -1.3352796 -0.35583788 -0.9391701 -2.706843
0.6155406 -3.1627767 -3.157371 -0.6947856 -1.696357 -0.30298275 -1.1046103 5.1304855
-0.74278474 -0.27412486 -2.117025 -1.557112 5.1770573 -3.1881077 3.1726751 0.108361244
2.8867822 -0.9701907 3.3224165 -0.7300369 2.0157242 -1.2750212 2.9518301 3.3410091
1.0945863 -1.855317 -0.54056895 1.3472549 1.6137445 -2.0375466 -0.85755897 -3.7096398
00000000: 389f 8940 5b33 893f 822e 40c0 7af2 64bf
00000010: 63a0 a940 36bf 1340 d665 4440 94dd 3abf
00000020: f4b1 1c40 dd58 fc3e 743a 5ac0 5be9 013f
00000030: cea2 0b40 6421 5d3f af28 7bc0 c6ca 26be
00000040: fd70 4740 b6b6 fabf d94d bf3f 265d d1be
00000050: da55 1940 68c8 1540 2016 72bf 5f3f d83f
00000060: d5d0 9dbf 76c5 ae3f 8395 7dbf bea1 36c0
00000070: 71ea aabf 6230 b6be 746d 70bf ea3c 2dc0
00000080: 1294 1d3f ef6a 4ac0 5e12 4ac0 78dd 31bf
00000090: 3a22 d9bf 8e20 9bbe df63 8dbf f02c a440
000000a0: 2427 3ebf 185a 8cbe 567d 07c0 724f c7bf
000000b0: 74aa a540 f509 4cc0 1c0d 4b40 80ec dd3d
000000c0: 0ac1 3840 6b5e 78bf 79a2 5440 b3e3 3abf
000000d0: a001 0140 e533 a3bf c9ea 3c40 18d3 5540
000000e0: 671b 8c3f 077b edbf ba62 0abf d972 ac3f
000000f0: 2e8f ce3f 2a67 02c0 fc88 5bbf bd6a 6dc0

2.weight f4 [64, 64]
-5.3355455 -0.057357192 0.43629563 1.2904717 -3.59899 3.5513184 -0.6133044 2.3807163
3.9310637 -0.9573941 5.6233587 -1.1288594 -8.436635 -1.9434797 -4.6909685 -1.6991806
-1.6247932 0.71170354 -3.2032678 3.1174982 -6.080597 -1.5860378 -0.59074295 -1.6212678
-0.42790002 2.637691 3.2352722 4.60558 -4.1799984 3.3000832 -0.697883 -4.1733522
-8.990015 -0.16900969 1.9837939 -5.041359 -1.210136 -1.0913006 -0.7379332 -3.8824763
-2.1352174 1.7964125 -5.2427006 -2.6731217 -0.24936375 -5.232646 2.8858075 -0.5079148
1.4870031 -5.3314147 0.89796746 -3.3037596 1.2240903 2.3872578 -5.0406656 1.4954761
-3.0342112 3.9043841 0.65192205 0.74571764 0.7331476 1.960315 0.18146133 -2.5985255
-2.3403833 -3.7174525 1.2186114 4.763464 1.4773129 1.3009541 1.9272101 3.2367067
-1.4755785 1.0790887 0.38570797 -2.6871123 -3.7406752 0.5836686 0.85188264 3.769665
1.456626 1.4513034 -2.5166407 0.28755784 -1.450888 2.4529173 -0.26598167 0.5292866
-0.3675773 0.25041544 0.9108785 2.5896084 -2.5236204 -0.14341983 -2.1824927 0.041094035
4.9664006 2.4968927 2.326328 -2.183043 1.2799525 0.5181526 -2.4548883 -0.36290115
6.1172843 -3.1278696 2.6587067 3.6193461 -0.6077814 -3.5176113 1.2540197 -2.5243273
-1.1249655 -1.9571598 -3.2882113 -1.8832808 3.1575248 5.6421037 -0.6669764 0.6281484
0.425411 2.070837 0.028165206 -5.0224395 0.36973375 2.9110894 -1.1616944 1.470237
3.1379013 -3.7702832 0.23076022 -0.96785724 -2.9599938 -0.8297026 0.54697466 1.7013028
2.6134055 -3.8743448 -2.5434744 -1.2556953 -1.5111322 3.068554 -5.283328 -1.4128662
2.666382 -0.6773015 3.755389 -4.99291 -0.7941932 -0.4368755 0.45919698 0.043250397
0.3224473 -0.62833107 -3.7731721 0.01527071 2.7626293 0.12026572 0.29973316 3.414966
4.659262 -1.1268089 -1.4668498 2.9824598 -1.7921126 0.41804284 2.2279615 4.692966
0.6868556 3.363095 -2.3009708 1.3569884 1.2802608 -0.3708486 -1.8557478 4.1697664
1.6520109 1.5381652 -3.8795092 0.48626786 -3.0464888 1.1272876 2.8003604 -7.0476956
0.0079586245 1.2440313 2.1946428 -1.8769038 3.8572981 2.326863 0.57259166 2.4468703
2.7886097 2.0590022 -2.6518226 -1.2556192 2.134708 0.30724567 -1.1552378 0.5537329
-1.2608603 0.19319499 4.239276 4.85839 -0.39785665 0.41013038 -1.1232523 -2.2776127
-0.657514 -1.5638542 1.2191164 2.9513822 -0.6055589 -2.6386056 -0.6890772 2.0093174
0.99086034 -2.3330142 -2.0422907 0.40311867 -6.803217 1.6619271 -0.25774443 -3.6382396
-1.8083982 3.0530975 1.3337063 -2.890543 -1.9964802 0.111249834 0.9295856 5.5474916
4.171457 0.4084768 -2.548932 -0.023087323 -2.1014547 -1.2291985 -3.4526465 -3.0207708
-2.676046 0.6915209 -1.6442477 0.37992728 -1.2169496 -4.399348 -2.0123718 -0.94165415
4.780693 -1.4873717 -1.6597857 -0.23283204 -1.472922 -0.8858346 -0.13233517 -1.5479189
00000000: cabc aac0 60ef 6abd 2462 df3e 2d2e a53f
00000010: da55 66c0 cd48 6340 8401 1dbf a85d 1840
00000020: 8c96 7b40 c817 75bf 8ef2 b340 777e 90bf
00000030: 75fc 06c1 f1c3 f8bf 6a1c 96c0 c07e d9bf
00000040: 39f9 cfbf 3432 363f 5702 4dc0 1785 4740
00000050: 4094 c2c0 4903 cbbf ee3a 17bf b485 cfbf
00000060: b615 dbbe eecf 2840 b30e 4f40 e960 9340
00000070: 8cc2 85c0 9034 5340 76a8 32bf 1a8c 85c0
00000080: 1ad7 0fc1 e010 2dbe f5ec fd3f d052 a1c0
00000090: bde5 9abf bdaf 8bbf 31e9 3cbf 7e7a 78c0
000000a0: 67a7 08c0 d8f0 e53f 34c4 a7c0 6d14 2bc0
000000b0: 3659 7fbe d671 a7c0 12b1 3840 b406 02bf
000000c0: 1e56 be3f f39a aac0 32e1 653f cc70 53c0
000000d0: feae 9c3f d5c8 1840 224d a1c0 c36b bf3f
000000e0: 8430 42c0 6ee1 7940 5de4 263f 5ae7 3e3f
000000f0: 90af 3b3f 9aeb fa3f 00d1 393e 3e4e 26c0
00000100: d7c8 15c0 beea 6dc0 75fb 9b3f 4c6e 9840
00000110: 9718 bd3f aa85 a63f d2ae f63f 3426 4f40
00000120: c2df bcbf 941f 8a3f 847b c53e a6f9 2bc0
00000130: 3967 6fc0 4e6b 153f fb14 5a3f 3142 7140
00000140: b972 ba3f 4fc4 b93f a410 21c0 c83a 933e
00000150: b3b6 b9bf 99fc 1c40 c02e 88be 547f 073f
00000160: 1833 bcbe 7436 803e 552f 693f 25bc 2540
00000170: ff82 21c0 a6dc 12be f6ad 0bc0 3852 283d
00000180: c1ec 9e40 17cd 1f40 8fe2 1440 fab6 0bc0
00000190: 7cd5 a33f a6a5 043f e41c 1dc0 2ece b9be
000001a0: cbc0 c340 042f 48c0 4028 2a40 5ea3 6740
000001b0: 9097 1bbf 8b20 61c0 b883 a03f 948e 21c0
000001c0: dffe 8fbf 3684 fabf 0e72 52c0 580f f1bf
000001d0: e314 4a40 1d8c b440 f7be 2abf 55ce 203f
000001e0: 78cf d93e 9888 0440 b8ba e63c d3b7 a0c0
000001f0: be4d bd3e 4a4f 3a40 67b2 94bf ba30 bc3f
00000200: 60d3 4840 524c 71c0 684c 6c3e 7ec5 77bf
00000210: 8a70 3dc0 6467 54bf 8806 0c3f 4ac4 d93f
00000220: 0942 2740 44f5 77c0 49c8 22c0 a0ba a0bf
00000230: c86c c1bf 3063 4440 0611 a9c0 cdd8 b4bf
00000240: 01a6 2a40 a263 2dbf 4b58 7040 ebc5 9fc0
00000250: 3f50 4bbf 25ae dfbe de1b eb3e 5427 313d
00000260: d017 a53e 4eda 20bf a77b 71c0 0032 7a3c
00000270: ebce 3040 e04d f63d a076 993e ce8e 5a40
00000280: ad18 9540 463b 90bf bcc1 bbbf 9fe0 3e40
00000290: f263 e5bf b609 d63e ec96 0e40 c72c 9640
000002a0: c5d5 2f3f f33c 5740 1b43 13c0 ccb1 ad3f
000002b0: 96df a33f dedf bdbe 2589 edbf ba6e 8540
000002c0: 1875 d33f 99e2 c43f e149 78c0 1af8 f83e
000002d0: acf9 42c0 f64a 903f 1b39 3340 b986 e1c0
000002e0: e464 023c 6b3c 9f3f 0775 0c40 623e f0bf
000002f0: f9dd 7640 53eb 1440 5e95 123f 8699 1c40
00000300: 9578 3240 b1c6 0340 76b7 29c0 21b8 a0bf
00000310: 0e9f 0840 4e4f 9d3e d5de 93bf 70c1 0d3f
00000320: df63 a1bf e8d4 453e 26a8 8740 ee77 9b40
00000330: deb3 cbbe 9cfc d13e bbc6 8fbf 68c4 11c0
00000340: d652 28bf 602c c8bf 020c 9c3f 72e3 3c40
00000350: e805 1bbf eade 28c0 5d67 30bf a898 0040
00000360: 06a9 7d3f 1b50 15c0 e4b4 02c0 9265 ce3e
00000370: f4b3 d9c0 07ba d43f 14f7 83be ebd8 68c0
00000380: 9879 e7bf f365 4340 e3b6 aa3f a8fe 38c0
00000390: aa8c ffbf f4d6 e33d 52f9 6d3f 0d85 b140
000003a0: 937c 8540 df23 d13e b421 23c0 a021 bdbc
000003b0: 3c7e 06c0 6056 9dbf 29f8 5cc0 4f54 41c0
000003c0: 5644 2bc0 8407 313f b576 d2bf d485 c23e
000003d0: 01c5 9bbf 75c7 8cc0 b3ca 00c0 3f10 71bf
000003e0: 70fb 9840 3262 bebf dc73 d4bf 866b 6ebe
000003f0: b588 bcbf 0ec6 62bf df82 07be 3522 c6bf

2.bias f4 [64]
2.299306 -1.0591483 -7.4225764 -1.3077997 2.197217 2.9507618 -0.83705425 1.4219457
0.9317968 0.3732725 -0.31273633 -7.589357 4.710951 -1.6078056 -0.2950155 -1.5969654
-3.2156954 -1.1275339 -1.818519 3.443224 4.935543 2.5746617 -1.2428503 -0.8572684
-4.471722 0.40228033 3.6225631 -1.9964049 -5.0860753 1.7804024 1.0407927 -0.34850895
-0.8179943 0.8011826 -1.4077005 3.5698333 -1.1111608 -0.29145253 -2.9089983 -0.38878325
3.912485 2.0259683 1.4583931 0.6295302 -2.0522618 1.1270964 2.1588044 -1.786434
4.8723364 2.9545722 -0.870654 0.37906277 -1.2833742 -0.19517794 -1.2510846 -2.7597175
-1.6559347 1.4781692 -3.5060465 -2.282042 -0.8840301 -1.4831164 2.492552 -2.837032
00000000: d427 1340 2c92 87bf bf85 edc0 fb65 a7bf
00000010: 349f 0c40 48d9 3c40 3049 56bf 5102 b63f
00000020: 3c8a 6e3f 931d bf3e fa1e a0be 03dc f2c0
00000030: 1cc0 9640 93cc cdbf 460c 97be 5d69 ccbf
00000040: f4cd 4dc0 0853 90bf 3bc5 e8bf c85d 5c40
00000050: f8ef 9d40 42c7 2440 b815 9fbf f175 5bbf
00000060: 5918 8fc0 b0f7 cd3e 13d8 6740 328a ffbf
00000070: 21c1 a2c0 3ae4 e33f b238 853f c46f b2be
00000080: 1368 51bf 4e1a 4d3f 882f b4bf 2678 6440
00000090: 843a 8ebf 4439 95be 072d 3ac0 990e c7be
000000a0: 2766 7a40 77a9 0140 a0ac ba3f e428 213f
000000b0: 4258 03c0 b244 903f da29 0a40 dfa9 e4bf
000000c0: 2eea 9b40 b617 3d40 2ee3 5ebf 8414 c23e
000000d0: 9b45 a4bf badc 47be 8a23 a0bf 369f 30c0
000000e0: abf5 d3bf a634 bd3f 1163 60c0 fa0c 12c0
000000f0: cc4f 62bf c2d6 bdbf f985 1f40 ef91 35c0

4.weight f4 [5, 64]
0.58363855 -1.8038633 -0.5444739 0.0075502396 -1.1134373 0.68577904 -2.89871 -2.563043
2.0344977 -1.4337075 0.8871403 0.0968495 1.8355173 -1.778774 1.8081644 0.5093466
1.3364952 -0.59351605 -1.640446 -1.826237 1.3400451 -0.13459805 2.4947329 0.06541449
4.1017485 1.0166614 -1.4741098 0.46714085 0.99475616 0.84163177 -2.0360804 2.7777874
-2.0239708 -2.3436155 -7.0678997 1.3234993 2.047535 3.8946733 0.14744788 -2.3437786
2.5574143 -1.0259329 -0.46315587 -0.03355044 1.5939664 -4.064666 4.7256002 -2.0837276
2.7643478 1.1097859 5.2762384 0.69120026 3.0932724 -0.0844844 -1.7998781 2.1630392
-2.5697727 2.0193336 2.0518043 1.4455154 4.087819 -0.6437384 3.0252347 5.3976326
0.44590735 -1.4109919 1.8382504 1.7823414 4.740135 4.257856 3.0264332 -0.022356063
-6.1790495 -0.6066257 -4.4257665 1.5439394 2.4990933 0.6046699 -0.29038095 0.83066195
1.9197187 1.3311261 1.919739 -3.7698526 1.0334193 2.0737247 2.2760189 -4.229784
0.5070459 1.211324 -0.6334728 1.5716105 -1.0677748 1.2778277 2.4311585 4.3734226
2.2215528 -2.1100574 -0.22398812 2.5785418 -2.1866589 1.180506 -2.0573368 0.7745514
0.7991924 3.9754755 2.0427158 -3.1985743 -0.31483 1.3843321 0.22476748 -3.3059247
1.4661939 -1.9028926 -0.03462416 2.3831158 -0.067298055 2.641241 -2.3371656 -0.90352106
-4.4697495 -0.3605265 0.4845568 1.9089051 1.9734867 -1.1103594 -5.2048945 2.1158485
1.4307947 2.4840853 2.7389677 1.5438132 -2.0547101 -1.743071 -0.5660249 3.731098
-3.6345804 -0.6556463 0.28978747 -0.5386508 3.507431 1.4228601 -1.3289036 -0.9623087
-0.21723026 5.519223 -3.3554692 -1.7267762 -0.8662984 0.26359555 -1.2263248 -1.8578726
3.6978428 1.5094004 2.351365 3.3499005 -0.6657094 0.563921 2.980789 -0.014250517
-3.2486365 -4.03203 3.0086021 -5.068982 -4.623889 -0.10889709 0.3154053 -3.7156544
1.5691471 3.790987 0.053746462 2.8036826 -3.5088825 -3.921742 -0.79067683 0.69224066
-1.1112797 -1.7965219 -1.7017174 0.57564163 -3.7606585 -3.6853604 -5.411492 -0.6240797
1.4236835 -0.24707684 0.6323679 -0.23522437 1.4018364 -0.75159925 -1.1405456 -3.945826
-1.9712821 -1.6706928 3.991374 -0.7041558 -0.077705875 -5.6252112 1.3153818 -1.5083394
-0.15290874 -1.2634065 -4.475677 -5.7035193 0.42294395 2.6434407 1.7713785 -3.446157
-1.041858 1.0618453 -0.87471104 2.4177632 -0.41521528 -0.038978577 0.7787446 -1.8608023
-2.9612446 -1.5211568 -4.1438503 -0.0078549385 -1.2776173 1.3022214 -2.4920015 -1.4345167
-0.88984036 2.2989578 -2.4511967 -0.67278 2.5187774 1.4497843 -0.32429677 -1.5435178
1.8260037 -0.95980024 0.60306454 -0.91801786 0.5918109 0.9194108 -0.6797631 -1.8570204
1.3733319 -0.81061965 -0.47038394 -1.1392189 4.224023 4.619771 -1.3209791 -4.8795953
2.8400967 2.1545486 3.3317368 -0.027788877 0.55854213 1.1899378 -2.2707705 -1.7837175
00000000: 5669 153f fee4 e6bf a462 0bbf 0068 f73b
00000010: 1d85 8ebf 378f 2f3f 7784 39c0 e608 24c0
00000020: 3635 0240 ba83 b7bf a01b 633f 0859 c63d
00000030: 3bf2 ea3f deae e3bf ee71 e73f 8a64 023f
00000040: 4612 ab3f abf0 17bf 22fa d1bf 22c2 e9bf
00000050: 9986 ab3f 12d4 09be b4a9 1f40 08f8 853d
00000060: 8641 8340 f621 823f a1af bcbf 162d ef3e
00000070: 57a8 7e3f 2e75 573f 244f 02c0 45c7 3140
00000080: bd88 01c0 ccfd 15c0 3c2c e2c0 6d68 a93f
00000090: d00a 0340 5442 7940 94fc 163e 7800 16c0
000000a0: adac 2340 c551 83bf c422 edbe 306c 09bd
000000b0: 1707 cc3f be11 82c0 1e38 9740 cb5b 05c0
000000c0: 13eb 3040 770d 8e3f f2d6 a840 80f2 303f
000000d0: 2df8 4540 2806 adbd 6862 e6bf 3c6f 0a40
000000e0: 2877 24c0 c33c 0140 c350 0340 a606 b93f
000000f0: 6acf 8240 0acc 24bf 729d 4140 68b9 ac40
00000100: f84d e43e 629b b4bf ca4b eb3f c323 e43f
00000110: 30af 9740 5b40 8840 15b1 4140 1024 b7bc
00000120: c6ba c5c0 d24b 1bbf e19f 8dc0 ce9f c53f
00000130: 25f1 1f40 a6cb 1a3f d0ac 94be 43a6 543f
00000140: 58b9 f53f 5762 aa3f 02ba f53f 4445 71c0
00000150: 1547 843f e8b7 0440 4baa 1140 645a 87c0
00000160: c3cd 013f aa0c 9b3f 462b 22bf 882a c93f
00000170: d8ac 88bf dc8f a33f 1a98 1b40 14f3 8b40
00000180: ec2d 0e40 2e0b 07c0 245d 65be d406 2540
00000190: 38f2 0bc0 d21a 973f 68ab 03c0 0049 463f
000001a0: e097 4c3f 316e 7e40 dbbb 0240 71b5 4cc0
000001b0: 6631 a1be cb31 b13f 7229 663e 4594 53c0
000001c0: 3eac bb3f fc91 f3bf 10d2 0dbd f884 1840
000001d0: 90d3 89bd 180a 2940 1f94 15c0 284d 67bf
000001e0: 3008 8fc0 ee96 b8be d417 f83e 0157 f43f
000001f0: 369b fc3f 4220 8ebf 7f8e a6c0 106a 0740
00000200: 4824 b73f 41fb 1e40 3f4b 2f40 ac9b c53f
00000210: 5f80 03c0 f31c dfbf 02e7 10bf 4fca 6e40
00000220: f79c 68c0 70d8 27bf 065f 943e 05e5 09bf
00000230: c079 6040 4820 b63f 8319 aabf dd59 76bf
00000240: 9c71 5ebe 7a9d b040 02c0 56c0 0107 ddbf
00000250: bbc5 5dbf fff5 863e 36f8 9cbf c5ce edbf
00000260: 75a9 6c40 0834 c13f c47c 1640 c564 5640
00000270: ee6b 2abf 205d 103f 3fc5 3e40 007b 69bc
00000280: a9e9 4fc0 6406 81c0 f08c 4040 1a35 a2c0
00000290: e6f6 93c0 7005 dfbd ce7c a13e 48cd 6dc0
000002a0: d0d9 c83f 889f 7240 4025 5c3d 896f 3340
000002b0: 8891 60c0 d2fd 7ac0 cc69 4abf af36 313f
000002c0: 6a3e 8ebf 6ef4 e5bf e0d1 d9bf 405d 133f
000002d0: a1ae 70c0 f2dc 6bc0 f12a adc0 b0c3 1fbf
000002e0: 433b b63f b601 7dbe dde2 213f a8de 70be
000002f0: 606f b33f cf68 40bf 66fd 91bf 6a88 7cc0
00000300: f952 fcbf 43d9 d5bf ac72 7f40 8e43 34bf
00000310: 4224 9fbd bb01 b4c0 6e5e a83f 4411 c1bf
00000320: 1c94 1cbe 4eb7 a1bf bf38 8fc0 3b83 b6c0
00000330: 1c8c d83e 222e 2940 88bc e23f d68d 5cc0
00000340: 9a5b 85bf 8cea 873f 10ed 5fbf a2bc 1a40
00000350: 1997 d4be 00a8 1fbd ce5b 473f c52e eebf
00000360: 0885 3dc0 44b5 c2bf 6c9a 84c0 00b2 00bc
00000370: f788 a3bf 31af a63f f47c 1fc0 3e9e b7bf
00000380: 94cc 63bf 2022 1340 68e0 1cc0 4f3b 2cbf
00000390: a633 2140 8892 b93f 3a0a a6be fe91 c5bf
000003a0: 7dba e93f 78b5 75bf 7062 1a3f 3803 6bbf
000003b0: eb80 173f 825e 6b3f f404 2ebf d8b2 edbf
000003c0: 57c9 af3f c584 4fbf 2ad6 f0be edd1 91bf
000003d0: 322b 8740 2ad5 9340 d815 a9bf a525 9cc0
000003e0: 25c4 3540 20e4 0940 2d3b 5540 80a5 e3bc
000003f0: 9efc 0e3f e24f 983f 4e54 11c0 db50 e4bf

4.bias f4 [5]
-0.31225395 -1.088092 1.872936 1.8687291 3.5516725
00000000: c0df 9fbe 9946 8bbf 5ebc ef3f 8432 ef3f
00000010: 9a4e 6340
