demo/experiments/genetic_algorithm/ga_experiment_2021_02_12_160407/problem_25.model (torch, 26149 bytes, 6 tensors)

0.weight f4 [64, 22]
0.024092078 1.3277364 3.1289663 -2.6279035 2.2998433 3.489685 -0.4311285 0.017476045
-1.417375 0.09350577 3.8653007 2.5223587 -2.3488255 2.883328 1.2044702 1.4590027
2.7613857 -1.6070365 6.280961 0.5554112 -0.018443346 -2.838633 4.1557174 -3.9922767
-1.8117595 -2.1731157 -0.5358318 -2.003546 0.8797068 4.357412 0.7820194 -1.498298
2.0476627 2.868662 1.6662344 -1.866202 2.0813644 -2.5168629 0.56495345 0.24097764
0.14481443 0.7378511 5.805616 -5.9795737 2.20237 -0.28206742 -3.5569322 3.8633249
1.9950464 5.435727 1.754478 -1.3914915 -1.9667027 -0.27025276 -0.74824643 1.2340257
1.0281324 3.2829947 0.5349747 0.6048813 1.222966 2.7216287 -0.28876746 -0.52190256
-1.637475 -1.831476 -0.603132 -4.367919 -1.4767283 0.40928698 3.3684692 -0.4044057
-1.3290974 -0.28094828 -5.7659054 -2.0973132 0.77887684 5.4618115 3.608346 -2.0977998
0.360663 -1.5937091 -0.123725295 0.62798315 4.8734317 -1.4382552 -0.10610092 5.5759087
1.6889889 -2.995726 -2.089088 2.4247854 1.3428148 0.3556022 0.18841124 1.9239537
-1.7986403 -1.4666884 -1.6151478 0.16369247 1.0239676 -0.9451381 -1.5449878 -1.2486486
-1.4262562 2.0646176 0.40662473 4.5187383 -1.7871333 -2.8929043 3.956778 -2.8741813
-1.6750696 -0.2706433 5.4001894 -1.8901029 0.2190947 -2.072638 -5.271124 1.9854325
2.580971 -0.7447514 -0.85372895 -1.7319099 2.6980054 -1.8628303 4.3664303 0.38979614
3.9802234 -4.5016 3.860578 2.9231577 1.3362283 1.3005561 0.06753993 -4.880463
-3.6354153 1.5678742 5.026934 -2.859438 0.4597432 -0.2639475 0.42873996 0.49806893
1.4585035 1.4036928 0.69776624 0.09060311 -4.12471 0.5140078 0.6690779 -0.7350916
4.617527 -0.32589802 0.20922136 -2.1505413 -2.785821 1.57379 0.7552856 0.7608471
3.5115726 0.5286684 0.12424192 -1.5276725 -1.0233123 -1.6100934 -1.9313148 0.12108964
1.3949566 0.85454416 2.817158 -0.46607542 1.6570351 0.046768486 1.0975021 5.274164
-1.4062226 2.2443023 1.9379599 0.6781655 1.9589841 2.8824313 0.54356825 -0.8963102
3.590632 1.462568 -1.3476832 2.322711 -0.69745004 -3.6569793 2.1553495 0.639309
-2.231718 1.167953 2.181725 3.1937895 -1.2411529 -0.88296294 -0.28668615 -0.18058848
-1.2732555 0.74860865 -1.0090768 1.9392731 -2.009538 0.67598665 -1.8716063 -1.3953217
2.2059855 4.412327 -3.5192852 0.16296738 -1.0534455 3.926523 0.7397696 4.4167604
1.7571545 0.35592294 2.6762886 2.7897062 1.2903789 -2.3580103 0.44841453 -1.0738101
-1.1497276 1.1223112 -4.9052944 2.2197862 1.401772 -2.9725342 4.025444 2.5912573
0.088189006 -0.29952312 0.7306756 1.3077496 -0.34353518 1.876408 -1.7348701 0.6788718
-2.1408532 0.49595767 2.746141 1.2117529 -0.010209441 4.488121 0.6372566 1.6871775
-0.6719979 -0.3260009 -0.2782802 1.2638998 1.1880393 -1.1982225 0.4183231 1.690729
00000000: c05c c53c 44f3 a93f fc40 4840 922f 28c0
00000010: a230 1340 0057 5f40 e0bc dcbe ec29 8f3c
00000020: 8b6c b5bf f47f bf3d 1661 7740 536e 2140
00000030: 2853 16c0 7288 3840 142c 9a3f 9ac0 ba3f
00000040: 8bba 3040 5fb3 cdbf a2fd c840 6e2f 0e3f
00000050: 8016 97bc 2aac 35c0 a3fb 8440 7681 7fc0
00000060: bce7 e7bf 5414 0bc0 462c 09bf 193a 00c0
00000070: 7734 613f eb6f 8b40 6c32 483f 3bc8 bfbf
00000080: e80c 0340 2998 3740 2b47 d53f b5df eebf
00000090: 1335 0540 4814 21c0 caa0 103f d8c2 763e
000000a0: 3c4a 143e cfe3 3c3f 9bc7 b940 ab58 bfc0
000000b0: a1f3 0c40 246b 90be c7a4 63c0 b740 7740
000000c0: ae5d ff3f 7af1 ad40 bc92 e03f 651c b2bf
000000d0: eabc fbbf 925e 8abe 148d 3fbf 8ef4 9d3f
000000e0: d899 833f 961c 5240 1af4 083f 80d9 1a3f
000000f0: 268a 9c3f 2a2f 2e40 54d9 93be 689b 05bf
00000100: c898 d1bf ce6d eabf dc66 1abf fec5 8bc0
00000110: 6f05 bdbf 108e d13e 0095 5740 440e cfbe
00000120: dd1f aabf 74d8 8fbe 4c82 b8c0 613a 06c0
00000130: 7964 473f 29c7 ae40 24ef 6640 5a42 06c0
00000140: d2a8 b83e a9fe cbbf b063 fdbd 81c3 203f
00000150: 27f3 9b40 bf18 b8bf 704b d9bd d86d b240
00000160: ca30 d83f fab9 3fc0 9eb3 05c0 af2f 1b40
00000170: 5be1 ab3f 7e11 b63e e0ee 403e 1d44 f63f
00000180: d839 e6bf 72bc bbbf 2abd cebf 009f 273e
00000190: 5f11 833f 92f4 71bf 29c2 c5bf b8d3 9fbf
000001a0: 908f b6bf b222 0440 1e31 d03e 8199 9040
000001b0: c9c0 e4bf 5825 39c0 da3b 7d40 96f2 37c0
000001c0: ae68 d6bf c291 8abe 5ace ac40 e4ee f1bf
000001d0: 5c5a 603e 1aa6 04c0 0cad a8c0 a722 fe3f
000001e0: a12e 2540 07a8 3ebf fb8d 5abf 39af ddbf
000001f0: 1fac 2c40 3971 eebf ccb9 8b40 5c93 c73e
00000200: fbbb 7e40 1b0d 90c0 b613 7740 0415 3b40
00000210: 8709 ab3f 9f78 a63f 6052 8a3d c12c 9cc0
00000220: a5aa 68c0 1ab0 c83f a5dc a040 0801 37c0
00000230: 7663 eb3e 2024 87be ce83 db3e e402 ff3e
00000240: 3eb0 ba3f 35ac b33f cfa0 323f 208e b93d
00000250: a0fd 83c0 0496 033f b048 2b3f f72e 3cbf
00000260: c8c2 9340 1bdc a6be 203e 563e 78a2 09c0
00000270: e44a 32c0 f371 c93f 665a 413f e0c6 423f
00000280: 9bbd 6040 d056 073f 8c72 fe3d c68a c3bf
00000290: e6fb 82bf 8a17 cebf 5335 f7bf d8fd f73d
000002a0: f08d b23f 68c3 5a3f 514c 3440 70a1 eebe
000002b0: ba19 d43f 5090 3f3d f37a 8c3f f4c5 a840
000002c0: 1aff b3bf a6a2 0f40 120f f83f 419c 2d3f
000002d0: febf fa3f c179 3840 4a27 0b3f 9674 65bf
000002e0: eacc 6540 6e35 bb3f e280 acbf 4ca7 1440
000002f0: 168c 32bf f30b 6ac0 3ff1 0940 c1a9 233f
00000300: 78d4 0ec0 7c7f 953f 62a1 0b40 0c67 4c40
00000310: 19de 9ebf dc09 62bf 87c8 92be 30ec 38be
00000320: 09fa a2bf d1a4 3f3f 6e29 81bf 1a3a f83f
00000330: 459c 00c0 760d 2d3f cc90 efbf e799 b2bf
00000340: de2e 0d40 c831 8d40 f83b 61c0 ece0 263e
00000350: 4dd7 86bf 274c 7b40 8a61 3d3f 1a56 8d40
00000360: 70ea e03f 883b b63e 5048 2b40 8c8a 3240
00000370: 232b a53f a4e9 16c0 9796 e53e 9c72 89bf
00000380: 462a 93bf e5a7 8f3f 2cf8 9cc0 fa10 0e40
00000390: 446d b33f 003e 3ec0 70d0 8040 29d7 2540
000003a0: 709c b43d 185b 99be 8e0d 3b3f 5764 a73f
000003b0: d8e3 afbe 232e f03f 3910 debf 8bca 2d3f
000003c0: bd03 09c0 2aee fd3e c6c0 2f40 b81a 9b3f
000003d0: 8045 27bc b09e 8f40 4023 233f 6ff5 d73f
000003e0: 0e08 2cbf 97e9 a6be be7a 8ebe 78c7 a13f
000003f0: ac11 983f 5b5f 99bf 722e d63e cf69 d83f

0.bias f4 [64]
-1.65138 0.9163856 0.21662728 2.3505383 -1.9365981 0.5322119 -1.5522287 1.5485471
-4.014606 2.93812 -0.58618057 -0.0736568 0.29600406 -0.0055816174 2.961465 0.8620591
-3.124457 -1.1750503 3.1576815 1.6223456 -0.39220363 0.039879173 -0.85806584 2.798584
-3.7701173 4.771962 -3.5269647 -2.2853832 -5.061961 -1.4206655 3.5422685 -1.734616
-2.1081424 -0.2634356 -0.79926443 1.354783 0.94715583 -3.7752495 1.2094496 -0.5039769
2.8144555 -1.5335977 -1.9893283 0.43444487 -3.2999883 -2.2119684 -1.5726781 0.54820573
1.2033861 0.11504495 0.3255716 -2.3789885 4.538208 2.0835998 1.0457494 1.5959105
2.5468311 2.892682 -3.9042134 -0.85141754 -0.71091396 -5.06123 4.7679887 2.7987344
00000000: 6b60 d3bf 3f98 6a3f 8bd3 5d3e 386f 1640
00000010: 72e2 f7bf 0a3f 083f 6eaf c6bf cb36 c63f
00000020: a777 80c0 280a 3c40 ee0f 16bf 60d9 96bd
00000030: d88d 973e 00e6 b6bb a488 3d40 e8af 5c3f
00000040: 1af7 47c0 0c68 96bf 7417 4a40 05a9 cf3f
00000050: eace c8be 5858 233d 34aa 5bbf 001c 3340
00000060: 9a49 71c0 eab3 9840 cab9 61c0 b843 12c0
00000070: 96fb a1c0 5ed8 b5bf 87b4 6240 e607 debf
00000080: ceeb 06c0 08e1 86be 989c 4cbf 8869 ad3f
00000090: ce78 723f b09d 71c0 3fcf 9a3f a104 01bf
000000a0: 0a20 3440 ee4c c4bf 4fa2 febf 8f6f de3e
000000b0: 0233 53c0 e490 0dc0 844d c9bf 3657 0c3f
000000c0: 8e08 9a3f b09c eb3d 52b1 a63e 5941 18c0
000000d0: 0039 9140 b359 0540 1edb 853f cc46 cc3f
000000e0: 48ff 2240 b421 3940 a2de 79c0 80f6 59bf
000000f0: 75fe 35bf 99f5 a1c0 5d93 9840 771e 3340

2.weight f4 [64, 64]
-5.096081 -2.4858565 2.9875584 -0.8513343 -1.3593211 -2.2227864 -2.466148 -0.7077509
-0.71557325 0.72160184 1.6021032 3.0572083 3.1564922 -2.4559197 -0.5640445 2.3537464
-3.4676995 2.0411096 -0.16516599 -2.4802277 -6.579686 -1.4145021 2.5182254 1.1209257
0.5503962 5.684558 1.078089 2.9476428 -1.7294884 3.4840996 -1.2093959 -2.4960487
1.1538349 1.1767423 -5.3164854 2.7302663 -3.050294 -0.40719378 -2.869879 0.16933042
-3.668692 -2.0837998 3.602897 -0.99759626 -0.3215787 1.1076009 -0.24429655 -0.5882082
-0.9767908 5.4027834 1.6844089 -2.560987 -0.70010424 3.3791635 0.30701417 0.7125603
1.7449677 -1.1531638 -0.30833817 -1.6377037 -1.1090417 -1.7403715 0.08848593 -4.3997426
0.8421838 -1.9747477 1.3434904 -4.023715 0.24914312 0.34481972 1.1667471 3.6860194
-2.41642 0.69818527 -4.4855366 3.4189146 -2.4749017 -0.96502787 -1.2918688 0.105717614
-2.5485544 -0.9384922 -2.7717452 0.4359858 3.5944285 2.0975924 3.1893966 -1.1099193
-0.08018607 2.5559707 1.770483 2.9861238 2.2658284 -0.31012166 -3.7729263 1.6697228
-1.0359325 -0.6462455 1.9759858 -0.02737549 -1.9638869 -1.021985 -0.4729732 -0.8332807
1.9628646 -3.5712137 -0.6098987 -3.6986756 1.8754625 1.9823891 -1.4677883 1.7102971
0.21308665 2.0524137 -3.07496 -4.956667 2.4429204 1.6510658 1.5285268 1.7400696
1.0252924 2.0090816 -3.5254586 1.2874734 -1.1559426 2.8659658 0.13701314 -0.6848047
-1.2107117 3.7504926 -1.6465955 0.58904594 -0.9745623 -1.0289264 0.15858904 -4.140014
4.2900777 5.294316 -0.8003265 -3.4055896 -4.9399376 0.9187115 -1.0463836 2.199057
2.961121 -3.4985921 -4.4312563 -1.0706053 -5.6726093 1.123487 -1.0632463 -0.07291508
-1.8732619 0.8444679 0.10674423 2.9051456 -0.49502075 0.9069644 -2.6594114 3.140901
2.6922708 2.01634 0.76520085 2.2349465 5.8968863 -3.0950031 -4.155409 1.9451511
1.7425671 -2.7648315 -0.44791973 1.347074 2.2919126 -0.5893123 2.2078364 -0.17057973
-0.683904 0.66546994 2.2812674 -6.126733 -4.6593943 0.63015664 4.142309 -2.0459669
-2.081605 -0.33429304 -2.8557675 5.6409216 3.3902922 0.7984509 -0.3368771 -0.9886784
1.107007 2.3427517 -2.908195 0.81408924 -6.3443832 1.1631454 1.168384 -2.612462
0.56914866 -1.4487233 -2.961161 -2.4448948 2.161632 -1.5897027 0.26221904 -4.18329
-0.47406447 -1.3496352 1.1281829 0.24715102 -3.2577531 -0.6310723 -1.201497 1.7220277
-0.6149581 -1.4405227 2.8743 -1.0623541 -2.0924587 -3.8009036 -0.5560965 -2.4471703
1.73223 2.9713027 0.54158366 -2.3135297 -2.5763297 -2.919052 3.157168 0.24379674
2.6285362 -1.1466835 3.6287951 2.2225373 3.3708627 0.9124411 -0.34636116 3.5111656
1.1258771 -0.5322272 -1.2093521 3.1154413 -0.97380173 -4.8447294 2.5744724 -2.4988785
0.6042031 0.5664483 1.5223202 1.1033043 0.24075478 -2.3500319 0.91962314 1.6133349
00000000: 1813 a3c0 4618 1fc0 2834 3f40 0bf1 59bf
00000010: 3cfe adbf 2242 0ec0 5ed5 1dc0 2a2f 35bf
00000020: cf2f 37bf e6ba 383f b811 cd3f 4da9 4340
00000030: f803 4a40 ca2d 1dc0 3865 10bf c8a3 1640
00000040: caee 5dc0 8aa1 0240 4621 29be 0dbc 1ec0
00000050: ca8c d2c0 680e b5bf 9b2a 2140 7e7a 8f3f
00000060: c4e6 0c3f e6e7 b540 d2fe 893f 2ea6 3c40
00000070: e05f ddbf 7dfb 5e40 7ccd 9abf 43bf 1fc0
00000080: ddb0 933f 7e9f 963f a620 aac0 afbc 2e40
00000090: 0438 43c0 b47b d0be 19ac 37c0 f464 2d3e
000000a0: dacb 6ac0 fa5c 05c0 dd95 6640 7862 7fbf
000000b0: f7a5 a4be dec5 8d3f e028 7abe d094 16bf
000000c0: f60e 7abf 9ae3 ac40 b69a d73f 36e7 23c0
000000d0: 083a 33bf 3744 5840 f630 9d3e 5a6a 363f
000000e0: 1a5b df3f df9a 93bf 80de 9dbe 46a0 d1bf
000000f0: 14f5 8dbf 7ec4 debf 1c38 b53d b1ca 8cc0
00000100: 5c99 573f 88c4 fcbf 7ef7 ab3f 46c2 80c0
00000110: 601f 7f3e 368c b03e f857 953f bee7 6b40
00000120: a0a6 1ac0 45bc 323f 8489 8fc0 7fcf 5a40
00000130: ca64 1ec0 110c 77bf f55b a5bf 7a82 d83d
00000140: 841b 23c0 0641 70bf 4664 31c0 8839 df3e
00000150: 1e0b 6640 f43e 0640 131f 4c40 d611 8ebf
00000160: 9838 a4bd 0695 2340 309f e23f a71c 3f40
00000170: 5503 1140 44c8 9ebe a077 71c0 7ab9 d53f
00000180: 7099 84bf 5870 25bf 1aed fc3f 9042 e0bc
00000190: a560 fbbf 68d0 82bf 8b29 f2be e251 55bf
000001a0: 263f fb3f c48e 64c0 5222 1cbf 1ab7 6cc0
000001b0: 280f f03f edbe fd3f 7de0 bbbf 04eb da3f
000001c0: 6333 5a3e bf5a 0340 25cc 44c0 049d 9ec0
000001d0: cf58 1c40 2056 d33f c4a6 c33f 9aba de3f
000001e0: c83c 833f cb94 0040 1da1 61c0 eecb a43f
000001f0: edf5 93bf fc6b 3740 2c4d 0c3e 5c4f 2fbf
00000200: 9af8 9abf 1208 7040 a4c3 d2bf b7cb 163f
00000210: ea7c 79bf dcb3 83bf 2a65 223e ff7a 84c0
00000220: 5148 8940 096b a940 33e2 4cbf 2ef5 59c0
00000230: f813 9ec0 ad30 6b3f e6ef 85bf 5abd 0c40
00000240: 0283 3d40 efe8 5fc0 dacc 8dc0 9809 89bf
00000250: 0486 b5c0 6cce 8f3f 7418 88bf 8054 95bd
00000260: 0cc7 efbf 0c2f 583f b89c da3d e8ed 3940
00000270: 5c73 fdbe d22e 683f cc33 2ac0 8604 4940
00000280: 2a4e 2c40 b70b 0140 34e4 433f 5d09 0f40
00000290: 4bb3 bc40 8814 46c0 1cf9 84c0 b6fa f83f
000002a0: 700c df3f 00f3 30c0 bc55 e5be ec6c ac3f
000002b0: b2ae 1240 2cdd 16bf 314d 0d40 74ac 2ebe
000002c0: 5514 2fbf 3d5c 2a3f 4900 1240 320e c4c0
000002d0: c219 95c0 f251 213f cc8d 8440 1ff1 02c0
000002e0: 0439 05c0 7528 abbe e5c4 36c0 6e82 b440
000002f0: 8cfa 5840 4767 4c3f 287b acbe 071a 7dbf
00000300: 68b2 8d3f a5ef 1540 de1f 3ac0 2768 503f
00000310: 3005 cbc0 f3e1 943f 9b8d 953f 9432 27c0
00000320: bab3 113f c46f b9bf a983 3dc0 2879 1cc0
00000330: 2e58 0a40 617b cbbf 9341 863e 83dd 85c0
00000340: 94b8 f2be d9c0 acbf 4c68 903f 2815 7d3e
00000350: 077f 50c0 f48d 21bf a7ca 99bf 676b dc3f
00000360: e56d 1dbf 0c63 b8bf 88f4 3740 38fb 87bf
00000370: d8ea 05c0 0142 73c0 575c 0ebf 709e 1cc0
00000380: b6b9 dd3f d329 3e40 3aa5 0a3f df10 14c0
00000390: 96e2 24c0 bfd1 3ac0 0a0f 4a40 daa5 793e
000003a0: f039 2840 86c6 92bf 2e3e 6840 0d3e 0e40
000003b0: 37bc 5740 bd95 693f 4056 b1be f0b6 6040
000003c0: be1c 903f 0b40 08bf 0dcc 9abf 6463 4740
000003d0: 124b 79bf 0608 9bc0 28c4 2440 a0ed 1fc0
000003e0: 0ead 1a3f c102 113f 63db c23f 1339 8d3f
000003f0: 6c88 763e ec66 16c0 6c6c 6b3f c281 ce3f

2.bias f4 [64]
-2.1451354 -1.4019518 -0.34672755 -0.12851092 -0.06798518 -1.4174234 -2.2199707 -0.5077384
-3.1966357 0.14657068 0.9591428 3.2483544 -0.15908754 -2.286936 -4.230975 2.1811752
-0.89065963 1.4053766 -0.21060845 0.020638198 -1.569088 -1.2872019 -4.1961837 1.2111578
0.586169 1.6165873 -2.759485 -0.5549757 -5.5846295 0.33551273 -0.775838 0.16109045
-0.959774 1.7665136 -2.050595 -0.5017413 1.4415038 -2.0731905 0.49922717 -0.3482982
-1.2258321 -0.5018743 -2.0110912 0.89072007 -0.31703818 -0.10923272 0.84075284 -1.2682196
3.5375235 -1.9627852 -7.217371 -0.8150522 1.6395824 -2.8740816 3.3229618 0.01929605
2.2295392 1.1886592 -1.07199 1.3361346 2.4688993 -0.66564107 3.1298037 0.86358386
00000000: e649 09c0 2873 b3bf 4686 b1be 5e98 03be
00000010: d03b 8bbd 216e b5bf 0014 0ec0 25fb 01bf
00000020: ae95 4cc0 a016 163e 628a 753f 0ae5 4f40
00000030: d8e7 22be 295d 12c0 2664 87c0 6098 0b40
00000040: 4502 64bf 61e3 b33f bea9 57be 7011 a93c
00000050: e0d7 c8bf 08c3 a4bf 2347 86c0 3807 9b3f
00000060: 2c0f 163f 55ec ce3f 679b 30c0 e312 0ebf
00000070: 49b5 b2c0 53c8 ab3e 529d 46bf e5f4 243e
00000080: c0b3 75bf 1e1d e23f f33c 03c0 1e72 00bf
00000090: 3283 b83f 27af 04c0 b49a ff3e 2454 b2be
000000a0: 11e8 9cbf d67a 00bf b8b5 00c0 3b06 643f
000000b0: d452 a2be 68b5 dfbd 943b 573f 0555 a2bf
000000c0: c966 6240 8c3c fbbf b4f4 e6c0 43a7 50bf
000000d0: d6dd d13f f4f0 37c0 68ab 5440 c012 9e3c
000000e0: c5b0 0e40 fc25 983f f836 89bf 7506 ab3f
000000f0: 7202 1e40 7467 2abf b44e 4840 d513 5d3f

4.weight f4 [5, 64]
1.4689033 0.576213 2.8834257 -0.27456793 -4.5967436 2.3194158 -4.002296 3.0063987
0.026616573 0.11632609 -4.518662 -1.9741693 -1.451346 -1.6882887 -1.1721177 -0.33423686
-1.6112247 2.7154152 2.2056406 -2.087063 -3.3289816 0.42454207 0.18705082 -0.7152605
-2.0344622 -4.6713114 2.4832597 -0.18335313 0.61093235 6.8215365 0.06781733 3.384527
0.1835632 -0.62517357 2.2562532 2.7005384 3.4598517 -3.411553 -2.3366666 -1.0732199
-1.1849163 2.8241246 -3.5725207 -1.6849248 -2.1199257 1.8831583 0.2462481 -4.18956
-2.222944 -0.31462902 -0.17378187 0.63159674 1.000992 7.2756395 -0.52755404 -0.12036532
-1.4677764 -2.100055 -4.0390344 -2.1928482 -5.737135 0.7433933 1.2865815 -1.627071
-0.76977724 -0.71460253 2.1358092 -2.5183868 -0.7817288 4.28494 -2.1274736 1.0489697
-0.9062498 -1.3425686 0.94448763 -0.93095374 1.8134961 2.0440881 -1.7394162 0.38057303
-2.464971 -1.2204411 0.8801203 1.5251586 0.73456025 -0.3528048 -1.7277452 -1.9751501
-4.1932664 0.30687743 -0.1828599 4.3610277 1.3080467 -1.8420912 -3.1443782 -0.40786982
-1.6586702 3.1736465 3.1692586 -2.5482948 0.14394775 3.4668705 -1.3447287 4.0913
0.863907 3.1878946 0.6509253 2.7746882 2.210856 0.34359276 1.03066 -1.353723
-3.2929878 1.0141326 -2.1462667 -4.8474436 1.4092492 2.4786959 3.65057 -1.2236822
-0.2801442 2.8596327 1.5633 -0.11587101 2.4875386 -6.6012306 4.6191325 3.79329
-2.917674 0.8264672 0.47870559 2.0739548 1.3370516 -1.0634784 2.25054 -3.6677477
-0.6600331 1.5302347 1.1221911 -5.4080305 6.854458 3.8800166 -4.3290873 -2.0325336
0.76607907 -1.4288383 2.6490614 0.17774038 3.7247248 0.0017221197 -3.9903932 -0.8107104
-2.129302 -1.991063 -1.9834418 3.700085 -1.087155 -2.022647 3.4592454 -0.5218456
-0.76831824 0.51471496 0.799335 -0.62172097 -3.449385 -4.0225267 0.64142346 1.719208
-1.9112754 -0.17695367 2.5692575 3.1315875 2.832525 1.9335605 5.2168365 0.08871251
4.9850936 -0.22282082 0.46001878 1.7521048 0.64875054 3.8934803 -0.660498 2.9758935
-0.5104032 5.909548 5.867428 0.55740106 1.0361856 -0.73046076 -0.20197183 -2.4142258
1.8636565 -4.133523 -1.0552952 0.6772343 0.8356763 -3.0610511 -2.1389594 -2.6586447
-1.8217192 3.6304293 -2.1499727 -0.110694826 -1.6556199 -3.611952 4.2198353 2.474637
-2.1759634 5.176937 -0.6657026 1.4775618 2.5669835 -2.3691382 -1.9709992 -4.8740287
1.5034502 0.8242153 -0.6822739 2.7378125 1.2692449 1.4147826 0.74313354 -2.7282588
-2.1894307 3.2215865 -1.3368158 1.0028288 0.75028914 0.9664781 -2.8671627 -0.34495038
2.7383046 -2.0090492 -1.7733527 4.441257 -5.3389096 -2.2699206 -2.4336038 2.5379744
-2.2156518 -0.01895523 -1.0583673 -3.084663 1.9290814 0.33549237 -0.6404698 -4.75187
-0.58712304 0.24335799 1.3247658 -1.1297009 3.3538642 5.951396 -0.048129864 1.3145564
00000000: 0605 bc3f b282 133f 0c8a 3840 2b94 8cbe
00000010: 8618 93c0 4f71 1440 cf12 80c0 d668 4040
00000020: 000b da3c 603c ee3d e198 90c0 94b1 fcbf
00000030: b5c5 b9bf d819 d8bf f407 96bf 1821 abbe
00000040: 9c3c cebf 5dc9 2d40 3729 0d40 7192 05c0
00000050: 090e 55c0 945d d93e 408a 3f3e 501b 37bf
00000060: a134 02c0 627b 95c0 baed 1e40 ecc0 3bbe
00000070: 1066 1c3f 074a da40 d0e3 8a3d 179c 5840
00000080: fef7 3b3e 600b 20bf 7466 1040 9fd5 2c40
00000090: 366e 5d40 e256 5ac0 f28b 15c0 455f 89bf
000000a0: 56ab 97bf 75be 3440 2ea4 64c0 9eab d7bf
000000b0: ddac 07c0 550b f13f 7628 7c3e e010 86c0
000000c0: b744 0ec0 0e17 a1be e0f3 31be 53b0 213f
000000d0: 8120 803f 0ad2 e840 c80d 07bf 1882 f6bd
000000e0: 19e0 bbbf 4d67 06c0 c53f 81c0 a057 0cc0
000000f0: 9c96 b7c0 064f 3e3f b4ae a43f dd43 d0bf
00000100: 1f10 45bf 31f0 36bf 19b1 0840 402d 21c0
00000110: 611f 48bf 3a1e 8940 8728 08c0 a444 863f
00000120: fdff 67bf 4ad9 abbf f1c9 713f fc52 6ebf
00000130: a420 e83f 57d2 0240 31a5 debf 78da c23e
00000140: 16c2 1dc0 6a37 9cbf 904f 613f 6638 c33f
00000150: 240c 3c3f d5a2 b4be c126 ddbf b8d1 fcbf
00000160: 3d2f 86c0 0a1f 9d3e a03f 3bbe 8a8d 8b40
00000170: 136e a73f a5c9 ebbf 7e3d 49c0 50d4 d0be
00000180: 4e4f d4bf 061d 4b40 22d5 4a40 4317 23c0
00000190: 0a67 133e 35e1 5d40 1220 acbf eeeb 8240
000001a0: 0229 5d3f 7706 4c40 0aa3 263f 7e94 3140
000001b0: aa7e 0d40 64eb af3e abec 833f cc46 adbf
000001c0: 50c0 52c0 19cf 813f 6f5c 09c0 421e 9bc0
000001d0: 4762 b43f f4a2 1e40 f0a2 6940 9ea1 9cbf
000001e0: 106f 8fbe 3904 3740 371a c83f c84d edbd
000001f0: d533 1f40 483d d3c0 efcf 9340 43c5 7240
00000200: 2cbb 3ac0 5b93 533f e618 f53e adbb 0440
00000210: 8224 ab3f 0f20 88bf d908 1040 61bc 6ac0
00000220: eef7 28bf bbde c33f f5a3 8f3f 960e adc0
00000230: b857 db40 3152 7840 e287 8ac0 0815 02c0
00000240: c21d 443f 2ce4 b6bf 398a 2940 9301 363e
00000250: e461 6e40 c0b8 e13a 9a62 7fc0 b78a 4fbf
00000260: 7c46 08c0 27db febf 6ce1 fdbf 31ce 6c40
00000270: e527 8bbf 0c73 01c0 4764 5d40 ac97 05bf
00000280: 81b0 44bf 5cc4 033f 38a1 4c3f 1b29 1fbf
00000290: b9c2 5cc0 8ab8 80c0 5434 243f 020f dc3f
000002a0: aca4 f4bf 5833 35be b76e 2440 ee6b 4840
000002b0: 1748 3540 e97e f73f 53f0 a640 e8ae b53d
000002c0: e385 9f40 242b 64be 9587 eb3e f844 e03f
000002d0: 8414 263f c82e 7940 6616 29bf 0a75 3e40
000002e0: c9a9 02bf 041b bd40 f8c1 bb40 d6b1 0e3f
000002f0: bba1 843f 7aff 3abf b4d1 4ebe ad82 1ac0
00000300: 4c8c ee3f d245 84c0 ea13 87bf 3a5f 2d3f
00000310: e2ee 553f 43e8 43c0 b6e4 08c0 3c27 2ac0
00000320: 182e e9bf f458 6840 2799 09c0 f8b3 e2bd
00000330: 5aeb d3bf 392a 67c0 e408 8740 7460 1e40
00000340: fc42 0bc0 78a9 a540 7c6b 2abf bf20 bd3f
00000350: 7549 2440 f69f 17c0 b449 fcbf 0bf8 9bc0
00000360: 0e71 c03f c6ff 523f 81a9 2ebf 5238 2f40
00000370: 9e76 a23f 9917 b53f 003e 3e3f cb9b 2ec0
00000380: a21f 0cc0 792e 4e40 c81c abbf b25c 803f
00000390: f312 403f 1c6b 773f 987f 37c0 569d b0be
000003a0: 6240 2f40 4394 00c0 39fd e2bf c71e 8e40
000003b0: 59d8 aac0 6146 11c0 2ac0 1bc0 2c6e 2240
000003c0: 3dcd 0dc0 0048 9bbc 9478 87bf 1e6b 45c0
000003d0: 24ec f63f a8c5 ab3e d4f5 23bf 520f 98c0
000003e0: b24d 16bf d632 793e ed91 a93f 0a9a 90bf
000003f0: b6a5 5640 d671 be40 d223 45bd 6243 a83f

4.bias f4 [5]
-1.4318864 1.3698256 2.132213 -1.2898964 -0.78085196
00000000: 0e48 b7bf 7256 af3f 2e76 0840 531b a5bf
00000010: eae5 47bf
