demo/experiments/genetic_algorithm/ga_experiment_2021_02_12_160407/problem_28.model (torch, 26149 bytes, 6 tensors)

0.weight f4 [64, 22]
0	0xbdb1c18e	-0.08679496
1	0x3fb6c8ab	1.4279989
2	0xc04573ad	-3.0851853
3	0x3f48ea0e	0.7848214
4	0x401deb5b	2.46749
5	0x4053d81d	3.3100655
6	0x40221e57	2.5331018
7	0xc02e9cde	-2.7283244
8	0x402e081a	2.7192445
9	0xc05eaaf3	-3.479184
10	0xbd6ed424	-0.05830778
11	0xbf9b9baa	-1.215688
12	0x3fafb15a	1.3725998
13	0xc04941e2	-3.1446462
14	0xc01e6ac6	-2.475267
15	0x3fc68520	1.5509377
16	0x4097f82d	4.749045
17	0xc0d8cc84	-6.7749653
18	0xbf796e72	-0.9743415
19	0xc082d1e6	-4.0881224
20	0x3fbc272c	1.4699454
21	0xc08826b1	-4.254723
22	0x4034e1a3	2.8262718
23	0x400f6b24	2.2409143
24	0xc077140d	-3.8605988
25	0x40333542	2.8001256
26	0x40b1a4f6	5.551387
27	0x3fa49bd9	1.2860061
28	0xbf0b1b6e	-0.5433873
29	0x3f8fa8ee	1.1223428
30	0xc000e03f	-2.013687
31	0x3e92fc09	0.28707913
32	0x3fc56e83	1.542435
33	0xc03ca921	-2.9478228
34	0x3fc6a542	1.5519183
35	0x3d8c5060	0.06851268
36	0xc014d980	-2.3257751
37	0xbf714fca	-0.94262373
38	0xbf5cdc77	-0.862739
39	0xbf7898b2	-0.97107995
40	0xc02eaf20	-2.7294388
41	0x3f904b94	1.1273065
42	0xbf11b854	-0.5692189
43	0x40661ade	3.5953898
44	0xc01f87e9	-2.4926703
45	0xbfc5cf28	-1.5453844
46	0x3f35103a	0.70727885
47	0xbed11cb5	-0.40842214
48	0x4077fd78	3.8748455
49	0xc01df10c	-2.4678373
50	0xc0bb44e3	-5.852159
51	0xc03facb0	-2.994915
52	0xbfaf263e	-1.3683546
53	0x4030a1cf	2.759876
54	0xbf9b7875	-1.2146136
55	0x3e746b11	0.23868968
56	0xbeb492f0	-0.35268354
57	0xc0396ca0	-2.897255
58	0x407b8f76	3.9306312
59	0xbf220f44	-0.63304543
60	0xbf0ce582	-0.550377
61	0xbed65de0	-0.41868496
62	0xbf6acbd8	-0.9171729
63	0x401318bb	2.2983844
64	0x4092ae6d	4.583792
65	0xc08d3461	-4.412644
66	0x403511be	2.829208
67	0xc08ed6c9	-4.463719
68	0xbf959042	-1.1684649
69	0xbf192400	-0.59820557
70	0x4059d7ce	3.4037967
71	0x3f25e43a	0.6480137
72	0xbf369bb6	-0.71331346
73	0xbfaeed84	-1.3666234
74	0xbf7259cc	-0.9466827
75	0x4002705b	2.0381076
76	0xbfedc3a3	-1.8575329
77	0x40244ce8	2.567194
78	0xc05cf6d5	-3.4525654
79	0x4050ad6f	3.2605855
80	0xc010ac3e	-2.2605128
81	0x3f0ffbfc	0.5624387
82	0x3ef8460a	0.48490936
83	0xc0180302	-2.3751836
84	0xc09e375a	-4.944257
85	0x3f980eb2	1.1879485
86	0x3f96d3cd	1.1783386
87	0xc00dc36c	-2.2150526
88	0xc0688f96	-3.6337638
89	0xbf8f833f	-1.1211928
90	0x40776fc4	3.8661966
91	0x3fe331d1	1.7749578
92	0x4056ee2a	3.3582864
93	0xbfbb5daf	-1.4637965
94	0x3ff42056	1.9072368
95	0x40e1b426	7.053241
96	0x408ad696	4.3386946
97	0x408d0d0a	4.4078417
98	0xbfeaff67	-1.8359193
99	0x3fc7130c	1.5552688
100	0xbf77ad96	-0.96749246
101	0xbe77d2fc	-0.24201578
102	0x40392561	2.8929064
103	0xbf89cba7	-1.0765275
104	0xc0068852	-2.1020703
105	0xbf9bfb12	-1.2185996
106	0xc0ff4850	-7.977577
107	0x3f9ead1f	1.2396582
108	0xbfd03509	-1.6266185
109	0xbf0edff9	-0.55810505
110	0xc0471e94	-3.1112413
111	0xc06bf074	-3.686551
112	0xbeba211c	-0.36353385
113	0x403ee080	2.9824524
114	0x3e5b9d70	0.21446776
115	0x405e68e6	3.4751525
116	0x3f057a0b	0.5213935
117	0x40949f84	4.644472
118	0xc0110457	-2.26589
119	0x3f3aa9db	0.7291543
120	0x4045b08a	3.0889
121	0x4028f12d	2.6397202
122	0x3fae23ff	1.3604735
123	0x40921638	4.5652122
124	0x3f9a086c	1.203382
125	0x3f0ad8e1	0.5423718
126	0xc04bc2d4	-3.1837664
127	0xc054359e	-3.3157725
128	0x3fbd6940	1.4797745
129	0x3ef29e60	0.47386456
130	0xbf534574	-0.8252785
131	0xc0c786e2	-6.235215
132	0x40354020	2.8320389
133	0x4070bc26	3.7614837
134	0xbfec978b	-1.8483747
135	0xbe2d11ef	-0.16901372
136	0xbe958cc6	-0.29208964
137	0xc07b2a34	-3.9244509
138	0xbf440d04	-0.7658236
139	0xc00b93e4	-2.1809015
140	0x3dcc2630	0.09968221
141	0xbdfc1cd0	-0.12310183
142	0x406fb7c8	3.745592
143	0xc0b49a2d	-5.6438203
144	0x40d86e88	6.7634926
145	0xbf40895b	-0.7520959
146	0xc0098c32	-2.1491818
147	0x40158b05	2.33661
148	0x40299705	2.6498425
149	0xc0a38c60	-5.1108856
150	0xbe004d50	-0.12529492
151	0x408bf168	4.3732185
152	0xbef5fb0c	-0.48043096
153	0xbfec0fbe	-1.8442304
154	0x40057780	2.0854187
155	0xc028d71a	-2.6381288
156	0x3f935cb2	1.1512663
157	0xbd303420	-0.04301846
158	0xc0a62781	-5.1923223
159	0xc012fc0d	-2.296634
160	0x3f3dad79	0.74092823
161	0xc0750ef5	-3.829038
162	0x3f84774f	1.034891
163	0xc087ebc0	-4.247528
164	0xbfd806fd	-1.6877133
165	0x3f2d6e32	0.6774627
166	0xbef04d48	-0.4693396
167	0xc0027314	-2.0382738
168	0x40ff047f	7.969299
169	0xbec09b8c	-0.37618673
170	0x3face96d	1.3508736
171	0x3ff45688	1.9088907
172	0x3e30eb84	0.17277342
173	0x3fd421ff	1.6572875
174	0x3e3898e8	0.18027079
175	0x3f6af011	0.9177256
176	0xbf4cb3a9	-0.7996164
177	0xc087648c	-4.231024
178	0xc07d1ead	-3.9549973
179	0xc028b84f	-2.6362493
180	0x3ff80b1f	1.9378394
181	0x40104002	2.2539067
182	0xbfaf2dd4	-1.3685861
183	0xbfa4dc11	-1.2879659
184	0xbebb6368	-0.36599278
185	0xbe98c3f0	-0.29836988
186	0x3f86e934	1.0539918
187	0x3fa2c318	1.2715788
188	0x3f9f6563	1.2452816
189	0x3f5c9e9e	0.8617953
190	0xbfb2dcb1	-1.39736
191	0xc001e07f	-2.0293272
192	0x4049ae32	3.151257
193	0xbf2b9140	-0.6701851
194	0x3e8c5fea	0.27416927
195	0x3ee26c69	0.44223335
196	0xc05cbc76	-3.4490027
197	0xc0b34aac	-5.602865
198	0xbf2cfe74	-0.67575765
199	0xbfb4ad96	-1.4115474
200	0x408b0cfa	4.345334
201	0x40165388	2.3488483
202	0x40735e3e	3.802627
203	0xbf9ef262	-1.2417719
204	0x406478e6	3.569879
205	0x405134c8	3.2688465
206	0x40366a2b	2.85023
207	0x4024a7d6	2.572744
208	0xc0d20b3c	-6.5638714
209	0x40996fd6	4.794902
210	0x4051b312	3.2765546
211	0xbfab6180	-1.338913
212	0xc0955bdd	-4.667464
213	0xbf27078a	-0.6524588
214	0x3f9cc47e	1.2247465
215	0x40661d72	3.5955472
216	0x3e067e66	0.13134155
217	0x408c89fa	4.391843
218	0xbf300fbf	-0.68774027
219	0x405b14a7	3.4231355
220	0x40e39506	7.1119413
221	0xbe92d4cc	-0.28677976
222	0xc04da424	-3.2131433
223	0xc01a7336	-2.413282
224	0x4008cac4	2.1373758
225	0xbf7d8898	-0.9903655
226	0x40352dc8	2.8309193
227	0x3fb54c53	1.4163917
228	0xbfc16802	-1.5109866
229	0x4068b0a4	3.6357813
230	0x3e80c70c	0.2515186
231	0x40f427e4	7.6298695
232	0xbcc95d00	-0.024580479
233	0x3faaae21	1.333439
234	0xbff4befd	-1.9120785
235	0xbfcbc688	-1.5919962
236	0xc00daab2	-2.2135434
237	0x404dc168	3.2149296
238	0xbe1731f0	-0.14765143
239	0x3e859730	0.2609191
240	0x3fca484d	1.5803314
241	0xc01fa0ac	-2.4941816
242	0x3f90739c	1.1285281
243	0xc054d9ee	-3.3258014
244	0xc0b83434	-5.7563725
245	0xbff0de86	-1.8817909
246	0xbfea3fd7	-1.8300732
247	0x40105ba0	2.2555923
248	0xbfe93f2e	-1.8222406
249	0xbf814a41	-1.0100785
250	0x3fa02111	1.2510091
251	0x3f70e6e6	0.94102323
252	0xbf00082f	-0.5001249
253	0xbf4defef	-0.80444235
254	0x3fc4fef6	1.5390308
255	0xbf31c4ee	-0.69441116

0.bias f4 [64]
0	0xbe36e468	-0.17860568
1	0xbdcf73a0	-0.101294756
2	0xc0026061	-2.0371325
3	0xc0e8cdc6	-7.275119
4	0x3ee243d8	0.44192386
5	0xbfe19116	-1.7622402
6	0xbf03b598	-0.51448965
7	0x401657c2	2.3491063
8	0xbfa0479c	-1.2521853
9	0x408d08e9	4.4073377
10	0x3f9d3a3a	1.2283394
11	0x40034e99	2.0516722
12	0xbf42e594	-0.7613156
13	0xbcf60620	-0.030032218
14	0x40564077	3.3476846
15	0xbf8c8b49	-1.0980006
16	0x3e83ff50	0.25780725
17	0xc08a4d62	-4.321946
18	0x3e011850	0.1260693
19	0x3f08ab16	0.53386056
20	0x3ffcb082	1.9741366
21	0x3f5e32c8	0.86796236
22	0x400715b5	2.1107
23	0xbff0d1b9	-1.8814002
24	0x400e0412	2.2189984
25	0x3f5e89aa	0.8692881
26	0x3f222932	0.6334411
27	0xbf44328c	-0.7663963
28	0x3f785786	0.9700855
29	0xc00c90da	-2.196341
30	0x3fd31644	1.649117
31	0xbdc7b180	-0.09750652
32	0xbee0dce8	-0.43918538
33	0xbefbcea7	-0.491811
34	0x4090d356	4.525798
35	0xbf512600	-0.8169861
36	0x409291f6	4.5803175
37	0x3ebc335c	0.36757934
38	0xbfada51a	-1.356601
39	0xbe0b85e6	-0.13625297
40	0x3f81d9bd	1.0144573
41	0xc049a845	-3.1508954
42	0x409b2931	4.8487782
43	0xbfce151c	-1.6100192
44	0x3fe62413	1.7979759
45	0x3fc95352	1.5728552
46	0xbfbec6f6	-1.4904468
47	0xbf7107b4	-0.9415238
48	0x3f017074	0.50562215
49	0x405819f2	3.3765836
50	0x3f5b8e4c	0.85764
51	0xc0847ecf	-4.1404796
52	0x40c0fae6	6.0306273
53	0x3f233d73	0.6376564
54	0x3f8cf60a	1.1012585
55	0xbf3ccb09	-0.7374731
56	0x40975d9a	4.730176
57	0x3e8b08dc	0.27155197
58	0xc0c657ae	-6.198203
59	0xbce0169d	-0.027354533
60	0xc019eea4	-2.4051905
61	0x4023f800	2.5620117
62	0x4047950a	3.1184716
63	0xc07eea74	-3.98306

2.weight f4 [64, 64]
0	0xbed60ac6	-0.41805094
1	0x3fabf0f2	1.3432906
2	0x3e1d7350	0.1537602
3	0x3eaf1edc	0.3420323
4	0x3f97d0d2	1.1860602
5	0xbf1add2c	-0.6049373
6	0xbfb0a359	-1.379985
7	0x402899f2	2.634396
8	0x4032f3bd	2.7961266
9	0xc0359f2b	-2.8378398
10	0x4095e0b0	4.6836777
11	0x403f4068	2.988306
12	0xbed2930c	-0.41127813
13	0x3ff2201c	1.8916049
14	0xc04223c7	-3.0334337
15	0xc0a757f5	-5.229487
16	0x40307617	2.7572076
17	0x407fc526	3.996408
18	0xbf462ef4	-0.77415395
19	0x40b6ed6b	5.7164817
20	0x3f0327ea	0.5123278
21	0xbfdd571b	-1.7292207
22	0x404a5230	3.1612663
23	0xbfecc57e	-1.849777
24	0x40009c47	2.0095384
25	0xc0149b9e	-2.3219981
26	0x402c2a22	2.6900716
27	0xc042249f	-3.0334852
28	0x4055bec7	3.3397691
29	0x3d890408	0.06690222
30	0xbee69b68	-0.4504044
31	0xbf955b9d	-1.1668583
32	0xbfaa3c4a	-1.3299649
33	0xc024a09c	-2.5723028
34	0xc06135b2	-3.5189023
35	0xbfbf79a9	-1.4959003
36	0x3f0c9b16	0.5492414
37	0xbef54f2f	-0.47911975
38	0xbecf5324	-0.4049312
39	0xc0a6c692	-5.2117395
40	0xbf750a0a	-0.95718443
41	0xbec7ddf6	-0.3903653
42	0xc062ca3c	-3.5435934
43	0xc06ab3df	-3.6672285
44	0xc09ca78c	-4.8954525
45	0xbfa662fe	-1.299896
46	0x40a420a8	5.1289864
47	0x3fcda492	1.6065848
48	0xbeeb6595	-0.45975938
49	0xc0783b06	-3.8786025
50	0xbfd79211	-1.6841451
51	0xbc83f8f8	-0.016109928
52	0x407f6557	3.9905603
53	0x4038ef70	2.889614
54	0x4068e6b8	3.639082
55	0x3e5fdda8	0.21861899
56	0xbfc81652	-1.5631812
57	0xc0ba05f9	-5.813229
58	0xbfccf0f8	-1.6011038
59	0xc0216611	-2.5218546
60	0xc090ae1b	-4.521253
61	0xbfb8e642	-1.4445269
62	0xbe8f307c	-0.27966678
63	0xc0006f4e	-2.0067935
64	0x404de39d	3.2170174
65	0xc02c1232	-2.6886106
66	0x40cf0d1d	6.4703507
67	0xc0031a06	-2.0484633
68	0x3d534fa0	0.05158961
69	0xc026d7ca	-2.6069207
70	0xbfb426a8	-1.4074297
71	0x3f571d67	0.8402924
72	0x3e3121c8	0.17298043
73	0x4033a0d0	2.8066902
74	0x3ebef3aa	0.37295276
75	0x401266a1	2.287514
76	0xc0062801	-2.0961916
77	0x3ea36ba1	0.31918052
78	0x3f085418	0.53253317
79	0xbff1e230	-1.8897152
80	0x40b6c945	5.712069
81	0x3fa4eee0	1.2885399
82	0x400ebcb0	2.2302666
83	0xbf3c337d	-0.73516065
84	0x401a6012	2.4121137
85	0x3f2827f5	0.6568597
86	0x4086fa84	4.2180805
87	0xbf1dd6e9	-0.6165605
88	0xc015c1d3	-2.339955
89	0xbfdb7b8c	-1.7147079
90	0x3f7fafb9	0.99877506
91	0xc060afb5	-3.5107243
92	0xc034cba8	-2.8249302
93	0x3fbcd706	1.475312
94	0x3f892d66	1.071698
95	0x40470b6a	3.1100717
96	0xbf815616	-1.0104396
97	0x4002b374	2.042203
98	0xbff69c17	-1.9266385
99	0xc015a75e	-2.3383403
100	0xc0895636	-4.291774
101	0x4075c6c9	3.840258
102	0x3f814d84	1.0101781
103	0x402af4eb	2.6711986
104	0xbf55a26c	-0.8345096
105	0x3eb75ae4	0.35811532
106	0x3fc08160	1.5039482
107	0x3e9221f7	0.28541538
108	0x406c6775	3.6938145
109	0x3f722805	0.94592315
110	0x403a5734	2.9115725
111	0xc04734dc	-3.1126013
112	0x3f0ad19e	0.542261
113	0x400269e7	2.0377138
114	0xbeda9888	-0.42694497
115	0xbf925d86	-1.1434791
116	0xbf393851	-0.72351557
117	0x4041d1be	3.0284266
118	0x3fd93a4e	1.6970918
119	0x40654cb1	3.5828059
120	0x3e024e66	0.12725219
121	0x4090dd44	4.52701
122	0x3ef63262	0.48085314
123	0x4065b9f4	3.5894747
124	0x4029eb34	2.6549807
125	0x3fdac043	1.7089924
126	0xbfb16716	-1.3859584
127	0x4035ec44	2.8425455
128	0xbf64c1d4	-0.8935826
129	0x3fe45aad	1.7840172
130	0x4102d6ad	8.177411
131	0x40d300b7	6.5938373
132	0xc0001738	-2.0014172
133	0x3f955191	1.1665517
134	0x3f9b6ac5	1.2141958
135	0xbf5046ee	-0.8135823
136	0x3fbea7f1	1.4895002
137	0xbe4ec3c8	-0.20191872
138	0x3f97701e	1.183109
139	0x3e22e644	0.15908152
140	0xc0383d93	-2.8787582
141	0x40080cba	2.1257768
142	0x4007a612	2.1195111
143	0x3f952003	1.1650394
144	0xbfc3eced	-1.5306679
145	0xc017f6b5	-2.3744328
146	0xc0892b75	-4.286555
147	0xbea8ba50	-0.32954645
148	0x3f9ea315	1.2393519
149	0x3f3040e3	0.6884901
150	0x3f53de00	0.8276062
151	0xc070772a	-3.7572732
152	0x3f7cfe8f	0.98825926
153	0xc0018937	-2.024
154	0x4034a9dc	2.8228674
155	0x4058677d	3.3813164
156	0xc018c36b	-2.3869274
157	0x4002b168	2.042078
158	0x400f8b68	2.2428837
159	0x408d1e34	4.409937
160	0x40331d2e	2.798656
161	0xbefa018f	-0.48829314
162	0x3fa7ef6a	1.3119938
163	0x3f07cf78	0.5305095
164	0xbfd4dd2e	-1.6629999
165	0x3f43670e	0.76329124
166	0xc0596ba6	-3.3971953
167	0xc0043cc9	-2.06621
168	0x3f6a1e24	0.9145224
169	0xbf1aa0c8	-0.6040158
170	0x3d892475	0.06696407
171	0x3f6a9f24	0.9164908
172	0xc03aed16	-2.9207206
173	0xbf960666	-1.1720703
174	0xc02b7250	-2.678852
175	0xc08b47bb	-4.352506
176	0xc00cdb95	-2.2009022
177	0xc02a6b1f	-2.6627882
178	0x3f2b57d6	0.669309
179	0x40123d9e	2.2850108
180	0xc09ab674	-4.834772
181	0x3f737709	0.9510351
182	0x3b140400	0.0022585392
183	0x3f66bffe	0.90136707
184	0xc000fe10	-2.0155067
185	0x4013abde	2.307365
186	0x405873a0	3.3820572
187	0x4069d4e0	3.6536179
188	0xbf6bcf96	-0.92113626
189	0x3f8e778d	1.1130234
190	0xc087c0e0	-4.2422943
191	0x3f01e3db	0.50738305
192	0xbf2fb222	-0.68631184
193	0xbf571a7e	-0.840248
194	0x3ff821bf	1.9385298
195	0x3fd8f152	1.6948645
196	0xc04db33a	-3.2140641
197	0x40ded0c3	6.9629836
198	0x40492e20	3.1434402
199	0x3f2e86f7	0.6817469
200	0x404870f5	3.1318944
201	0xc0d1cdfe	-6.5563955
202	0xbf6a5dcf	-0.9154939
203	0x3f0047e0	0.5010967
204	0xc09acf75	-4.8378243
205	0xbe6f4174	-0.23364812
206	0x4034875f	2.8207624
207	0x40a68d3c	5.2047405
208	0x3fda3828	1.7048388
209	0xc0220828	-2.5317478
210	0xc0b9084f	-5.782264
211	0xc045c7ae	-3.0903125
212	0xbf5952ba	-0.84891856
213	0x3fc4595f	1.5339774
214	0xc0414578	-3.019865
215	0x3ff91371	1.9459058
216	0x3feaf535	1.8356081
217	0xbfac74ea	-1.3473179
218	0xbf9875ee	-1.1910989
219	0x3f13f781	0.57799536
220	0xbebe6ffc	-0.37194812
221	0x403afbbe	2.9216151
222	0xc007ea3a	-2.123671
223	0xbef717c4	-0.4826032
224	0xbf47d09b	-0.7805268
225	0x3fec5bff	1.8465575
226	0x410a01a3	8.6254
227	0x3fd01414	1.6256127
228	0x4051a856	3.2758994
229	0x3db1b1e0	0.08676505
230	0x3f7a2df7	0.97726387
231	0xc020f300	-2.5148315
232	0x3f149858	0.5804496
233	0xbfd6166e	-1.6725595
234	0xbfb0cf1d	-1.3813206
235	0x3ee60440	0.44925117
236	0x40254ef4	2.582944
237	0xbfd051ff	-1.6275023
238	0xbfff10b1	-1.9926969
239	0x3fc2dd39	1.5223762
240	0x40510299	3.2657835
241	0xc031f5eb	-2.7806346
242	0xbe201e25	-0.15636499
243	0xbff4b002	-1.9116213
244	0xc0a1d814	-5.0576267
245	0xc000964f	-2.009174
246	0xbfb1e258	-1.38972
247	0x403c69ba	2.943953
248	0xc0919135	-4.5489755
249	0xbdd2693c	-0.10273978
250	0xbfb20306	-1.3907173
251	0xc091fb2f	-4.561912
252	0xbe997008	-0.29968286
253	0x40333e32	2.800671
254	0x4054f4be	3.3274379
255	0xc0aa5a9b	-5.32356

2.bias f4 [64]
0	0xbfdc13d4	-1.7193551
1	0xbf85e5db	-1.0460771
2	0x40211c04	2.517335
3	0x4039b63a	2.9017472
4	0x404ded63	3.217614
5	0xbe64ab80	-0.22331047
6	0x4018dfa5	2.3886502
7	0x3fcc88d3	1.5979255
8	0xbe2a3d70	-0.16624999
9	0xc02e7e26	-2.7264495
10	0xbeece302	-0.46266943
11	0xbfee7d47	-1.8631982
12	0xbe21f07c	-0.15814394
13	0xbfa54bbd	-1.2913738
14	0x3f63a2e0	0.889204
15	0xbff7829c	-1.9336734
16	0x3e9008eb	0.28131804
17	0x40e1e484	7.059145
18	0xbf122718	-0.570909
19	0xc06d1bbe	-3.7048182
20	0xbf7db5ca	-0.99105513
21	0x3f4d6e16	0.802461
22	0x3f8f4f5d	1.1196095
23	0x3eaacb0c	0.33358037
24	0xc00b3e73	-2.1756866
25	0x3e599bac	0.2125079
26	0xc031f4df	-2.7805707
27	0xc002ef7d	-2.0458672
28	0x3f7f93d2	0.9983493
29	0xbf3245ee	-0.69637954
30	0xc0d189b6	-6.5480604
31	0x4004f906	2.0776992
32	0xc0699972	-3.6499906
33	0x3f98aba4	1.192738
34	0xbfb5d97f	-1.4207
35	0x40993f6f	4.7889934
36	0xbf81eb4f	-1.0149935
37	0x409166b7	4.5437884
38	0x3fc86ccb	1.5658201
39	0xc0b9152b	-5.783834
40	0xbec4d77c	-0.38445652
41	0xc006b55c	-2.1048193
42	0xc01be18d	-2.4356415
43	0xc02fffa1	-2.7499774
44	0xc0480253	-3.1251419
45	0x3d372080	0.04470873
46	0x4024e2fe	2.5763545
47	0x4021e540	2.5296173
48	0x3f42969e	0.76011074
49	0x4058a1cb	3.384875
50	0xbf6afbcb	-0.91790456
51	0x406353c1	3.551987
52	0x408176fa	4.0457735
53	0xbef5fb2c	-0.4804319
54	0x407a3816	3.9096732
55	0x40174d78	2.3641033
56	0xbdcab460	-0.09897685
57	0xbfb21a6d	-1.3914315
58	0xbfe6ce92	-1.803179
59	0x3fda8bb2	1.7073882
60	0x407831d6	3.8780417
61	0x40477f98	3.1171627
62	0x4010bda5	2.261575
63	0xc0b597b8	-5.6747704

4.weight f4 [5, 64]
0	0x407a6de0	3.9129562
1	0x3fb67464	1.425427
2	0x3eb0c360	0.3452406
3	0x400cde90	2.2010841
4	0x3ff8358e	1.9391344
5	0x3d8ff414	0.07028976
6	0x3f138450	0.5762377
7	0xc03953d6	-2.895742
8	0x3f3b6f30	0.73216534
9	0xc00657e5	-2.0991147
10	0xbf1ff23b	-0.6247899
11	0xbea12dd4	-0.31480277
12	0x3f6e6a23	0.931307
13	0xc048b0de	-3.135795
14	0xc02c894b	-2.6958797
15	0xbfb3855d	-1.4025074
16	0xc037537f	-2.8644712
17	0xbfb5f8ea	-1.4216588
18	0xc0811743	-4.0340896
19	0xbede8fb4	-0.43469012
20	0x3fbe5a0f	1.4871234
21	0xbd65bd12	-0.056088515
22	0x3fbcbf06	1.4745796
23	0x3f490063	0.78516215
24	0xbf2da7e6	-0.6783432
25	0xbfa7f6cd	-1.3122193
26	0x3fa3f105	1.2807928
27	0xc0815212	-4.0412683
28	0xbf0a2fec	-0.5397937
29	0x40baf0db	5.8419013
30	0xbf631918	-0.88710165
31	0x3eb83bda	0.35983163
32	0x3fe6dc64	1.8036008
33	0x40835626	4.104266
34	0x3e2b0e7c	0.16704744
35	0x3fd658ea	1.6745884
36	0x402a912a	2.66511
37	0xbfb6f4a8	-1.4293413
38	0x3ee368b2	0.44415814
39	0xbfe00315	-1.750094
40	0xbfde2def	-1.7357768
41	0xc0a30e78	-5.095516
42	0x3f7076f6	0.9393152
43	0x3fae3653	1.3610328
44	0xbe29e980	-0.1659298
45	0x3f2c7556	0.6736654
46	0x4051172a	3.2670388
47	0xbfa34d2b	-1.2757925
48	0x3fbc9c77	1.4735249
49	0x402aa1d5	2.6661274
50	0x3f8e6cbd	1.1126934
51	0x40594860	3.3950424
52	0xbff1afb5	-1.8881747
53	0xbfdb20e3	-1.7119411
54	0xc01043c5	-2.2541363
55	0xc02b9092	-2.6806989
56	0xbe58fe18	-0.21190679
57	0xbeac3f0b	-0.33641848
58	0x40983500	4.7564697
59	0x401bebda	2.4362702
60	0xbf6734a7	-0.90314716
61	0x3f1a88fd	0.6036528
62	0xbfef0219	-1.8672515
63	0xbfd51344	-1.6646504
64	0x3f295310	0.6614237
65	0x3ed73114	0.4202963
66	0xc03f47d2	-2.9887586
67	0x3eefc8e6	0.4683296
68	0x3fb53bcd	1.4158875
69	0xc0b6f336	-5.717189
70	0xc04c87ca	-3.195788
71	0x40494d2c	3.1453352
72	0xc0274c8e	-2.6140475
73	0x3f2369e0	0.6383343
74	0x40899864	4.2998524
75	0x409be7d5	4.87205
76	0xc06dd010	-3.7158241
77	0x40942a52	4.630166
78	0x3f23d93f	0.64003366
79	0x40348428	2.8205662
80	0x3e4beba6	0.19914111
81	0x3f90de5d	1.131786
82	0x4074b605	3.8236096
83	0x3f34929d	0.70536214
84	0xbf553d0e	-0.8329629
85	0x3f8d81aa	1.1055195
86	0x3f7697ea	0.9632555
87	0xbf6eef0b	-0.933335
88	0x400bd04e	2.184589
89	0xbed087ee	-0.40728706
90	0x3e86cd20	0.26328373
91	0xbffcd0f3	-1.9751266
92	0x4048c45c	3.1369848
93	0xbf97601d	-1.1826206
94	0xbe858598	-0.26078486
95	0xc0133e65	-2.3006833
96	0xc08de865	-4.4346185
97	0x3f76f148	0.96461916
98	0xbdfadc68	-0.122490704
99	0x3f9cb8de	1.2243917
100	0x3ff9980e	1.9499528
101	0x400f6103	2.2402961
102	0xc003fe1f	-2.0623853
103	0xc01f32d2	-2.4874768
104	0x4017e788	2.3735065
105	0x404ce0c1	3.201218
106	0xc0070c12	-2.1101117
107	0xc02a66bf	-2.6625211
108	0xbc691780	-0.014226794
109	0x3f1753d9	0.59112316
110	0xc030242a	-2.7522073
111	0xc033029a	-2.7970338
112	0x3fe5f89e	1.7966497
113	0xc01bcd0a	-2.4343896
114	0x3f68abd6	0.908872
115	0x3f1723c0	0.59038925
116	0x3ed9077c	0.42388523
117	0x40c685d3	6.203836
118	0xbf27418c	-0.6533439
119	0xbf6a9ec4	-0.9164851
120	0xbe8b4b38	-0.27205825
121	0xc0164ac8	-2.3483143
122	0xbf7bd46c	-0.98371005
123	0x3f4d0b63	0.800955
124	0xbdb1cb68	-0.08681375
125	0x3e711018	0.23541296
126	0x3f699103	0.91236895
127	0x3f99ba3c	1.2009959
128	0x3fb3ca69	1.4046146
129	0x40a23a5a	5.069623
130	0x3ed6482e	0.41851944
131	0x3fcdd91b	1.608188
132	0x3fae3d70	1.3612499
133	0xbfeba750	-1.8410435
134	0xbfb0b1e1	-1.3804284
135	0xbd05f550	-0.03270465
136	0x3fb9db04	1.4519963
137	0xbe90111a	-0.28138047
138	0x3f429054	0.7600148
139	0xbfa9c927	-1.3264512
140	0xbecf488a	-0.4048503
141	0xbf8eca1b	-1.1155428
142	0xbf8449d8	-1.0335035
143	0x3db9b398	0.09067458
144	0xbd915c40	-0.070976734
145	0xbe51f140	-0.20502186
146	0xc00a554e	-2.1614566
147	0x3f83b1f1	1.0288678
148	0xc0657dcd	-3.5858033
149	0xbf1d6535	-0.61482555
150	0x3f76de1d	0.9643267
151	0x4026573e	2.5990748
152	0x3f27a572	0.65486825
153	0x3f1bb1ce	0.60818183
154	0x3f85a459	1.044078
155	0x4006fb05	2.109071
156	0x408c8a9c	4.39192
157	0xbfcd138c	-1.602159
158	0xbf97e982	-1.1868136
159	0xc035dae1	-2.8414843
160	0x401ff908	2.4995747
161	0x3ea44286	0.32082003
162	0xc0d73903	-6.7257094
163	0x40a8f9e8	5.280506
164	0xc041f268	-3.0304203
165	0x3eeb0f08	0.45909905
166	0xbf0de20b	-0.5542304
167	0xc0db4666	-6.8523436
168	0x3ef597e8	0.47967458
169	0x40855794	4.1669407
170	0xbc981ff0	-0.018569916
171	0x3d38af28	0.045088917
172	0xc0724dca	-3.7859979
173	0xbeeaa386	-0.45827883
174	0xbd878438	-0.066170156
175	0x400d6c3a	2.2097306
176	0x400d3b0e	2.2067294
177	0x40622be6	3.5339293
178	0xc07a8d29	-3.9148657
179	0xc04e8790	-3.227024
180	0xc03a8d06	-2.9148574
181	0xc09f73af	-4.9828715
182	0x4002afd8	2.0419827
183	0xc03c3904	-2.94098
184	0x3ff2542b	1.8931936
185	0x3fc01dbc	1.5009074
186	0xbe32aab4	-0.1744793
187	0x3e3149ea	0.17313352
188	0xc032d4c8	-2.7942371
189	0x3ed53b44	0.4164678
190	0x3f81ac43	1.0130695
191	0x404148fe	3.02008
192	0xbfe09371	-1.7544996
193	0x40a58a48	5.17313
194	0xbf02e2fc	-0.511276
195	0x3ef86436	0.48513955
196	0xbf22ea88	-0.63639116
197	0xbf780b9a	-0.968927
198	0x3ed11fa6	0.40844458
199	0xc04dfd8f	-3.218601
200	0xc0336222	-2.8028646
201	0x3f259b9f	0.64690584
202	0x3e69557f	0.2278652
203	0xbed3f54e	-0.4139809
204	0xbfa037c2	-1.2517016
205	0xbfbf281f	-1.4934119
206	0x3f58b3dd	0.8464945
207	0xbfdf8ec9	-1.746545
208	0x3ef7ae61	0.48375228
209	0x3f9451b6	1.1587436
210	0xc0590f46	-3.3915572
211	0x3f4990bd	0.7873648
212	0x40398f2f	2.8993642
213	0x408e647a	4.449765
214	0x3f5fde7a	0.8744885
215	0x40407a88	3.0074787
216	0x3dab8842	0.083755985
217	0xc03a1397	-2.9074457
218	0xc0c114d2	-6.0337915
219	0x3ec97e18	0.39354014
220	0xbfb49658	-1.4108381
221	0xbfcf17e8	-1.6179171
222	0xbfdae580	-1.7101288
223	0xbf7349a3	-0.95034236
224	0xbf3b3e7f	-0.73142236
225	0x3dde9bb0	0.10869539
226	0xc09815c0	-4.752655
227	0x40481764	3.1264277
228	0x405480a7	3.3203523
229	0xbf9101f0	-1.1328716
230	0xbeda2256	-0.4260432
231	0xc0009c97	-2.0095575
232	0xbd388008	-0.045043975
233	0xc065ee16	-3.5926566
234	0x400c43f0	2.1916466
235	0xc022a550	-2.5413399
236	0xbdcfab54	-0.101401
237	0x3ea9d47c	0.33169925
238	0x3fc5a3d9	1.5440627
239	0xc01ac593	-2.418309
240	0x403e7604	2.975953
241	0x3f052116	0.5200361
242	0xbf24effa	-0.64428675
243	0xc0239b15	-2.5563405
244	0xbd3486c0	-0.04407382
245	0xbf842ed3	-1.032679
246	0x3fd33880	1.6501617
247	0xbfd10448	-1.6329432
248	0x3f966c7a	1.1751854
249	0x3f73150c	0.9495399
250	0x3fff8f96	1.9965694
251	0x3e6354ca	0.22200313
252	0xbf7ba372	-0.9829627
253	0xc05769d2	-3.3658338
254	0x4090ef3d	4.529204
255	0xc10d0c05	-8.815434

4.bias f4 [5]
0	0xbeab0288	-0.3340037
1	0x3fb02057	1.3759869
2	0xbef57f94	-0.47948897
3	0xbe76ee54	-0.24114352
4	0x3f1a0f07	0.6017918
