demo/experiments/genetic_algorithm/ga_experiment_2021_02_12_160407/problem_38.model (torch, 26149 bytes, 6 tensors)

0.weight f4 [64, 22]
0	0x4003fed9	2.0624297
1	0xbfdb38a5	-1.7126662
2	0xc0cae4ae	-6.340415
3	0x3f9cba03	1.2244266
4	0xbeeb9302	-0.46010596
5	0x3f44f024	0.76928926
6	0x3ed82ea2	0.42223078
7	0x3e8a64a0	0.27029896
8	0xc00dfa26	-2.2183928
9	0xbfa56cdc	-1.2923846
10	0x4015a0dd	2.3379433
11	0x406f09a0	3.7349625
12	0x3ef5f314	0.48037016
13	0xbf8ea8d0	-1.1145267
14	0x3fe473dd	1.7847859
15	0xbf78dd14	-0.9721234
16	0x406c6983	3.69394
17	0x3f2269ca	0.6344267
18	0xbf70a5f8	-0.9400325
19	0xc08bcd2a	-4.3687944
20	0xbf04c9e6	-0.5187057
21	0x3f86c8d2	1.0530035
22	0x3f89f6ce	1.0778444
23	0x3feb59d3	1.8386787
24	0xbf83cb86	-1.0296485
25	0x3feb4335	1.8379885
26	0xc07b1234	-3.922986
27	0x3f8022ac	1.0010581
28	0x402124b0	2.5178642
29	0xbe701d28	-0.23448622
30	0x3fce6c50	1.6126804
31	0xbf7e0722	-0.99229634
32	0xc05766e8	-3.365656
33	0x3fc1ad50	1.5131016
34	0x3ead72d0	0.33876657
35	0xbf3ae840	-0.73010635
36	0xbfdc2634	-1.7199159
37	0xc031d109	-2.7783835
38	0x3f12bcc0	0.5731926
39	0x3fdc6c7c	1.7220607
40	0x3f5a8964	0.8536589
41	0xbe94b646	-0.29045314
42	0xbed25db9	-0.4108713
43	0xbf19720c	-0.59939647
44	0xc00ae47e	-2.170196
45	0xc020c976	-2.5122962
46	0xc0a4dcd1	-5.151955
47	0x3ef021fa	0.46900922
48	0xbd8df930	-0.06932294
49	0x40452c13	3.080815
50	0xbfb8003e	-1.4375074
51	0xbf8ce0ab	-1.1006063
52	0x3fbc0380	1.4688568
53	0xbf20c08b	-0.627938
54	0x3ea84854	0.32867682
55	0x40036e98	2.053625
56	0xbd4c39c0	-0.049859762
57	0x3cdd1800	0.026988983
58	0x4051462b	3.2699077
59	0x3f0aaaa5	0.5416663
60	0x3ef789f4	0.48347437
61	0x4049c548	3.152666
62	0x3f655199	0.89577633
63	0x3e056a68	0.13028872
64	0x3f14d550	0.5813799
65	0x3f3306c3	0.6993219
66	0xbfab392a	-1.337682
67	0xbfa1d1e9	-1.2642184
68	0xc0854bd7	-4.165508
69	0x4031aad6	2.776052
70	0x40707a6e	3.7574725
71	0x3dd63060	0.104584455
72	0xbf950f6d	-1.1645333
73	0x3e898f3f	0.268671
74	0xc09a7735	-4.8270516
75	0x406a2f1e	3.6591258
76	0xc00157fc	-2.0209951
77	0xbfb624c2	-1.4229968
78	0xbffd9a9f	-1.9812812
79	0xbf0a5d06	-0.5404819
80	0xc0990a30	-4.7824936
81	0x3efe5e8e	0.49681515
82	0x3fd2100f	1.6411151
83	0x40a7d6b0	5.244957
84	0xc01d6958	-2.4595547
85	0xc012b927	-2.2925508
86	0x404547f7	3.0825174
87	0xbf09f8c3	-0.53895205
88	0xc065a720	-3.5883255
89	0x408ff2ca	4.4983873
90	0x408ce155	4.4025064
91	0xbfb6c8fa	-1.4280083
92	0xc070596d	-3.755458
93	0xbfbd3be8	-1.4783907
94	0x3fa43497	1.2828549
95	0xc00344ac	-2.0510664
96	0x3fac68ac	1.3469443
97	0x3fdb63de	1.7139852
98	0xbfd9759f	-1.698902
99	0xbf7521e9	-0.9575487
100	0x40160ceb	2.3445385
101	0xbf2650c6	-0.64967
102	0xbf458f7c	-0.77172065
103	0x3fb093b3	1.3795074
104	0x3f180a9e	0.593912
105	0x400f8479	2.2424605
106	0xc0207300	-2.507019
107	0xbf5f6fee	-0.87280166
108	0x3f60e142	0.87843716
109	0xc0241714	-2.5639086
110	0x3f97edeb	1.1869482
111	0xbecc1cd2	-0.39865738
112	0xbfbdbbcf	-1.482294
113	0x3fcc31d6	1.5952709
114	0xbd9c1c50	-0.07622588
115	0x404da940	3.2134552
116	0xbfbf194c	-1.4929595
117	0xc08480ae	-4.140708
118	0x3f54d871	0.83142763
119	0xbeca2c82	-0.39487082
120	0xbf42e184	-0.7612536
121	0x4080d790	4.026314
122	0x3f210af4	0.6290734
123	0x404a6745	3.162553
124	0xbf9a485a	-1.205333
125	0xc022d39e	-2.544166
126	0x3fc1714d	1.5112702
127	0xbffe2edc	-1.985805
128	0x3ee055f0	0.43815565
129	0xc020be12	-2.511601
130	0x3fcb8029	1.5898486
131	0x3da8a196	0.08233945
132	0xbfea7340	-1.8316422
133	0x404f0ab1	3.2350276
134	0xbe9df5da	-0.30851632
135	0x3f63e9fc	0.89028907
136	0x3f14d3af	0.58135504
137	0xbfe31067	-1.7739381
138	0xbf908956	-1.1291912
139	0x406fb0fd	3.7451775
140	0x3e343684	0.17598921
141	0xbe3e1410	-0.1856234
142	0xc08ef1ab	-4.4670005
143	0xbea766ac	-0.3269552
144	0x3f2913f6	0.6604608
145	0xbeaccc20	-0.33749485
146	0xbfde6bd4	-1.7376657
147	0xbf5133c2	-0.817196
148	0x4009b69d	2.1517708
149	0x4072d888	3.794466
150	0xbfb6d4ce	-1.4283693
151	0xc04d7247	-3.2101
152	0xc0242219	-2.5645812
153	0xbf615ff8	-0.8803706
154	0x3eafb784	0.343197
155	0xc0caeb4a	-6.341222
156	0xbfe68f7c	-1.8012538
157	0xbf981c97	-1.1883725
158	0xbf8f9ade	-1.1219137
159	0xbf82c9ab	-1.0217794
160	0xc04934bb	-3.1438434
161	0x3eda5d4e	0.4264931
162	0x3ec00273	0.3750187
163	0x40215062	2.5205312
164	0x403fe5ab	2.9983928
165	0x3f345b09	0.7045141
166	0x3f1cbd86	0.6122669
167	0x3fb08daf	1.3793238
168	0xc076c404	-3.8557138
169	0xc066a045	-3.603532
170	0x40619cde	3.5251994
171	0xc020465c	-2.5042944
172	0x3fbcb113	1.4741539
173	0x40121117	2.282293
174	0x3e93a9a6	0.2884037
175	0xbfd4592e	-1.6589715
176	0xc03628a1	-2.8462298
177	0xbf95561a	-1.1666901
178	0xbf6ec08f	-0.9326257
179	0xbdf364e8	-0.11884481
180	0x3f0a15e3	0.53939646
181	0xbeb213f8	-0.3478086
182	0x3e48d592	0.1961272
183	0xc00b0a72	-2.1725125
184	0xc037ac6a	-2.8698983
185	0x400e195e	2.2202983
186	0xc029d054	-2.6533403
187	0xc052d829	-3.2944434
188	0xbfda4030	-1.7050838
189	0x3fb019b6	1.3757846
190	0xbf78d86f	-0.9720525
191	0xbff69bd4	-1.9266305
192	0x4061826e	3.5235858
193	0x403e8abe	2.9772182
194	0x3fc979c1	1.5740281
195	0x407f7e98	3.9921017
196	0x4053d9f2	3.3101773
197	0xbf97f13e	-1.1870496
198	0xbcb23a80	-0.02175641
199	0x3e9ae694	0.30254042
200	0xbeaa7c74	-0.33298075
201	0x40b5f9d4	5.6867466
202	0x400bfc69	2.187281
203	0x3f6082c8	0.87699556
204	0xbe71fdda	-0.23631993
205	0x4022a159	2.5410979
206	0xc00c416f	-2.1914937
207	0x3f030296	0.5117582
208	0xc02ce25b	-2.7013156
209	0xc0237ff8	-2.5546856
210	0xbeec3bfa	-0.46139508
211	0x3f63f390	0.8904352
212	0xbfc6dec5	-1.5536734
213	0xbfda3761	-1.704815
214	0x408ac439	4.336453
215	0xbff42c5a	-1.9076035
216	0xc0924ea9	-4.572102
217	0x3f6985aa	0.9121958
218	0x4013f45e	2.31179
219	0x3f463960	0.774313
220	0xbfdcf984	-1.7263646
221	0x40395747	2.895952
222	0xbfe897ce	-1.8171327
223	0x3feeae2d	1.8646904
224	0xbf5a44ca	-0.85261214
225	0xbfac90cf	-1.3481692
226	0x40a9c40f	5.305183
227	0x3fc9f990	1.5779285
228	0xc09c7733	-4.8895507
229	0x4092dc82	4.5894175
230	0xbf926532	-1.1437132
231	0xbfc29ee6	-1.5204742
232	0x3fac2d00	1.3451233
233	0x40e1af5c	7.052656
234	0xbfbab854	-1.4587502
235	0xbf0f3a35	-0.5594819
236	0x3e98a256	0.29811352
237	0xbf43c335	-0.7646974
238	0xbda6a364	-0.08136633
239	0x3f8cfeee	1.1015298
240	0xbfacf6c4	-1.3512807
241	0x4085f2c6	4.1858854
242	0xbfdc2ed1	-1.7201787
243	0x3fe6174e	1.7975862
244	0xbf0fbd78	-0.5614848
245	0x40803fc7	4.0077853
246	0xc09d4ba8	-4.9154854
247	0x4079a493	3.9006698
248	0x3fe9ccf8	1.8265676
249	0x4041e470	3.0295677
250	0xc00a3be6	-2.159906
251	0xbf9c1f15	-1.2196985
252	0x402613f6	2.5949683
253	0xbfad5104	-1.3540349
254	0x3fe61450	1.7974949
255	0xbf18e604	-0.59725976

0.bias f4 [64]
0	0x40c93f76	6.2889967
1	0xbfd7b211	-1.6851217
2	0xbfedfd34	-1.8592896
3	0x40d05796	6.5106916
4	0xbf77cf8a	-0.96801054
5	0x3d046df8	0.032331437
6	0xc0c4ccb2	-6.149987
7	0x402d0c2c	2.703868
8	0x3f07b214	0.530061
9	0xc03de032	-2.9668088
10	0x3f3b6b53	0.7321064
11	0xbfe6fde4	-1.8046231
12	0xbe8e34a6	-0.27774543
13	0x3fe0f6bd	1.7575299
14	0xbf9ffcf7	-1.2499074
15	0xbfc139a2	-1.5095713
16	0x4021e1e4	2.5294123
17	0x4054d1b2	3.3252988
18	0x3f9498ee	1.160917
19	0xc0851a7a	-4.159482
20	0xbecde8e5	-0.40216747
21	0xbf1feaf1	-0.6246787
22	0x401a957e	2.4153743
23	0x4013b4ef	2.3079183
24	0xc00407bb	-2.0629718
25	0x40c2d14d	6.0880494
26	0xbf9bf843	-1.2185138
27	0xbf5ed298	-0.8704009
28	0x409929bc	4.7863445
29	0x3f867582	1.050461
30	0xc070e5be	-3.7640224
31	0x3f9b675d	1.2140919
32	0x4089dcfc	4.3082256
33	0x3e82a456	0.25516003
34	0x40969427	4.705585
35	0xbfff84ea	-1.9962437
36	0xbfcb38e0	-1.5876732
37	0xc00f1990	-2.2359352
38	0x4074b318	3.823431
39	0xc00f2b78	-2.2370281
40	0x3fac771d	1.347385
41	0xbff8c944	-1.9436421
42	0x3fe08fc7	1.7543877
43	0xc0183bd6	-2.378652
44	0xbfb6b28c	-1.4273238
45	0x401e48b7	2.4731882
46	0xbf8c2f7b	-1.095199
47	0x3f8c4a16	1.0960109
48	0x4006f337	2.1085947
49	0xc081e915	-4.0597024
50	0x3e75516e	0.23956844
51	0xbf226d2d	-0.6344784
52	0xbf4f81e7	-0.8105759
53	0xbf727ea0	-0.94724464
54	0x3f1f185a	0.6214653
55	0x3fc84849	1.564706
56	0x403d5ca2	2.9587789
57	0xc02efbf6	-2.7341285
58	0x3f33e400	0.70269775
59	0xbf351a6d	-0.7074345
60	0x3fdb45a8	1.7130632
61	0xbfae3a57	-1.3611554
62	0xc023d726	-2.5600066
63	0xc058f17e	-3.3897395

2.weight f4 [64, 64]
0	0x3f119763	0.5687162
1	0xbf0f8b0c	-0.56071544
2	0xc0d374a8	-6.6079903
3	0x3f9f6e04	1.2455449
4	0x408fc36c	4.492605
5	0x3c90da60	0.017682254
6	0xc086ec07	-4.216312
7	0x3f788c4c	0.97089076
8	0xbefafe6e	-0.4902224
9	0xc05302d3	-3.2970474
10	0x4022cb76	2.5436683
11	0x3f2951fb	0.6614072
12	0x4081db88	4.0580482
13	0x400f80ea	2.2422433
14	0x4042dcb3	3.0447204
15	0xc00a92e1	-2.1652148
16	0x40041224	2.0636072
17	0x3f9f9e99	1.2470275
18	0xc0254c8a	-2.5827966
19	0x3e0b7392	0.13618305
20	0xbd5f1970	-0.05446762
21	0xbe63dba8	-0.22251761
22	0x3d9504d0	0.072763085
23	0xbf977e7d	-1.1835476
24	0x407b318e	3.9248996
25	0xbf8d333e	-1.1031263
26	0x3f84a03d	1.0361401
27	0x3fdafd25	1.7108504
28	0x3f407730	0.75181866
29	0xbf4813a4	-0.7815497
30	0xc0248499	-2.570593
31	0x404e8713	3.2269943
32	0xbf53fa3e	-0.82803714
33	0xbf849d28	-1.036046
34	0xbf36ecf4	-0.7145531
35	0xc02d6de2	-2.7098317
36	0x4076b3ca	3.8547235
37	0x3fe8a6c8	1.8175898
38	0xc0654c37	-3.5827768
39	0xc01baa29	-2.4322608
40	0x402b33fd	2.675048
41	0x402967fe	2.6469722
42	0x3e0e8728	0.13918746
43	0xbee55fca	-0.44799644
44	0xbf4aa943	-0.7916452
45	0xbf0822f6	-0.53178346
46	0x409e6b20	4.950577
47	0xbf1eb950	-0.62001514
48	0xbe8d1c77	-0.2756078
49	0x3fcdb545	1.6070944
50	0x3e1b6bd8	0.15177858
51	0xc009da36	-2.1539435
52	0xbe8dcab8	-0.27693725
53	0xc05321dd	-3.2989419
54	0xbf61581f	-0.8802509
55	0x3fefa448	1.872201
56	0xc0d43f8e	-6.632758
57	0xbd4942ef	-0.0491361
58	0xbe45a5e0	-0.19301558
59	0xbfc727d8	-1.5559034
60	0xbf1f45aa	-0.62215674
61	0xc0c5e5c8	-6.1842995
62	0x3feee00e	1.8662126
63	0x3f36ad71	0.713584
64	0xbfcaf959	-1.5857345
65	0x3f422fe5	0.7585433
66	0xc04dad43	-3.2137
67	0xbf9d3973	-1.2283157
68	0x3fc81c24	1.5633588
69	0x407ab9d5	3.9175923
70	0x3fbed68a	1.4909222
71	0x3fcd8c6d	1.605848
72	0x40186c94	2.381627
73	0x40041675	2.0638707
74	0x40b5e683	5.6843886
75	0x3f9424cf	1.1573733
76	0xbf897d88	-1.0741434
77	0x3f1ad95b	0.6048791
78	0xbe6059e8	-0.21909297
79	0xbfad600b	-1.3544935
80	0xbfc14ed7	-1.5102185
81	0xbfa10a70	-1.258131
82	0xbf99ce11	-1.2016011
83	0xc0a0bfd1	-5.023415
84	0x3f049088	0.5178304
85	0x4077c257	3.8712366
86	0x3f77bf28	0.96776056
87	0xbf90de7e	-1.1317899
88	0x40298feb	2.649409
89	0xc0146a64	-2.3189936
90	0xbe956a68	-0.29182744
91	0xbf9afe76	-1.2108905
92	0xbf6d4710	-0.9268656
93	0xc0d35762	-6.604417
94	0x3eaeb020	0.34118748
95	0x3c0a32c0	0.008434951
96	0x406a728e	3.6632419
97	0xc039ef94	-2.9052477
98	0x3f4ab35e	0.7917994
99	0x3f9e0114	1.2344079
100	0x3f043095	0.5163663
101	0xbf48792c	-0.78309894
102	0x3e971c99	0.29514006
103	0x3f112e4a	0.56711257
104	0xbd2524c0	-0.04031825
105	0xbf065857	-0.52478546
106	0xbe5ce7d4	-0.2157281
107	0xc0afb5dc	-5.4909496
108	0xbf0d9ace	-0.5531434
109	0x3ff3f1e0	1.9058189
110	0xbf612da0	-0.87960243
111	0x4093168b	4.596502
112	0xbe0265fe	-0.1273422
113	0xbfa18a7e	-1.262039
114	0xbef39810	-0.47576952
115	0xbedd5304	-0.43227398
116	0xc0534bf8	-3.3015118
117	0xbe1b4720	-0.15163851
118	0x3f80a328	1.0049791
119	0x3f112f4e	0.56712806
120	0x3e671396	0.22566065
121	0x3fd177cb	1.6364683
122	0xbe494490	-0.19655061
123	0x4062343c	3.5344381
124	0x40238458	2.5549526
125	0xbecc71bc	-0.39930522
126	0x403a8404	2.9143076
127	0xbf70df16	-0.940904
128	0x3f6eefe4	0.93334794
129	0x40b4869a	5.641431
130	0x401d8516	2.461248
131	0x3d66fea8	0.056395203
132	0xbda45cb4	-0.08025494
133	0xc02f5039	-2.7392714
134	0x3f65f213	0.898225
135	0xc0bd5dc4	-5.917696
136	0x40269c8f	2.6033056
137	0xbfb46e21	-1.4096109
138	0x400de34f	2.2169988
139	0x3ec5ecc8	0.38657212
140	0xbfe453b9	-1.783805
141	0xbed3a214	-0.41334593
142	0x4005fc45	2.0935223
143	0x4088bd90	4.27314
144	0x3d37f0d0	0.04490739
145	0x3e3dbaa8	0.18528235
146	0xbf9ab1bb	-1.2085489
147	0xbfb10b0e	-1.3831499
148	0xbf2a95c4	-0.66634774
149	0xc023e2ba	-2.5607133
150	0xbeb4530c	-0.3521961
151	0xbf6f70fe	-0.9353179
152	0xbf7c7a3e	-0.98624027
153	0x401a4004	2.4101572
154	0x407fce39	3.9969618
155	0xbdf3b498	-0.1189968
156	0xbfc59b3a	-1.5437996
157	0x3fd413ee	1.6568582
158	0x3f185896	0.5951017
159	0x3fe85924	1.8152204
160	0x3facd29e	1.3501775
161	0xbf556a98	-0.83365774
162	0xbfa26fb2	-1.2690337
163	0x3fb654ba	1.4244606
164	0x4006b44b	2.1047542
165	0xbfe306ac	-1.7736411
166	0xbef2cf2c	-0.47423685
167	0x40050398	2.0783443
168	0xc00355ee	-2.0521197
169	0xc04ea452	-3.2287793
170	0xbfdcb0c8	-1.7241449
171	0x3f02cc56	0.5109304
172	0xc082ed3a	-4.0914583
173	0xc017ba3f	-2.3707426
174	0x3e704e7e	0.23467442
175	0xbf3a8450	-0.7285814
176	0xbf5e8ab8	-0.8693042
177	0xbedb8d25	-0.42881122
178	0x3f021f26	0.5082878
179	0xc049d116	-3.1533866
180	0xbd83d910	-0.06437886
181	0xc00342c6	-2.0509505
182	0xc035b273	-2.8390167
183	0xbf02897d	-0.5099104
184	0xc0721364	-3.7824335
185	0x3fe2909a	1.7700379
186	0x406920a2	3.6426167
187	0xbfe81c12	-1.8133566
188	0x401b80c3	2.429734
189	0x3ea55b6c	0.32296312
190	0xbfd48351	-1.6602575
191	0x40312419	2.7678282
192	0x3ef7edd7	0.48423645
193	0xbd8a8e20	-0.067653894
194	0x3fa6012a	1.2969105
195	0x3f6240c8	0.883801
196	0x3fb8e850	1.4445896
197	0x3f16e97e	0.5895003
198	0x3f3da981	0.7408677
199	0x3f158cf0	0.5841818
200	0xc095cbf8	-4.6811485
201	0xc09f3947	-4.975742
202	0x402dd6ff	2.7162473
203	0xbe7c380c	-0.24630755
204	0xbf0fe1a4	-0.56203675
205	0x3fe3949d	1.7779728
206	0xc0811a30	-4.0344467
207	0x3ec43656	0.38322705
208	0xc03a047c	-2.9065237
209	0xbf7dfc6a	-0.9921328
210	0xbfb9edb6	-1.4525669
211	0xbf39c819	-0.7257095
212	0x401c3f1b	2.4413517
213	0xc06c41b4	-3.6915102
214	0xc04890a3	-3.133828
215	0x3fc0cf93	1.5063347
216	0xbe4bb280	-0.19892311
217	0x3f2beba4	0.67156434
218	0xc0185e5f	-2.38076
219	0xbfc3d388	-1.5298929
220	0x3f4f8105	0.81056243
221	0x3ecf3133	0.40467224
222	0xc02b1cd2	-2.673634
223	0xbe917850	-0.28412104
224	0x3fbbcb46	1.4671409
225	0xbfee7c5f	-1.8631705
226	0x3ebbaeb8	0.36656737
227	0x40814066	4.039111
228	0xc0929402	-4.5805674
229	0x3f882b8c	1.063829
230	0xbf951711	-1.1647664
231	0x3fa07340	1.2535172
232	0x3febce6e	1.8422372
233	0xbef7672a	-0.48320895
234	0x3f93afe4	1.1538053
235	0xc083d2c0	-4.1194763
236	0xbc2bf800	-0.0104961395
237	0x40111011	2.2666056
238	0xbe392234	-0.18079454
239	0xc003d1a4	-2.0596704
240	0x3fd6a365	1.6768614
241	0xbe3aa74c	-0.18227881
242	0x3f2b388e	0.6688317
243	0xbedd9964	-0.4328109
244	0xbfed18de	-1.8523214
245	0xbfccaab8	-1.5989599
246	0x4038516b	2.8799694
247	0x4035f0c5	2.8428204
248	0xc01ad689	-2.4193442
249	0x3fb1c386	1.3887794
250	0x3f11baa3	0.5692541
251	0xc06df49b	-3.7180545
252	0x3f5a060e	0.8516549
253	0xbf9202d9	-1.1407119
254	0x4013d584	2.309907
255	0x40197cf2	2.398251

2.bias f4 [64]
0	0x3fdb7c75	1.7147356
1	0xc075f23a	-3.8429093
2	0xc05e764e	-3.4759707
3	0xbedcd528	-0.43131375
4	0x403c5db8	2.9432201
5	0xc0793ff5	-3.8945286
6	0x406a596a	3.6617074
7	0x3f936c1a	1.1517365
8	0xc094bd77	-4.648128
9	0x3ecb27ac	0.39678705
10	0xbfaa3bd4	-1.3299508
11	0xbff98c13	-1.9495872
12	0x3f33525f	0.70047563
13	0x3f8c7a86	1.0974891
14	0x401c07fd	2.4379876
15	0xc03783fb	-2.8674304
16	0x4016ddbc	2.3572836
17	0x407333a4	3.800027
18	0x4001dea0	2.029213
19	0x3ffb3922	1.962681
20	0x3f9ce40a	1.2257092
21	0xc001bb77	-2.027067
22	0xbfc3e144	-1.5303121
23	0xc0249e62	-2.572167
24	0x404d384f	3.2065618
25	0xc01385aa	-2.3050332
26	0x40c4144c	6.1274776
27	0xbe8c235e	-0.27370733
28	0x3fa39070	1.2778454
29	0x3f61339a	0.8796936
30	0xbfff479b	-1.9943727
31	0x3f320cc9	0.6955076
32	0xbfefc79e	-1.8732793
33	0x3f72842d	0.94732934
34	0x3f0669cc	0.52505183
35	0xbfdf87a4	-1.7463269
36	0xbf722b97	-0.9459776
37	0x3fc93817	1.5720242
38	0xbf9abef8	-1.2089529
39	0x404b8e24	3.1805506
40	0x3f403b52	0.75090516
41	0xbf39d1e0	-0.7258587
42	0xc00f9340	-2.2433624
43	0x3f149656	0.58041894
44	0xbe7cbbe4	-0.2468105
45	0x404a1176	3.1573157
46	0xbfb7087c	-1.4299464
47	0x3ecf2de0	0.40464687
48	0x408db84e	4.428748
49	0xc08a6b2c	-4.3255825
50	0x3f9a5c93	1.2059501
51	0xc015e3e0	-2.3420334
52	0xc09e1668	-4.940235
53	0xbf8cbf32	-1.0995848
54	0x3fe280aa	1.7695515
55	0xbf4e2592	-0.8052608
56	0xc038dcd1	-2.8884776
57	0xc00c4287	-2.1915605
58	0xbfe8c205	-1.818421
59	0xc03aba2b	-2.9176128
60	0x40075966	2.1148314
61	0xc093a087	-4.6133456
62	0x3e95eef8	0.2928388
63	0xbebca804	-0.36846936

4.weight f4 [5, 64]
0	0xbf603f7b	-0.87596864
1	0x3fc937ba	1.5720131
2	0xbfb3bfa8	-1.4042864
3	0x3ee7876a	0.452205
4	0x3fb449c5	1.4085013
5	0x4070f8cf	3.765186
6	0xbfe1c4f5	-1.7638232
7	0xbf901678	-1.1256857
8	0x3e53ca33	0.20682602
9	0x3f13fd31	0.57808214
10	0x3f58c041	0.84668356
11	0x406a2d64	3.6590204
12	0x3fa5c6d8	1.2951307
13	0xbff0326a	-1.8765385
14	0xbf72153c	-0.9456365
15	0x409ef976	4.967952
16	0x404fc68b	3.246493
17	0x40542713	3.314885
18	0xbffd0cb0	-1.9769497
19	0x3de21ea0	0.110409975
20	0xbfc3e660	-1.530468
21	0x3f788bc0	0.9708824
22	0xbfdd80b8	-1.7304907
23	0x3fb6c2a1	1.4278146
24	0x3ff602b2	1.9219573
25	0xc036d990	-2.857029
26	0x3f9b5f49	1.2138454
27	0xbe445954	-0.19174701
28	0xc089afca	-4.3027086
29	0xc06c2dff	-3.6903074
30	0xbf9792dd	-1.1841694
31	0xbf03474e	-0.5128068
32	0xc0055b9b	-2.0837162
33	0xbffb25e9	-1.9620944
34	0x3fed3e87	1.8534707
35	0x3fdea174	1.7393022
36	0x3f3ae04e	0.7299851
37	0xc054070c	-3.31293
38	0x3f37f92d	0.7186459
39	0x3f16fcdd	0.5897959
40	0x40099b9f	2.1501234
41	0xbf1f1414	-0.6214001
42	0xc0be4698	-5.9461174
43	0xc01a6976	-2.4126868
44	0xbf6a9f34	-0.91649175
45	0xbf9a3223	-1.204655
46	0xbedc7f0c	-0.4306568
47	0xc047fdd9	-3.1248686
48	0xbe345210	-0.1760943
49	0xbfc8308b	-1.5639814
50	0xbcc49140	-0.023995042
51	0xbffcce44	-1.9750447
52	0xbf34bf71	-0.70604616
53	0xbf2f9a0e	-0.68594444
54	0xc0634146	-3.550859
55	0x40283626	2.628305
56	0xc0163b59	-2.3473723
57	0xc0736c2a	-3.8034768
58	0xbfa87874	-1.3161759
59	0xc0219a71	-2.5250514
60	0xc003ce45	-2.0594647
61	0xbf9d31f7	-1.2280873
62	0xc08ad542	-4.3385324
63	0xc05a051a	-3.4065614
64	0x407fbe28	3.9959812
65	0x3d1e8978	0.03870532
66	0xbf16916f	-0.58815664
67	0xc09a1831	-4.815453
68	0xbe8fdd62	-0.2809859
69	0x3ed12bef	0.4085383
70	0xbec5274c	-0.38506544
71	0x3fc1bc9e	1.5135686
72	0xc0429a20	-3.040657
73	0xc02e86a9	-2.726969
74	0x3f3136c6	0.692242
75	0xbf7d1584	-0.98860955
76	0x40c6012d	6.1876435
77	0x3d2b0ef4	0.041762307
78	0xbe82574a	-0.2545722
79	0x4008eee9	2.139582
80	0xbf65a0d0	-0.89698505
81	0xc006248a	-2.0959802
82	0xbe019ff4	-0.12658674
83	0x3fc04624	1.5021405
84	0xbd1ed344	-0.038775697
85	0xc05d2497	-3.4553583
86	0xc0857b8e	-4.1713324
87	0x3f419f8e	0.75634086
88	0xc02c0d7e	-2.6883235
89	0x3fa27851	1.2692968
90	0xbe9d2680	-0.30693436
91	0xc084e18d	-4.152533
92	0xbf2ea440	-0.68219376
93	0x3fa2b682	1.2711947
94	0x3fad87f9	1.355712
95	0x3ffa8f3d	1.9574963
96	0xc021e31e	-2.5294871
97	0xc0829362	-4.080491
98	0x3f8245bc	1.0177531
99	0x401f88ba	2.4927201
100	0x4041544d	3.0207703
101	0xbed69424	-0.41909897
102	0x3f19c445	0.6006511
103	0xbf019526	-0.5061821
104	0x4011d3e2	2.2785573
105	0x3f917c68	1.1366091
106	0x3fcdf190	1.6089344
107	0xbfd3c419	-1.6544219
108	0xbf3dac12	-0.74090683
109	0xc027cbcc	-2.6218138
110	0x3f0c9aaa	0.549235
111	0xc016053c	-2.3440695
112	0x3fa51033	1.2895569
113	0xbf360a30	-0.71109295
114	0xc01c09c9	-2.4380972
115	0xbdcf97a4	-0.10136345
116	0x403013ff	2.7512205
117	0x3f15d948	0.5853467
118	0x4003ab03	2.0573127
119	0x403208bd	2.7817833
120	0x401ec889	2.4809897
121	0x3e9cecf8	0.30649543
122	0xbfe22574	-1.766768
123	0x408fa884	4.4893208
124	0xc0833675	-4.1003976
125	0xbef160e4	-0.47144234
126	0x406f360a	3.7376733
127	0x3ef04627	0.46928522
128	0x3fe46b2a	1.7845204
129	0xbeca1250	-0.39467096
130	0x3fef46d5	1.8693491
131	0xbf953268	-1.1656008
132	0x3f15d4e4	0.5852797
133	0xbddc4098	-0.10754508
134	0xbfd15828	-1.6355028
135	0x3e6a4d8f	0.22881149
136	0xbfa70e96	-1.3051326
137	0xbd304810	-0.043037474
138	0xc09044ad	-4.5083833
139	0xc0b6950c	-5.705694
140	0xbfb6c5ac	-1.4279075
141	0x3df3b10b	0.11899003
142	0x4058d62b	3.3880718
143	0xc04acc85	-3.168733
144	0x3fddc2a9	1.732503
145	0x4035dbd8	2.8415432
146	0x3dc62728	0.09675437
147	0x3f5b3800	0.85632324
148	0xbbee4540	-0.007271439
149	0x3db29b00	0.0872097
150	0x3d52bf70	0.0514521
151	0x406ef588	3.733736
152	0x400d0834	2.2036257
153	0x405cdf32	3.4511228
154	0xbf43d010	-0.76489353
155	0x40890baa	4.282674
156	0x40041fef	2.064449
157	0xbea9cc06	-0.3316347
158	0x3ff35632	1.901068
159	0xbf579c08	-0.8422246
160	0x40ae2013	5.4414153
161	0xc066631c	-3.5997992
162	0x3f993580	1.1969452
163	0x403a3cbc	2.909957
164	0xc08ab8d0	-4.33506
165	0xbfec53e0	-1.8463097
166	0x40854484	4.1646137
167	0x3fc350b7	1.5259007
168	0x3e1864c8	0.14882195
169	0x404c97ed	3.1967728
170	0xbfd641dc	-1.6738849
171	0x3f7dc3be	0.99126804
172	0xbf85c287	-1.044999
173	0x3cc8e798	0.024524495
174	0xbfd65d3a	-1.67472
175	0x3f8432b0	1.0327969
176	0xbf800dc0	-1.0004196
177	0xc0530f73	-3.297818
178	0xbf17a6ce	-0.592389
179	0x3f82e72e	1.02268
180	0x3f974015	1.1816431
181	0xc058bd75	-3.3865635
182	0x400036ae	2.0033374
183	0xc0199498	-2.3996944
184	0xbef585b7	-0.4795358
185	0xbf9c3f41	-1.2206804
186	0xbf8a097a	-1.0784142
187	0x40473f6c	3.113246
188	0xbfbe353a	-1.4859993
189	0xbd742c9a	-0.059612848
190	0xbfe40dd3	-1.7816719
191	0x3effa960	0.4993391
192	0xbf95c04a	-1.1699307
193	0xbfc77462	-1.5582392
194	0x3e87d938	0.26532912
195	0xbe81a5df	-0.25321862
196	0x4008cf23	2.1376426
197	0xc0276955	-2.615804
198	0xbf444cf3	-0.76679915
199	0xbf2f5657	-0.6849112
200	0x4086bc7c	4.2105083
201	0xbfb01df6	-1.3759143
202	0xbd7a53fe	-0.061115257
203	0x3f655bec	0.89593387
204	0x4005c8f2	2.0903897
205	0xc0791126	-3.8916717
206	0xbe153390	-0.14570451
207	0xbf9250a1	-1.1430856
208	0x3f9204bd	1.1407696
209	0xc00190eb	-2.02447
210	0x4041bc72	3.0271268
211	0xbfc1fcda	-1.5155289
212	0x3f178d92	0.59200394
213	0x3f12935d	0.5725611
214	0x3f0012a1	0.50028425
215	0x3fda72a2	1.7066233
216	0x3fc2c876	1.5217426
217	0xbe835ab9	-0.25655153
218	0x4023d600	2.5599365
219	0xc045350b	-3.0813625
220	0x3e970a80	0.29500198
221	0x3fca37bc	1.5798259
222	0xbdf47056	-0.11935489
223	0xc054b3ec	-3.3234816
224	0xc003fece	-2.062427
225	0x3f2beb32	0.67155755
226	0xbf70112c	-0.937762
227	0x3f122314	0.57084775
228	0xbf76353e	-0.9617499
229	0xc0098e92	-2.1493268
230	0xbfe242b4	-1.7676606
231	0xbf48f523	-0.7849905
232	0xbfe259bc	-1.7683635
233	0xc0b74eaa	-5.7283525
234	0xbe9dfa32	-0.30854946
235	0x3eb31548	0.34977174
236	0x402308ac	2.5474043
237	0x40575e50	3.3651314
238	0x3fb8c2ad	1.443441
239	0xbfb53468	-1.4156618
240	0x400a8e2f	2.1649282
241	0xc0017621	-2.022835
242	0x40cf7377	6.482845
243	0x4035d17c	2.840911
244	0x40a57e35	5.171656
245	0xbde5dc1b	-0.112236224
246	0x3fa69aea	1.3016026
247	0xc060f842	-3.5151525
248	0xbfb9fe60	-1.4530754
249	0x4043ce04	3.0594492
250	0x40b2ea99	5.5911374
251	0x3fce5f2f	1.6122798
252	0x404d2189	3.2051718
253	0xc000b086	-2.0107741
254	0x401d417f	2.4571226
255	0xbfcbd50a	-1.5924389

4.bias f4 [5]
0	0xc039fa6d	-2.9059098
1	0x4008a32c	2.1349592
2	0xbfbc1ee1	-1.4696923
3	0xc080ed9b	-4.0290046
4	0xbfd03d7d	-1.6268765
