demo/experiments/genetic_algorithm/ga_experiment_2021_02_12_160407/problem_60.model (torch, 26149 bytes, 6 tensors)

0.weight f4 [64, 22]
000000 b7 63 46 40 9a 75 ec 3f a8 63 bd bd bc 5c c5 bf
       3.099836 1.8473389 -0.092475235 -1.5418925
000010 20 26 21 bd 3c 11 34 bf fb 53 43 40 b0 c4 25 3e
       -0.039343 -0.703388 3.0520008 0.16188312
000020 94 1b a1 40 72 d0 15 c0 18 da b6 3f 9b 0c 1b bf
       5.0346165 -2.3408475 1.4285307 -0.6056611
000030 3a dd 2f 40 63 73 91 40 13 8c 16 40 e7 16 72 bf
       2.7478776 4.5453353 2.3522995 -0.94566196
000040 f6 ac df 3e cb 1f 7a 40 59 fc 14 40 88 0c 64 40
       0.43686646 3.9081905 2.327902 3.5632648
000050 b4 45 ca bf bd ee 85 3f c1 93 31 c0 e4 ad 0c 40
       -1.5802522 1.0463482 -2.7746432 2.1981134
000060 d2 d0 c4 40 c9 c9 b3 3e b9 27 a6 bf fe a2 a5 3f
       6.1504908 0.35114887 -1.2980872 1.2940366
000070 80 43 43 c0 14 10 a9 be e5 c1 ca 3f cc 84 bb bf
       -3.0509949 -0.3302008 1.5840422 -1.4649901
000080 92 1e ee 3f c6 0b 58 be 62 ae 4f c0 6a 0a 8e bf
       1.8603079 -0.21098241 -3.2450185 -1.1096928
000090 fb 38 99 c0 8c ce c2 3e 94 13 b7 3f 85 c9 22 c0
       -4.7882056 0.38048208 1.430285 -2.5435498
0000a0 1c b0 13 40 ee b4 e2 3e 3b 15 09 c0 16 06 10 40
       2.3076239 0.44278663 -2.1419208 2.2503715
0000b0 c6 aa b2 3f 47 d8 12 40 d8 ab fc 3f 2c 84 07 41
       1.3958366 2.2944505 1.9739943 8.469769
0000c0 4e 1c 84 c0 40 68 75 c0 31 ac fe bf ee 6e 46 40
       -4.128455 -3.834488 -1.9896299 3.1005206
0000d0 24 f5 8d c0 14 69 1f 40 17 8b 91 40 d0 43 0a 40
       -4.4361744 2.4907885 4.5482287 2.160389
0000e0 75 46 55 40 f6 44 b2 40 83 a0 5c 40 38 0b 55 40
       3.3324254 5.570918 3.4472969 3.3288097
0000f0 d3 2d 73 3f ae 94 9d bf c4 1c 29 c0 c9 ad 54 40
       0.949918 -1.2310998 -2.6423807 3.323107
000100 44 9a 6d c0 80 94 1c 3d 68 fa aa bf dd e5 e5 bf
       -3.7125406 0.038227558 -1.3357668 -1.7960774
000110 94 66 09 3f a2 fe 27 3e a0 67 9f be fc a0 02 c0
       0.53672147 0.16405728 -0.31133747 -2.0410757
000120 c4 57 f0 bf 4b 36 72 bf 4f 60 90 3f 1a 1b 4a 3f
       -1.8776784 -0.94614094 1.1279391 0.78947604
000130 7a 30 e9 3f fb 5e 02 3f 46 de 78 c0 b1 bd a9 c0
       1.8217919 0.5092618 -3.8885665 -5.3044057
000140 90 2c cb bd 1c 17 42 40 fb 7e cd bf 0d 28 d7 3f
       -0.09920609 3.0326605 -1.6054376 1.6809098
000150 4c 48 4e 3f d4 e7 19 c0 92 df 5e c0 54 ca c4 bf
       0.80579066 -2.4047747 -3.4823956 -1.5374246
000160 4b cb 8d c0 4b 03 b4 bf 32 7b 3f 40 f5 43 94 c0
       -4.431066 -1.4063505 2.9918942 -4.6332955
000170 3c 58 48 c0 d0 bb c1 bf e0 77 14 c0 33 ab 1d c0
       -3.1303854 -1.5135441 -2.3198166 -2.4635742
000180 8b 3a 32 3f c4 79 db 3f 03 6f 31 c0 f8 83 b5 40
       0.6962058 1.7146535 -2.7724006 5.6723595
000190 a2 c5 3d 40 94 4f 3e 40 9e f0 ce bf 85 c0 98 bf
       2.9651875 2.973607 -1.616718 -1.1933752
0001a0 34 f4 e8 3f e5 2d 01 bf 51 2d df 3f 23 aa d6 3f
       1.8199525 -0.50460654 1.7435704 1.6770672
0001b0 fd ec 00 40 ae 88 08 c0 40 82 c0 3c f7 46 14 40
       2.0144646 -2.1333423 0.023499608 2.3168314
0001c0 28 9f 1d 3e 3a d4 11 c0 10 c3 18 40 48 ff c1 3f
       0.15392745 -2.2785783 2.3869057 1.5156031
0001d0 c6 2e 6e 40 de b3 bf bf 53 cb 45 c0 35 2a 41 3f
       3.7216048 -1.4976766 -3.090535 0.7545503
0001e0 ad de 40 40 58 7e 69 3f c3 df 98 40 b0 e8 28 bf
       3.013591 0.9120841 4.7773147 -0.6598005
0001f0 46 89 13 3f f7 f0 f6 bf fc 5d 0c c0 41 4f 63 40
       0.5763134 -1.9292287 -2.1932364 3.5517123
000200 e7 70 10 c0 fc e8 d5 be a6 b1 68 40 ec c0 44 be
       -2.256891 -0.41779315 3.6358428 -0.19214219
000210 02 c0 ae 3f 2d 05 86 3f 77 10 54 c0 78 3f da 3f
       1.3652346 1.047033 -3.313505 1.7050619
000220 88 d0 2e 3e 7e 0c c8 bf 0d f0 86 3f 1e 77 20 bf
       0.17071736 -1.5628812 1.0542008 -0.6268176
000230 04 b1 36 40 4a 44 08 c0 af a7 9b bf 80 e7 40 40
       2.8545542 -2.129168 -1.2160548 3.0141296
000240 e4 99 db bf f0 cc 6e 3f 08 fc 0c 40 e1 34 a5 3f
       -1.7156339 0.9328146 2.2028828 1.2906762
000250 af 74 4f c0 fc 87 8a be 60 2d 69 40 ab d4 02 40
       -3.2414968 -0.27056873 3.6433945 2.0442302
000260 31 dd f1 3f c0 73 e8 3f a0 b3 97 3e a7 c6 a7 bf
       1.8895627 1.8160324 0.2962923 -1.3107499
000270 f3 14 82 40 5d fd fa 3e 18 41 89 bf cd 7a 2e bf
       4.0650573 0.49021426 -1.072299 -0.6815613
000280 66 22 14 40 f1 95 b5 3f 56 c9 97 be 0e 8b bf 3f
       2.3145995 1.4186383 -0.29645795 1.4964311
000290 b4 ac 6a be c4 0c 02 bf c8 bd cd 3f b5 bd 91 3f
       -0.22917444 -0.5080073 1.6073542 1.1386019
0002a0 24 23 39 c0 f4 1b 73 3f 30 0b 2c 3f 2f 41 2d 40
       -2.8927698 0.9496453 0.6720457 2.7071035
0002b0 18 5a 6b 40 e8 ae 1a 3f a0 36 62 bf fd 84 71 c0
       3.677374 0.60423136 -0.883646 -3.773742
0002c0 02 64 8a bf 24 9f 22 40 f9 6c 07 c0 e0 fc 72 3e
       -1.081177 2.5409632 -2.1160262 0.23729277
0002d0 28 55 15 c0 86 4c 20 3f 04 4e 3e 3e d8 ef a1 3e
       -2.3333225 0.62616765 0.18584448 0.316283
0002e0 02 fb 27 c0 17 a6 77 bf 93 73 11 3f 18 d2 62 3f
       -2.6246953 -0.9673781 0.5681698 0.8860183
0002f0 08 d7 38 c0 0b 7a d5 bf c8 21 41 3f 5d 6d 99 3f
       -2.8881245 -1.667787 0.7544217 1.19865
000300 7d a5 01 bf 89 c7 48 be 07 01 53 40 55 11 2a c0
       -0.5064314 -0.19607367 3.2969377 -2.6573079
000310 28 55 03 bf 52 99 da 3e ae f4 8c bf 2c 0a ea 3f
       -0.51301813 0.426951 -1.101217 1.8284354
000320 98 a7 c0 bf c4 19 88 40 07 56 80 bf fe 48 90 c0
       -1.5051146 4.253145 -1.0026253 -4.50891
000330 86 ff 11 40 22 d6 52 c0 c8 f3 58 40 54 12 e7 3f
       2.281221 -3.2943196 3.3898792 1.8052468
000340 17 98 55 40 fa dc 1d 40 51 20 c4 3f c1 1b 9e bf
       3.3374078 2.4666123 1.5322362 -1.235222
000350 ca 03 02 c0 46 38 aa c0 88 50 d7 bd e0 05 56 40
       -2.0314813 -5.3193693 -0.10513407 3.3441086
000360 ce bc 00 40 21 8e f3 3e 68 33 e8 bd f3 b8 d9 40
       2.0115237 0.47569373 -0.1133793 6.803827
000370 46 45 40 40 9a 34 06 40 68 d9 fb 3e 11 0f f3 bf
       3.004228 2.0969605 0.49189305 -1.8988973
000380 52 b1 87 c0 60 b2 63 40 b2 f8 dd bf b0 c8 2b 40
       -4.2403955 3.5577621 -1.7341521 2.684124
000390 64 d9 01 c0 ef aa 9c c0 06 ef de 3f 39 3d 9c bf
       -2.0288935 -4.895866 1.7416694 -1.2206184
0003a0 d1 62 23 40 eb 59 7b c0 5c dd c8 bf ea 0e b2 bf
       2.5529063 -3.9273632 -1.5692554 -1.3910801
0003b0 1a 8f ab be 48 2e 53 3e b6 24 23 bf 8a 13 e0 be
       -0.33507615 0.20623124 -0.6372789 -0.43764907
0003c0 57 be 2a c0 b4 83 8c 3f 70 8d 6c be 8a f4 3d c0
       -2.6678674 1.0977693 -0.23100829 -2.9680505
0003d0 d0 df e9 3e 38 0e e2 bf a3 0d 9b 3f 53 8e 0d 40
       0.45678568 -1.7660589 1.2113537 2.2118118
0003e0 38 fd 35 bf 7e 8f 69 40 cc ec 84 bd 06 e2 f0 bf
       -0.71089506 3.649383 -0.06490478 -1.8818977
0003f0 9e c2 ef bf a4 8c 36 be 4b 23 96 be 18 b6 af bd
       -1.8731267 -0.17827088 -0.293238 -0.085796535

0.bias f4 [64]
000000 86 b2 64 40 76 aa cc bf 9b 52 a2 bf 20 32 61 be
       3.5733962 -1.598952 -1.2681459 -0.21991777
000010 08 5d 2c bd b9 79 9d bf 4a 5d 92 bf b0 3a 57 bf
       -0.04208091 -1.2302772 -1.143472 -0.84073925
000020 88 a1 2c 40 29 ca 41 40 1b 08 b6 40 c7 bf d8 bf
       2.697359 3.0279639 5.6884894 -1.6933526
000030 7a 8d 33 3f b8 ce 5e c0 be 3f bd be 25 32 61 bf
       0.7013775 -3.481367 -0.36962694 -0.8796714
000040 3e 37 82 c0 e0 57 ea bf aa 37 81 bf de c9 8a 3e
       -4.0692434 -1.8308067 -1.0095112 0.27107137
000050 8e af a7 bf 74 c0 38 40 f4 a9 0d 40 b4 1a 7a 40
       -1.310045 2.8867464 2.213498 3.9078798
000060 e6 f2 49 c0 22 57 9c bf db 3e 6e 3f 24 de 17 3e
       -3.1554503 -1.2214091 0.9306466 0.14830834
000070 f8 7a 17 40 70 64 17 be 8c 7f 36 3f 2c b1 41 bf
       2.3668804 -0.14784408 0.7128837 -0.7566097
000080 2d 58 83 3f 8c 1f b7 be 79 4e c4 bf 92 6f bd 3f
       1.0261284 -0.35766256 -1.5336448 1.4799674
000090 2e 26 a3 40 5f 21 dd 3f 0a cf 20 40 3a d7 9e 40
       5.0984106 1.7275809 2.5126367 4.963773
0000a0 94 93 2a 40 f5 6d 17 40 c3 f8 fb 3f aa f4 98 3f
       2.6652575 2.3660862 1.9685291 1.1949666
0000b0 6b 14 09 c0 40 89 ce bd 74 3c e1 be 13 e9 a4 3f
       -2.1418712 -0.10084772 -0.43991435 1.2883629
0000c0 29 fa d7 3f bc 3c 09 3f 23 fa 5a 40 bb db 22 c0
       1.6873218 0.536083 3.4215171 -2.5446613
0000d0 d0 f0 d3 bf 6c 8c 59 40 68 06 eb 3f 96 18 3f c0
       -1.6557865 3.3991957 1.836133 -2.9858756
0000e0 c8 86 52 be 28 fe f6 be 50 1c 5e 3d 7b eb b5 3f
       -0.20559227 -0.4824078 0.05422622 1.4212488
0000f0 f7 a8 49 c0 15 c4 47 bf 48 92 4d c0 98 98 85 3e
       -3.1509378 -0.7803357 -3.2120533 0.26092982

2.weight f4 [64, 64]
000000 5e 26 83 bf 0f 6c 78 40 47 06 f1 bf 5c e6 01 bf
       -1.0246084 3.8815954 -1.8830041 -0.50742126
000010 60 2c 5b c0 20 50 83 bf e6 69 04 40 88 07 bf 3f
       -3.4245834 -1.0258827 2.0689635 1.4924173
000020 6b 8d 2c c0 52 0f 0a 40 f8 10 94 40 e8 35 d5 bf
       -2.6961315 2.157185 4.6270714 -1.6657076
000030 2e bc 9c 3f 22 63 c7 c0 80 cb 41 3f 17 d1 f9 3f
       1.2244928 -6.230851 0.7570114 1.9516934
000040 67 27 9b 3f f8 e1 0a c0 b3 ac c4 bf 75 55 72 bf
       1.21214 -2.170042 -1.5365204 -0.9466165
000050 77 b9 48 c0 7c 71 90 40 74 33 87 bd 00 b9 ad 3b
       -3.1363199 4.513853 -0.06601611 0.0053015947
000060 5c 7b 5f 40 8a a0 07 40 96 4c 84 3f 5c e7 a6 40
       3.4919043 2.1191735 1.0335872 5.215742
000070 00 4e 17 3f c8 8a 34 c0 07 67 83 bf 72 b2 0d 40
       0.59103394 -2.8209705 -1.0265816 2.2140164
000080 61 3a 17 c0 f2 70 05 bf 0c 49 cf 3f 93 ce 4f be
       -2.3629382 -0.52125466 1.6194167 -0.20293646
000090 79 2d 43 c0 50 60 6a bd 0a f3 d7 be 0f 24 84 bf
       -3.0496504 -0.057220757 -0.42177612 -1.0323504
0000a0 6a 32 37 40 e1 69 b0 3f 72 b3 4a bf c0 03 10 bd
       2.862452 1.3782312 -0.7918006 -0.035159826
0000b0 0e 2c 23 40 fa 89 5b c0 74 23 a3 40 93 8f a8 40
       2.549564 -3.4302964 5.098078 5.267526
0000c0 86 34 19 3f ef 62 f7 3f b3 ca 8f 40 14 a2 fe be
       0.5984577 1.9327067 4.4934936 -0.4973303
0000d0 d8 10 76 c0 d2 ce 30 3f 23 3a 7c c0 f3 1a 53 3f
       -3.844778 0.6906558 -3.9410484 0.82462996
0000e0 68 e8 92 bf 99 9a d9 be 2e 2d b7 c0 33 a3 b7 bf
       -1.1477175 -0.4250076 -5.724265 -1.434668
0000f0 14 49 2b c0 d6 ed 5c 40 3a f9 65 40 c3 c4 0f c0
       -2.6763353 3.4520164 3.5933366 -2.2463844
000100 3d 18 90 3f 6e 70 aa bf 9c 68 56 3e a2 c6 79 40
       1.1257397 -1.3315561 0.20938343 3.9027486
000110 74 5d 08 40 68 96 a7 bd 00 25 a6 3e ba 42 b3 bf
       2.130704 -0.081829846 0.32450104 -1.4004738
000120 72 4a 83 3f ff 7c d6 bf 4e 76 56 c0 31 ce d0 bf
       1.0257094 -1.6756896 -3.3509707 -1.6312925
000130 37 8f 3e bf 83 a6 92 3f 0a ea 2d c0 a7 f1 70 c0
       -0.7443728 1.1457065 -2.7174096 -3.7647493
000140 9b 1e 27 40 9f 6c a1 3f 38 4f ed bf 09 a6 f3 bf
       2.611243 1.2611274 -1.8539801 -1.9035045
000150 fe fe fd bf 86 f9 ea 3f 08 93 a9 bd 3a 9c 7b 3e
       -1.9843442 1.8357399 -0.08279997 0.24571314
000160 c0 a5 3f 3b 0b a4 f5 bf b2 48 93 3f 7c 9e ff 3f
       0.0029243082 -1.9190687 1.150656 1.997024
000170 9a 66 6d bf 64 5e f9 bf 40 1d 56 40 e8 2a 9e bf
       -0.9273468 -1.9481931 3.3455353 -1.2356844
000180 18 87 63 40 bc 23 2e 40 64 73 10 bf 24 e6 9b c0
       3.5551205 2.720931 -0.5642607 -4.8718433
000190 b8 81 ee 3f 28 78 b7 3f c4 3d f7 3f ee 20 00 3e
       1.8633337 1.4333544 1.9315724 0.12512562
0001a0 eb 6c 80 bf 60 4c be 3c 0e c1 6c 40 82 45 4f 40
       -1.0033239 0.023229778 3.6992831 3.2386174
0001b0 8d a3 fe bf e2 66 29 c0 31 9c 1e c0 dc f9 3b 40
       -1.9893662 -2.6469045 -2.4782832 2.9371252
0001c0 60 db dc 3e a2 f7 13 40 5d d7 85 c0 38 5c c1 3c
       0.4313612 2.3119893 -4.1825395 0.023603544
0001d0 d4 f6 f4 3e 95 7f 16 3f 82 0d 70 3e 5a 48 07 40
       0.47844565 0.58788425 0.23442653 2.113791
0001e0 5f 5f 84 c0 60 3c b7 bf de 22 3b 40 1a e1 32 c0
       -4.136642 -1.43153 2.9240031 -2.794989
0001f0 e1 32 4d 40 75 bb ca bf 64 f2 39 3f 6b e8 ab 3f
       3.2062304 -1.5838457 0.72635484 1.3430303
000200 11 62 14 bf c1 2a 09 3f 62 47 a4 3f 66 48 af 3f
       -0.5796214 0.5358086 1.2834284 1.3693969
000210 0d 2f b9 c0 78 0c d1 c0 c4 d2 1e 40 5f 60 84 c0
       -5.7869935 -6.532772 2.481614 -4.136764
000220 78 df 69 3f 20 9d 66 40 fe 8e 3a bf 90 9e 4a 3e
       0.9135661 3.6033401 -0.7287444 0.1978705
000230 d8 ad d0 3d ba 7c 4b c0 3a 9f 2d bf 3a 0a a4 bf
       0.10189408 -3.1794877 -0.67821085 -1.2815621
000240 c5 d6 90 3f fe ad 78 40 b8 25 02 bf 91 02 63 3f
       1.1315542 3.8856196 -0.50838804 0.8867579
000250 83 50 de 3f 92 f9 95 c0 fc d4 77 3f 27 dd e2 3f
       1.736832 -4.686715 0.96809363 1.772374
000260 74 bf 81 bf ba 6e 84 40 a3 1b 5d c0 48 ce 5b 40
       -1.0136552 4.1385164 -3.4548118 3.4344654
000270 a4 64 ac bf 33 c9 8d bf 1f 71 56 40 45 2a aa 40
       -1.3468213 -1.1077026 3.3506544 5.31766
000280 22 4a 21 3f 4d 71 8b 3f be 33 c4 3f 5c b8 83 3f
       0.6300374 1.0893952 1.532829 1.0290637
000290 7e 04 95 bf ea 4b b7 40 4c ee 86 3f 86 b1 b1 3e
       -1.1641996 5.728017 1.0541472 0.34705752
0002a0 fc 22 33 be 9c 96 05 c0 0a da 2f bf f9 dd 8a 3f
       -0.17493814 -2.0873175 -0.68692076 1.0848991
0002b0 5c 27 c0 bf 0b 74 1d 40 94 96 01 3f 12 3c c5 3f
       -1.5012012 2.4602077 0.5062039 1.5408957
0002c0 16 db b1 bf 76 19 b3 bf 15 cc a3 3f 1d 1a 4c 40
       -1.3894985 -1.3992145 1.2796656 3.1890938
0002d0 b7 42 e3 3f ea 9e 34 40 78 58 93 bf fc df c5 bf
       1.7754735 2.8221993 -1.1511374 -1.545898
0002e0 e8 73 57 bf bc d2 e1 be 42 df 91 c0 4f 2a cb bf
       -0.84161234 -0.4410609 -4.558503 -1.5872287
0002f0 63 41 23 40 92 58 64 40 39 a1 22 40 10 b2 fa be
       2.550866 3.567906 2.5410903 -0.48963976
000300 26 aa 5c c0 b3 b8 d3 bf ba 34 da bf ce 30 b7 40
       -3.447885 -1.6540741 -1.7047341 5.7247076
000310 ec ed 00 40 e8 92 76 bd 86 77 dd bf a2 ef 2e 3f
       2.0145216 -0.060198694 -1.7302101 0.683344
000320 37 3e 3a bf a2 af 8d be fa 33 c9 40 88 99 bc bf
       -0.7275118 -0.2767306 6.287595 -1.4734354
000330 3e e7 1c bf 91 8a 5d bf ea 8d 94 c0 3c aa 2e 40
       -0.6129035 -0.8653956 -4.6423235 2.7291403
000340 de 03 bf 3f 10 6f 11 bc cb 2e 99 bf dc ce b6 bf
       1.4923055 -0.008876577 -1.1967405 -1.4281878
000350 76 a0 2e 3e 12 05 a7 bf 16 8c 48 be 12 87 48 c0
       0.17053398 -1.3048422 -0.19584689 -3.133244
000360 a8 a1 49 c0 7f 26 92 bf 4b e5 fb 3f 70 61 82 bf
       -3.1504917 -1.1417998 1.967935 -1.0185986
000370 a8 fe d0 bf 13 65 a0 bf b0 64 98 bf 1c 32 2e 3f
       -1.6327715 -1.2530845 -1.1905727 0.6804521
000380 90 05 8c 40 fe ae 80 40 d2 86 99 c0 c2 97 f5 3f
       4.375679 4.0213614 -4.7977076 1.9186938
000390 4f bb 5f bf db 90 06 c0 14 b9 32 bd 4c 60 2e be
       -0.87395185 -2.1025913 -0.043633536 -0.17028922
0003a0 68 1a c4 3d 12 03 44 40 10 a1 9d c0 da 24 2d bf
       0.09575349 3.0626874 -4.925911 -0.67634356
0003b0 46 4c 71 bf 6a 72 b5 3f f4 3e 70 c0 b7 a6 52 40
       -0.9425701 1.4175541 -3.7538424 3.2914255
0003c0 4c a8 cf 3f 23 10 35 c0 38 31 2c 40 93 b0 c6 bf
       1.6223235 -2.82911 2.690504 -1.5522636
0003d0 81 e3 d5 bf 00 59 14 3d 70 25 d4 3e ef 8f 4d bf
       -1.6710054 0.03621769 0.41434813 -0.8029775
0003e0 b6 14 97 3f 0e 60 4c 40 28 15 b4 3f 14 1f 4d be
       1.1803195 3.1933627 1.4068956 -0.20031387
0003f0 e2 e0 e3 bf a6 da 5d c0 51 b6 56 40 a4 38 8b bf
       -1.7803004 -3.4664702 3.3548777 -1.087666

2.bias f4 [64]
000000 34 9a 7a 3e 7a 9f 76 40 21 d0 31 40 44 ea dc be
       0.24472886 3.8534837 2.7783282 -0.4314748
000010 2a 90 1c bf 86 92 63 40 12 a2 b3 bf 8e 5e 16 c0
       -0.61157477 3.555818 -1.4033835 -2.3495212
000020 40 a2 b3 be 34 9c 86 3e 35 23 5c 40 80 49 34 c0
       -0.35084724 0.2629105 3.4396489 -2.816986
000030 18 bb 61 c0 44 a4 a8 40 50 52 37 40 3e a8 c4 bf
       -3.5270443 5.270052 2.864399 -1.5363843
000040 f2 f1 7a 40 c7 95 b5 bf bb 90 86 c0 ca ff 7c 3f
       3.9210172 -1.4186333 -4.2051673 0.98827803
000050 c8 d0 f5 be 40 0e f1 bc 19 2d a3 3f fe fd f9 3e
       -0.4801085 -0.02942574 1.2748138 0.48826593
000060 c5 7a 3f 3f b6 c4 39 3f ac c5 c7 be 18 83 f0 3f
       0.74796706 0.7256578 -0.39018 1.8790007
000070 a2 d3 3a c0 6d 63 15 c0 7f fa 7e 3e f7 d5 ff bf
       -2.919167 -2.3341935 0.24900244 -1.9987172
000080 82 e5 27 40 06 a2 f8 bf b8 22 ee 3f d3 3f a1 3f
       2.623383 -1.9424446 1.8604345 1.2597603
000090 7b 0c 04 3f 88 65 ed 3d 5e 58 2e c0 e7 eb a2 c0
       0.51581544 0.11591631 -2.7241435 -5.0912967
0000a0 4e 48 7c c0 cc 64 33 c0 a5 a4 11 c0 c1 5c c4 c0
       -3.9419131 -2.8030272 -2.275674 -6.1363225
0000b0 0a 6c 56 bf 49 fa f9 be e4 0e fe 3f 17 a5 5e bf
       -0.83758605 -0.48823765 1.9848294 -0.8697066
0000c0 22 43 73 bf 4c c9 94 3d be 87 d0 bf 12 28 8e 3f
       -0.9502431 0.07264957 -1.6291425 1.1105978
0000d0 e8 b3 f5 3f 86 9e 6e 3f 50 1d 44 bf 52 93 2a bf
       1.9195528 0.9321064 -0.7660723 -0.6663104
0000e0 cb 4f 85 c0 9d 86 78 3f a8 f2 18 bf 3e 72 53 40
       -4.1659904 0.97080404 -0.59745264 3.3038478
0000f0 f3 d6 e7 3f 36 80 33 3f 95 a6 9f bf 4b 80 e6 3f
       1.8112472 0.7011751 -1.2472712 1.8007902

4.weight f4 [5, 64]
000000 1e 9b d7 3f b2 84 01 40 e6 93 7c c0 15 05 3b 3f
       1.6844213 2.023724 -3.946527 0.7305463
000010 5e 90 62 3f f0 68 85 bd 2a 47 c1 bf 32 ee b6 3f
       0.88501537 -0.06514156 -1.5099843 1.4291441
000020 6f 59 c4 3f ec bc a8 bf 69 e6 f7 bf c3 74 da bf
       1.5339793 -1.3182654 -1.9367191 -1.7066883
000030 0c f7 04 40 04 1b 10 40 22 c9 c9 c0 e6 98 32 c0
       2.0775785 2.251649 -6.3058023 -2.7905822
000040 9c 8e df bd 4e ba 96 bf 0d be 66 c0 8d d0 83 bf
       -0.109158725 -1.1775606 -3.6053498 -1.029802
000050 b5 62 01 3f a4 1c d6 be 93 6f 14 3f 2c 99 68 3e
       0.5054124 -0.41818726 0.5798275 0.2271468
000060 30 ea 76 3e f8 94 4c bf 9e 2f a7 3f e9 5e 17 3f
       0.24112773 -0.7991481 1.3061407 0.59129196
000070 80 7c 32 bd ff 6a 13 c0 90 2f 84 3e ca 21 db bf
       -0.043575764 -2.3034055 0.25817537 -1.7119687
000080 3a 55 40 3f 1f f1 32 3f be b1 24 3f b8 a3 ed 3f
       0.75130045 0.6989917 0.64333713 1.8565588
000090 4b 39 24 c0 d6 b1 c0 3f de d9 02 c0 8b e5 53 c0
       -2.565997 1.5054271 -2.0445476 -3.3108852
0000a0 9d 22 8b 40 fc 5c 14 40 a3 d9 43 c0 98 31 97 bf
       4.3479753 2.3181753 -3.0601585 -1.181201
0000b0 a9 27 69 bf 0e a7 6a 40 3d ba 94 40 2c 69 b6 bf
       -0.9107614 3.6664462 4.647734 -1.4250846
0000c0 92 2c 2a 3f d6 fc d3 bf a7 51 d4 be be b0 af 3f
       0.6647426 -1.6561534 -0.41468546 1.3725812
0000d0 2c cc df bf 37 44 86 bf a8 3a 15 c0 35 e2 37 c0
       -1.7484183 -1.0489568 -2.331705 -2.8731816
0000e0 2c cd b9 3e d3 a3 16 3f 22 ea 2a bf 22 65 f0 3f
       0.36289346 0.58843726 -0.6676351 1.8780863
0000f0 ac 3f 6f c0 1f a3 00 40 69 e9 20 bf 8a 29 42 c0
       -3.7382612 2.0099561 -0.62856156 -3.0337853
000100 e7 1b 71 c0 03 5d ab 40 5e 37 12 c0 26 7f 28 c0
       -3.767328 5.355104 -2.2846293 -2.6327605
000110 4a e2 3b 40 e2 84 15 40 bf 71 91 bf 16 bc 24 be
       2.9356866 2.3362355 -1.1362838 -0.16087374
000120 c0 90 26 be bd 5b b0 40 e2 1e a6 40 ae ac c1 c0
       -0.16266155 5.5111985 5.19127 -6.052329
000130 a2 61 1d 40 3a 1c 85 40 78 4a d0 be 98 e4 5d 3e
       2.459084 4.1596956 -0.40681815 0.21669233
000140 b2 10 29 c0 20 60 8d c0 6c 26 f6 bf 5b c4 b9 40
       -2.641644 -4.417984 -1.9230475 5.805219
000150 d0 61 3c bc 48 e0 0d 3e ea 17 19 40 ca f8 33 40
       -0.01149793 0.13855088 2.3920846 2.8120599
000160 08 1c 42 40 f8 b3 49 3e 67 86 15 c0 21 6f 12 c0
       3.032961 0.19697559 -2.3363283 -2.2880328
000170 76 87 dc bf 6a 4e 57 3f aa 7a 27 40 1e 6b 7d bf
       -1.7228839 0.84104025 2.6168618 -0.9899157
000180 0e ba 5c c0 15 d6 c5 40 1e 84 20 40 2b 50 27 c0
       -3.4488559 6.182383 2.5080638 -2.614268
000190 ee eb 18 bf 5c 7b 1d c0 28 88 a0 3e 12 89 51 40
       -0.59735 -2.4606543 0.3135388 3.273991
0001a0 72 26 0b c0 6e bd c0 bf 5a 0b 55 3f 5b b3 69 40
       -2.1742215 -1.5057809 0.83220446 3.651572
0001b0 75 79 95 c0 08 7b 39 40 b7 5a d2 3f 20 36 e9 3f
       -4.6710763 2.8981342 1.6433934 1.8219643
0001c0 00 5e 96 3c 35 b0 b0 c0 52 6a 55 bf 52 cd 73 c0
       0.01835537 -5.5215096 -0.83365357 -3.8094068
0001d0 82 de 61 bf 57 33 a2 bf 98 a7 16 3f e7 5e 7a bf
       -0.88230145 -1.2671918 0.5884948 -0.9780106
0001e0 60 aa 41 bf 28 a8 ce bd ea a9 aa bf bc d4 36 3e
       -0.75650597 -0.10090667 -1.3333104 0.17854589
0001f0 12 47 89 3e 8c 8f 05 c0 84 4c 14 c0 e4 c5 ac c0
       0.26812035 -2.0868864 -2.3171701 -5.3991566
000200 dd 6e 1e c0 f4 4c 2f bf f8 e0 49 bf 98 ba 3b 40
       -2.4755166 -0.68476796 -0.788589 2.9332638
000210 40 e7 2b bf 1e 2d 26 40 4d 6a c2 3e 6e 91 61 40
       -0.67149734 2.5965037 0.37971726 3.5245013
000220 e9 5e d2 3f 45 5b 7c 3e ae e3 25 3f 3e e9 80 bf
       1.6435214 0.24644192 0.64800537 -1.007118
000230 52 c1 83 3f 93 d8 84 3f 3e 3b 13 40 96 17 37 3e
       1.0293372 1.0378593 2.3004909 0.17880091
000240 a8 5e 51 bf 08 48 7b 3f 56 d9 3e 3f 26 51 4c c0
       -0.8178506 0.98156786 0.7455038 -3.192453
000250 56 39 82 c0 33 14 89 bf 64 af e1 3e 9f 8e 63 c0
       -4.069499 -1.0709289 0.44079125 -3.55558
000260 36 01 49 3f bb 3f b6 3f ae f1 e3 3f 48 7b f5 3c
       0.7851747 1.4238199 1.780813 0.029966012
000270 68 d5 03 3f c9 d8 91 c0 fc ff 85 c0 6c ed 51 c0
       0.5149751 -4.557713 -4.187498 -3.280116
000280 d3 bc fc bf f8 f4 25 c0 0e ef 6c bf 1a 43 70 3f
       -1.9745125 -2.5930767 -0.9255227 0.9385239
000290 f5 d4 f3 3f 6a a7 de bf c8 00 24 bf 3d ba 9e bf
       1.9049364 -1.7394841 -0.6406369 -1.2400585
0002a0 4f 9d d3 bf c9 5b c2 bf c0 f1 9d 3f 1e e7 80 bf
       -1.6532382 -1.5184261 1.2339401 -1.0070531
0002b0 5b 27 69 c0 b4 b4 79 3f e0 d4 a4 bc 80 5b 62 c0
       -3.643027 0.97541356 -0.020121038 -3.5368347
0002c0 f6 ea d7 bf 94 bd 0b bf 32 5c 03 3e 44 66 88 bf
       -1.6868579 -0.5458615 0.12828138 -1.0656209
0002d0 68 3b de c0 79 4a 02 c0 9c 7a 93 be a1 54 18 c0
       -6.9447517 -2.0357955 -0.2880448 -2.3801653
0002e0 a6 27 58 be a0 96 26 3e c5 4b e2 40 78 e4 5c c0
       -0.21108875 0.16268396 7.071749 -3.4514446
0002f0 d4 7f 9a 3f f6 ab 92 40 c3 ee c2 3f 6c cc ed be
       1.207026 4.5834913 1.5229114 -0.46445024
000300 c7 e6 40 3f 92 8f bb 40 f6 f0 0a c0 b9 db 06 c0
       0.7535214 5.8612757 -2.170957 -2.1071608
000310 a2 c9 a8 be 36 31 0a 3f b7 01 f8 3f 58 61 d9 c0
       -0.32966334 0.5398134 1.9375523 -6.793133
000320 e0 53 41 bd a1 54 80 3f 22 d8 ab 3e 34 32 b6 40
       -0.04719913 1.0025827 0.33563334 5.6936283
000330 7f 57 46 c0 ac 2a 23 bf 40 f4 eb 3c e6 b3 88 40
       -3.0990903 -0.6373699 0.02880299 4.2719603
000340 ec cd 04 40 b8 73 1a c0 0a 2b 10 40 4a 57 69 bd
       2.0750685 -2.413313 2.252627 -0.05696801
000350 5c d6 85 c0 58 6d 28 3f 84 ff c6 3f 14 0a 1b c0
       -4.182417 0.65791845 1.5546727 -2.4224901
000360 02 8b 02 bf 2f 7b 41 c0 ec a2 c0 c0 49 c9 fa 3e
       -0.5099336 -3.0231435 -6.019888 0.48981693
000370 04 e5 2f c0 83 e2 4d 40 81 79 da 3f 6c 83 b6 bf
       -2.748353 3.2169502 1.706833 -1.4258857
000380 fb 7e ee 3f 18 5f 41 c0 74 18 28 40 57 dc 99 3f
       1.8632501 -3.021429 2.6264925 1.2020367
000390 a3 2b 9a c0 28 11 1a 40 70 eb f8 3f 9b d0 8e bf
       -4.8178267 2.4072971 1.944685 -1.1157411
0003a0 6c af 3f c0 e2 78 28 3e a1 af ef be ac e9 3e 40
       -2.995082 0.16452363 -0.46813682 2.9830122
0003b0 89 60 1c 40 12 57 20 40 d2 59 83 c0 77 b7 32 3f
       2.443392 2.5053144 -4.1047144 0.69811195
0003c0 a0 19 b4 3c 3a 30 fe 3f 22 a0 b1 bf 18 fe 50 40
       0.021984875 1.9858468 -1.3876994 3.2655087
0003d0 20 90 36 c0 8a 67 ac 40 fe 01 22 40 4f 21 10 c0
       -2.8525467 5.387639 2.5313716 -2.252033
0003e0 29 3d be 3f 8d 0c a3 c0 bc 9b 8e 3f a3 72 5a 40
       1.4862415 -5.095282 1.1141276 3.4132469
0003f0 18 f1 86 bf 78 d7 2f 40 46 7f 97 3f e5 cf 16 40
       -1.0542326 2.7475262 1.1835716 2.3564389

4.bias f4 [5]
000000 7a 61 2e 40 08 e2 17 c0 86 1f ad c0 68 71 69 40
       2.7246995 -2.3731709 -5.410098 3.6475468
000010 c7 bc 9f 40
       4.991794
