demo/experiments/genetic_algorithm/ga_experiment_2021_02_12_160407/problem_47.model (torch, 26149 bytes, 6 tensors)

0.weight f4 [64, 22]
-1.6095858 2.270562 1.6186186 -1.3179419 0.04398477 -0.47704473 1.1925118 1.8137664
0.85686326 0.9226291 1.2675436 1.0148029 0.20257923 3.7257633 -0.6574893 0.38887683
0.9966673 -0.04136455 -2.4871142 1.3434657 -1.787852 1.1834068 -0.5157366 0.6209305
-4.9250255 1.1990688 1.9369545 0.0994122 -1.3487008 2.8976507 1.6304535 -3.850668
0.1727171 1.723941 -3.7372591 -0.68240035 4.5418096 -0.15413648 1.555724 -1.6064044
5.6234 0.2923321 -1.6324309 2.5151496 -0.8448532 -1.1470497 -1.3021127 0.43349424
1.3801581 0.0033358932 1.3712276 0.2792008 -1.8530946 0.9696538 2.2786086 0.24647087
2.5254765 0.6628084 2.4026737 0.665628 -0.737046 1.0303657 2.0541875 0.9209214
0.32229787 -3.2128048 -1.6089551 -2.0964518 -0.6738006 -0.9736459 -2.842659 3.0862222
-4.025308 0.038141012 1.7399812 1.1061321 -5.926356 -2.0996726 1.6795803 1.2333728
0.9038148 2.6151323 -5.933368 -2.2749467 -1.069267 -0.60518193 -1.8145064 -0.26673126
-0.30630895 0.5428463 -0.653147 0.9461864 -1.919164 1.4599385 0.2859795 -0.93862927
0.9371066 -3.0864954 1.7950733 -5.251552 5.4279313 2.9378526 2.2313805 0.08821225
-0.59410006 0.71624637 -6.388041 -2.1437664 -0.83335555 -2.4689536 -0.6109682 3.137761
-0.85849357 -0.800962 -1.042516 2.3727582 -1.5832951 -3.6205986 -0.80901885 -0.52233016
-3.4490783 -0.76102597 0.0130741 2.2730756 -1.9572932 0.7071608 0.34898436 -3.9897814
-0.8968084 3.3012104 -1.8970035 0.7383913 -0.3351516 0.42758346 1.5968354 -0.42051196
-1.9302843 3.7071419 0.0707469 3.153416 1.4871212 -2.8135629 0.01236999 -2.1555133
0.21856076 2.1829956 -1.1585753 -2.267186 2.212505 3.552073 1.6121205 -0.083817124
-2.0009542 -1.4055088 -1.8778292 2.961232 2.2498484 -1.3163813 -0.3679909 1.4022131
-4.303466 1.5475469 -3.4387395 -1.577683 0.7637156 -0.85406697 -1.0146754 3.131753
-2.8857179 0.021395326 2.9789677 3.3352036 -0.6289994 1.838941 1.4303737 -1.1749225
3.9619484 -2.4287875 -0.91071033 4.412537 -1.089267 -0.18620467 -0.8429998 -3.6578405
-3.38345 1.1035216 -0.26708823 0.43366522 1.6097181 -4.0641294 3.1954815 -1.8301795
-3.7053392 -3.2330549 1.0965466 -0.7130178 1.5992535 -2.267577 -1.655389 -0.6242407
1.9106715 0.74679613 -0.28596282 1.9092908 -0.22802377 1.4216936 -1.2478617 4.5675116
0.92511 -2.6049216 -2.275226 -2.620718 0.5700184 -5.0006495 0.10346797 0.34333625
-0.03623545 1.5429416 0.33029288 2.2127948 -1.8356386 0.3084671 3.3785877 0.6625496
-1.794535 1.9948087 -2.00251 2.645047 0.62955296 1.9385107 2.7331705 0.04135239
1.2575848 -4.916792 -1.7621216 -3.0641143 2.452024 -1.5324861 -2.7741163 -1.607181
-1.0142186 1.8871017 -1.1932857 1.9715221 2.9334164 -0.80663955 0.577786 -3.040078
-1.1441275 -1.806382 -1.2168081 3.5601282 1.910117 0.10939136 -2.2915072 -0.27791595
00000000: e806 cebf e350 1140 e52e cf3f 52b2 a8bf
00000010: 6029 343d 353f f4be 3aa4 983f 7f29 e83f
00000020: 645b 5b3f 6c31 6c3f de3e a23f 10e5 813f
00000030: ee70 4f3e e872 6e40 3851 28bf dd1a c73e
00000040: 9725 7f3f e06d 29bd e12c 1fc0 aff6 ab3f
00000050: 56d8 e4bf e079 973f 5007 04bf 4df5 1e3f
00000060: cf99 9dc0 167b 993f 20ee f73f a098 cb3d
00000070: 3aa2 acbf 1c73 3940 b3b2 d03f 5871 76c0
00000080: c0dc 303e 19aa dc3f 412f 6fc0 cab1 2ebf
00000090: 8156 9140 f4d5 1dbe f721 c73f a99e cdbf
000000a0: e5f2 b340 8eac 953e 7ff3 d0bf 36f8 2040
000000b0: 4d48 58bf 86d2 92bf a1ab a6bf f5f2 dd3e
000000c0: 05a9 b03f 009f 5a3b 6384 af3f 68f3 8e3e
000000d0: 3432 edbf 3b3b 783f b9d4 1140 dc62 7c3e
000000e0: 68a1 2140 d0ad 293f 68c5 1940 9966 2a3f
000000f0: 0caf 3cbf 06e3 833f cf77 0340 81c1 6b3f
00000100: 3a04 a53e 989e 4dc0 3ef2 cdbf 442c 06c0
00000110: 327e 2cbf dc40 79bf 20ee 35c0 aa84 4540
00000120: 53cf 80c0 c039 1c3d b4b7 de3f bd95 8d3f
00000130: b5a4 bdc0 0961 06c0 7dfc d63f 29df 9d3f
00000140: 6860 673f 545e 2740 27de bdc0 ba98 11c0
00000150: bedd 88bf 34ed 1abf bf41 e8bf 0091 88be
00000160: 87d4 9cbe faf7 0a3f a434 27bf 4639 723f
00000170: 2aa7 f5bf 44df ba3f e86b 923e 024a 70bf
00000180: 38e6 6f3f 2489 45c0 f6c4 e53f b70c a8c0
00000190: 9db1 ad40 c705 3c40 f0ce 0e40 a0a8 b43d
000001a0: f116 18bf ec5b 373f d56a ccc0 7833 09c0
000001b0: ca56 55bf 5603 1ec0 6968 1cbf 14d1 4840
000001c0: 3cc6 5bbf d80b 4dbf 2a71 85bf 45db 1740
000001d0: 6aa9 cabf e3b7 67c0 dc1b 4fbf 6eb7 05bf
000001e0: b3bd 5cc0 99d2 42bf c034 563c 127a 1140
000001f0: 9588 fabf 7d08 353f 14ae b23e 9458 7fc0
00000200: 3c95 65bf 0847 5340 03d1 f2bf 3607 3d3f
00000210: fe98 abbe 38ec da3e 1a65 cc3f 584d d7be
00000220: 8e13 f7bf d041 6d40 c0e3 903d 91d1 4940
00000230: fd59 be3f 6a11 34c0 80ab 4a3c eef3 09c0
00000240: 64ce 5f3e 33b6 0b40 324c 94bf 9319 11c0
00000250: af99 0d40 2a55 6340 f759 ce3f 50a8 abbd
00000260: a20f 00c0 b6e7 b3bf b55c f0bf d384 3d40
00000270: 84fd 0f40 2f7f a8bf 4e69 bcbe b87b b33f
00000280: feb5 89c0 0416 c63f 4f14 5cc0 84f1 c9bf
00000290: de82 433f 22a4 5abf e2e0 81bf a46e 4840
000002a0: 9aaf 38c0 4045 af3c 68a7 3e40 fa73 5540
000002b0: 1b06 21bf 6b62 eb3f 7c16 b73f dc63 96bf
000002c0: 9090 7d40 4171 1bc0 5024 69bf 8133 8d40
000002d0: 1a6d 8bbf 70ac 3ebe d6ce 57bf 0f1a 6ac0
000002e0: 728a 58c0 3240 8d3f cabf 88be 5e09 de3e
000002f0: 3e0b ce3f 590d 82c0 c582 4c40 5243 eabf
00000300: 4724 6dc0 5fea 4ec0 a45b 8c3f 5688 36bf
00000310: 57b4 cc3f fb1f 11c0 c9e3 d3bf 3dce 1fbf
00000320: e290 f43f 082e 3f3f b869 92be a463 f43f
00000330: 107f 69be 0efa b53f efb9 9fbf 0e29 9240
00000340: 02d4 6c3f 09b7 26c0 4e9d 11c0 d8b9 27c0
00000350: baec 113f 5205 a0c0 04e7 d33d c5c9 af3e
00000360: a06b 14bd 1c7f c53f 261c a93e 6e9e 0d40
00000370: 35f6 eabf 66ef 9d3e c83a 5840 da9c 293f
00000380: 53b3 e5bf e455 ff3f 2029 00c0 7348 2940
00000390: 622a 213f 1e21 f83f 44ec 2e40 2061 293d
000003a0: 8af8 a03f 5c56 9dc0 338d e1bf 731a 44c0
000003b0: f6ed 1c40 8128 c4bf 1f8b 31c0 1bb8 cdbf
000003c0: ead1 81bf 8c8c f13f 96bd 98bf d65a fc3f
000003d0: 18bd 3b40 ee7f 4ebf c9e9 133f a390 42c0
000003e0: c572 92bf 8637 e7bf 5ec0 9bbf 24d9 6340
000003f0: b77e f43f 9408 e03d 0ea8 12c0 004b 8ebe

0.bias f4 [64]
-0.42428714 0.1802882 -3.1213999 0.055874944 2.4459984 -1.6227086 -1.6276366 0.8085696
0.9608419 -0.26167685 1.753207 -1.5452982 1.0356858 -0.056619957 -0.17633605 3.8971562
-0.46827 -3.4810503 0.2767101 -0.636476 -4.652096 3.0642679 0.39095855 -0.8065256
-6.2435203 -0.25598657 -2.4548023 0.8950938 -1.837996 -3.2697313 1.3739678 0.4371662
-0.24473014 -0.6444931 -0.91103446 -0.15407121 -0.6403573 0.59967697 2.5641413 1.5085886
-1.2907348 1.9763203 0.83574367 -0.92536753 -1.6405885 -2.2104244 1.9685875 -2.5495608
-0.78559345 0.030847251 3.1836202 -0.43511587 2.3670132 0.2159435 0.090952024 1.5436451
0.78042305 -1.5006684 1.8013066 -0.42431095 -3.230767 1.4320302 -2.541016 1.5444641
00000000: 2a3c d9be 789d 383e 04c5 47c0 20dd 643d
00000010: 3d8b 1c40 eab4 cfbf 6556 d0bf 6bfe 4e3f
00000020: bcf9 753f 82fa 85be 1669 e03f 55cc c5bf
00000030: 5a91 843f 54ea 67bd 7091 34be 026b 7940
00000040: 16c1 efbe 87c9 5ec0 f2ac 8d3e 17f0 22bf
00000050: f8dd 94c0 f71c 4440 b82b c83e 7678 4ebf
00000060: ebca c7c0 ac10 83be 7b1b 1dc0 de24 653f
00000070: 7443 ebbf 4743 51c0 2dde af3f 40d4 df3e
00000080: 8a9a 7abe 80fd 24bf 8e39 69bf d8c4 1dbe
00000090: 75ee 23bf 6e84 193f e41a 2440 6e19 c13f
000000a0: cc36 a5bf 10f8 fc3f 4cf3 553f e3e4 6cbf
000000b0: cefe d1bf 9877 0dc0 adfa fb3f 012c 23c0
000000c0: a71c 49bf 60b3 fc3c 6fc0 4b40 82c7 debe
000000d0: 257d 1740 4b20 5d3e 0e45 ba3d 2a96 c53f
000000e0: cec9 473f e715 c0bf 3791 e63f 493f d9be
000000f0: e3c4 4ec0 c44c b73f 02a0 22c0 00b1 c53f

2.weight f4 [64, 64]
0.7524631 0.3293327 -1.4471552 5.6549544 -3.5499952 2.4285665 -1.4487296 -0.2940786
-3.015082 -6.2814393 -1.788904 -2.164865 -1.5372365 2.1230261 0.15859586 -1.2320526
2.9733787 1.0135353 4.81738 0.3246907 3.7811346 -4.1015015 -1.878109 -2.0423732
2.806645 -4.22502 -3.379964 -1.6940291 0.72042406 0.3880419 5.260113 5.2538376
-2.7276235 -0.97372377 0.96462417 5.041536 0.8992024 -0.15300888 1.2515782 1.9883575
-1.9157552 -1.7713577 0.95030105 0.93244123 -0.54793286 0.9589576 4.6542683 -2.922101
0.7343743 -1.4802577 0.9573578 2.217159 4.7019653 -0.49977314 -0.3705802 -0.29523814
5.016837 -0.58747655 1.7102607 -1.638901 -1.0776132 2.1092162 -1.8041792 -1.573147
-2.4802418 2.677784 -0.753701 1.0346415 1.4981118 -3.6769004 2.4737024 -3.275068
-1.0992436 -0.93763995 -2.0792685 -2.0096035 0.7726847 -0.06318441 -0.80640113 0.9873998
0.18617511 -0.07483399 -0.57561326 4.584476 3.4219615 3.8840752 0.53073746 -1.9093645
2.4879985 1.5642532 -7.9411745 -5.2636395 1.2277114 0.9131768 -1.8205595 -2.38755
-4.0178747 -0.26222336 0.072161704 -1.8170017 -0.44022045 -1.4269128 -2.2851267 5.0303764
0.89802885 0.88393676 0.91671264 3.1228561 -1.4241183 -0.74166584 4.040629 -1.9929104
-0.9074236 1.4005942 0.18102461 2.1822217 0.24192289 1.1024722 -2.136935 -0.5173229
-6.9208302 -4.229933 1.0053269 2.9180858 -1.3220465 2.7552848 0.77436924 2.09589
1.4995294 0.91845787 -3.3871136 -2.095622 6.424702 -1.8414073 -1.7239726 0.3419882
1.3155342 -0.24368589 -1.2227385 3.4636426 0.13664788 -0.9963044 0.5811558 -4.04753
-2.2599618 1.8646674 -2.5535283 -0.49212646 0.52817523 1.2669199 -2.3109443 1.773628
0.88759655 3.8627806 1.3736663 -1.181503 -3.5692267 1.026606 -0.35104832 1.3258857
-3.0425038 0.41028327 -2.5527315 0.12813658 0.7625177 1.1677961 -3.6744957 -0.99891984
-0.60692745 -1.8567467 6.6777368 8.037975 -1.3028969 -1.5806979 1.4278479 -3.6177065
-2.8083591 -2.5718703 -0.36775535 -4.187576 4.0033464 -2.0852604 -2.6838388 -1.66645
-4.603708 2.276246 -1.7184714 -2.9209645 2.8584552 2.4939795 2.0141783 -1.5401324
-0.731382 2.201587 4.9403133 1.3532395 2.1414838 -0.36236262 -0.7576405 -0.5131512
1.376252 3.8879476 -1.9140041 -5.6971684 -2.2448125 -0.5285336 0.9888964 0.75541
-0.96837014 0.8673447 -2.342274 1.658582 -6.000914 0.66731876 1.7823551 -4.7504582
2.4002197 -0.9349981 -1.8568404 1.1029739 1.5957751 -1.0600554 0.0907197 -0.43409634
0.38559955 -3.2700312 -1.9166813 -5.363987 -0.53203475 -0.23017931 -0.6424297 -2.0783787
1.0898811 -2.3255217 -0.95064366 -0.52096623 -1.9235158 -3.3409493 1.5541692 4.153744
0.43807888 1.0406499 0.6155636 -3.3241796 0.89028645 0.55330676 2.910067 -1.3276618
-3.2114916 0.20791268 1.8480333 -1.372718 -0.6784837 3.717558 5.357329 2.7889023
00000000: 6ca1 403f 4c9e a83e 623c b9bf 63f5 b440
00000010: 1f33 63c0 a26d 1b40 f96f b9bf 7891 96be
00000020: 1af7 40c0 8d01 c9c0 cefa e4bf 268d 0ac0
00000030: 2ac4 c4bf a9df 0740 f466 223e e6b3 9dbf
00000040: d64b 3e40 86bb 813f fa27 9a40 dc3d a63e
00000050: 1cfe 7140 803f 83c0 e065 f0bf 3eb6 02c0
00000060: 12a0 3340 5d33 87c0 5551 58c0 f2d5 d8bf
00000070: b66d 383f 6ead c63e d852 a840 701f a840
00000080: 6291 2ec0 f645 79bf 9cf1 763f 4354 a140
00000090: 2132 663f 5cae 1cbe b733 a03f 8082 fe3f
000000a0: 7737 f5bf d9bb e2bf ee46 733f 78b4 6e3f
000000b0: 5445 0cbf 3f7e 753f c4ef 9440 b403 3bc0
000000c0: f4ff 3b3f 1679 bdbf 6715 753f efe5 0d40
000000d0: 8076 9640 44e2 ffbe b0bc bdbe 7429 97be
000000e0: ee89 a040 dd64 16bf d3e9 da3f 82c7 d1bf
000000f0: 3bef 89bf 66fd 0640 58ef e6bf e25c c9bf
00000100: 48bc 1ec0 d060 2b40 8cf2 40bf 226f 843f
00000110: 21c2 bf3f 5652 6bc0 2451 1e40 b79a 51c0
00000120: 04b4 8cbf 2c09 70bf bc12 05c0 589d 00c0
00000130: aace 453f d466 81bd 4e70 4ebf 3cc6 7c3f
00000140: b0a4 3e3e 9042 99bd 645b 13bf 07b4 9240
00000150: 6b01 5b40 b094 7840 69de 073f 0e66 f4bf
00000160: 5e3b 1f40 7339 c83f 1a1e fec0 bc6f a8c0
00000170: a625 9d3f f4c5 693f 1808 e9bf 9fcd 18c0
00000180: 6e92 80c0 2442 86be 84c9 933d 8393 e8bf
00000190: 9364 e1be 14a5 b6bf 843f 12c0 d8f8 a040
000001a0: 38e5 653f ae49 623f aead 6a3f e0dc 4740
000001b0: 8249 b6bf d0dd 3dbf d54c 8140 b017 ffbf
000001c0: ea4c 68bf ac46 b33f 845e 393e 85a9 0b40
000001d0: a2ba 773e cf1d 8d3f 8bc3 08c0 466f 04bf
000001e0: 7177 ddc0 9c5b 87c0 8dae 803f ebc1 3a40
000001f0: d238 a9bf 9656 3040 103d 463f 1023 0640
00000200: 94f0 bf3f 0e20 6b3f 78c6 58c0 ac1e 06c0
00000210: 2997 cd40 3cb3 ebbf 22ab dcbf 1419 af3e
00000220: 6d63 a83f cb88 79be b282 9cbf 52ac 5d40
00000230: 6ced 0b3e ce0d 7fbf a0c6 143f 5e85 81c0
00000240: 37a3 10c0 6cad ee3f 026d 23c0 00f8 fbbe
00000250: 7e36 073f 6e2a a23f 83e6 13c0 3e06 e33f
00000260: 8739 633f cc37 7740 4cd4 af3f 7e3b 97bf
00000270: 366e 64c0 d367 833f 9bbc b3be 9fb6 a93f
00000280: 62b8 42c0 a610 d23e f45f 23c0 3c36 033e
00000290: 5c34 433f 587a 953f f02a 6bc0 36b9 7fbf
000002a0: 995f 1bbf e0a9 edbf 05b0 d540 8c9b 0041
000002b0: 53c5 a6bf 4f54 cabf b8c3 b63f 8188 67c0
000002c0: 28bc 33c0 8699 24c0 6e4a bcbe 9f00 86c0
000002d0: 6a1b 8040 e874 05c0 04c4 2bc0 3c4e d5bf
000002e0: 9351 93c0 04ae 1140 dff6 dbbf 15f1 3ac0
000002f0: eef0 3640 5c9d 1f40 4ce8 0040 0f23 c5bf
00000300: da3b 3bbf cde6 0c40 0c17 9e40 f436 ad3f
00000310: 120e 0940 9887 b9be baf4 41bf e15d 03bf
00000320: 0729 b03f 22d4 7840 16fe f4bf 344f b6c0
00000330: 02ab 0fc0 fa4d 07bf 5128 7d3f 8d62 413f
00000340: 1be7 77bf 4d0a 5e3f d1e7 15c0 6a4c d43f
00000350: 7d07 c0c0 67d5 2a3f 3624 e43f c103 98c0
00000360: 339d 1940 095c 6fbf f2ac edbf 402e 8d3f
00000370: 5c42 cc3f e5af 87bf 40cb b93d e041 debe
00000380: 4e6d c53e 3148 51c0 d055 f5bf c8a5 abc0
00000390: 6e33 08bf 20b4 6bbe 4676 24bf 2804 05c0
000003a0: 3981 8b3f 59d5 14c0 625d 73bf 0b5e 05bf
000003b0: c435 f6bf 1dd2 55c0 04ef c63f 79eb 8440
000003c0: e04b e03e 0434 853f 9395 1d3f 5cbf 54c0
000003d0: d0e9 633f 83a5 0d3f 8a3e 3a40 d2f0 a9bf
000003e0: 1489 4dc0 10e7 543e 5b8c ec3f 39b5 afbf
000003f0: 1cb1 2dbf 78ec 6d40 3d6f ab40 607d 3240

2.bias f4 [64]
1.0758928 1.3906235 2.3985388 0.10200918 2.432763 0.60694116 -4.3779 -6.3670635
-6.0374937 -1.0919328 -2.2916253 6.8503647 0.8359923 2.5468373 -0.21697617 0.43735784
-0.44697142 -0.5250447 -0.030306906 -2.3914897 2.120558 0.27588332 1.1181383 -1.2177641
-2.3944511 1.3495624 1.823662 4.9713907 -3.0360117 0.07809031 -1.9678261 -1.3565772
4.3565154 -0.9012122 3.5839734 0.921653 -1.2296057 1.6151993 0.6079986 0.05083847
-0.1983693 -0.37884414 2.4157329 0.8617685 1.2683961 -1.2005095 -3.425518 4.4321737
-3.942972 2.0467584 -2.0579255 0.555575 2.6993191 4.2963386 -1.2829314 -3.060742
-1.1651301 -1.2500018 -3.4661362 -1.8847378 -1.0613577 0.19735408 -0.9111016 0.6665518
00000000: dbb6 893f f3ff b13f a981 1940 30ea d03d
00000010: 64b2 1b40 7f60 1b3f c217 8cc0 fcbe cbc0
00000020: 2633 c1c0 74c4 8bbf fda9 12c0 3036 db40
00000030: 9703 563f 62ff 2240 002f 5ebe 5eed df3e
00000040: 70d9 e4be 5469 06bf 3046 f8bc 2b0e 19c0
00000050: 39b7 0740 9440 8d3e 281f 8f3f b2df 9bbf
00000060: b03e 19c0 76be ac3f c26d e93f a215 9f40
00000070: 044e 42c0 d0ed 9f3d bae1 fbbf 52a4 adbf
00000080: 9368 8b40 d8b5 66bf d25f 6540 73f1 6b3f
00000090: b863 9dbf dabe ce3f cca5 1b3f 003c 503d
000000a0: 5221 4bbe dcf7 c1be 5e9b 1a40 dc9c 5c3f
000000b0: ce5a a23f 4caa 99bf b03b 5bc0 5ed4 8d40
000000c0: a759 7cc0 17fe 0240 0db5 03c0 2a3a 0e3f
000000d0: a5c1 2c40 9b7b 8940 1937 a4bf 32e3 43c0
000000e0: fc22 95bf 0f00 a0bf 2dd5 5dc0 173f f1bf
000000f0: 92da 87bf 3017 4a3e f43d 69bf 24a3 2a3f

4.weight f4 [5, 64]
2.9469123 3.3901997 0.4790808 2.2704902 -2.1858504 -1.0898755 -4.463689 1.7089605
-1.3264083 0.43768764 -2.9706986 -0.97785026 1.0815355 -1.9740094 4.6339726 -2.9100816
-0.45141554 1.1180953 4.7262807 0.62363863 -1.7259274 1.5144218 2.1692145 1.3184029
0.90596074 1.4287118 -3.1086385 0.50058955 -6.0719604 0.28908676 -1.334168 -1.1611879
-4.8775234 -2.0160172 2.4122767 -0.5232288 0.3038981 -0.27203608 -1.7384627 -0.4765892
1.4011259 1.8070731 0.2491974 1.8504694 -5.1937633 0.68530196 -1.2822239 1.2745221
-0.9283945 -2.4289048 0.2115128 -1.3516014 1.5270698 1.6289076 -0.84597516 1.2791115
2.0886152 -1.8992583 -0.893837 -0.43695974 0.95145094 0.8422084 -0.4343441 -1.2815982
-2.6276143 2.0331726 -1.9799249 0.83724934 -0.6507482 -1.6367717 1.6189572 -1.5825145
3.2618818 -1.4546673 -2.7338781 -0.67170763 2.1686583 -2.8138366 -2.57619 -3.2743905
-1.096441 -5.6270075 -3.1543543 -1.2214093 1.5830654 0.6249137 1.110409 -0.83818483
-0.38487667 0.81256807 2.091404 0.84650004 3.633798 -0.036587656 5.532426 -0.22390983
-0.6750862 3.274971 -1.2430406 0.91660047 4.8853683 -1.7733957 -2.201681 -2.5647268
-1.9085039 -1.4276111 2.175029 -0.08590076 1.0765262 -2.396181 3.6229506 -2.4426157
1.8485737 -0.3072434 -2.0243213 1.6006923 0.639701 -0.83459735 0.5820105 -5.076433
-3.414194 -2.4852126 2.3428915 3.5683308 -5.119355 1.077651 2.001815 2.74882
2.2215023 -0.6675893 -3.8663993 0.29053867 -0.38784063 -1.5583901 2.7246807 1.8985815
-1.6312293 0.6906558 1.6107513 1.2228899 0.10733569 2.8159618 0.11218047 -0.6370524
-1.4496639 0.84851635 -1.464758 -6.2254786 1.7269475 5.357895 -2.7158742 1.0462036
1.871166 -1.1310693 -1.2354902 2.8776512 -0.46476543 -0.6863212 -1.3138179 0.6144055
-0.7524349 -0.08734715 0.6944257 0.7447784 -0.88569826 0.77941215 1.5252293 -0.8242729
3.529046 1.2242156 -3.9186537 -3.1373253 -1.1398916 -4.4158545 -0.09142685 4.4584446
-2.7430367 -2.3173146 -4.4532375 1.9169734 -4.172685 0.35121453 -3.1532304 3.8566935
6.2808433 -4.0633035 3.771903 -1.3188484 4.28003 -1.1013806 -1.9588431 -2.4337094
1.2554989 1.7567184 -0.24686691 2.7152948 -0.051360607 -0.63526285 -1.8655974 0.5997093
5.7310944 -2.2310903 0.62093544 1.0399197 2.2496428 2.146844 -1.5886896 -0.9544723
-1.4120569 1.0982504 -3.693352 -1.1076797 -1.9326746 -0.20514119 -1.0066035 1.0461152
-1.459652 -1.2628295 -2.1954527 2.1525187 -0.70994437 4.058529 -1.7727734 -2.658054
-3.0968888 -1.3415909 0.506202 -3.2062485 3.071489 0.556368 -2.5149827 0.18453598
-1.5427151 -0.36654747 2.532858 -3.2273269 -0.6449984 -0.96583486 5.3668857 1.1478264
-0.22609366 2.0802596 -4.570113 -1.8501399 2.9920764 -1.6033285 -3.098277 -1.9574084
-0.531634 -4.966851 -0.6646053 -0.024765376 -0.92003316 -0.15871169 0.21111247 0.048331328
00000000: 369a 3c40 08f9 5840 144a f53e b64f 1140
00000010: f9e4 0bc0 0a81 8bbf 8ad6 8ec0 38bf da3f
00000020: bfc7 a9bf 9818 e03e ed1f 3ec0 6554 7abf
00000030: c16f 8a3f 57ac fcbf 8149 9440 c73e 3ac0
00000040: f01f e7be bf1d 8f3f b13d 9740 c8a6 1f3f
00000050: 30eb dcbf 93d8 c13f 69d4 0a40 6dc1 a83f
00000060: 0bed 673f 07e0 b63f eff3 46c0 a326 003f
00000070: 804d c2c0 2e03 943e 04c6 aabf cea1 94bf
00000080: ac14 9cc0 6d06 01c0 be62 1a40 53f2 05bf
00000090: 8898 9b3e 5048 8bbe f285 debf 8003 f4be
000000a0: 1858 b33f 2c4e e73f 9a2d 7f3e 2edc ec3f
000000b0: 4f33 a6c0 f36f 2f3f ea1f a4bf 8a23 a33f
000000c0: 43ab 6dbf 2d73 1bc0 d096 583e 4601 adbf
000000d0: 0677 c33f 0b80 d03f d491 58bf edb9 a33f
000000e0: dfab 0540 e51a f3bf 80d2 64bf 30b9 dfbe
000000f0: 4a92 733f f89a 573f 5a62 debe 690b a4bf
00000100: d52a 28c0 801f 0240 2e6e fdbf f955 563f
00000110: 6f97 26bf bc81 d1bf fd39 cf3f d68f cabf
00000120: acc2 5040 8a32 babf dcf7 2ec0 08f5 2bbf
00000130: 4ccb 0a40 e615 34c0 4ce0 24c0 9d8f 51c0
00000140: 2e58 8cbf 7210 b4c0 f1e0 49c0 2457 9cbf
00000150: e3a1 ca3f 58fa 1f3f e221 8e3f 4893 56bf
00000160: 8e0e c5be 7604 503f 90d9 0540 3ab4 583f
00000170: 2590 6840 f0dc 15bd a209 b140 9e48 65be
00000180: 73d2 2cbf 2099 5140 f41b 9fbf 54a6 6a3f
00000190: f054 9c40 a1fe e2bf 57e8 0cc0 7c24 24c0
000001a0: db49 f4bf f6bb b6bf ad33 0b40 bdec afbd
000001b0: 9ccb 893f 085b 19c0 6cde 6740 d153 1cc0
000001c0: 109e ec3f 024f 9dbe 7b8e 01c0 7ce3 cc3f
000001d0: 72c3 233f 2ca8 55bf a4fe 143f 2472 a2c0
000001e0: 2882 5ac0 b90d 1fc0 eff1 1540 885f 6440
000001f0: c2d1 a3c0 78f0 893f bd1d 0040 abec 2f40
00000200: 182d 0e40 22e7 2abf 1673 77c0 7cc1 943e
00000210: 0c93 c6be 5479 c7bf 2b61 2e40 b804 f33f
00000220: 1fcc d0bf d2ce 303f 192d ce3f a887 9c3f
00000230: d0d2 db3d b838 3440 e0be e53d de15 23bf
00000240: 968e b9bf 5e38 593f 317d bbbf 1f37 c7c0
00000250: 9e0c dd3f e073 ab40 e2d0 2dc0 00ea 853f
00000260: 5e82 ef3f e1c6 90bf 8b24 9ebf 702b 3840
00000270: bcf5 edbe bfb2 2fbf 2f2b a8bf ae49 1d3f
00000280: 939f 40bf 10e3 b2bd e2c5 313f cca9 3e3f
00000290: 1fbd 62bf 8e87 473f b73a c33f 8c03 53bf
000002a0: e4db 6140 19b3 9c3f 39cb 7ac0 f0c9 48c0
000002b0: f8e7 91bf ae4e 8dc0 003e bbbd 94ab 8e40
000002c0: ea8d 2fc0 e24e 14c0 ec80 8ec0 625f f53f
000002d0: a386 85c0 64d2 b33e 87ce 49c0 11d4 7640
000002e0: abfc c840 9506 82c0 dc66 7140 06d0 a8bf
000002f0: 01f6 8840 0afa 8cbf 5fbb fabf e5c1 1bc0
00000300: 30b4 a03f 26dc e03f aeca 7cbe 64c7 2d40
00000310: 805f 52bd 96a0 22bf e5cb eebf 8c86 193f
00000320: 2065 b740 2fca 0ec0 a0f5 1e3f 171c 853f
00000330: 26fa 0f40 e465 0940 2e5a cbbf 4c58 74bf
00000340: 48be b4bf 7893 8c3f e15f 6cc0 73c8 8dbf
00000350: e261 f7bf 8810 52be 62d8 80bf 1ae7 853f
00000360: e0d5 babf 66a4 a1bf 4c82 0cc0 dec2 0940
00000370: eabe 35bf 78df 8140 3dea e2bf 8f1d 2ac0
00000380: 6d33 46c0 40b9 abbf 7496 013f 2d33 4dc0
00000390: 4793 4440 226e 0e3f 7af5 20c0 00f7 3c3e
000003a0: b077 c5bf 1cac bbbe 581a 2240 868c 4ec0
000003b0: 9d1e 25bf f440 77bf 87bd ab40 faeb 923f
000003c0: 1985 67be f922 0540 5e3e 92c0 62d1 ecbf
000003d0: 2e7e 3f40 de39 cdbf 2c4a 46c0 5c8c fabf
000003e0: 2a19 08bf 72f0 9ec0 9323 2abf c2e0 cabc
000003f0: 4b87 6bbf 5185 22be de2d 583e 12f7 453d

4.bias f4 [5]
0.9813466 2.3248029 -1.4820921 2.6463747 0.72959363
00000000: 8839 7b3f 92c9 1440 32b5 bdbf 345e 2940
00000010: a6c6 3a3f
