demo/experiments/genetic_algorithm/ga_experiment_2021_02_12_160407/problem_35.model (torch, 26149 bytes, 6 tensors)

0.weight f4 [64, 22]
0	0x3f93c583	1.1544651
1	0x3f3a55d5	0.7278722
2	0xbf8106c5	-1.0080191
3	0xbf738482	-0.95124066
4	0x4042c16d	3.0430558
5	0xbfbd83e2	-1.4805872
6	0xc0b3e7f0	-5.6220627
7	0xc02cddf6	-2.7010474
8	0x3edaad83	0.42710504
9	0xc052410a	-3.2852197
10	0xbfbb52f0	-1.4634686
11	0xc02f0b61	-2.7350695
12	0x40760460	3.844017
13	0x3ec0fb50	0.37691736
14	0x405bdc17	3.4353082
15	0xbe7bd470	-0.24592757
16	0xbf3bfdd4	-0.73434186
17	0x3f7b514b	0.9817092
18	0xc00b748d	-2.1789887
19	0xbf7aeff7	-0.9802241
20	0xc03a4f47	-2.9110887
21	0xbfbaebb5	-1.4603182
22	0xc046e7a5	-3.1078885
23	0xbec84c33	-0.39120635
24	0x3eb4df8a	0.35326797
25	0xc00c4d23	-2.192208
26	0xc03b6b83	-2.928437
27	0x3f1d9331	0.6155272
28	0x4077f333	3.8742187
29	0x3f40e1e6	0.75344694
30	0x3f78bda8	0.9716439
31	0x3f6c4d7b	0.92305726
32	0xbfd36aae	-1.6516931
33	0x3ec1e4d2	0.3786989
34	0xbf99ce89	-1.2016155
35	0xc04a6c9e	-3.1628795
36	0x3fe8a9b2	1.8176787
37	0xc02e3834	-2.7221804
38	0xc08dc291	-4.430001
39	0xbea80b28	-0.32821012
40	0x3fa8f7a3	1.3200573
41	0xbfc1726b	-1.5113043
42	0x4008449a	2.129187
43	0xbfbf46d2	-1.4943488
44	0xc052d938	-3.294508
45	0x400942b1	2.1446955
46	0x3ef82aa2	0.48470026
47	0x3f5d170a	0.8636328
48	0xbf9d431e	-1.2286108
49	0xc042adc4	-3.0418558
50	0xc0ad2dad	-5.4118257
51	0x4019ba60	2.4020004
52	0xbfff4a0c	-1.9944472
53	0x3f62a52c	0.8853328
54	0xc02e1f6d	-2.720668
55	0x3fe4a94d	1.7864166
56	0xbff54d9e	-1.9164312
57	0xbfa00d93	-1.2504143
58	0x3fbd0e5d	1.4770008
59	0x3f44b268	0.76834726
60	0xbface9b1	-1.3508817
61	0x401ffc88	2.4997883
62	0xbeb54be8	-0.35409474
63	0x4004dc0c	2.0759306
64	0x4001e24f	2.0294378
65	0x3ff12c9a	1.8841736
66	0xbebd4ae4	-0.369712
67	0xbfee3f25	-1.861302
68	0xbd8e51a0	-0.069491625
69	0xbef99e04	-0.4875337
70	0x3f9d7bb9	1.2303382
71	0x40d4505e	6.6348104
72	0x40b00b78	5.5014
73	0x409ded02	4.9351816
74	0xbeb42c4c	-0.35190046
75	0x3f786fdb	0.9704568
76	0xc0935d4e	-4.6051397
77	0x3d02a2d8	0.03189358
78	0x40160eb8	2.3446484
79	0x40b064b8	5.512295
80	0xbf515628	-0.8177209
81	0x40ba9d05	5.8316674
82	0xbda7c3f4	-0.08191672
83	0xc014af82	-2.3232121
84	0x3fa4af7e	1.2866056
85	0x4031298d	2.768161
86	0x3ff7fa03	1.9373173
87	0xbfa2a8f9	-1.2707816
88	0xbf3eb272	-0.74491036
89	0x40a8db31	5.276757
90	0x401eb1fe	2.4796138
91	0xbe36c3ac	-0.1784808
92	0x4078da9f	3.8883436
93	0x3fc4df1c	1.5380588
94	0x3e9f9dd5	0.31175104
95	0xbe9a6df1	-0.30162004
96	0x3e344ef1	0.17608239
97	0x3f391658	0.7229972
98	0x3fa049dc	1.252254
99	0xbf64fba1	-0.89446455
100	0x3e27452c	0.1633498
101	0x40386030	2.8808708
102	0x3f9af8f7	1.2107228
103	0xc06c2908	-3.6900043
104	0x4040fda2	3.0154805
105	0x410e25e1	8.884248
106	0x3f6f7d32	0.9355041
107	0xbf85937d	-1.0435635
108	0x3f42945e	0.7600764
109	0x4025734d	2.5851624
110	0xbe24f864	-0.16110379
111	0x3f54b1c4	0.8308375
112	0xbe0e73ae	-0.13911316
113	0xbfbd9be2	-1.4813197
114	0xbeb5e380	-0.3552513
115	0x3fe6c870	1.8029919
116	0xbed64454	-0.41849005
117	0xc0e7c900	-7.243286
118	0x3f04b069	0.5183168
119	0xbf1ae32e	-0.605029
120	0x401338dc	2.3003454
121	0x400e936c	2.227748
122	0xbf7d67ec	-0.989867
123	0x3f08b8c6	0.5340694
124	0xbe9eb8c2	-0.31000334
125	0xc03993be	-2.8996425
126	0x4013e36a	2.3107553
127	0x4080e3da	4.027814
128	0x3fea43ff	1.8302001
129	0x403ca765	2.947717
130	0x3f659ce3	0.89692515
131	0x3f0e4776	0.5557779
132	0xc011beea	-2.2772775
133	0x3ec1a466	0.3782074
134	0xbef70c3c	-0.48251522
135	0xc037d85c	-2.8725805
136	0xbffbec8a	-1.9681561
137	0xbf257f6a	-0.64647543
138	0xbfa8a994	-1.3176751
139	0xbf679147	-0.9045605
140	0xbfcc4bd2	-1.5960639
141	0x4028c2cd	2.6368897
142	0xbfaa3bea	-1.3299534
143	0xc0639613	-3.5560348
144	0x40235f4e	2.552692
145	0x3f7d35c4	0.98910165
146	0xbf9f5e0b	-1.2450575
147	0xc0290187	-2.6407182
148	0x3fad7c30	1.3553524
149	0xbf9f206a	-1.2431767
150	0x4065938b	3.5871303
151	0x3f0bd62f	0.54623693
152	0x3f1542fc	0.58305335
153	0xbf998db0	-1.1996365
154	0xc001d93c	-2.028884
155	0x407eec75	3.9831822
156	0xc05b3634	-3.4251833
157	0xc0243ab1	-2.5660822
158	0xbfb94a8b	-1.4475874
159	0xc010403a	-2.25392
160	0x3f6f20ba	0.9340931
161	0xbf4ad0dc	-0.79224944
162	0xc077532c	-3.8644514
163	0x3fd2876b	1.6447576
164	0x400b26a6	2.174234
165	0xbff3c589	-1.9044658
166	0xc0035daa	-2.0525918
167	0x3f3dabd8	0.7409034
168	0xbf2a67a8	-0.66564417
169	0xbe15fb5d	-0.14646669
170	0xc019d726	-2.4037566
171	0x4014541c	2.3176336
172	0x406de973	3.7173736
173	0xbf765972	-0.9623023
174	0xbfaad69e	-1.3346746
175	0x40458fb4	3.086896
176	0x3fc7120e	1.5552385
177	0xc073b51d	-3.8079293
178	0x408e1f71	4.441338
179	0x3fd1c0c7	1.6386956
180	0x400a228d	2.1583588
181	0x40fa246b	7.8169456
182	0xbfd53e98	-1.6659727
183	0xc051b4d4	-3.2766619
184	0xc01cf78e	-2.4526095
185	0x40365110	2.8486977
186	0x3f8fb075	1.1225725
187	0x3fbef5fe	1.4918821
188	0x3f525706	0.8216404
189	0xbe21c5e6	-0.15798149
190	0xbf28d7ea	-0.6595446
191	0x3fa75042	1.3071368
192	0x3fcd8f74	1.6059403
193	0xc0d8a037	-6.7695575
194	0xbfad2132	-1.3525755
195	0x3f7d2c9d	0.988962
196	0xc04e3296	-3.2218375
197	0x4006d7cb	2.106921
198	0xbf9de030	-1.2334042
199	0xbf0bb030	-0.54565716
200	0x4057dfb4	3.3730288
201	0x403306c7	2.7972887
202	0x3ec6f22e	0.38856643
203	0x3da06220	0.07831216
204	0xbfca3a58	-1.5799055
205	0xbefefc10	-0.49801683
206	0x3bcd61d0	0.0062677637
207	0x3e09f592	0.13472584
208	0xbf141ded	-0.57858163
209	0x40295375	2.6457188
210	0x3f884aa3	1.0647777
211	0xc01881e0	-2.382927
212	0xbf9e4367	-1.236432
213	0x3fc8b8c9	1.5681392
214	0xbfdaa186	-1.7080543
215	0x3f5a4232	0.85257256
216	0xc0907e74	-4.515436
217	0x40034269	2.0509284
218	0x409f1457	4.971233
219	0x3ee5c5cf	0.44877478
220	0xc09cf4a8	-4.9048653
221	0xc06d32e4	-3.706231
222	0x3fc3cdf4	1.5297227
223	0x3f8b902c	1.0903373
224	0x400015eb	2.0013378
225	0xc035ce00	-2.8406982
226	0x3ca731d0	0.020409495
227	0xc02b17bc	-2.6733236
228	0xbf487af5	-0.7831262
229	0xbfdfb72b	-1.7477773
230	0xc0b0a5e4	-5.5202503
231	0xc0acd75f	-5.4012904
232	0xbf95f4cd	-1.1715332
233	0x3fab8384	1.339951
234	0xbffe0800	-1.9846191
235	0xc07fedf5	-3.9988987
236	0xbfd027be	-1.6262128
237	0x404912d8	3.1417751
238	0xbf2d89a4	-0.6778815
239	0x3e55aa2a	0.20865694
240	0xbf35dedf	-0.710432
241	0xc0a9d504	-5.307253
242	0xc0998d68	-4.7985115
243	0xbf5112f2	-0.81669533
244	0x4062247a	3.5334764
245	0x3b943f00	0.0045241117
246	0xbf69c19a	-0.9131104
247	0x3effc1d2	0.4995256
248	0x3f45d27e	0.7727431
249	0xbedeed7e	-0.43540567
250	0x3e80f8c4	0.25189793
251	0xc09ba2d2	-4.8636255
252	0xbf34bc16	-0.70599496
253	0xbfff56ae	-1.9948328
254	0xbeb2c260	-0.3491392
255	0xc0389e54	-2.8846636

0.bias f4 [64]
0	0xbf92bfb1	-1.146475
1	0xbefa0aa9	-0.48836258
2	0x403a9ff7	2.9160135
3	0x4096b2a8	4.7093086
4	0x3f25eb00	0.64811707
5	0x40668684	3.6019602
6	0xc01ec58d	-2.4808075
7	0x4001f094	2.0303087
8	0x3f8c248a	1.0948651
9	0x4009c72f	2.1527822
10	0x3fbfc68c	1.4982467
11	0x3f119d9b	0.5688111
12	0xc00b4b99	-2.176489
13	0xbf38220c	-0.7192695
14	0x402a2f4a	2.6591363
15	0xc03c5ace	-2.9430423
16	0xbf9b3e20	-1.2128334
17	0x402d150c	2.7044096
18	0x409e7662	4.951951
19	0xbf01ac94	-0.5065396
20	0x404afbaf	3.1716115
21	0x3e40a3e0	0.18812513
22	0x40961eda	4.691266
23	0xc03c5930	-2.9429436
24	0xc080c0c6	-4.023532
25	0x4049ab67	3.1510866
26	0x3f63ae5f	0.88937944
27	0xbfb98580	-1.4493866
28	0xc039a3d0	-2.9006233
29	0x3fd28646	1.6447227
30	0xc03351d4	-2.8018694
31	0xc073ab92	-3.8073468
32	0xbd76e7a0	-0.06027949
33	0x3f94ef6a	1.1635563
34	0xc053c359	-3.308798
35	0xbfb5a396	-1.4190547
36	0xc0043768	-2.0658817
37	0xc03d873c	-2.961379
38	0xc0ae5cca	-5.448827
39	0x3f3cdefd	0.73777753
40	0xc074ea8a	-3.8268151
41	0x3e687ad8	0.22703111
42	0x3dc37e1c	0.09545538
43	0x3d9f4dc0	0.077785015
44	0xbe9f6078	-0.31128287
45	0x3fc16f5d	1.511211
46	0xc03df73c	-2.968215
47	0xc0500ccf	-3.2507818
48	0x40819b8a	4.0502367
49	0x400098c2	2.0093236
50	0x3f96a22e	1.1768243
51	0xbfa2770b	-1.2692579
52	0xbfadbbea	-1.3572972
53	0xc04cafae	-3.1982226
54	0x408890e2	4.267686
55	0x3fec17af	1.8444728
56	0x4008a448	2.135027
57	0x409d7304	4.92029
58	0xbf83f1d4	-1.0308175
59	0x3fb0b867	1.3806275
60	0xbe29e918	-0.16592824
61	0x3c40f6d4	0.011777598
62	0x403d37fa	2.9565415
63	0x3ff9664c	1.9484344

2.weight f4 [64, 64]
0	0x408e3557	4.444011
1	0xbff4b978	-1.91191
2	0x3f94f2a6	1.163655
3	0x3fc16598	1.5109129
4	0x3ea52598	0.32255244
5	0xbeaaed1d	-0.33384028
6	0x3f87b436	1.0601871
7	0x3f03bc7e	0.5145949
8	0x402f226e	2.7364764
9	0xbf3ac276	-0.72952974
10	0x4051fe4c	3.281146
11	0x40366f68	2.8505497
12	0xc060f186	-3.5147414
13	0x3e916608	0.28398156
14	0x3fb13120	1.3843117
15	0xc0186380	-2.381073
16	0xbf8b102a	-1.0864308
17	0xc0586bbc	-3.3815756
18	0xbf701682	-0.93784344
19	0x406b31fa	3.6749253
20	0x3fc51b50	1.539896
21	0xbf13a48a	-0.5767294
22	0x4031276a	2.7680306
23	0xbdebb0ce	-0.11508332
24	0x3ebce8ca	0.36896354
25	0x3da0e16c	0.07855496
26	0xbfe19ad3	-1.7625374
27	0x3e957402	0.2919007
28	0x40010f20	2.0165482
29	0x3fce7e79	1.6132346
30	0xc0923e4a	-4.5701036
31	0xbddec2dc	-0.1087701
32	0xc068c688	-3.6371174
33	0xbecf2964	-0.40461266
34	0xbe5d9370	-0.21638274
35	0x3fa363b5	1.2764803
36	0x3fa7955a	1.3092453
37	0xbf2007c8	-0.62511873
38	0x3ead7e1f	0.33885285
39	0x3ed965cc	0.42460477
40	0xbe0ddc20	-0.13853502
41	0x40107969	2.2574103
42	0xbf80bd49	-1.0057765
43	0xbf5b548d	-0.8567589
44	0x3fa21ef2	1.2665694
45	0x3f059d35	0.52193004
46	0x3f440006	0.76562536
47	0xc022f1ea	-2.5460153
48	0xbf29d569	-0.66341263
49	0xbd6060a0	-0.05477965
50	0xbda2a33b	-0.0794129
51	0x4012c2c9	2.2931387
52	0xbfe25992	-1.7683585
53	0xc095f1ea	-4.6857805
54	0x4062fa4b	3.5465267
55	0x3fd08a48	1.62922
56	0x3f87eb59	1.0618697
57	0xbfe97df4	-1.8241563
58	0xc0571a27	-3.3609712
59	0x3f4604ec	0.7735126
60	0xbf35d1ce	-0.7102326
61	0x3f299ab0	0.6625166
62	0x40796286	3.8966384
63	0x3e7f23d4	0.24916011
64	0x401f4c12	2.489018
65	0x3f1c8905	0.61146575
66	0xbfe4fc76	-1.7889545
67	0x3f2435d2	0.64144623
68	0xc082ba26	-4.085223
69	0xbfe1117c	-1.7583461
70	0x3facd077	1.3501118
71	0x4005c77d	2.0903008
72	0xc0496f3b	-3.147414
73	0xbf867a73	-1.0506119
74	0x3edea048	0.4348166
75	0x3fa41892	1.2819998
76	0xc087d54e	-4.244788
77	0x3ebf0798	0.3731048
78	0xbf51d84b	-0.8197066
79	0xbc896940	-0.01677382
80	0x3f47eea2	0.780985
81	0x3efd8d35	0.49521795
82	0xc0c2fa00	-6.0930176
83	0x3f6ec5a6	0.9327034
84	0x409da792	4.9267054
85	0x4019b407	2.401613
86	0xbf148cd4	-0.58027387
87	0xc0bc6bfe	-5.8881826
88	0xbf85380d	-1.040773
89	0xbf17e5a4	-0.5933478
90	0x404194a3	3.024697
91	0xbf181dda	-0.5942055
92	0xbfdf10a2	-1.7426951
93	0xbfe1544f	-1.7603854
94	0xbf6c7d0e	-0.9237832
95	0x3ebdcf58	0.37072253
96	0x403cc0c9	2.9492667
97	0xbf18e7c1	-0.5972863
98	0x3f7c0706	0.98448217
99	0xc02acf7a	-2.6689134
100	0xc02cc22f	-2.699352
101	0x3ef0cbfd	0.4703063
102	0x3ff210c2	1.8911364
103	0x3e7aa9d2	0.24478844
104	0xc0e15339	-7.041409
105	0xc0896771	-4.293877
106	0xc00342bc	-2.0509481
107	0xbfb935f0	-1.4469585
108	0x3d966b20	0.07344651
109	0x3fdbaad8	1.7161512
110	0x40023f67	2.0351198
111	0x409904c4	4.7818317
112	0xbee51c04	-0.44747937
113	0x3e49d230	0.19709086
114	0x407c8b7c	3.9460135
115	0xc0373298	-2.862463
116	0x4007d093	2.1221054
117	0x40acf0ca	5.404393
118	0x3ca2c5c0	0.019869685
119	0x3f730856	0.94934595
120	0xc02ef386	-2.7336135
121	0x3e1bf9b0	0.15231967
122	0xc08d4bc4	-4.4154987
123	0xbff02944	-1.8762593
124	0x3fee1b20	1.8602028
125	0x3f888c4a	1.0667813
126	0x3de48fd8	0.111602485
127	0x3fc988da	1.5744889
128	0xbf264d62	-0.64961827
129	0x3fd52d57	1.6654462
130	0xbfcb92ab	-1.5904135
131	0x406e1576	3.7200599
132	0xbea24040	-0.31689644
133	0x3f89deba	1.0771096
134	0x401f1e02	2.4862065
135	0xbfa66575	-1.2999712
136	0xbff4e1ba	-1.9131386
137	0x3dc71040	0.09719896
138	0xbf3613d4	-0.71124005
139	0x40589a2c	3.38441
140	0xc05ce39b	-3.451392
141	0xbf8a2c61	-1.0794793
142	0x3facc83a	1.3498604
143	0x3ff7f0b9	1.9370338
144	0xc0382016	-2.8769584
145	0xbfc55d8c	-1.5419173
146	0x3f75da84	0.96036553
147	0x3e88cecd	0.26720276
148	0xc01c8d64	-2.4461298
149	0x3fac29d2	1.3450263
150	0x3ffbbf96	1.9667842
151	0x3eb383a4	0.3506137
152	0x40800298	4.0003166
153	0xbf9671eb	-1.1753515
154	0x3f9453d0	1.1588078
155	0x3f81d514	1.0143151
156	0x40625483	3.5364082
157	0xbfe70852	-1.8049414
158	0x3f3d5acd	0.73966676
159	0xc0807294	-4.0139866
160	0xbfb18013	-1.386721
161	0x3fca466a	1.5802739
162	0x4084a485	4.145083
163	0xbf10f6f6	-0.5662683
164	0xbfe800e4	-1.8125272
165	0x3fbea92d	1.4895378
166	0xbfdda850	-1.731699
167	0xbf7c6d7f	-0.9860458
168	0xc009dfc8	-2.1542835
169	0xc06db1f2	-3.713986
170	0x3f53ecda	0.8278328
171	0x3fcb05c7	1.5861138
172	0x3fbb0ee4	1.4613919
173	0xbecfc386	-0.4057886
174	0xc0296776	-2.6469398
175	0xbe8099c0	-0.25117302
176	0x3edbd78b	0.42937884
177	0x3ef48b0c	0.47762334
178	0x40097801	2.1479495
179	0x408814d1	4.252541
180	0xc06072b9	-3.507002
181	0x3f8c2fbc	1.0952067
182	0xbf24054c	-0.6407058
183	0xbf05a448	-0.522038
184	0x400c4278	2.191557
185	0x3f175b1e	0.5912341
186	0x4004b045	2.0732586
187	0x3fd56994	1.6672845
188	0xc0e41b87	-7.1283603
189	0xc07e2eb0	-3.9715996
190	0x4016eebc	2.3583212
191	0x4017e14a	2.3731256
192	0x40121f14	2.2831469
193	0xbff46908	-1.9094553
194	0xbffd772e	-1.9801996
195	0xc065f746	-3.5932174
196	0xc03b1615	-2.9232228
197	0xbf2d1e36	-0.67624223
198	0xbe6e5ecc	-0.2327835
199	0x407f6d7a	3.991057
200	0xc0f73e6d	-7.7263703
201	0xbf4d7fea	-0.80273306
202	0xc0ea6747	-7.325107
203	0x3fe9594a	1.8230374
204	0xc10afc58	-8.686607
205	0x3f0d5db2	0.5522109
206	0x40192990	2.3931618
207	0x402e9f5e	2.728477
208	0x3eafd064	0.34338677
209	0xbfc65448	-1.5494471
210	0x3f9d0df6	1.2269886
211	0x40cc9a79	6.3938565
212	0x3fc04cee	1.5023477
213	0xc02c477f	-2.6918638
214	0xbf55f4a9	-0.83576447
215	0x3fa84b86	1.3148048
216	0x3f0811ea	0.53152335
217	0xc0535f95	-3.3027089
218	0x403f5d05	2.9900525
219	0xc007b608	-2.1204853
220	0x3f68b9a6	0.9090828
221	0x3fcc0164	1.5937924
222	0xbfeea156	-1.8642986
223	0xbfc80f88	-1.562974
224	0xc05f4d34	-3.489087
225	0x402317ea	2.5483346
226	0xbfb9c390	-1.4512806
227	0xbe06bc18	-0.1315769
228	0xc0018249	-2.023577
229	0x3fbdd8a6	1.4831741
230	0x3e7be38c	0.24598521
231	0xc09fce66	-4.993945
232	0xc05db425	-3.4641201
233	0xbf180f82	-0.59398663
234	0x3f2acc54	0.6671803
235	0xc03fa24a	-2.9942803
236	0xc003acb0	-2.057415
237	0xc00b3774	-2.1752596
238	0xc04113dd	-3.0168374
239	0x402f4cf2	2.7390714
240	0x4098ec48	4.778843
241	0xbd13e640	-0.036108255
242	0xbed87e48	-0.42283845
243	0xbf233ac5	-0.6376155
244	0xbfc32a2a	-1.5247242
245	0xbeaca450	-0.3371911
246	0xbe7ac196	-0.2448791
247	0x3deac531	0.114633925
248	0xc09eebf7	-4.9663043
249	0xbe4872a8	-0.19574988
250	0x3f4334bf	0.7625236
251	0x3e616e98	0.22014844
252	0xbefd62ca	-0.49489433
253	0xbfa921c9	-1.3213435
254	0x40237562	2.5540395
255	0xbf2f8f2a	-0.68577826

2.bias f4 [64]
0	0x3eed82f8	0.46388984
1	0x402c74c6	2.6946273
2	0xbfe832d0	-1.8140507
3	0x40455298	3.0831661
4	0xc006e009	-2.107424
5	0x3fc66258	1.5498762
6	0xbf9dbcf0	-1.2323284
7	0x3fc6ba3a	1.5525582
8	0xbfce4014	-1.6113305
9	0xbfd445ad	-1.6583763
10	0x404acca1	3.1687396
11	0x3fac65a2	1.3468516
12	0x4097988a	4.7373705
13	0xc01dbfc2	-2.464829
14	0xc0a65767	-5.198169
15	0xbba8b780	-0.005148828
16	0x40807f88	4.015568
17	0x3fae1b8d	1.3602158
18	0x3f046716	0.51719797
19	0xc013e62c	-2.3109236
20	0x3eb6de5e	0.35716528
21	0x3f76c516	0.9639448
22	0xbd520240	-0.051271677
23	0x4011a19e	2.2754893
24	0xbfb50231	-1.4141294
25	0x3fc54ea4	1.5414624
26	0x3ef0755e	0.46964544
27	0xbf85f313	-1.0464805
28	0x3facffc7	1.3515557
29	0xbe3ddc04	-0.1854096
30	0xbe974112	-0.29541832
31	0x404d2a47	3.2057054
32	0x40575e7a	3.3651414
33	0x3f8e4eea	1.1117833
34	0xc05ded2b	-3.4676006
35	0xbfa26d69	-1.2689639
36	0x4086efdd	4.21678
37	0x3fb6750d	1.4254471
38	0x40247ce1	2.570122
39	0xc08f75b4	-4.483118
40	0xbfcad43c	-1.5846019
41	0x3ed81c7c	0.42209232
42	0xbe9f731a	-0.31142503
43	0xbf1e4270	-0.61820126
44	0x3f9d1c86	1.227433
45	0x3ee5791c	0.44818962
46	0x3fbcf2c6	1.4761589
47	0xc005d669	-2.0912116
48	0xbf9e6631	-1.2374936
49	0xc0759fda	-3.8378816
50	0xbf858f5a	-1.0434372
51	0x3fd29d28	1.645421
52	0xbe8ef17e	-0.2791862
53	0x3ef53276	0.4789006
54	0xc0505344	-3.2550821
55	0x4030b09e	2.7607799
56	0xc01273ab	-2.2883098
57	0xbe87fbec	-0.2655939
58	0x4002e8ba	2.0454545
59	0x3f1e69bc	0.6188009
60	0xbec7acca	-0.38999015
61	0xc0ab967f	-5.362121
62	0xc049df5c	-3.1542578
63	0xc0a881ef	-5.265861

4.weight f4 [5, 64]
0	0xc0253637	-2.581434
1	0xc0af4c5e	-5.478072
2	0xc0000873	-2.0005157
3	0x405452d8	3.3175564
4	0x4018c2ab	2.3868816
5	0xbfc96884	-1.5735021
6	0xc05620d2	-3.3457532
7	0xc020f5ca	-2.5150018
8	0x40852c39	4.1616483
9	0x3f4bb172	0.79567635
10	0x3eaec2f0	0.341331
11	0xbfb4edc1	-1.4135057
12	0x407a21a0	3.9083023
13	0xbeaafdf8	-0.33396888
14	0xc017e737	-2.3734872
15	0xc0df3616	-6.9753523
16	0x3e63877c	0.22219652
17	0xbf9034a2	-1.1266062
18	0x3eb74df0	0.3580165
19	0xc027b55c	-2.6204443
20	0x4081ddba	4.058316
21	0x4075e633	3.8421752
22	0xbe96b038	-0.2943132
23	0x3fbb765c	1.4645495
24	0x3e3459db	0.17612402
25	0x3e3bbb5c	0.1833319
26	0x3fd813ba	1.688102
27	0x3f0209d3	0.5079624
28	0xbe9f654f	-0.3113198
29	0x3f34f8ce	0.70692146
30	0xc064a3c6	-3.572496
31	0x3f9eba8e	1.2400682
32	0xc069c7ae	-3.6528125
33	0xbfe854a0	-1.8150826
34	0x40226ad3	2.53777
35	0x405b57e4	3.4272394
36	0xc098faa4	-4.780596
37	0xc06d56a0	-3.7084122
38	0x3efd524e	0.49476856
39	0x3fe7c93f	1.810829
40	0x4034d612	2.8255658
41	0x3cef61a0	0.029221356
42	0x40f30620	7.5944977
43	0x3e59bec0	0.21264172
44	0x3eed87fe	0.46392816
45	0xbf2d3bd8	-0.6766944
46	0x3d958f07	0.07302671
47	0xbfdf891f	-1.7463721
48	0xbfd98467	-1.6993531
49	0x408f70f4	4.482538
50	0xc01ba556	-2.4319663
51	0xbfb221db	-1.3916582
52	0xc042b39a	-3.042212
53	0xc089cd45	-4.3063073
54	0x3e9ca45c	0.30594146
55	0xc0196c50	-2.3972359
56	0xbffbc683	-1.9669956
57	0xbf21b875	-0.63172084
58	0xbf9f93c4	-1.246697
59	0x3fa7cb46	1.3108909
60	0x3dbf6e38	0.093471944
61	0xbfe925c8	-1.8214655
62	0x3f97d2ad	1.1861168
63	0xbff98c40	-1.9495926
64	0x3fbeb373	1.4898514
65	0xc0312312	-2.7677655
66	0x40524961	3.2857287
67	0x40e19933	7.049951
68	0x3eefac90	0.46811342
69	0x40695c6c	3.646266
70	0xc03b9035	-2.9306767
71	0xbf1765f2	-0.5913993
72	0xbf3aa96c	-0.7291477
73	0x40a50c15	5.157725
74	0xbfd7498e	-1.6819322
75	0xc079b33a	-3.9015641
76	0x40b3117c	5.5958843
77	0x3f3e1930	0.74257183
78	0x3edb5768	0.42840123
79	0xc096f791	-4.7177205
80	0xc00e8f0a	-2.2274804
81	0xbf89db97	-1.0770139
82	0x3fbac0d3	1.4590095
83	0xbf85c9a7	-1.0452164
84	0x408e9596	4.45576
85	0xbfe0b696	-1.7555721
86	0x4001da8c	2.028964
87	0x3fca4763	1.5803035
88	0xbdc82670	-0.09772956
89	0xc09d0b78	-4.90765
90	0x3eec0c2c	0.46103036
91	0xc044d5bf	-3.075546
92	0x400ddda5	2.216653
93	0xc0548b2d	-3.3209946
94	0x3ff631ac	1.9233909
95	0xbecf568a	-0.40495712
96	0x3e72c9b0	0.2370975
97	0x3f5f6c46	0.8727459
98	0xbd6f99a0	-0.058496118
99	0xbff1ad41	-1.8880998
100	0xbe372360	-0.17884588
101	0x3e9a7f1e	0.30175108
102	0xc03f754a	-2.9915338
103	0x4029df6e	2.654262
104	0xbfa2ed11	-1.2728597
105	0xbf9eef6e	-1.2416818
106	0x40a1a7be	5.0517263
107	0x406a32a9	3.659342
108	0xbfa3a7ad	-1.2785546
109	0xc00f9870	-2.243679
110	0x3efe2052	0.49634033
111	0x3e3ddcfe	0.18541333
112	0x3fcd16bc	1.6022563
113	0xbf77806b	-0.96680325
114	0xbf8359bc	-1.026176
115	0x3fb3320e	1.399965
116	0xbfbd7ec2	-1.4804308
117	0xbf67abc2	-0.90496457
118	0xc00b6502	-2.17804
119	0xc0a59754	-5.1747227
120	0xc069abcd	-3.651111
121	0x40c0cd69	6.0250745
122	0xc0641e4a	-3.5643487
123	0x3f0fa6e6	0.5611404
124	0xc0788192	-3.8829083
125	0xbf5f8867	-0.8731751
126	0xc01ca770	-2.4477196
127	0x3f8e180e	1.1101091
128	0xbfe9fdd0	-1.8280582
129	0x3fa613d6	1.2974803
130	0x3fd0cd3f	1.6312636
131	0xc0479f16	-3.1190848
132	0xc0284f41	-2.6298373
133	0xbfdf09cc	-1.7424865
134	0x3f18c98c	0.59682536
135	0x3f935db4	1.1512971
136	0xbfdf54c6	-1.7447746
137	0xc0afe4b6	-5.496669
138	0x3fd099c1	1.6296922
139	0xbef8cbfd	-0.4859313
140	0xbf29b77a	-0.6629559
141	0xc096347d	-4.6939073
142	0xbf24af36	-0.6432985
143	0xc0821a3e	-4.0657034
144	0x4055e6d6	3.342214
145	0xbfa74da1	-1.3070565
146	0x3f971748	1.180398
147	0x3f8b3a26	1.087712
148	0xc047fca6	-3.1247954
149	0xbfda7145	-1.7065817
150	0xc01a6464	-2.4123774
151	0xbfb09414	-1.379519
152	0xbf15bdfe	-0.5849303
153	0xbfd6d63a	-1.6784127
154	0x4001de87	2.029207
155	0x4006d9e8	2.10705
156	0x400663bd	2.0998375
157	0x3f802434	1.0011048
158	0x3fba7b4e	1.456888
159	0xbf7e0da4	-0.99239564
160	0xbe7617c0	-0.24032497
161	0x3f4c0bfd	0.7970579
162	0x3f821ebf	1.0165633
163	0xc018896c	-2.3833876
164	0x3f95a1be	1.1689985
165	0x3f57b8c8	0.8426633
166	0x40138963	2.3052604
167	0x3f9f0efd	1.2426449
168	0x4036198f	2.84531
169	0xbf099126	-0.53737104
170	0x3ea2666e	0.31718773
171	0xbe52edd0	-0.20598531
172	0x40386364	2.8810663
173	0xbfbc328a	-1.4702923
174	0x3f96fee1	1.1796533
175	0xc07f3c95	-3.9880726
176	0xbdc83940	-0.097765446
177	0x404366bc	3.0531454
178	0xbed3df96	-0.4138152
179	0x3f1ea114	0.61964536
180	0xbed12e57	-0.40855667
181	0x3fb2358c	1.3922591
182	0x402d2c39	2.7058241
183	0x3e6f54b0	0.2337215
184	0x400057ec	2.0053663
185	0xc0133322	-2.299996
186	0xbff22740	-1.8918228
187	0x40c11376	6.0336256
188	0xc096acd3	-4.7085967
189	0x3f6b1080	0.9182205
190	0xc097dea0	-4.745926
191	0xbec84a07	-0.39118978
192	0xc034b1cc	-2.8233519
193	0xc024ea08	-2.5767841
194	0x3f708de2	0.93966496
195	0x409a2274	4.8167057
196	0xbfb373ce	-1.4019716
197	0xbfe840c5	-1.8144766
198	0x3fd61587	1.672532
199	0xc02d68ab	-2.7095134
200	0xbef738d6	-0.4828555
201	0x4015d12f	2.3408926
202	0xbfa25707	-1.2682809
203	0x4094f57c	4.6549664
204	0x402cd8c5	2.7007306
205	0xbf9beb53	-1.218119
206	0xbf024afb	-0.5089566
207	0xc07c9f24	-3.9472132
208	0xbeb249cb	-0.34821925
209	0xc01c21bc	-2.439559
210	0x401f1eb2	2.4862485
211	0xbf2ee4f4	-0.68318105
212	0xbe8d5817	-0.2760627
213	0xbf216839	-0.63049656
214	0x40232aed	2.549495
215	0xbf2b9a46	-0.6703228
216	0xbfef02da	-1.8672745
217	0x3f83341a	1.0250275
218	0x402cbc36	2.6989875
219	0xc0285177	-2.6299722
220	0xbd827500	-0.06369972
221	0xbfb91722	-1.4460185
222	0x3fae35d8	1.3610182
223	0xc0329c71	-2.7907984
224	0x401ad280	2.419098
225	0x3f09c643	0.5381815
226	0x4007b5cf	2.1204717
227	0xc00b2a02	-2.174439
228	0xbf9c9f8b	-1.2236189
229	0xbfa50fa0	-1.2895393
230	0xc03a5f4e	-2.912067
231	0xbe188e58	-0.1489805
232	0xbf59037e	-0.84770954
233	0x401b1a5c	2.4234838
234	0xc085e95a	-4.1847353
235	0x404badb2	3.1824765
236	0x3f0a1e90	0.53952885
237	0x3fb9c0e5	1.4511992
238	0x3fbac40f	1.4591082
239	0x3fc23d3b	1.5174936
240	0xc0faa81d	-7.8330216
241	0xbfc443e4	-1.5333219
242	0x3fc66055	1.5498148
243	0xbfaa543b	-1.3306955
244	0xc0a5db32	-5.1830072
245	0xbfc8b002	-1.5678713
246	0xbe57d050	-0.21075559
247	0x3e9bc792	0.30425698
248	0xc00967c1	-2.1469576
249	0xbfef064b	-1.8673795
250	0xbdea74ac	-0.11448035
251	0xbf0c4f6f	-0.54808706
252	0x404dbb1d	3.2145455
253	0x3f5c7c46	0.86127126
254	0x3cdcb580	0.026942015
255	0xbfb7b2c4	-1.435143

4.bias f4 [5]
0	0x3f8664bc	1.0499492
1	0x3c997340	0.018731713
2	0xbf48d487	-0.7844929
3	0x3fd108b7	1.6330785
4	0xbf958aab	-1.1682943
