demo/experiments/genetic_algorithm/ga_experiment_2021_02_12_160407/problem_36.model (torch, 26149 bytes, 6 tensors)

0.weight f4 [64, 22]
000000 20 bc e5 3c 18 f2 07 40 61 54 f2 3f 06 df 87 c0
       0.028043807 2.1241512 1.8932 -4.2459745
000010 8f b9 13 be 00 e6 cc 3d 81 e9 42 be 28 a4 6e 3f
       -0.14426254 0.100048065 -0.19034387 0.9321923
000020 f7 b9 03 c0 b2 51 c0 bf 06 68 45 40 cb 45 2b 3f
       -2.0582254 -1.5024931 3.084474 0.6690337
000030 16 ef 94 be 40 97 d3 3f aa da 9f 3f f3 f3 35 c0
       -0.29088658 1.6530533 1.2488606 -2.8430145
000040 8e a1 89 3f 1c a6 9e bd a9 e0 bc 40 14 2f 7e 40
       1.0752428 -0.077465266 5.9024243 3.9716234
000050 7e af f8 3e 10 d0 07 3f 68 2f 82 3e 27 97 e1 be
       0.4857139 0.53051853 0.25426793 -0.44060633
000060 15 7e 85 c0 a4 d2 79 c0 a9 21 2d c0 b8 30 a2 bd
       -4.171641 -3.9034815 -2.7051795 -0.079194486
000070 ed 07 97 bf 7a d1 a0 bf 5c 57 00 bf f7 55 2d 40
       -1.1799294 -1.2563927 -0.501333 2.7083719
000080 70 3c 49 bf d1 91 af 3f e4 f5 1f 40 56 3e 44 c0
       -0.78607845 1.3716375 2.499383 -3.0663047
000090 69 5a a9 40 6b 0f 43 bf e4 21 82 3f d6 a5 df 3f
       5.2922864 -0.761954 1.0166593 1.7472484
0000a0 36 65 dd be 42 b2 1d 3f e8 af 0d 3f 8b 39 14 40
       -0.4324128 0.61600125 0.55346537 2.3160121
0000b0 c0 f1 7d 40 4d c9 0a 40 f0 ce 14 c0 09 44 22 c0
       3.9678802 2.1685364 -2.3251305 -2.5354025
0000c0 4d 2d 9d 40 3d a0 04 3f 0b 51 01 c0 d6 84 7b bf
       4.91178 0.51807004 -2.0205715 -0.98249567
0000d0 2f ea b6 bf a5 c7 64 c0 81 94 2f c0 2a 6a 73 40
       -1.4290217 -3.5746853 -2.743439 3.8033547
0000e0 92 82 b5 c0 98 9f 2b 40 ca 9d 22 40 de dd 05 bf
       -5.6721888 2.6816158 2.5408807 -0.5229167
0000f0 9c 50 38 be 52 38 1d 3e 26 ae 77 bf 51 ff ed bf
       -0.179995 0.15353516 -0.96750104 -1.8593541
000100 08 41 d0 3f 20 9f 51 c0 b2 4f bc bf f2 80 16 3f
       1.6269846 -3.2753372 -1.4711821 0.58790505
000110 fc 86 a0 3f d6 41 00 c0 24 73 3d bf 7f 3d 33 bf
       1.2541194 -2.0040183 -0.74003816 -0.7001571
000120 37 a8 de 3f d4 75 80 bf 09 5d 56 c0 93 6b ec bf
       1.7395085 -1.0035958 -3.3494284 -1.8470329
000130 77 8f a1 bf c0 f5 12 c0 62 fe 79 bf 3a 84 0f 40
       -1.2621907 -2.2962494 -0.9765378 2.2424455
000140 9c a9 29 c0 99 a4 56 40 d8 99 1b 3f 3d c8 f7 3f
       -2.6509771 3.3537962 0.6078162 1.9357983
000150 cc 5d 46 3e db eb bc bf e9 2c 89 be 53 3f 19 c0
       0.19371718 -1.4759477 -0.26792076 -2.39449
000160 00 c6 db 3e a8 22 e7 3f 45 7d 0e 40 8e 4d 06 c0
       0.429245 1.8057451 2.2263958 -2.0984836
000170 48 6a 80 be 06 b0 3b 3f a2 bf 5d be 78 03 cf 3f
       -0.25081086 0.73315465 -0.21655133 1.6172934
000180 67 8b 89 40 42 2b 9a 3f 95 f3 c9 bf 86 b8 57 c0
       4.298267 1.2044451 -1.577746 -3.3706374
000190 f6 5d 6c c0 c0 36 71 bc 79 af 48 40 f8 6e a2 3e
       -3.693235 -0.014722526 3.13571 0.31725287
0001a0 3f b4 66 bf 2c 8c 41 3f b0 cc 1c be 34 79 ff be
       -0.90118784 0.7560451 -0.15312457 -0.49897158
0001b0 d9 b3 7f 3f 1c 6b 88 bf 08 80 8e 3e 00 8f a2 3e
       0.998838 -1.0657687 0.27832055 0.31749725
0001c0 98 f4 87 bf 24 46 8a bf 96 9d 4a be 68 13 c6 be
       -1.0621519 -1.0802655 -0.19786677 -0.3868668
0001d0 b6 59 00 c0 2c 8a 46 c0 d0 a4 9f 3f 20 53 06 40
       -2.0054755 -3.1021833 1.2472172 2.0988235
0001e0 f4 17 3c 40 30 1f a8 3f 8d 39 8a 40 40 ff a1 bc
       2.938962 1.3134518 4.3195252 -0.019775033
0001f0 2a c2 e7 bf 4c 27 d3 3f 39 5f ae 3f dc b5 81 40
       -1.8106129 1.6496367 1.362281 4.0534496
000200 1a 1b 0c 40 ae 44 04 40 90 90 80 be 41 2c 80 c0
       2.1891541 2.0666919 -0.25110292 -4.005402
000210 8c e9 c0 c0 4a f7 43 40 05 ce 27 c0 2c a8 03 40
       -6.028509 3.0619683 -2.6219494 2.0571394
000220 4c 8c 28 c0 16 da 01 c0 dd 90 2d 40 73 bc 81 3f
       -2.633563 -2.028936 2.7119668 1.0135635
000230 ff b3 83 3f ce 2a df 3f 26 4c 9e 3f 15 92 9b 3f
       1.0289305 1.7434938 1.2366989 1.2153956
000240 21 1c 84 c0 af 56 01 40 7b a4 63 40 35 22 81 40
       -4.1284337 2.0209157 3.556914 4.0354257
000250 53 7b 01 c0 a1 25 7d c0 c6 4e e4 bf 46 78 cb 3f
       -2.023152 -3.9554217 -1.783654 1.589608
000260 fb e5 8d bf 10 e7 72 bf 34 9d 27 c0 7f 19 11 bf
       -1.108581 -0.94883823 -2.61897 -0.5667953
000270 f2 96 40 3e bd 46 d6 bf ec 9e 16 3e 8d 79 22 c0
       0.18807581 -1.6740338 0.14709061 -2.5386689
000280 e4 36 ac be ed 8f c9 3f 5d 70 63 3f 2e 83 08 40
       -0.33635628 1.5747048 0.8884333 2.1330066
000290 d2 78 86 bf 23 79 a8 3f 26 79 b9 bf 1a 31 5f 40
       -1.0505621 1.3161968 -1.4490097 3.487372
0002a0 60 41 86 c0 5e 74 73 c0 a2 79 89 3f 72 d8 05 c0
       -4.1954803 -3.8039775 1.0740244 -2.0913358
0002b0 4e 39 88 40 e0 14 01 40 70 a5 0a be 82 b1 80 be
       4.256995 2.016899 -0.13539672 -0.25135428
0002c0 4d 3f b7 bf 8c e4 4c c0 58 2a 40 bf 15 2e d7 3f
       -1.4316193 -3.2014494 -0.7506461 1.6810938
0002d0 b6 69 79 bf 36 1b 9e 40 ad 7d 4d bf ce a9 10 40
       -0.9742693 4.9408216 -0.8026989 2.260364
0002e0 9f f4 80 40 9b f0 fe 3e 4a 2e 3a bf a8 1a d3 3f
       4.029861 0.49792942 -0.7272688 1.649251
0002f0 09 30 87 bf 1c 4f 6c 3f 4c 9a 1a 3f ec 03 6a 3f
       -1.0561534 0.9230821 0.6039169 0.91412234
000300 60 55 4a be 7d 6c 5f c0 b0 47 f0 be 6a 0c a1 be
       -0.1975913 -3.4909966 -0.46929693 -0.31454784
000310 21 53 4e c0 90 3b ae bf 83 d1 ed 3f 63 5b 39 40
       -3.2238238 -1.3611927 1.8579563 2.8962028
000320 39 05 42 40 1f 56 5d 3f 4e 45 9a bf 7d e0 1a c0
       3.0315688 0.86459535 -1.20524 -2.4199517
000330 6b e2 2a c0 52 d3 00 c0 23 2a 88 40 e2 46 84 40
       -2.6700695 -2.012898 4.2551436 4.1336527
000340 76 c7 ef 3f 62 f6 47 bf cc f0 33 40 e9 24 76 40
       1.8732746 -0.78110325 2.811572 3.8460028
000350 f2 c1 f5 3f 2a 07 e1 bf 94 e3 85 40 cd 10 ec 3f
       1.9199812 -1.7580311 4.1840305 1.8442627
000360 ed 2d ee bf 34 6b 7e 3f a6 6e ff 3f b0 cf 0d bf
       -1.8607765 0.9938233 1.9955642 -0.5539503
000370 a4 ae 90 bf 73 d6 11 40 aa 09 31 c0 18 51 a6 3f
       -1.1303296 2.278714 -2.7662148 1.2993498
000380 56 45 ae 3d a5 43 09 bf 23 3f 44 c0 5f 6c f9 bf
       0.085093185 -0.5361884 -3.0663536 -1.9486197
000390 73 a1 99 3e ff f3 4b 3f f2 89 c3 3f 27 1e 8a be
       0.30005988 0.79669183 1.5276473 -0.2697613
0003a0 a0 44 2b 40 ed 03 6c bf df d7 b2 bf 4d 39 88 c0
       2.6760635 -0.9219349 -1.3972129 -4.2569947
0003b0 ad 68 c3 bd 42 8c 83 c0 a0 1a c2 bf 2d bf 99 bf
       -0.0954145 -4.1108713 -1.5164375 -1.2011467
0003c0 86 5e e7 40 b2 2a 03 c0 1d 99 91 c0 20 00 6f bf
       7.2302885 -2.049481 -4.5499406 -0.93359566
0003d0 e0 68 1b bf 1f 70 66 40 94 d5 42 40 94 ad a6 3e
       -0.607069 3.6005933 3.0442858 0.32554305
0003e0 d7 de b8 bf 2f c8 9a bf 52 14 35 40 1c e1 36 c0
       -1.4443005 -1.2092341 2.8293653 -2.8574896
0003f0 6e 84 26 3f c0 d8 dd bf ff 8d b1 bf 46 28 a5 40
       0.6504582 -1.7331772 -1.3871459 5.161166

0.bias f4 [64]
000000 a6 ac b5 3f 31 64 42 40 6e bb 4e 40 e2 f2 67 40
       1.4193313 3.0373652 3.2301898 3.6241994
000010 a4 5d 48 c0 ec 33 55 40 74 dc 1f c0 9c 86 fa be
       -3.1307154 3.331294 -2.4978304 -0.48930824
000020 9d 57 8f be c7 58 64 bf 56 fa 51 40 36 8c 9b 40
       -0.2799653 -0.89197963 3.2809043 4.8608656
000030 10 7c 5f 3f ed 27 c7 3e 64 42 a8 40 dc 8a b1 3f
       0.8729868 0.38897648 5.2581043 1.3870502
000040 02 fb 1d 3f 20 ad 5b 40 37 e2 5a bf de d3 63 c0
       0.6171113 3.4324417 -0.85501426 -3.5598063
000050 9c 9b 4a 40 c8 43 88 3f d2 73 42 40 e8 65 6b 3f
       3.1657476 1.0645685 3.038319 0.9195237
000060 a4 ff 1b bf be c6 1b 40 3a 58 14 c0 b1 dd 92 be
       -0.6093695 2.4340053 -2.317885 -0.28684762
000070 c5 30 40 3e fd e2 45 40 1c b7 94 be 7a 7d 9e 3f
       0.18768604 3.0919793 -0.2904595 1.2382042
000080 c4 00 89 c0 46 9e 93 40 e0 78 9b 40 fc 0c a0 c0
       -4.2813435 4.6130705 4.8585052 -5.001585
000090 a4 94 06 3f 5f e7 55 3f f0 0f 7e 3f 12 4d 33 c0
       0.5257056 0.8355617 0.9924307 -2.801579
0000a0 ad 13 08 40 e4 e4 47 c0 e0 b5 99 c0 30 7c f3 bd
       2.126201 -3.1233454 -4.8034515 -0.11888921
0000b0 1c 32 2f 3e 74 b4 94 bf c1 6c 93 c0 e9 ec 60 40
       0.17108959 -1.161757 -4.6070256 3.5144598
0000c0 a8 68 ba bf c2 ce 70 c0 54 bd 18 3f 8e ec e1 bf
       -1.4563189 -3.7626195 0.5966389 -1.7650316
0000d0 59 bd 0f c0 44 02 50 3f 39 de 3e 3f 3a 37 3e be
       -2.2459319 0.8125346 0.74557835 -0.18575755
0000e0 24 ca b6 3f 02 8d 65 3e f0 6a dd 3e 45 35 80 40
       1.4280438 0.22417071 0.4324565 4.0065026
0000f0 de d3 5e bf 19 d8 2f bf 98 0a 05 be 3c b4 54 3e
       -0.87042034 -0.68689114 -0.12992322 0.20771879

2.weight f4 [64, 64]
000000 ec 2d 45 3e 93 ea 50 3f 54 dc 3a 3f 91 d3 1b c0
       0.19255799 0.8160793 0.72992444 -2.434788
000010 5c d8 74 3e 74 2c d8 bf 80 db 8e 40 75 2f 29 40
       0.2391066 -1.6888566 4.4642944 2.6435215
000020 7f 47 52 40 ad 37 ad 3f 9c ca f1 3f f5 44 10 c0
       3.2856138 1.3532616 1.8889956 -2.2542088
000030 62 2b e6 3f f4 65 a9 3f 72 c5 b1 bf 96 84 1b c0
       1.7981989 1.3234239 -1.388838 -2.4299674
000040 66 e1 06 40 9f 70 83 40 ed b1 18 bf cc e3 c8 bd
       2.1075072 4.1074977 -0.59646493 -0.09809074
000050 96 2c 0a 40 b9 32 1d c0 62 9b b0 3e 39 57 92 bf
       2.1589713 -2.4562209 0.34493548 -1.1432868
000060 80 2d 7e bd 00 2a 78 40 09 14 99 bf 5e 28 5b 40
       -0.06205511 3.8775635 -1.1959239 3.4243388
000070 00 2a b0 bf 9a d8 94 3f 64 63 31 c0 00 1c ac 40
       -1.3762817 1.1628602 -2.7716913 5.378418
000080 cb 7c 7b 40 33 62 71 40 5c bc 94 40 29 76 81 bf
       3.9294918 3.7716186 4.647993 -1.0114185
000090 4c b4 e9 3f 62 06 67 bf 04 f5 44 c0 7a 19 5e c0
       1.8258147 -0.90244114 -3.0774546 -3.470305
0000a0 ae 8a ba 3e 04 27 66 be fa c4 49 be 6f 7d b2 3f
       0.3643393 -0.22475821 -0.19704047 1.3944529
0000b0 a9 4e 57 c0 fe 5d ac c0 fe b1 09 c0 02 1c 10 40
       -3.364176 -5.3864737 -2.1514888 2.2517095
0000c0 11 50 03 40 4c d8 2a 40 29 de 74 c0 e4 25 0b bf
       2.0517619 2.6694517 -3.8260596 -0.5435469
0000d0 d8 65 f2 3f 49 a3 5d bf 2d 22 89 c0 00 78 31 bd
       1.893733 -0.8657728 -4.285422 -0.04332733
0000e0 f0 19 58 3f aa 0c cf bf c2 dd 65 be d3 6c a5 3f
       0.8441458 -1.617574 -0.22447875 1.2923836
0000f0 d4 80 76 40 94 85 e9 be 86 bf 3e c0 fd 04 7b 3f
       3.851613 -0.45609725 -2.9804397 0.98054487
000100 4e a5 cb bf 77 18 98 bf 3f aa d3 bf 78 82 72 bf
       -1.5909822 -1.1882466 -1.653633 -0.9473033
000110 dc 7f 02 bf 28 ce 66 3f 0c 8d 9e bf 79 29 cd 3e
       -0.5097635 0.9015832 -1.2386794 0.40070704
000120 2a 31 2c c0 8a 8f a0 3f 00 6a 26 bf e0 c8 31 c0
       -2.6905007 1.2543805 -0.65005493 -2.7778854
000130 aa 8d 1f bf 0a d2 f1 3f 4b f7 b9 3e 44 6d fc 3e
       -0.6232554 1.8892224 0.36321482 0.49302113
000140 23 5f 0f c0 84 fa 5f be c0 72 95 40 a6 65 be 3f
       -2.2401817 -0.21872908 4.6702576 1.4874771
000150 de 2b fd bf 65 54 6f bf ae ed 66 bf 18 cc 1b 3f
       -1.9779012 -0.9348815 -0.9020642 0.608583
000160 d1 7e 38 c0 80 1c 79 40 0b eb ee 3f 48 fa ef 3f
       -2.8827403 3.8923645 1.866548 1.8748255
000170 d2 f3 93 40 ad 9c dd 3e 00 3f 00 3c d9 eb 41 c0
       4.623513 0.43283597 0.00782752 -3.03002
000180 12 15 58 c0 00 37 c7 3b 56 1e f7 3e 06 45 fb 3f
       -3.376286 0.0060795546 0.48265332 1.9630439
000190 78 d2 ea 3f 43 5c 4a c0 9a a0 80 40 ae 86 ff 3e
       1.834548 -3.1618812 4.0196047 0.4990744
0001a0 e8 be 31 40 6c cc 67 c0 79 11 ec bf 80 d5 5e 40
       2.777277 -3.621852 -1.8442832 3.481781
0001b0 8a e7 7f 3f 72 3a 8c c0 e4 e3 9c 40 88 5c a8 bf
       0.99962676 -4.3821344 4.9028187 -1.3153238
0001c0 67 d2 28 3f 54 bc e1 be 7c 3b 22 40 78 b9 76 bf
       0.6594605 -0.44088995 2.5348806 -0.9637675
0001d0 b8 41 06 3f d2 57 32 c0 d8 ac 4e 40 d0 76 28 3f
       0.5244403 -2.7866101 3.2292995 0.65806293
0001e0 a1 a1 3a 3f 93 6b 1a c0 cb 57 eb 3f 20 14 8b bf
       0.72902876 -2.4128158 1.8386167 -1.0865517
0001f0 50 ee 37 3f e9 0f 28 40 36 24 e4 bf 84 26 14 40
       0.7184801 2.625971 -1.7823551 2.3148508
000200 5e 93 3e c0 7a 7d 85 40 44 42 9e 3f 52 dc 7c 3e
       -2.9777446 4.171567 1.2363973 0.2469342
000210 c3 e9 5e 3f 70 e7 d8 3f 10 b9 3e bf 5a 56 0c 40
       0.8707544 1.6945629 -0.7450113 2.1927705
000220 fc f7 9b 3f b4 bd e9 3f 8a 95 f4 3e 00 37 5c 3f
       1.2185054 1.8261018 0.4777034 0.86021423
000230 ea e5 2d bf 7c c4 bc c0 9b e3 59 c0 87 51 4e 3f
       -0.67928946 -5.898985 -3.404517 0.8059315
000240 81 c1 dd bf d7 36 40 c0 e3 86 c6 c0 96 8b 03 c1
       -1.7324678 -3.0033472 -6.2039657 -8.221579
000250 ae 18 a5 bf b0 8c 37 40 5a 04 29 3f e1 71 cb bf
       -1.2898157 2.867962 0.66022265 -1.5894128
000260 9f ad a0 c0 7e 1b 53 40 8f 1f 3f 40 92 c4 ff 3e
       -5.021194 3.298553 2.9863012 0.4995466
000270 19 56 c4 3f 86 54 77 3f d4 f6 92 bc 68 2b 8d be
       1.5338775 0.9661335 -0.017939962 -0.2757218
000280 04 be 05 40 d4 b3 9e bf 66 24 70 bf 72 69 46 40
       2.0897226 -1.2398629 -0.9380554 3.1001859
000290 e9 3c 1f c0 12 f0 1d c0 a9 00 15 bf f2 ed 41 bf
       -2.4880927 -2.4677777 -0.5820413 -0.757537
0002a0 84 a2 9c c0 c4 7f 27 c0 00 2b 7d 3f a8 75 d6 bd
       -4.8948383 -2.6171732 0.9889374 -0.1047166
0002b0 c8 fa 55 40 cc 33 d2 bf 03 ff be 3f bd 2c 8e bf
       3.3434315 -1.6422057 1.4921573 -1.1107403
0002c0 66 a8 9a c0 ae 2f 9d bf 96 5c 85 c0 80 39 af 3f
       -4.8330564 -1.2280176 -4.167552 1.3689423
0002d0 3b c2 ce 3f f9 49 8f 40 f6 9b 1d c0 c7 50 8c bf
       1.6153024 4.47778 -2.462644 -1.0962151
0002e0 b0 08 68 be 09 98 3f 3f 86 b1 f8 3f bc bf 2b bf
       -0.22659564 0.7484136 1.9429176 -0.6708944
0002f0 b1 e2 3e bf 44 08 89 be 7a 60 83 bf 30 44 d9 be
       -0.74564654 -0.2676412 -1.0263817 -0.42434835
000300 76 7d a0 3e 53 d3 3d c0 2f e7 35 40 ba c1 2e c0
       0.3134572 -2.9660232 2.8422353 -2.7305741
000310 da 2f 61 be 4d 59 2a c0 6e 13 91 c0 5a b2 cd 3f
       -0.2199091 -2.6617005 -4.533622 1.6070054
000320 4f d8 37 3f 3d c8 b0 bf 9c c1 f2 3e bc 9c 8f 3f
       0.71814436 -1.3811108 0.47413337 1.1219707
000330 a5 ea f7 be a6 13 eb bf 57 86 8b 3f ae 5e 68 40
       -0.48421207 -1.8365371 1.0900372 3.6307788
000340 8e ef 24 40 ea 91 88 be aa c4 ff 3f 8e bf 7b 40
       2.5771213 -0.26673824 1.9981892 3.9335666
000350 04 ce a4 3f e4 f4 da 3e 3d 01 d4 bf 8f 6e 06 40
       1.2875371 0.42764962 -1.6562878 2.100498
000360 b4 b8 89 3f 83 fc cc 40 8d 79 07 40 11 ed 02 c0
       1.0759492 6.405824 2.1167939 -2.0457194
000370 4d 57 a9 40 56 64 84 3f 10 fd 2f 3c e6 ad b0 bf
       5.291907 1.034312 0.010741487 -1.380307
000380 f2 25 34 3f fc 6d 81 40 6c c7 c5 3d 08 c9 48 c0
       0.703704 4.044676 0.09657177 -3.13727
000390 78 f9 00 be 87 7e 4d c0 08 46 ca bf 62 28 a8 40
       -0.12595165 -3.2108476 -1.5802622 5.2549295
0003a0 b5 a6 32 40 2d 61 f4 3f a4 03 4c c0 c4 bb 9f 3f
       2.791425 1.9092156 -3.1877222 1.2479177
0003b0 c1 70 9a bf fd a7 25 40 01 b7 7f 40 c8 98 f7 bf
       -1.206566 2.5883782 3.9955447 -1.93435
0003c0 88 d8 32 bf bc dc 10 c0 18 85 20 3e c2 3c 36 40
       -0.6986165 -2.2634726 0.15675771 2.8474584
0003d0 70 41 42 40 fe 02 9a c0 50 87 b2 bf 47 77 30 3f
       3.035244 -4.8128653 -1.3947544 0.68932
0003e0 0b b0 9b c0 5c 11 8d c0 7c 48 0a c0 58 c6 c1 bf
       -4.8652396 -4.408369 -2.160674 -1.5138655
0003f0 4b 71 a4 be 79 09 ea bf 7e ce c6 be af b5 78 bf
       -0.32117686 -1.8284141 -0.38829416 -0.9715223

2.bias f4 [64]
000000 b0 92 37 c0 83 00 01 c0 d4 4c a3 3f a0 4f e5 3c
       -2.868328 -2.0156562 1.2757821 0.02799207
000010 1c ce 0e c0 f4 e2 b7 40 91 65 60 40 c6 a0 f1 3e
       -2.23133 5.7464542 3.5061991 0.47192973
000020 8e a3 12 bf 56 18 0d 40 00 80 0e 38 eb 81 20 40
       -0.57280815 2.2046103 3.3974648e-05 2.5079296
000030 ef 5a 20 40 62 25 29 c0 38 80 81 3f 77 4e 02 40
       2.5055501 -2.6429067 1.0117254 2.036039
000040 bf fb 69 40 a0 39 64 bd 26 9c b2 3f 4d 39 69 3f
       3.6559904 -0.055719018 1.3953903 0.9110306
000050 88 fe c5 3e fa aa 79 c0 6c 4c ad 3e 4d 8d 50 40
       0.38670754 -3.9010606 0.33847368 3.2586243
000060 70 3c 25 40 92 85 8a bf 01 17 86 c0 ae 03 44 c0
       2.5818138 -1.0822012 -4.190308 -3.0627246
000070 f0 09 c3 bd f7 32 86 bf e0 95 d5 3f 0f a9 09 bd
       -0.0952338 -1.0484303 1.6686363 -0.033608492
000080 05 5f c4 bf de 4e c7 3e 52 67 15 40 43 c3 69 bf
       -1.5341498 0.38927358 2.3344312 -0.9131357
000090 0b 05 57 c0 ae 34 01 40 4f 3d 4f 3f 67 aa 1f bf
       -3.3596828 2.0188403 0.80952924 -0.6236939
0000a0 d7 91 89 40 f9 9b 5d c0 f8 ee 08 c0 0f a3 47 3f
       4.2990527 -3.4626448 -2.1395855 0.7798318
0000b0 22 ab e1 3f d5 95 01 c0 cd 17 98 bf 94 51 95 40
       1.763035 -2.02477 -1.1882263 4.6662083
0000c0 a8 fc d3 3e 42 b4 54 40 f8 e3 a4 bd 32 8b 42 bf
       0.414037 3.323502 -0.08051294 -0.75993645
0000d0 02 4b 17 c0 27 d2 6b 3f 46 f0 87 c0 16 fe eb bf
       -2.363953 0.9211754 -4.2480803 -1.8436916
0000e0 05 33 53 be d8 d2 e0 bf fb ee 2c bf 01 c3 6e 3f
       -0.20624931 -1.7564344 -0.67552155 0.932663
0000f0 84 1a 46 c0 97 a2 53 40 8e d3 65 3f 34 e4 30 c0
       -3.0953684 3.3067987 0.8977593 -2.7639284

4.weight f4 [5, 64]
000000 b8 5e f8 bf b7 bf 7c c0 bc b6 9d c0 88 a5 75 3e
       -1.9403906 -3.9492013 -4.9285564 0.23988926
000010 33 0f 8a 40 ee 9c 4e bf a8 77 34 c0 e6 38 27 bf
       4.3143554 -0.80708206 -2.8198032 -0.65321195
000020 e8 b3 88 3f 9a 3f 8a 40 aa c4 27 40 d4 d8 85 c0
       1.0679903 4.320264 2.6213784 -4.1827183
000030 43 24 1d c0 fd c6 9f 3e 42 b2 01 be 9e 5d d2 3f
       -2.4553382 0.31206504 -0.12665656 1.643482
000040 7c 10 46 c0 ae 13 3b c0 75 33 41 c0 f0 d9 9c c0
       -3.0947561 -2.9230762 -3.0187657 -4.9016037
000050 08 02 78 be b3 88 53 bf 83 2e 19 3f 33 84 1e bf
       -0.24219525 -0.8263046 0.59836596 -0.6192047
000060 bd 9a 90 c0 08 86 0a 3e ea 9c c5 bf 23 97 81 3e
       -4.518889 0.13527691 -1.5438511 0.2531062
000070 2a cb f9 bf 26 79 0c c0 a4 f3 11 bf c4 0a 4a 3f
       -1.9515126 -2.1948943 -0.5701239 0.7892268
000080 52 a7 03 40 0e 16 ae 3f 1c 2a f4 bf 08 aa 09 3f
       2.0570874 1.360048 -1.9075351 0.5377507
000090 55 3b 33 bf 9b 01 1c c0 b3 8e eb 3f 77 cb 06 40
       -0.7001241 -2.437598 1.8402923 2.1061685
0000a0 28 b4 44 c0 d1 d4 10 c0 70 fe 57 bd 7f 2f 6f c0
       -3.0734959 -2.2629893 -0.052732885 -3.737274
0000b0 f0 21 0f bd a3 06 5c bf 42 e0 78 40 af a3 5d c0
       -0.034944475 -0.85947627 3.8886876 -3.4631155
0000c0 76 71 7c bf 1a 4b 79 c0 f6 c7 86 3f 2c 5a 75 40
       -0.9861063 -3.8952088 1.0529773 3.8336287
0000d0 6b 79 44 c0 9b 26 3e c0 7e 23 d6 3e e8 15 a4 3e
       -3.0699108 -2.9711063 0.41823953 0.32047963
0000e0 3a 33 66 40 9a 6f c2 40 09 9e 62 c0 88 bd a1 3f
       3.5968766 6.076123 -3.5408957 1.2635965
0000f0 30 dd 2d be 50 da 27 bf c2 0b a9 bf ae ee 07 40
       -0.16978908 -0.65567493 -1.3206713 2.1239429
000100 fe 43 1a c0 39 2a 29 bf 10 b3 42 bf 20 87 e0 bf
       -2.4104 -0.6608005 -0.7605448 -1.7541237
000110 3c ac 01 c0 84 1c 9d c0 1d ca 82 40 ec f5 bf bf
       -2.0261374 -4.909731 4.087172 -1.4996924
000120 52 c1 7e 40 d1 87 20 40 82 c3 8f 3f 2f 25 1c c0
       3.9805493 2.5082896 1.1231539 -2.4397695
000130 d4 4c 81 3f 48 93 5e c0 d8 09 af c0 60 ec 9f 3f
       1.0101571 -3.4777393 -5.4699516 1.2494011
000140 2c 04 0a 40 3c 2a 0a 40 b4 fb d3 be 9d 03 d2 3f
       2.1565046 2.1588278 -0.41402972 1.6407353
000150 54 02 9c 40 81 59 88 3d d0 15 b0 3f 51 ee b1 c0
       4.875284 0.066576965 1.3756657 -5.5603414
000160 34 a2 4e 3f a4 38 bb 3e ca dd 37 c0 52 3d be bf
       0.8071625 0.3656665 -2.872912 -1.4862463
000170 b5 93 08 c0 b8 d9 c4 bf 3c b2 85 c0 d8 09 c7 3e
       -2.1340153 -1.5378942 -4.178007 0.38874698
000180 60 6b 34 c0 d8 35 0d c0 a2 56 11 c0 c0 c6 23 40
       -2.8190536 -2.2064114 -2.2709126 2.5590057
000190 9b 28 09 c0 cc 86 03 be 27 ee d8 bf 58 d4 5e be
       -2.1431034 -0.1284439 -1.6947678 -0.2176069
0001a0 a0 28 a3 bf 02 46 dc 3e 2e 1a 2e c0 fa 6d 6e bf
       -1.2746773 0.43022162 -2.720348 -0.9313656
0001b0 8a 53 70 40 fd e7 56 bf a3 d3 14 c0 ea b8 2d c0
       3.7550988 -0.83947736 -2.3254173 -2.7144113
0001c0 2b 31 1a c0 50 23 a8 be b0 fe 33 3d 26 4d 50 c0
       -2.409251 -0.3283944 0.04394406 -3.2547088
0001d0 81 22 3b c0 07 87 e2 bf 06 9a 4f 40 22 c7 81 c0
       -2.923981 -1.7697457 3.2437758 -4.055558
0001e0 a6 05 0d c0 b7 c9 a6 bf 4c 26 8b c0 3d 1c d1 3f
       -2.2034698 -1.3030308 -4.348425 1.6336743
0001f0 77 66 9f 40 92 0e f3 3f 3e 5c 24 40 7e 39 38 c0
       4.981258 1.8988822 2.56813 -2.878509
000200 dd ed 8b 3f 84 99 4e 3f 9b 2d 49 3f 70 81 84 40
       1.0931965 0.80702996 0.78585213 4.1408005
000210 30 84 03 bf 14 cb 7f 40 6b e0 4c bf 94 b4 89 3f
       -0.5137358 3.99677 -0.80029935 1.0758233
000220 91 64 17 40 7a ab 49 40 54 31 c6 3f 80 76 01 40
       2.365513 3.151091 1.5483804 2.0228577
000230 40 e7 b4 bf fa 96 6a bf fa e1 86 3f 46 d7 0d c0
       -1.4133072 -0.9163662 1.0537713 -2.2162642
000240 70 a6 bf bf f9 a3 da be 84 5c ea 3f ba a8 6e 3f
       -1.4972668 -0.42703226 1.8309484 0.93226206
000250 6d 50 88 bf c9 a4 fb 3f d3 86 6a 40 e1 6e ff bf
       -1.0649544 1.9659663 3.664479 -1.9955713
000260 73 97 5d c0 5a f5 df bf 54 a5 2f be 45 9b a2 3f
       -3.4623687 -1.749675 -0.17152911 1.2703635
000270 a8 0d e5 be 02 15 91 40 e9 53 c2 bf 60 a2 5c 40
       -0.4473698 4.5338144 -1.5181857 3.4474106
000280 a4 56 60 40 6d c5 67 bf 8e ae 90 bf 20 66 73 bf
       3.5052881 -0.9053562 -1.130327 -0.95077705
000290 a9 ea 0b c0 f0 b5 fd bf b4 d7 72 3f 6c 1d 0b 3f
       -2.1861975 -1.9821148 0.94860387 0.5434177
0002a0 94 e2 a1 bf 20 bd 83 3f 66 eb e4 bf 27 e0 2b c0
       -1.2647271 1.0292091 -1.7884338 -2.6855562
0002b0 50 92 9f bf a2 3e 86 3f d8 af 4e c0 0a 13 e4 3f
       -1.2466526 1.0487864 -3.2294827 1.781831
0002c0 2a 9d 18 bf 08 40 c2 3f 49 c3 6a bf 9e 23 ac bf
       -0.59614813 1.5175791 -0.9170423 -1.344837
0002d0 5c 52 5d 40 f8 80 8b bf 88 93 5d bf d4 a6 4e bf
       3.4581518 -1.0898733 -0.8655324 -0.8072331
0002e0 a0 a6 eb bd cc 3a 79 3f 3c 31 c0 3f cc eb e7 3e
       -0.115063906 0.9735534 1.5015025 0.45297086
0002f0 79 82 53 c0 ac 45 e2 3f 86 9b 4f bf 9e ff bd bf
       -3.3048384 1.7677512 -0.81096685 -1.4843633
000300 8a 58 7d c0 5a 70 4f 3f 4d 46 2f 40 f5 34 53 bf
       -3.958529 0.8103081 2.7386658 -0.8250268
000310 78 23 8c bf e0 4b b9 bd 84 af ba 40 47 40 6c 3f
       -1.0948324 -0.09047675 5.8339252 0.9228558
000320 a8 2d 71 c0 88 d4 b8 40 db e3 a3 3f 33 ef 3e bf
       -3.7684116 5.7759438 1.2803911 -0.7458374
000330 80 e2 98 bd 41 f6 81 40 67 bd 2c c0 2f 10 f5 3f
       -0.074650764 4.0613103 -2.6990602 1.9145564
000340 71 07 39 40 da 34 00 40 9a 95 1d c0 9a a9 90 40
       2.8910792 2.0032258 -2.462256 4.5207033
000350 bc e1 07 3f 25 18 72 3e 8c eb 67 bf e6 a1 03 3e
       0.5307882 0.23642023 -0.9059379 0.12854728
000360 c2 79 39 3e 64 bd 0b 40 5c 1a 4b 3f 39 75 c9 3f
       0.18112853 2.1834345 0.79337096 1.5738899
000370 ac 95 23 bf 6a 28 8a c0 4d d8 cb bf a8 88 8a 3e
       -0.63900256 -4.3174334 -1.5925385 0.27057385
000380 17 f3 76 bf 2f c9 a1 bf a8 71 9d bf 5b c9 19 40
       -0.96464676 -1.2639521 -1.230031 2.4029148
000390 56 b3 24 40 13 27 9d c0 d5 83 65 c0 04 0f b8 3f
       2.5734458 -4.91102 -3.5861714 1.4379582
0003a0 b7 fc b9 3f 5a ac b9 3f 38 ec b7 3d 04 01 87 bf
       1.4530247 1.4505723 0.08980602 -1.0547185
0003b0 83 1b e4 bf af 76 dc bf 1c bb 30 40 d1 7c 0a 40
       -1.7820896 -1.7223719 2.7614202 2.1638682
0003c0 5c b0 c8 3f 3c 88 ab 3f 1c 71 71 40 29 87 5d c0
       1.5678821 1.340095 3.7725286 -3.4613745
0003d0 89 76 8d bf 28 93 00 c0 cc 73 7a c0 d8 33 79 3e
       -1.1051799 -2.0089817 -3.9133177 0.24336183
0003e0 af f2 d5 3f 6f cd 88 c0 cc 60 e2 3f d7 0f 29 c0
       1.6714686 -4.2750773 1.768579 -2.6415918
0003f0 19 39 f9 3e f5 5a fe 3f e0 6c 2a 40 fc ab 88 40
       0.48676375 1.9871508 2.6628952 4.270994

4.bias f4 [5]
000000 2c 20 95 3e a1 58 ef 3f 4f 26 e8 be 18 41 87 bf
       0.29126108 1.8698922 -0.45341727 -1.056674
000010 98 f4 e7 3e
       0.45303798
