demo/experiments/genetic_algorithm/ga_experiment_2021_02_12_160407/problem_55.model (torch, 26149 bytes, 6 tensors)

0.weight f4 [64, 22]
0	0xc0281059	-2.6259978
1	0x3fc8ccfc	1.5687556
2	0xc04b33ae	-3.1750293
3	0x40a7c21e	5.242446
4	0x3fad7fd0	1.355463
5	0xbffbdfb8	-1.9677649
6	0xc01b7696	-2.429113
7	0xbeeb8588	-0.46000314
8	0x40232d2a	2.5496316
9	0xc07a0d7c	-3.907073
10	0x3dfb7254	0.12277666
11	0x40b0604e	5.511756
12	0xc047b99c	-3.1207037
13	0x3f819ced	1.0126015
14	0x3f96f10e	1.1792314
15	0x3d78c060	0.060730338
16	0x40196c47	2.3972337
17	0x3f3f330a	0.74687254
18	0x3ff9bd5a	1.951091
19	0x40225c3a	2.536879
20	0xbe2a7514	-0.16646224
21	0xc011cecd	-2.278247
22	0x406c76c7	3.6947496
23	0xbff0c7ea	-1.8811009
24	0x3fa8ef2e	1.3197992
25	0xc02fe0a4	-2.748086
26	0x401fbc09	2.4958518
27	0x3dc61680	0.0967226
28	0x4021bdb0	2.5272026
29	0xbeb43a07	-0.3520052
30	0xc0035155	-2.051839
31	0xbf888d13	-1.0668052
32	0xbe9169ab	-0.2840093
33	0x3ee22870	0.44171476
34	0xbfd9224c	-1.6963592
35	0xc045dfdc	-3.0917883
36	0xbfb127bc	-1.3840251
37	0xbf506e93	-0.8141872
38	0xc0433df4	-3.0506563
39	0x3fc4c570	1.5372753
40	0x408f6c41	4.4819646
41	0x3f5b0b7e	0.8556441
42	0x3dce0f48	0.100615084
43	0xc07d5e42	-3.958878
44	0xbfa9798d	-1.3240219
45	0xc0024420	-2.035408
46	0x3fb1b826	1.3884323
47	0xc0761b6a	-3.8454232
48	0x3d04714e	0.03233462
49	0xbf86aba0	-1.0521126
50	0x3e79dff2	0.24401835
51	0xc00e7dd2	-2.2264295
52	0xbf300770	-0.6876135
53	0x3fb443ec	1.4083228
54	0xc030dc68	-2.7634525
55	0xc01b19ec	-2.4234571
56	0x3fca189e	1.5788763
57	0x3f027bd0	0.5097017
58	0xc0290b9e	-2.641334
59	0xbfd54744	-1.6662374
60	0xc08617c9	-4.1904035
61	0x4028990b	2.634341
62	0x402105d8	2.5159817
63	0x3e9f8156	0.31153363
64	0xc0a35d1e	-5.105117
65	0xbfbee894	-1.4914727
66	0xc09a43c1	-4.8207707
67	0xbf85763a	-1.0426705
68	0x40200af1	2.5006678
69	0x3f4a61b3	0.7905533
70	0xc00815b8	-2.1263256
71	0xc0717690	-3.7728615
72	0x3f29ef2b	0.66380566
73	0x3f34f120	0.7068043
74	0xbf2a0442	-0.66412747
75	0xbf94e35c	-1.1631885
76	0xc00df212	-2.2178998
77	0x3f3fb2cb	0.7488219
78	0x3f7747da	0.9659401
79	0xbe2376f2	-0.15963343
80	0x4092639d	4.57466
81	0xbe8ba380	-0.27273178
82	0xc0419f93	-3.0253646
83	0xc08f5093	-4.4785857
84	0x4077f60c	3.8743925
85	0x3eba78b8	0.36420226
86	0xbfcdb144	-1.6069722
87	0x3f9886ce	1.1916139
88	0x3ffafc70	1.9608288
89	0xbef05dd7	-0.46946594
90	0x40223b44	2.5348673
91	0x3f2c85ba	0.6739155
92	0x3f9a34ac	1.2047324
93	0x3facefa8	1.3510637
94	0x3fbfb6f7	1.4977711
95	0xc0395583	-2.8958442
96	0x404fa375	3.2443516
97	0xc0610fee	-3.5165973
98	0x3e381dec	0.17980164
99	0xbf470fa2	-0.7775823
100	0x404c6c86	3.1941237
101	0x400f8c58	2.242941
102	0xbf9d6ecc	-1.2299438
103	0x408fdae1	4.4954686
104	0x40509472	3.2590604
105	0xc0108d39	-2.2586195
106	0xbfe6eaba	-1.8040383
107	0x3fc963dd	1.5733601
108	0x3ee4fafa	0.4472273
109	0xc0a3e753	-5.121988
110	0x3fe92f2a	1.8217518
111	0xc04fbca2	-3.2458882
112	0x400b8313	2.1798751
113	0x4040c9f3	3.012326
114	0xc0543278	-3.3155804
115	0xbf37996e	-0.7171849
116	0xbf365894	-0.7122891
117	0x3ec09114	0.37610686
118	0x4001963a	2.024794
119	0x3f8e8f02	1.1137393
120	0xbf27b056	-0.6550344
121	0xc01cc008	-2.4492207
122	0x4003f372	2.0617337
123	0xbfd82ef6	-1.6889331
124	0x3f89ab42	1.0755389
125	0xbf92ff42	-1.1484149
126	0x3e08daa8	0.1336466
127	0xc00d0d57	-2.2039392
128	0x4061cf99	3.5282958
129	0x3f9eab47	1.239602
130	0x3fe0610c	1.7529616
131	0xbd15fec0	-0.0366199
132	0xc0511c03	-3.2673347
133	0x40a3914f	5.111488
134	0xc0161f3f	-2.345657
135	0x3e0d5390	0.13801408
136	0xc085400c	-4.164068
137	0xbfacf1bc	-1.3511271
138	0xbfd0a6c8	-1.6300898
139	0xc00ec85d	-2.2309792
140	0x3ef95120	0.48694706
141	0x3f1d8752	0.6153461
142	0x3f5ca0f8	0.8618312
143	0x3f01c831	0.5069609
144	0xc060854c	-3.5081358
145	0xbfff336c	-1.9937568
146	0xbf4df1f2	-0.80447304
147	0x40951d99	4.659863
148	0x3e1e6d76	0.15471444
149	0xbebcda8c	-0.36885488
150	0x3f6af28b	0.9177634
151	0x3fd6a518	1.6769133
152	0xc0204b0e	-2.504581
153	0x4021bcac	2.5271406
154	0xc032537e	-2.786346
155	0x40bef896	5.967845
156	0xc07d1cbb	-3.9548786
157	0x402ace81	2.668854
158	0xc0858367	-4.1722903
159	0xbd9bf1dc	-0.076144904
160	0x40449389	3.0715048
161	0x401fbd90	2.495945
162	0xbdd31f8c	-0.103087515
163	0x4036e434	2.8576784
164	0xbeb09b6e	-0.34493583
165	0x3c502700	0.012704611
166	0xc012fbb7	-2.2966135
167	0x3fd39b4d	1.6531769
168	0x405931da	3.3936677
169	0x3fc5b112	1.5444663
170	0xbe814232	-0.25245816
171	0xbe37f998	-0.17966306
172	0x3f9675ea	1.1754735
173	0x3f724ff4	0.9465325
174	0xbe3f1044	-0.18658549
175	0xbfbe2d7d	-1.4857632
176	0xbfd31f24	-1.6493878
177	0x3fb35334	1.4009767
178	0xc0002700	-2.0023804
179	0x3edf4cb0	0.43613195
180	0xc05fdf65	-3.49801
181	0xc087b6ce	-4.241065
182	0xc00644e6	-2.0979552
183	0x40cee79c	6.4657726
184	0xbf843e5b	-1.0331529
185	0x4001eb06	2.0299697
186	0xc006e8e4	-2.1079645
187	0x404a7c9c	3.1638556
188	0x3fc3f645	1.530953
189	0xc05668d3	-3.350148
190	0xbf69c64d	-0.9131821
191	0xbf6e1385	-0.92998534
192	0x3ff155f8	1.885436
193	0x3fc4d621	1.5377847
194	0x4082c519	4.08656
195	0x3f133825	0.57507545
196	0x40b04ec2	5.509614
197	0xbeba847b	-0.364292
198	0x3f43e048	0.765141
199	0x400e1752	2.2201734
200	0xbf8225d1	-1.0167791
201	0xbf6feaae	-0.9371747
202	0xbfd17d42	-1.6366351
203	0x3f0ada75	0.5423959
204	0xbe968358	-0.29397082
205	0xbf5bc60b	-0.85849065
206	0xbe6ae7c8	-0.2293998
207	0xc00b4256	-2.1759238
208	0xbe9b4968	-0.30329442
209	0x3e414aa0	0.18876123
210	0xc04b93d1	-3.180897
211	0xbf057d33	-0.52144164
212	0x3f9e70eb	1.237821
213	0xbf24d364	-0.64385056
214	0x404680dc	3.101615
215	0x401bd6ac	2.4349775
216	0xbfe46f56	-1.7846477
217	0xbf3dfed0	-0.7421694
218	0x40099cd1	2.1501963
219	0xc06c67ac	-3.6938276
220	0xbf1fa57d	-0.6236189
221	0xbc84eea0	-0.016227067
222	0x3fba937e	1.4576261
223	0x4043127f	3.048004
224	0x406788dc	3.6177282
225	0xbf986df0	-1.190855
226	0x40106313	2.256047
227	0xbf3436f4	-0.7039635
228	0x407765ff	3.8656003
229	0x40125963	2.2867057
230	0x3fec4c32	1.8460753
231	0x401ae099	2.4199584
232	0xc0676373	-3.615445
233	0xbf223c48	-0.6337323
234	0xc08c6b06	-4.3880644
235	0xbf281fb5	-0.6567338
236	0x404986c0	3.1488495
237	0x4052f1da	3.2960114
238	0xc07a9944	-3.9156046
239	0xbf7852ea	-0.97001517
240	0x3f054824	0.520632
241	0xbf9e3463	-1.2359737
242	0x3fae4346	1.361428
243	0xbf8137b8	-1.0095129
244	0xbe76c338	-0.24097908
245	0xbf005aee	-0.5013875
246	0xc01c7538	-2.4446545
247	0x3f3cacb7	0.7370104
248	0xbdc71ad0	-0.09721911
249	0xbf179f2e	-0.59227264
250	0xc0866b90	-4.20063
251	0xc022178e	-2.5326877
252	0xc06c81ae	-3.695415
253	0xbf47b3ca	-0.7800871
254	0x4087abeb	4.239736
255	0xc07e74a6	-3.9758697

0.bias f4 [64]
0	0xbf8a2076	-1.0791156
1	0x40852946	4.1612883
2	0x4006900a	2.1025414
3	0x3f4b3da8	0.79390955
4	0x3eecc970	0.46247435
5	0xbed9ec14	-0.42562926
6	0x3f129116	0.57252634
7	0x3f150b32	0.5822021
8	0x3fde130b	1.7349561
9	0x3fc92528	1.5714464
10	0xbf804c90	-1.0023365
11	0x40679cc9	3.6189444
12	0xc019b010	-2.401371
13	0x40cf8be6	6.4858274
14	0x4022ab5f	2.5417097
15	0x3f65550f	0.89582914
16	0x3fba19b7	1.4539098
17	0x3f9c831b	1.222751
18	0x3f38c69b	0.7217805
19	0xbf8ca322	-1.0987284
20	0xc01f4672	-2.4886746
21	0xc04c1ffa	-3.1894517
22	0xc022a6e8	-2.5414371
23	0xbf8b323a	-1.0874703
24	0xc0813e5f	-4.0388637
25	0xc0055d2f	-2.0838125
26	0x40955921	4.66713
27	0xc031d0f4	-2.7783785
28	0x4062be6a	3.542872
29	0xbf2f26d3	-0.68418616
30	0xbe241b38	-0.16026008
31	0x3faa7408	1.331666
32	0xc0357aaa	-2.8356118
33	0xc025510a	-2.5830712
34	0xc04127da	-3.0180573
35	0x3f624f3a	0.8840214
36	0xbff2c1b0	-1.8965359
37	0x4080067c	4.0007915
38	0x3fce2e7d	1.6107937
39	0x3f8419c0	1.0320358
40	0xc015fb9a	-2.3434815
41	0xbd658120	-0.056031346
42	0xc0050c2d	-2.0788682
43	0x404b4286	3.1759353
44	0x40655254	3.58315
45	0xc030b5fe	-2.761108
46	0x3fb6d835	1.4284731
47	0xbf28ab2c	-0.6588619
48	0xbf804690	-1.0021534
49	0x3f5dc07c	0.8662183
50	0xc018f860	-2.3901596
51	0x3f02a6b6	0.5103563
52	0x3ea78382	0.3271752
53	0xbfc8a790	-1.5676136
54	0xc000969d	-2.0091927
55	0xbfa77da0	-1.3085213
56	0x3f16e3e5	0.5894149
57	0xbf73fc16	-0.9530653
58	0xbe48851e	-0.1958203
59	0xbd606d40	-0.05479169
60	0xbfc77f28	-1.558568
61	0x3f4bb788	0.7957692
62	0x40827428	4.076679
63	0x3facab77	1.3489827

2.weight f4 [64, 64]
0	0xbf7846e8	-0.96983194
1	0xc06adff9	-3.6699202
2	0x3ed3e7bc	0.41387737
3	0x409e3052	4.9433985
4	0xbffaa37b	-1.958114
5	0x3f9494c8	1.1607904
6	0x3f379c6e	0.7172307
7	0x3f2c9a95	0.67423373
8	0x3e57fd72	0.21092775
9	0xc0187788	-2.3822956
10	0x40ecf5aa	7.4049883
11	0xbff7e4a8	-1.9366655
12	0x3eb771fb	0.35829148
13	0x3eb0eec4	0.34557164
14	0xc0656e64	-3.5848627
15	0x409396d8	4.6121635
16	0xc08c994a	-4.393712
17	0x4095959e	4.674514
18	0x3f516ffd	0.81811506
19	0xc03271af	-2.7881887
20	0x3fe7edc9	1.8119441
21	0xc07a28df	-3.9087446
22	0xc02fd376	-2.7472816
23	0x3fa398be	1.2780988
24	0xbeecbcd4	-0.46237814
25	0x3f5d6732	0.8648559
26	0x40001d10	2.0017738
27	0xbeca811c	-0.39551628
28	0xc01a29e1	-2.408806
29	0x40080935	2.125562
30	0xbfd32390	-1.6495228
31	0x3fc56795	1.5422236
32	0x3f4f6884	0.81018853
33	0xc0434307	-3.050966
34	0xbf96d3c0	-1.1783371
35	0x3fc524be	1.5401838
36	0x3f47f7fb	0.78112763
37	0xc01a2a70	-2.4088402
38	0xbe32c9c8	-0.17459786
39	0x3fb3f95a	1.4060471
40	0xbf1077eb	-0.5643298
41	0xc0449d84	-3.072114
42	0xbdf22bf8	-0.118247926
43	0xbedbedbd	-0.42954817
44	0x3f160c27	0.58612293
45	0x3f7b8367	0.9824738
46	0x405bb276	3.4327674
47	0xc011a4cf	-2.275684
48	0xbfc5b057	-1.544444
49	0x3e9a45e2	0.3013144
50	0xbf1ec1d0	-0.62014484
51	0xbfa2c287	-1.2715615
52	0x3dbccc98	0.09218711
53	0x403b6d4f	2.9285467
54	0x3fbb3f10	1.462862
55	0x40bf5820	5.9795074
56	0xbedb96ec	-0.42888582
57	0xc0484c54	-3.1296587
58	0x3f5d44a6	0.86432874
59	0x40245e3c	2.5682516
60	0x400dd0f3	2.2158782
61	0xc04ddbe8	-3.216547
62	0x3fe44703	1.7834171
63	0x40805a5c	4.01103
64	0x3d56d72f	0.05245131
65	0x3f145bc2	0.5795251
66	0xc018edb5	-2.3895085
67	0x403894bc	2.884078
68	0xc0080bfd	-2.1257317
69	0xbe969037	-0.29406902
70	0xc02ef012	-2.7334027
71	0x404b7a86	3.1793532
72	0x4040d3d1	3.0129282
73	0x3fbadf39	1.4599372
74	0x4062f38a	3.5461144
75	0xbff380fc	-1.9023738
76	0x40293a07	2.6441667
77	0x3fcd197e	1.6023405
78	0xbede7972	-0.4345203
79	0x404ba778	3.1820965
80	0xc02b1ce2	-2.6736379
81	0x409124de	4.5357504
82	0x40322bf6	2.7839332
83	0x4071e7fd	3.7797844
84	0xc045831d	-3.0861275
85	0xbf8b0e54	-1.0863748
86	0xbf8e68d2	-1.1125739
87	0xc03a99b3	-2.915631
88	0x3f21232f	0.6294431
89	0x3eb419f8	0.35176063
90	0xbee45306	-0.44594592
91	0xbf8453ca	-1.033807
92	0x3f51b3a8	0.8191476
93	0x4089cc2f	4.3061748
94	0x3fe8402c	1.8144584
95	0x406c4fa4	3.6923609
96	0x3fc9804d	1.5742279
97	0x3fb0d0ba	1.3813698
98	0x401ea8a7	2.4790437
99	0x3f66d386	0.9016651
100	0x3ea4345a	0.3207119
101	0x3d99cf40	0.07510233
102	0x3fb90d03	1.4457096
103	0xc031a4dc	-2.7756872
104	0xbe413f40	-0.18871784
105	0xc0a88416	-5.266124
106	0xbe32bb31	-0.1745422
107	0x3fd6758a	1.675462
108	0xc086c5a4	-4.211626
109	0xbfd74668	-1.6818361
110	0x3fcd9526	1.6061141
111	0x40782472	3.8772244
112	0x3f532529	0.82478577
113	0xbff296bd	-1.8952252
114	0x3ed246c5	0.41069618
115	0x40e28699	7.0789304
116	0xc016d7da	-2.3569245
117	0x3e418988	0.1890012
118	0xc01fda77	-2.497709
119	0x3f7084f9	0.939529
120	0x3f953c2c	1.1658988
121	0x404ce79e	3.2016368
122	0x408c584b	4.385778
123	0x3fb1905a	1.3872178
124	0x4000548c	2.0051603
125	0xbf70aace	-0.9401063
126	0x4092a591	4.5827107
127	0xbf7643f3	-0.9619743
128	0xbd7f3f40	-0.06231618
129	0xbfcb436b	-1.5879949
130	0xc00a8707	-2.1644914
131	0xbe167528	-0.14693129
132	0x3df79ec6	0.120908305
133	0x3fad6662	1.354687
134	0x40af89d2	5.485574
135	0x3fbaf52a	1.4606068
136	0xc04fb611	-3.2454875
137	0x3fc22a7d	1.5169216
138	0xc06570a6	-3.5850005
139	0xc0480284	-3.1251535
140	0xbf9bf0fb	-1.2182916
141	0x40b67d92	5.7028284
142	0x404b0c8c	3.1726408
143	0x3f079fe8	0.5297837
144	0xc043e409	-3.0607932
145	0xbfd6062f	-1.6720637
146	0x3fc20ff8	1.5161123
147	0x3f907910	1.1286945
148	0x3ee27502	0.44229895
149	0xc031b410	-2.7766151
150	0xc02441da	-2.5665193
151	0xbfb308a6	-1.3987014
152	0xbed29234	-0.4112717
153	0x40131ae6	2.2985168
154	0xbf6dc24c	-0.928746
155	0x3fd9184a	1.6960537
156	0x40354781	2.8324893
157	0xbd869390	-0.06571114
158	0x4042a182	3.0411077
159	0xc07d0dec	-3.9539747
160	0x3fcda334	1.6065431
161	0x3fabb894	1.3415704
162	0x3f946ef4	1.159636
163	0x406d928f	3.7120702
164	0xbfc60bfd	-1.5472409
165	0xbf57beb6	-0.84275377
166	0xbff65def	-1.9247416
167	0x40b8d4ec	5.7759914
168	0xc0546c69	-3.3191168
169	0x3f13a50d	0.5767372
170	0xc0594aa6	-3.3951812
171	0xc02c26e3	-2.6898735
172	0xc04964f1	-3.146786
173	0xbeb8e8f6	-0.36115235
174	0xbf0b4d6a	-0.54415
175	0xbf96a690	-1.1769581
176	0xc074df20	-3.8261185
177	0xc086f9db	-4.218
178	0xc0b46dc6	-5.6384
179	0x3fda182f	1.703863
180	0x3d8b9b50	0.06816733
181	0xbfbc84a7	-1.4727982
182	0x40b3c4bc	5.6177654
183	0x400f1236	2.2354865
184	0xc05f549f	-3.4895399
185	0x3e56a938	0.2096299
186	0xc017f9de	-2.3746257
187	0x40219940	2.5249786
188	0x3fabb0be	1.3413312
189	0x400d60a2	2.209023
190	0x3fff11f2	1.9927351
191	0xbf86f22f	-1.0542659
192	0xbfd32063	-1.6494259
193	0xbf8e0f31	-1.1098386
194	0xbf0369e6	-0.51333463
195	0x3ecc61d0	0.39918375
196	0xc0409e4a	-3.0096612
197	0x3f145e9c	0.5795686
198	0x3f8bbec5	1.0917593
199	0x3e30bfd8	0.17260683
200	0x40c25652	6.073037
201	0x40676bd8	3.6159573
202	0xbd669de0	-0.056302905
203	0xbfb54a1a	-1.4163239
204	0xbfe8825a	-1.816478
205	0xbf816c01	-1.0111085
206	0xc0036b19	-2.0534117
207	0xbee2c632	-0.44291836
208	0x3f071380	0.5276413
209	0x408655cc	4.1979733
210	0xbfd18618	-1.6369047
211	0xbf84c302	-1.0372012
212	0xbecaf543	-0.39640245
213	0xbf87f6f3	-1.0622238
214	0xbf7dc25a	-0.9912468
215	0x3f4e0716	0.8047956
216	0x408bebf8	4.372555
217	0xc001b52a	-2.0266824
218	0xbfff8f46	-1.9965599
219	0xbf448892	-0.7677089
220	0x3ed36a1c	0.41291893
221	0x3f2fbeae	0.6865033
222	0x402f9364	2.743371
223	0x3f3795d9	0.71713024
224	0xc01dc74a	-2.4652886
225	0x405ce4d5	3.4514668
226	0xc09d05b9	-4.9069486
227	0xbf825fe5	-1.0185515
228	0x3ffd349c	1.978168
229	0xbf88c438	-1.0684881
230	0xc0058c1f	-2.0866773
231	0x4014370d	2.31586
232	0x3f99c25e	1.2012441
233	0xc0955241	-4.6662908
234	0x3fcd7184	1.6050267
235	0x4086e742	4.2157297
236	0xc0cd8bc1	-6.42331
237	0xbce47340	-0.027886987
238	0xbfb8ff24	-1.4452863
239	0xbfd4dd0e	-1.662996
240	0x4006f974	2.1089754
241	0x3d2788c0	0.0409019
242	0x3f6b5b91	0.91936594
243	0x3fcfded4	1.6239877
244	0xc00f515a	-2.2393403
245	0xc06a578c	-3.6615934
246	0xc056dcf8	-3.3572369
247	0x3f1ce0f1	0.61280733
248	0x3f4ac470	0.7920599
249	0x404d4395	3.2072499
250	0x3eb1fc9b	0.34763035
251	0xc0762960	-3.8462753
252	0xbe953ccd	-0.2914795
253	0xbf973ad1	-1.1814824
254	0x3f06d97c	0.52675605
255	0x3f405a68	0.7513795

2.bias f4 [64]
0	0x408fbd09	4.4918256
1	0xc0d5f45f	-6.6860805
2	0xbffb9e3a	-1.9657662
3	0xbe925037	-0.28576824
4	0x3f8c4e51	1.09614
5	0x3fab85b2	1.3400176
6	0xbf843846	-1.0329673
7	0x3c878960	0.016544998
8	0xbfce5a00	-1.6121216
9	0x3fc8a878	1.5676413
10	0x400aca5c	2.168601
11	0xc094cbb1	-4.6498647
12	0x3f411750	0.754262
13	0xc019fac4	-2.4059305
14	0x401d5e42	2.458878
15	0x3f985fb9	1.1904212
16	0x3d275ef0	0.040862024
17	0xbec56448	-0.3855307
18	0xc02826b6	-2.6273627
19	0x3f1201c8	0.5703397
20	0xbfc34a48	-1.5257044
21	0x3d434d00	0.047680855
22	0xbf1f0b14	-0.6212628
23	0x4045a645	3.0882733
24	0xbdbd8a02	-0.092548385
25	0x40841f5a	4.128827
26	0x3f331403	0.6995241
27	0x40366182	2.8497014
28	0xbf55c030	-0.8349638
29	0xbf6ab7e6	-0.91686857
30	0x406fec8a	3.7488122
31	0x3d5893e1	0.052875403
32	0xc01dc67a	-2.465239
33	0xbe5825b0	-0.21108127
34	0xc02ec7c0	-2.7309418
35	0xc05be6f6	-3.4359717
36	0xbf919ca9	-1.1375934
37	0xbf60d31e	-0.8782214
38	0xbfd1318e	-1.6343248
39	0x402e0412	2.7189984
40	0xbe152770	-0.14565825
41	0xc0579729	-3.368601
42	0x40798ce1	3.8992236
43	0x40528810	3.2895546
44	0x40601ffa	3.5019517
45	0xbfd67c4a	-1.675668
46	0x4036da1f	2.857063
47	0x4004419e	2.066505
48	0xbe75aa20	-0.23990679
49	0x408eb7d2	4.459939
50	0xbff2c510	-1.8966389
51	0xc03860bd	-2.8809044
52	0xbf291834	-0.66052556
53	0x3fb35676	1.4010761
54	0xbed56e6d	-0.4168581
55	0x4058b3d7	3.3859766
56	0x3e29ba28	0.16574919
57	0x3fccee8f	1.6010302
58	0xbfba0e2a	-1.4535573
59	0xc02e77e6	-2.726068
60	0xc049509f	-3.1455457
61	0xbf3eb0ca	-0.7448851
62	0x3e7e6088	0.24841511
63	0xbff75730	-1.9323483

4.weight f4 [5, 64]
0	0x3f46599b	0.7748048
1	0xc09b1b78	-4.847103
2	0xbfdffb6c	-1.7498603
3	0xc0008ee1	-2.0087206
4	0x3f6fe434	0.93707585
5	0xbfbfb538	-1.4977179
6	0x3ec9f818	0.39447093
7	0x3f87f09c	1.0620303
8	0xbd8d6d46	-0.06905608
9	0xc09b3454	-4.8501377
10	0x3f8ceb79	1.100936
11	0x3d9b17e0	0.07572913
12	0xbeb120fa	-0.34595472
13	0x40b7bbe1	5.7416844
14	0x4065be62	3.589745
15	0x3e2b52fc	0.16730875
16	0x3f368d5f	0.71309465
17	0x405f2e0e	3.487186
18	0xc04f269b	-3.2367313
19	0xc09b2e69	-4.8494153
20	0x408750fa	4.228635
21	0xc01432fc	-2.3156118
22	0x3faa7452	1.3316748
23	0xbf653812	-0.8953868
24	0xbf8de107	-1.1084298
25	0x3edfc910	0.43708086
26	0x3ee036e2	0.43791872
27	0xbffda06a	-1.981458
28	0x4013aa44	2.3072672
29	0x3f4a58ef	0.7904195
30	0xbf6f8835	-0.9356721
31	0xbf64b79c	-0.89342666
32	0x3fea75b7	1.8317174
33	0xbf880ed6	-1.0629528
34	0xbef2f798	-0.47454524
35	0x404379ef	3.0543172
36	0xc01a1331	-2.4074214
37	0x3f1563d8	0.58355474
38	0xbe886216	-0.26637334
39	0x3fa3f267	1.280835
40	0xbe8d85e4	-0.27641213
41	0xbfb76a80	-1.4329376
42	0xbe0a3038	-0.13494956
43	0x40eb9242	7.3616037
44	0xbfd9b92d	-1.7009636
45	0x3e189655	0.14901097
46	0xc04fd9f8	-3.2476788
47	0xbfd7ef34	-1.6869874
48	0x401527b2	2.3305478
49	0x3ee5a1f7	0.44850132
50	0xbfebbefe	-1.8417661
51	0xc033cd17	-2.8093927
52	0xbee12cdc	-0.43979537
53	0xc0563b59	-3.3473723
54	0xbf7eb4b2	-0.9949447
55	0xbf5834c2	-0.844555
56	0x4080878e	4.016547
57	0x3f6eedd3	0.9333164
58	0x3f64a90f	0.8932046
59	0x3f6437d3	0.8914768
60	0x3faa5c27	1.3309373
61	0xbf76677e	-0.96251667
62	0xbfc87187	-1.5659646
63	0xc0a07fee	-5.0156164
64	0xbe4afba8	-0.19822562
65	0x3f04c929	0.51869446
66	0x3ebc754f	0.3680825
67	0xc06304b1	-3.5471613
68	0xbfd9e7b4	-1.7023835
69	0x3ef02080	0.46899796
70	0x3f173524	0.5906546
71	0x408647a1	4.196244
72	0x3f3ccadc	0.7374704
73	0x40210995	2.5162098
74	0xbf091bf1	-0.5355826
75	0x3fb8dc10	1.4442158
76	0x3fb4fbee	1.4139383
77	0x3fd476f2	1.6598799
78	0xbfa99207	-1.3247689
79	0xbff2ee50	-1.8978977
80	0xbf4286de	-0.7598704
81	0xbfb5cf74	-1.4203935
82	0xbf6d262f	-0.9263639
83	0xc015e35f	-2.3420026
84	0xbf4c256e	-0.79744613
85	0x40b893ac	5.7680264
86	0x3f038416	0.5137342
87	0x3e0c48b0	0.13699603
88	0xbfaf0e3a	-1.3676217
89	0xc050c7a8	-3.262186
90	0xc06af29a	-3.6710572
91	0x3faae96a	1.3352482
92	0xc04aa5b2	-3.1663632
93	0x402d8adf	2.711601
94	0x3fa55ee2	1.2919581
95	0xbf45675c	-0.7711084
96	0xbfd266d3	-1.643763
97	0x4001cd76	2.0281653
98	0xbf558dfe	-0.8341979
99	0xc020849c	-2.5080938
100	0x40736ec0	3.8036346
101	0x3b2f8f00	0.0026788116
102	0xc0b2213b	-5.5665565
103	0xbfaac889	-1.3342448
104	0xbf2727a5	-0.6529487
105	0x402345d6	2.5511374
106	0x3fe32063	1.7744259
107	0x3f25d71c	0.64781356
108	0x3e9a31a6	0.30116004
109	0x401138e7	2.269098
110	0x40202d6c	2.5027723
111	0x4042e704	3.04535
112	0xc0296f1f	-2.6474073
113	0xbf70f7c2	-0.9412805
114	0x40a239f4	5.0695744
115	0xbfee6511	-1.8624593
116	0x3e5f1a54	0.21787387
117	0x3f7fec31	0.99969774
118	0x4026b0e6	2.604547
119	0x40a085ba	5.016324
120	0x3ffcde47	1.9755334
121	0x407c6c6c	3.9441175
122	0xbec4ccac	-0.38437402
123	0x3fcf7bf2	1.62097
124	0xbee26d2e	-0.44223922
125	0x3ff18574	1.8868852
126	0xbf8bf4b8	-1.0934057
127	0x3f704fcc	0.9387176
128	0x3e887f96	0.2665984
129	0x406efeea	3.7343087
130	0xbf464504	-0.7744906
131	0xbd4721a0	-0.04861605
132	0x3fd10ab2	1.6331389
133	0xbf8fe91c	-1.1243014
134	0x4051f226	3.2804046
135	0xc08ec998	-4.4621086
136	0x402fa71d	2.7445748
137	0xbedafe08	-0.42771935
138	0xc0a1f9a5	-5.061724
139	0x4002a5b4	2.0413637
140	0x40836fb6	4.1073866
141	0xbff25792	-1.8932974
142	0xbe5a4784	-0.21316344
143	0xbf92431b	-1.1426729
144	0xc03f633c	-2.9904318
145	0x3f4c74e8	0.79865885
146	0x406a06e6	3.656671
147	0xbf37a02a	-0.71728766
148	0xc0010218	-2.0157528
149	0xbebd0434	-0.3691727
150	0xbfa29c0e	-1.2703874
151	0xc08c752c	-4.389303
152	0x3f729c64	0.94769883
153	0xc08c9dea	-4.3942766
154	0x403be10c	2.9356108
155	0xc00e1384	-2.2199411
156	0x3fdebcb3	1.7401336
157	0xbfad2e96	-1.3529842
158	0xc0e7523b	-7.228788
159	0xbec45f54	-0.3835398
160	0xbf05a240	-0.522007
161	0x3f31363e	0.6922339
162	0xc01a4a38	-2.41078
163	0x3e5fe12c	0.2186324
164	0xc0a61cc7	-5.191013
165	0xc018d184	-2.3877878
166	0xbece7d86	-0.40330142
167	0x3f9d0491	1.2267019
168	0xbf77d3fa	-0.96807826
169	0xc0490536	-3.140943
170	0xc00061ae	-2.005962
171	0x4096890d	4.70423
172	0x40640c54	3.5632524
173	0xc0111385	-2.2668164
174	0xc08c616d	-4.386893
175	0xbf7bf494	-0.9842007
176	0x405bd3c8	3.434801
177	0xbdb882f0	-0.09009349
178	0xc09b3e20	-4.8513336
179	0x3f91c1ce	1.138727
180	0xc00c8d1e	-2.196113
181	0x40b1da5c	5.557905
182	0x3edf3b08	0.43599725
183	0x3ed715a9	0.42008713
184	0xc01e0f0f	-2.469669
185	0xbf2b01d8	-0.6679969
186	0xc03e4f24	-2.9735804
187	0xc05cca16	-3.4498343
188	0xbe934aa0	-0.28767872
189	0xc01e7455	-2.4758503
190	0xc03abbe4	-2.917718
191	0x4103220e	8.195814
192	0x3f82e830	1.0227108
193	0xbfc2d8f4	-1.5222459
194	0x3ff0874c	1.8791289
195	0x4059d67e	3.4037166
196	0xc02819e6	-2.6265807
197	0xbf84be31	-1.0370542
198	0x3e172d02	0.14763263
199	0x40d40273	6.625299
200	0x3e65c388	0.2243787
201	0x40160271	2.343899
202	0xbeca0e30	-0.3946395
203	0x3e7fb381	0.24970819
204	0xbf8514bc	-1.0396953
205	0xbef50bb5	-0.47860494
206	0xc06e0e06	-3.719606
207	0x400150be	2.020553
208	0xbda6e5f0	-0.08149326
209	0x409b26c1	4.8484807
210	0x3e18e4a0	0.14930964
211	0x3f8acf64	1.084454
212	0x3f9b1a18	1.2117338
213	0xbf93195a	-1.1492112
214	0xbfda4455	-1.7052103
215	0xc0097490	-2.1477394
216	0xc0b57def	-5.6716228
217	0xbf181c6e	-0.5941838
218	0xc042bc01	-3.0427248
219	0xbe8de3b8	-0.27712798
220	0x3f57849b	0.84186715
221	0x3f9e1bce	1.2352235
222	0xbf7166a1	-0.94297224
223	0xc035b9fe	-2.839477
224	0xbd034310	-0.032046378
225	0x40123438	2.2844372
226	0xbfcca0de	-1.5986593
227	0xbfb70890	-1.4299488
228	0xc003e6f5	-2.0609715
229	0x3f7ff307	0.99980205
230	0x3fdfa830	1.7473202
231	0xc0c29508	-6.0806923
232	0x4062dad7	3.544607
233	0xc027acff	-2.6199338
234	0x3fa0d550	1.2565098
235	0x3ff20584	1.8907933
236	0x3fcc7c71	1.5975477
237	0x3ec9629e	0.3933305
238	0x407580ad	3.8359787
239	0xc0419773	-3.0248687
240	0xbedc5b7c	-0.43038547
241	0xc0608af2	-3.5084805
242	0x3f7b0870	0.9805975
243	0xc087584a	-4.2295275
244	0x3f9403bf	1.1563643
245	0x40226d58	2.5379238
246	0xc063bfea	-3.5585885
247	0xc04de44b	-3.217059
248	0xc00ca84a	-2.1977715
249	0x402269d8	2.5377102
250	0x40897233	4.2951903
251	0x3feaaada	1.833339
252	0x40348b60	2.8210068
253	0x408c3b58	4.382244
254	0xbfb214c0	-1.3912582
255	0xbcfdeda0	-0.030997097

4.bias f4 [5]
0	0x3fd29606	1.6452034
1	0xbf0b614a	-0.54445326
2	0xbeec74dc	-0.46182907
3	0xc06eb1b4	-3.7295961
4	0x3dfa2d38	0.12215656
