demo/experiments/genetic_algorithm/ga_experiment_2021_02_12_160407/problem_9.model (torch, 26149 bytes, 6 tensors)

0.weight f4 [64, 22]
00000000: 145b 553f 1a06 5abf e4fe 4740 68b8 d73e
00000010: 624e 8240 78c1 1ec0 9ace 8740 8eb6 7ac0
00000020: 2cb2 403f 0b10 9d3f 763d 7ac0 9665 3fc0
00000030: 8d20 b43f c8e4 903e d09d 353d 7c22 c03f
00000040: b245 2fc0 580d d840 9a36 993f e18f babf
00000050: a68d 7d3e bf0c 8c40 5aca 4b40 72c8 4a40
00000060: 9c41 7b3e 7459 7f3e 68c8 febf fb63 0040
00000070: 3098 4040 e89a a0be b8f3 fcbf f59a dabf
00000080: 1288 e13f 40e6 80bf 92bc 9fbf b227 8140
00000090: 1dc1 3640 69a4 9d40 3054 c9be 181a 19c0
000000a0: 1c51 57c0 b542 8140 20f9 3abc ad49 3abe
000000b0: 51d5 573f 7266 fb3e eac4 b9bf 4efe 0e3f
000000c0: d26e 14c0 8769 183f b837 143f ee94 6c40
000000d0: 6625 20bf b0b2 d8be 017e 8d3e 7961 74c0
000000e0: f7be 51bf 3bc1 ea3e 910e 6c3f 34f8 96c0
000000f0: 2fd8 6e40 f5bf d0bf 4269 943e 8d2b 8c40
00000100: 800b ebbf d47f 993f fcce eebf dc79 303f
00000110: d6c1 3dc0 1cbf 1ac0 a029 b43e 581a 8640
00000120: c12d f8bf 4806 79c0 62f5 843f 20b8 32bf
00000130: 4a40 fe3d 09a6 c8c0 8a4b 313f bc0a 0640
00000140: c363 adbf 6f31 3fc0 1607 f9bf 4c67 a1c0
00000150: f6a2 dc3f 7af1 e9bf f0e5 10c0 dae8 eebf
00000160: 3405 b7be 286a b1bd 8c86 23bf 8c4c b3bf
00000170: e601 de3f 2eba ebbe 9927 c1bf f653 893f
00000180: 9aff bdbf 3568 3740 69b9 b0bf 38ba a5c0
00000190: dfa7 05c0 d123 51be 3cff 613f 26fc 58bf
000001a0: 1885 fdbf 8a2e 80c0 e7c0 c03f 9e76 c43f
000001b0: 66bc 9a3e 9a5a c0bf 78e9 c5bf 8212 e8bf
000001c0: aa66 443f f210 913e 9b2a 0140 4060 cd3f
000001d0: 7f50 a240 b0ae fd3d 5a4e ae3f 96c3 e13f
000001e0: 45cd 51bf 3f43 93bf ae69 713f db13 953f
000001f0: 0188 5ac0 fe6d d7be ccfa 28c0 e89f 99bf
00000200: 861b a3bf a059 e8be 4d1a 88be b242 0dc0
00000210: 7aa6 b4c0 1a57 1fc0 e887 3abf a7df 08c0
00000220: 8dd5 dcbe 7e34 013f 152c 2a40 8a42 733f
00000230: 3ef2 d0be f933 9bbf d14e a53f 70e8 e0bd
00000240: 4ba5 69c0 e1c2 4fc0 1260 cbbf 268d 82c0
00000250: 9ce2 90bf 713f b23f a0f4 ee3f 1cfe 0fc0
00000260: 9b8d 3f40 30f7 d9be 25ca babf 785c f1c0
00000270: 1531 46c0 5e37 2dc0 7e8c 26c0 26ae 24c0
00000280: 2bb4 9140 b639 6040 8269 363f e285 fb3e
00000290: 3c60 17bf 8be6 2040 ee0e 5f3f 2e78 033f
000002a0: 58d9 c63f d43c 193f d9c1 6cbf 80ee 6cbc
000002b0: 1bf0 1b40 7f98 fcbf 5e98 813f d8f3 c8bf
000002c0: 6641 243f c784 9abf aceb bcbf 5550 923f
000002d0: c7da ed3f 8035 28bd de7c 80be e558 1e40
000002e0: 1594 d0bf 18b5 2fc0 5d54 08c0 94fb c5bf
000002f0: 9260 ce3e 76d8 07c0 64cf 4e3e 8cbc 2640
00000300: 9cdf f73e 339e 0640 d764 08c0 f084 28c0
00000310: c3bc 913f 76a0 02c0 ca07 c8c0 65b2 b5c0
00000320: 00f6 68ba 69ac e13f 6ec9 0f3e 5842 3a40
00000330: 1a4b 0bbf 1562 9fbf 5c41 07be 7635 1540
00000340: d7de ea3f 2f43 96bf 267e 81c0 cad4 a83f
00000350: 57e2 bdbf 587c 583f 5abe 5840 a246 803f
00000360: 007f 47be 32a3 f03f a6bf 3b40 0c22 8f3f
00000370: eefe 69bf 1f7a a1bf 0ea7 a13f 8ed5 a7bf
00000380: d944 123f a929 553f ec4c 753f 58f2 7bbf
00000390: 344d 03bf 9050 2ebf 1d33 72bf 3464 1ec0
000003a0: 3b43 3d40 5221 6540 6c69 e0bf 88da 013e
000003b0: 7f34 5d40 eee7 ffbe a2e3 87bf 9ae4 1d40
000003c0: da74 1cbf 3804 32bf e4bd a73f 0d4a 23c0
000003d0: b087 0a3f 6026 f53d e2c2 e8c0 83de 9cbf
000003e0: ca6f 91bf e886 09c0 8210 803e 7f7c f2bf
000003f0: e4de 3cc0 0ebc 0d40 ec0a cebf bd64 b93f
0.833421 -0.8516556 3.1249323 0.42132878 4.072068 -2.4805584 4.24397 -3.9173923
0.7527187 1.2270521 -3.9100013 -2.9905753 1.4072434 0.28299546 0.044339955 1.5010524
-2.7386289 6.751629 1.1969788 -1.4575158 0.24761066 4.376556 3.1842256 3.1684842
0.24536747 0.24936467 -1.9904909 2.0061023 3.0092888 -0.31368184 -1.9761877 -1.7078539
1.761965 -1.0070267 -1.2479422 4.0360956 2.8555367 4.9263196 -0.39322042 -2.3922176
-3.3643255 4.039393 -0.011411935 -0.18192168 0.8430987 0.49101597 -1.4513218 0.5585679
-2.319264 0.5953602 0.5789752 3.69659 -0.62557065 -0.42323828 0.27635196 -3.8184493
-0.81932014 0.45850548 0.92209727 -4.717798 3.7319448 -1.6308581 0.28986555 4.3803163
-1.8362885 1.1992135 -1.8656917 0.6893594 -2.9649558 -2.4179144 0.35188007 4.190716
-1.9388963 -3.8910084 1.0387385 -0.698122 0.12414606 -6.270268 0.6925589 2.0944052
-1.354607 -2.9873922 -1.9455287 -5.0438595 1.7237232 -1.8276818 -2.2640343 -1.8664811
-0.35746157 -0.08662826 -0.6387718 -1.4007735 1.7344329 -0.4604048 -1.5090209 1.0728748
-1.4843628 2.8657353 -1.3806583 -5.178982 -2.088371 -0.20423819 0.8828008 -0.8475975
-1.9806242 -4.005681 1.5058869 1.5348699 0.30221862 -1.5027649 -1.5461874 -1.8130648
0.7671915 0.2833324 2.0182254 1.6044998 5.072326 0.123868346 1.3617661 1.7637813
-0.8195384 -1.1504897 0.9430188 1.1646684 -3.414551 -0.42076105 -2.6403074 -1.2001925
-1.2742774 -0.45380878 -0.26582566 -2.2071958 -5.645322 -2.4896913 -0.72863626 -2.1386507
-0.43131676 0.5047072 2.6589406 0.95023406 -0.40809816 -1.2125236 1.2914678 -0.10981834
-3.6507137 -3.2462695 -1.5888693 -4.07973 -1.1319156 1.3925611 1.8668404 -2.2498846
2.993018 -0.42571402 -1.459294 -7.5425377 -3.0967457 -2.7065043 -2.602325 -2.5731292
4.553243 3.5035224 0.7125474 0.49125582 -0.59131217 2.5140712 0.87132156 0.51355255
1.5535078 0.5985844 -0.9248329 -0.01446116 2.4365299 -1.9734038 1.0124624 -1.5699415
0.6416229 -1.207177 -1.4759421 1.1430765 1.858239 -0.041066647 -0.25095266 2.4741757
-1.6295191 -2.745428 -2.1301491 -1.54674 0.40308052 -2.1225867 0.201963 2.605258
0.48412788 2.1034057 -2.1311548 -2.6331139 1.138573 -2.0410438 -6.250951 -5.6780267
-0.00088867545 1.763074 0.14041683 2.9102993 -0.5441147 -1.2451807 -0.13208526 2.331388
1.8349255 -1.1739253 -4.046649 1.3189938 -1.4834698 0.84564734 3.3866181 1.0021555
-0.1948204 1.8799803 2.9335723 1.1182265 -0.91404617 -1.2615393 1.2629106 -1.3112047
0.57136303 0.83266693 0.958205 -0.9841666 -0.5128968 -0.6809168 -0.9460924 -2.474866
2.9572284 3.5801587 -1.7532172 0.1268102 3.456329 -0.49981636 -1.0616343 2.4670777
-0.611158 -0.6953769 1.3104825 -2.5513947 0.5411329 0.1197021 -7.2737894 -1.2255405
-1.136224 -2.148859 0.25012594 -1.8944243 -2.9511042 2.214603 -1.6097083 1.4483868

0.bias f4 [64]
00000000: 86fa 393f 46dc a5bf 78b2 9ebe 8798 453f
00000010: 63f9 80bf 5ccb 2c3f 5055 d03d 896b d3bd
00000020: 0429 ee3e bf04 44c0 c353 1e40 8d07 a83f
00000030: 8aed 77bf f873 143f 7184 2640 d3b9 9540
00000040: cd8e 5abf d200 8040 3fa5 05c0 8e57 c9bf
00000050: e47f a9bf 6b5c f23f 38bd 6bbe c49c 5c3e
00000060: 9b61 1740 4d49 493f fb09 0d40 7e58 9f40
00000070: d490 3dbf 80a2 34c0 94d0 9d3e e2c4 e83e
00000080: dea9 b73f 5419 76c0 7291 1dc0 1417 a13f
00000090: 1e14 0340 0748 b6bf 2e7a ea3f 64e6 6c3f
000000a0: 09c3 e73f 56bb 7ac0 a03e f9bb f6b1 b4be
000000b0: 48bb 63be e931 0340 1871 0640 bd1f 7ac0
000000c0: 58d6 bb40 b778 b8c0 73c4 373f fa14 32c0
000000d0: 2ffb c23e 6cfa 433f 1295 31c0 d95a 5a3f
000000e0: f7e8 2f3f 7ed4 0ec0 9adc 3ac0 5228 ee3e
000000f0: 3aef c4bf c819 4abf 6943 2dc0 5bdb 653f
0.72647893 -1.2957847 -0.30995536 0.77185863 -1.0076107 0.674978 0.10172522 -0.10323245
0.46515667 -3.0627897 2.4738624 1.3127304 -0.9684683 0.57989454 2.6018336 4.6789336
-0.85374147 4.0001 -2.0882108 -1.5729845 -1.3242154 1.8934454 -0.230214 0.21544176
2.3653324 0.78627473 2.2037342 4.9795523 -0.74049115 -2.8224182 0.30823195 0.4546271
1.4348714 -3.845296 -2.4620023 1.2585168 2.0481029 -1.4240731 1.8318536 0.9253905
1.8106395 -3.917684 -0.0076063424 -0.35292023 -0.22239411 2.0499213 2.1006527 -3.9081872
5.869915 -5.7647357 0.7178413 -2.7825303 0.38082263 0.7655399 -2.7747235 0.8529487
0.6871485 -2.2317195 -2.9197145 0.46515137 -1.5385506 -0.7894559 -2.7072394 0.89787835

2.weight f4 [64, 64]
00000000: ccc9 0540 12e6 5abf afad 6cc0 4cdc c540
00000010: c421 6540 6aa2 c9c0 01df e63f 4fed 1ec0
00000020: 2880 5ec0 7a86 14bf 459a 3d40 6fb2 a83f
00000030: 288b 3040 8998 1cc0 30bb 38c0 f552 a93e
00000040: 9d82 98c0 8e79 0e40 30f2 a3bf d8b3 bf3d
00000050: eb8d b9c0 7d53 3540 43d4 b13f 24d5 3540
00000060: c073 3e40 aac7 02bf 912d 1bbf fe32 ff3f
00000070: 46b6 963f e0ce dd3d 1a90 be3f d269 f93e
00000080: 9cab 1abf 421e 3cc0 70c6 64c0 8c04 5440
00000090: 82c7 f240 5dd9 e63f e88b 0e3f cccf 6440
000000a0: 2874 0b3e 52d1 09c0 47bd 1dc0 c08e 9c40
000000b0: 0476 4940 7170 bf40 bff4 01c0 03a0 d940
000000c0: 1e2f b93e 093c c23f 5010 51be 1a0d 363f
000000d0: 7c78 06c0 717a 8640 8b75 eabf dea7 463e
000000e0: 772d 03c0 e36c 54bf 8040 24bc 9b67 a3bf
000000f0: 9aa5 aa3e 17a2 3740 0a64 0340 62b4 0bbf
00000100: 6a76 85c0 b195 69c0 6a62 14bf f878 41c0
00000110: efbb 2e40 3cfc 843f 0572 88bf f026 1740
00000120: ea26 93bf ad6d 7bc0 3833 e93e f50e 8040
00000130: 4c27 7e3f 7323 213e 4d61 ea3f a232 c03f
00000140: 2edd 6040 f038 6ec0 f0ae 02bf ca67 90be
00000150: 20b3 ffbb dae2 203f 5cf5 5540 40f9 8ac0
00000160: 3001 1f40 5e64 8040 d672 233f 5725 38c0
00000170: 0a0e 2640 ddc4 5fbf 1e61 16bf a714 c33f
00000180: 565e 77c0 adc8 7abf 0e0a f03e 5ce9 8040
00000190: 4240 a0bf a531 6e40 dad8 3ac0 d42c 8bbf
000001a0: e74f 7340 334f 8140 8bfc c9c0 e297 8e3f
000001b0: 8058 f93f 46b5 a83f da1d 0f40 33f4 c8bf
000001c0: 1cc1 e0be 7f96 8040 48c3 6cbe e937 b5bf
000001d0: 003d e8bf d17f aebf 2315 c4bf 8539 92c0
000001e0: 488e 96be bcff b93f 3e06 7dbf 5020 e6bf
000001f0: 0d3e 42c0 3f4d 0d40 0ff6 6e40 a634 ba3f
00000200: 408e 293f b78a 65c0 ac4c 2640 79f4 0240
00000210: 3383 ab3e c81c 18c0 bb5c 3ac0 5009 c53f
00000220: 58e2 71bf dfdb 1a40 5163 d4bf 5841 3cbf
00000230: 85ea 87c0 8a70 1440 a038 70bd f032 5a3f
00000240: f019 5b3f fc4b 59c0 edae 23c0 c61b 02be
00000250: a035 1040 6a78 263e 407d 2c3f 357b 35c0
00000260: 74a8 f7be e24d 00bf 27ba 9740 403e a03c
00000270: 4ab1 75c0 b405 30c0 2a12 6a40 34e5 53c0
00000280: b810 69c0 b9ef 9dc0 bc3f 81bd 307c 383f
00000290: b69e 12c0 7b9b 99bf 8c9a 833e a9b6 3540
000002a0: 063b 1840 74cc 01c0 50ee 86c0 2886 13be
000002b0: 1ed7 4abf 4251 773f 0009 d5bf 3198 9440
000002c0: b12e f9bf 38b3 2e3f 3eb7 4940 8845 2fc0
000002d0: cfac 6bc0 4a61 3ac0 6140 16c0 88ab 30bf
000002e0: 187d af3d b277 3e40 529e 903f da4e a33f
000002f0: d6a3 acbf dfd0 cbbf 357d a1bf 81a2 f03f
00000300: d158 82c0 5e30 d03f 5037 203e 82d2 1ec0
00000310: 5352 6f40 974f 07c0 f696 933f 3067 5d40
00000320: a2a9 09c0 21bd 3440 8871 6d3f 375c 453f
00000330: b4ab e23f af29 4c40 5ab6 0140 c126 1cc0
00000340: 3808 fd3f f2e4 db3e d2c1 3cc0 fccb 56c0
00000350: d250 8740 fa9d b03f 89d8 b4bf 2de5 f23f
00000360: 41d7 1f3f caa5 5740 188a ccbe 4c1c 16c0
00000370: e4c3 4b3f 8450 6cbf 245b ca3e 7baa 36c0
00000380: bcb1 2fc0 8032 203f 9b92 aabf b8dd 4240
00000390: a685 e5bf b98e c3bf 28f6 803f dd2c 963f
000003a0: e4dc 57c0 72a7 eabe 79c5 d83f fc3a b53e
000003b0: a075 71be 7e7a 2340 e404 1cc0 8b3e 8340
000003c0: ea60 843e 627a b03e 4020 62bd d809 e5bf
000003d0: 3aaf cbbf b10b 90bf eee8 ff3f 43cd c8c0
000003e0: 9b35 613f 88e9 b83f 2580 8a3e e252 593f
000003f0: ca1d 8c3f f807 0240 28b3 c23f 5017 853f
2.0904417 -0.8550731 -3.6981008 6.1831417 3.580186 -6.301076 1.8036805 -2.4832342
-3.476572 -0.58017695 2.9625409 1.3179454 2.7584934 -2.44681 -2.886425 0.33071104
-4.765944 2.226169 -1.2808285 0.09360474 -5.798574 2.8332207 1.3892902 2.841134
2.9758148 -0.51085913 -0.60616404 1.9937437 1.1774375 0.10830474 1.4887726 0.48713547
-0.60418105 -2.9393468 -3.5746117 3.3127775 7.586854 1.8035084 0.5568223 3.575183
0.13618529 -2.153401 -2.4646776 4.8924255 3.147828 5.9824758 -2.030563 6.8007827
0.3616876 1.5174571 -0.20416379 0.7111374 -2.1011038 4.2024465 -1.8317121 0.19399974
-2.04965 -0.8297865 -0.010025144 -1.2765993 0.3332947 2.8692682 2.052981 -0.5457212
-4.170705 -3.6497614 -0.5796267 -3.0230083 2.7302206 1.0389476 -1.0659796 2.3617516
-1.1496251 -3.928569 0.4554689 4.001826 0.9927871 0.15736179 1.8310944 1.5015452
3.5134997 -3.7222252 -0.51048183 -0.28204185 -0.007803336 0.6284615 3.3431005 -4.342926
2.4844475 4.012252 0.638471 -2.877279 2.5946069 -0.87409765 -0.5874194 1.5240678
-3.8651328 -0.97962457 0.4688267 4.0284863 -1.251961 3.72178 -2.9194856 -1.0873055
3.8017519 4.040918 -6.312078 1.1140101 1.9480133 1.318032 2.236197 -1.5699524
-0.4389733 4.018371 -0.23121369 -1.4157687 -1.8143616 -1.3632756 -1.531895 -4.5695214
-0.29405427 1.4531169 -0.9883765 -1.7978611 -3.0350373 2.2078397 3.7337682 1.4547317
0.6623268 -3.5865915 2.5984297 2.0461714 0.33498535 -2.3767567 -2.9119098 1.5393467
-0.94486 2.4196699 -1.6592809 -0.73537207 -4.247378 2.3193688 -0.05864775 0.85233974
0.8558645 -3.3952627 -2.5575516 -0.12705907 2.253273 0.16256872 0.67378616 -2.835645
-0.48370707 -0.5011884 4.7414737 0.019560933 -3.8389459 -2.750348 3.6573586 -3.3108644
-3.6416454 -4.935513 -0.063109845 0.72064495 -2.290937 -1.2000574 0.25703847 2.8392737
2.3786025 -2.0281038 -4.216591 -0.14406645 -0.7923449 0.96608365 -1.6643372 4.643578
-1.9467374 0.68242216 3.1518092 -2.7386189 -3.6824224 -2.912188 -2.3476794 -0.69011736
0.085687816 2.9760556 1.1298316 1.2758439 -1.3487499 -1.5923117 -1.2616335 1.8799592
-4.073342 1.626476 0.156461 -2.4815984 3.7393997 -2.1142328 1.1530445 3.459423
-2.1509786 2.8240435 0.9275136 0.77093834 1.770865 3.1900442 2.0267549 -2.4398654
1.9768133 0.4294811 -2.9493299 -3.3562002 4.2286158 1.3798211 -1.4128581 1.8976189
0.62437826 3.369494 -0.39949107 -2.345477 0.7959578 -0.9231036 0.3952266 -2.8541553
-2.745223 0.62577057 -1.332599 3.0447826 -1.7931411 -1.527793 1.0075121 1.1732441
-3.372857 -0.45830876 1.6935264 0.35396564 -0.23580027 2.5543513 -2.4377985 4.1013846
0.2585519 0.3446837 -0.055206537 -1.7893629 -1.591285 -1.1253568 1.999296 -6.2750564
0.8797242 1.4446268 0.27050892 0.84892094 1.0946591 2.0317364 1.5210924 1.039774

2.bias f4 [64]
00000000: 6900 953f f34a 54c0 38c2 36c0 1ee9 a3bf
00000010: 6b0e 1840 ce6d 2f40 347a 2840 4d4b 2140
00000020: e942 a3bf 926c 3140 dc11 6140 af8c 40bf
00000030: 2839 b2bf 9a70 74be 7d58 a1c0 723e 51c0
00000040: 5310 1240 005d 6ebc 2888 1d40 2d83 1740
00000050: de11 873f 6e4c 5fbf d31e 913f 66e4 bc3f
00000060: b870 1c3f 2667 86bf d323 bb3f 3843 04be
00000070: 2616 5440 502f a7be 5fb6 a940 0f9b 43c0
00000080: 1631 7640 bf4a bf3f fb96 b7bf 0ac4 22c0
00000090: d0aa f73f a0f5 39bf 20a6 02c0 46e7 1c40
000000a0: 021a 4440 5348 d43f 88b0 25bf 0d78 1a3f
000000b0: 2c41 d43f 2eba 3b3f 33b8 b93f 9945 7c3f
000000c0: d045 3040 00d9 3c3c 94f9 923f e1f9 89c0
000000d0: b31e 2ebf 2182 66c0 5afe 9d3e 9b5d b13f
000000e0: d24e cf3f ec81 1c40 b565 0e40 c296 55bf
000000f0: fe2e 5dbf 2a5a 633f fec5 553f 7102 4e40
1.164075 -3.3170745 -2.8556042 -1.2805517 2.37588 2.741077 2.6324587 2.520221
-1.2754794 2.7722516 3.516715 -0.75214666 -1.3923693 -0.23871079 -5.042052 -3.2694364
2.2822464 -0.01454854 2.4614353 2.3673813 1.0552328 -0.87226 1.1337532 1.4757202
0.61109495 -1.0500228 1.4620308 -0.12916267 3.3138518 -0.32653284 5.303512 -3.056339
3.846746 1.4944686 -1.434295 -2.5432153 1.9349003 -0.7264042 -2.0413895 2.4516158
3.0640874 1.6584572 -0.6472249 0.6033943 1.6582389 0.7333096 1.4509338 0.985437
2.754261 0.011526346 1.1482415 -4.311753 -0.68015593 -3.6016924 0.30858117 1.3856691
1.6195929 2.4454298 2.2249577 -0.83433163 -0.8639983 0.88809454 0.8350524 3.218899

4.weight f4 [5, 64]
00000000: b68a 6740 ba43 aac0 45ea 91bf c2be 463f
00000010: 4419 64bf 1b3c aabf 969c 50c0 5854 04c0
00000020: 54f8 48bf 79df ce3f 158e 4840 bce8 c93f
00000030: 0e37 d53e ebfd 28c0 2a5b 6cbf 0a91 d8bf
00000040: 2fbd 78bf 7ab9 873f 009d 73bd 439e 84c0
00000050: 0076 3abf 3f53 7ec0 7d34 9a3f 9ab4 1dbf
00000060: 42a1 543f 43a2 adbf 2266 c5bf b04a 1b3f
00000070: 6dc6 223f 1c82 5a3f 2486 74be f84b a83f
00000080: 8af9 ac3f d821 c13f 6bb2 d23e 7c6d 6bbf
00000090: de10 1440 2316 4cc0 7388 c0c0 405d 7dc0
000000a0: 50da 3140 8168 d8bf c282 a1be c991 b8c0
000000b0: 72ea 69c0 ba99 aabe 98e6 37c0 eec4 3a40
000000c0: 1a09 6bc0 0379 c0bf 6770 043f 29a8 08c0
000000d0: 46b9 5fbe 7a17 febf dcb0 9c3f d0b3 4b3f
000000e0: 06b2 4c3e 208e 00c0 2ec6 84bf b4f3 023f
000000f0: 54f4 3cbf e3b2 5abf 28d5 523f 18f3 17c0
00000100: 7e6a 5340 dfa1 5740 4ad7 98c0 9c62 09c0
00000110: 54a9 c53f 4e2d b93f df38 c6bf c78e 2440
00000120: e67c 9fbf 5f36 8140 9338 8140 9618 17c0
00000130: ca67 3b40 9e0b de3e 6c6d 04c0 ad76 723e
00000140: f60e 1ec0 3e6f a63e 78e7 c33e 7208 03c0
00000150: 867d 1c40 34ae 2bbd 12c6 2d40 1a00 6240
00000160: 8e0f 5340 2a68 3e3f 003b 883d 3670 e6bf
00000170: 4d10 b43f 8b9e 24c0 cc67 183e c613 d2bf
00000180: 95fd 0cc0 b56b 8140 50ef 6c40 9b05 22bf
00000190: 6efe 4040 2451 bc3f d4f4 be3f 5434 53c0
000001a0: 2808 6440 be26 22be a555 2bbf 806d cd3b
000001b0: 385f 013e f605 893f 9761 4d40 08e2 8d3f
000001c0: 4b2b 89c0 537b 513f e5f1 373f aae1 40bf
000001d0: 8b6c ac40 acc7 0840 ae6c 283f 3f31 18c0
000001e0: 6d28 6a40 2123 8cc0 45c2 36c0 08cc 653f
000001f0: 382e b5bd 7ca2 eebf 0831 823d c86e 783f
00000200: c368 1e40 17d6 33c0 16ef aebf 005a 293b
00000210: 3be5 983f 8c28 af40 54c9 3d40 ac07 2140
00000220: 06d6 12c0 a22c 17c0 b93d 543f e186 21c0
00000230: 105d dabf 6c5a 8f3e 1045 11c0 44fb 8bc0
00000240: 0677 d03f c72f ed3f 5244 b9be e09d b33c
00000250: 7855 e33e 02cb 71bf ca38 203f 1cd9 e0bd
00000260: a3a4 853f 34b2 0d40 3131 d63f 4a71 abc0
00000270: b668 a140 14db b4c0 fe30 0e3f e9bc 1cc0
00000280: 3a26 43be b687 3ec0 5270 5cbf 55e3 25c0
00000290: 35de c23f f082 50c0 2e10 3dbf e4d7 3bc0
000002a0: f9f9 26bf 650d 8140 e712 8bbf e0dd 0bc0
000002b0: 7a37 1c3f d147 b43f 57e2 5cbf bdd7 5940
000002c0: 91b7 bbbf b142 fe40 9044 ae40 f0f0 003d
000002d0: 1b39 1dbf c997 e2bf b8a0 62bf 1153 893f
000002e0: 241d 2cbd dfea 0e40 0f1f 4a40 d084 773f
000002f0: f8bf c13f 5c64 5f3f 3b02 9940 8024 4bbc
00000300: 4875 3940 2ba9 6fbf 9554 c23f a85c 83bf
00000310: eea1 8740 6890 51c0 455e 6fc0 aea6 8440
00000320: 29f4 0b40 e9c5 5a3f a83d 82bf f6be bc40
00000330: a306 4c40 bf0b 32c0 8d92 0640 03fb d03f
00000340: 5db0 fabf 4c9c 3fbf 3677 1bc0 9427 cdc0
00000350: bc39 bb3f 041e a7be c5d9 2440 f04a ae3e
00000360: 6685 4740 4cd8 8940 7f50 253f f75c a3bf
00000370: 12e8 0b40 6817 503f 18a6 70bd f8f1 8fbe
00000380: d069 ae40 7700 2d3f 8261 e23e 1675 d3bf
00000390: aefc cc3f 6840 403f 6ea0 bbbf 40cb 57bd
000003a0: 2ade 2240 3431 343f 86b7 67be 2ca8 18c0
000003b0: 0632 623f aa53 a0be 2346 01c0 3efe 66be
000003c0: 9c7c 8fc0 4104 1fc0 b0ae e1bf aa0c 7d3f
000003d0: 88b0 3dc0 28ad 4040 7af4 3440 d669 72c0
000003e0: 802f 8c3f 53a9 1ac0 92ea 413e 635f 1f40
000003f0: 847b dbbf 0ed7 00c0 323b d5bf dc0e 0a40
3.6178412 -5.3207674 -1.1399618 0.77634823 -0.8910105 -1.3299593 -3.2595572 -2.067648
-0.7850392 1.6161948 3.133672 1.577415 0.41643566 -2.640498 -0.92326605 -1.6919262
-0.9716367 1.0603478 -0.0594759 -4.144319 -0.72836304 -3.973831 1.2047268 -0.616037
0.8305856 -1.3565143 -1.5421793 0.6066084 0.63584024 0.8535478 -0.23879296 1.3148184
1.3513653 1.5088453 0.41151747 -0.91963935 2.3135295 -3.188851 -6.0166564 -3.9588165
2.7789497 -1.6906892 -0.31545073 -5.767796 -3.6549344 -0.3332041 -2.8734493 2.9182696
-3.6724305 -1.503693 0.5173401 -2.1352637 -0.2184802 -1.9850914 1.2241473 0.7957125
0.19989786 -2.0086746 -1.037298 0.5115311 -0.73810315 -0.8542921 0.823565 -2.3742123
3.3033748 3.3692548 -4.7762804 -2.1466436 1.54423 1.4466951 -1.5486106 2.5712144
-1.2459991 4.037887 4.038156 -2.3608756 2.9282098 0.43368238 -2.0691786 0.23678084
-2.4696631 0.32506746 0.38262534 -2.0473905 2.4451613 -0.04191418 2.7152143 3.5312562
3.2978244 0.7437769 0.06651878 -1.8002994 1.4067475 -2.5721767 0.14883345 -1.6412284
-2.2029774 4.044398 3.7021065 -0.63289803 3.0155292 1.4712262 1.4918466 -3.3000689
3.5629978 -0.15835091 -0.6692756 0.006269157 0.1263398 1.0704944 3.2090814 1.1084604
-4.286535 0.818288 0.71853477 -0.75344336 5.38825 2.137187 0.6579083 -2.3780057
3.6587174 -4.379288 -2.8556073 0.8976445 -0.08846706 -1.8643336 0.06357008 0.9704404
2.4751441 -2.809942 -1.3666713 0.0025840998 1.1944956 5.4736996 2.965413 2.5160933
-2.294313 -2.3620992 0.8290668 -2.5238574 -1.705965 0.27998674 -2.2698402 -4.374422
1.6286323 1.8530205 -0.36184937 0.021925867 0.44401145 -0.9445039 0.62586653 -0.1097891
1.0440868 2.2140017 1.6733762 -5.357579 5.044032 -5.651743 0.55543506 -2.4490302
-0.19057551 -2.9770331 -0.8610889 -2.5920002 1.5224062 -3.2579918 -0.73852813 -2.935052
-0.6522518 4.032885 -1.0865144 -2.1854172 0.6102215 1.4084417 -0.8628287 3.4037926
-1.4665395 7.945641 5.4458694 0.031479776 -0.6141526 -1.7702571 -0.8852649 1.0728475
-0.04201998 2.2330854 3.1581457 0.9668703 1.5136709 0.8726251 4.7815223 -0.012398839
2.8977833 -0.93617505 1.5182062 -1.0262651 4.238517 -3.2744389 -3.7401288 4.1453466
2.1867774 0.85458237 -1.0175066 5.8983107 3.187905 -2.781967 2.1026947 1.6326603
-1.9585072 -0.74847865 -2.429151 -6.4110813 1.4626994 -0.32640088 2.5757916 0.34041548
3.117517 4.3076534 0.6457595 -1.2762746 2.1860394 0.81285715 -0.05875215 -0.28114295
5.4504166 0.67578834 0.44215018 -1.6520107 1.6014612 0.75098276 -1.4658334 -0.05268407
2.5448098 0.7038758 -0.22628602 -2.3852644 0.8835758 -0.3131383 -2.0199058 -0.22557923
-4.483961 -2.4846346 -1.7631435 0.9884745 -2.9638996 3.0105686 2.8274217 -3.7877097
1.0951996 -2.4165847 0.18937138 2.490197 -1.7147069 -2.013126 -1.665869 2.157157

4.bias f4 [5]
00000000: 6e97 d63f 4fe8 afc0 02bb 45bf 6e9d 1140
00000010: 5f80 c9bf
1.6764963 -5.497108 -0.77238476 2.2752337 -1.5742301
