demo/experiments/genetic_algorithm/ga_experiment_2021_02_12_160407/problem_6.model (torch, 26149 bytes, 6 tensors)

0.weight f4 [64, 22]
0.049388394 -2.912127 2.645441 -0.23445335 1.3348663 0.6809094 2.788346 -0.47655046
2.5933433 3.7810307 0.62429297 3.1323974 -1.8061501 0.5746288 2.945081 -0.1785707
0.78568393 -2.5970201 2.6563869 2.7216978 -0.5544649 -0.7623044 2.092701 -2.213654
-3.5587358 2.8454187 5.413907 1.7637974 2.3445563 2.0355566 -2.1753201 -1.4666438
2.4963806 -1.094682 0.9273904 2.4038506 0.51206416 2.979383 2.4570074 0.39304143
1.0075839 -0.08160019 -2.140125 2.375657 2.2022614 2.5366812 0.22634983 1.4753155
-2.206576 -2.3937142 3.3464196 -2.801672 0.14457381 1.2847066 0.25143683 3.7548935
0.97443235 -1.1722767 2.8149905 2.7158883 2.5705066 2.532054 -0.35944152 -1.2284942
1.6804008 1.5402627 -4.5901423 1.9590302 -1.2659037 -0.060781956 -0.15756243 -4.360368
1.1057534 2.5723572 -3.1884496 0.89536 0.47690237 3.3955808 0.06931305 1.3284851
-1.0903289 0.36531067 -1.6843042 -3.105984 1.487191 -0.21088132 2.562218 1.7829802
1.1559343 -0.31441557 0.99982834 0.6697763 2.1272726 -2.2717934 1.4411324 -0.64238465
7.8587832 5.1235394 -1.4916497 -1.9981883 -0.619948 1.7044294 0.29435712 2.0398219
-2.7674274 2.0015597 0.86080515 -1.668148 -0.6733544 2.147324 -0.12875235 5.0825887
4.5502863 1.7092359 1.0419489 1.8302372 0.5228534 6.686891 -0.40777484 3.085941
-4.1369076 0.6956983 0.5248055 0.43698722 -1.2183717 2.7304492 0.4997581 1.7491133
0.7706098 -1.5088708 4.3974423 0.030484498 1.5959597 -0.6985443 0.07007098 -1.2103108
-0.69528615 0.8659146 -2.4582145 -0.22423792 3.5605316 0.6602236 1.2542708 -0.16727221
0.7828886 -2.0306728 -3.5558047 2.1784523 -2.1947017 -1.6050506 -0.55722195 -1.5763192
1.4304242 -1.858635 -3.216205 0.13998193 -4.0676928 3.4713576 6.3840647 -0.4550756
0.90464056 -1.5411938 -0.00054979324 -2.185485 -4.592618 4.849154 0.9088582 -0.7574627
2.8898177 -1.7411168 1.1422977 -5.5167665 2.5845864 -0.41754043 -1.4981133 -4.8063807
0.40433615 -2.1027493 2.625109 0.64582324 -0.9142855 -0.4592806 -0.29028404 0.2981521
0.03186488 -4.148859 1.1685463 2.109282 -1.4838631 -4.28309 0.24384381 1.3289021
-2.4237185 -1.0036452 -2.5024137 2.6452968 0.41379064 1.474483 2.2036161 1.9153843
0.13095582 -2.8373466 -1.3113215 1.7002014 -1.9643939 -3.1723614 -1.7782712 1.5765615
1.6650617 2.745179 -2.1160085 5.461372 -3.1922197 -0.66067713 1.127172 2.1670003
0.771321 0.9724182 2.063869 0.77021635 1.7102445 -2.21786 -0.72082 1.3697691
0.79161394 -1.8192589 -0.32950842 2.876704 0.9150305 3.5624924 -1.3337293 2.5261502
4.3900766 -2.483937 3.0374494 -0.58042514 -1.0174072 -4.5184555 -1.4087877 3.3693767
-1.4175262 1.726311 2.8724957 0.9641291 2.7930663 0.17151427 -4.227551 -0.64226663
-0.78794646 2.8366597 -5.993237 1.0252312 2.9619465 5.098339 0.97215784 -1.6805898
00000000: 7c4b 4a3d 4a60 3ac0 e84e 2940 8a14 70be
00000010: e6dc aa3f 1450 2e3f 4374 3240 6cfe f3be
00000020: 56f9 2540 68fc 7140 aad1 1f3f 3379 4840
00000030: ed2f e7bf df1a 133f 357c 3c40 3ddb 36be
00000040: 9522 493f 9435 26c0 3e02 2a40 4c30 2e40
00000050: 69f1 0dbf 6226 43bf d0ee 0540 82ac 0dc0
00000060: 54c2 63c0 571b 3640 ba3e ad40 1dc4 e13f
00000070: 360d 1640 8f46 0240 7238 0bc0 fcba bbbf
00000080: b3c4 1f40 8a1e 8cbf 7569 6d3f b0d8 1940
00000090: a316 033f 36ae 3e40 9c3f 1d40 ba3c c93e
000000a0: 82f8 803f 001e a7bd cff7 08c0 c40a 1840
000000b0: daf1 0c40 fc58 2240 40c8 673e 23d7 bc3f
000000c0: 8b38 0dc0 9d32 19c0 bd2b 5640 984e 33c0
000000d0: 280b 143e 4471 a43f 54bc 803e 2d50 7040
000000e0: 6674 793f 2a0d 96bf ce28 3440 1dd1 2d40
000000f0: 2e83 2440 2c0d 2240 b808 b8be 4c3f 9dbf
00000100: 6017 d73f 5427 c53f 72e2 92c0 80c1 fa3f
00000110: 2209 a2bf 80f6 78bd 0c58 21be 2288 8bc0
00000120: 5489 8d3f 80a1 2440 8f0f 4cc0 5036 653f
00000130: 8c2c f43e 3251 5940 00f4 8d3d cd0b aa3f
00000140: e68f 8bbf 000a bb3e 4897 d7bf 71c8 46c0
00000150: 465c be3f 46f1 57be 61fb 2340 b238 e43f
00000160: a8f5 933f 14fb a0be c0f4 7f3f 7676 2b3f
00000170: 3c25 0840 1065 11c0 0777 b83f 5273 24bf
00000180: 277b fb40 09f4 a340 61ee bebf a2c4 ffbf
00000190: eab4 1ebf be2a da3f fab5 963e 718c 0240
000001a0: 881d 31c0 8e19 0040 ba5d 5c3f e085 d5bf
000001b0: f460 2cbf c26d 0940 a8d7 03be 91a4 a240
000001c0: f29b 9140 3ec8 da3f 955e 853f 3645 ea3f
000001d0: b8d9 053f 03fb d540 ddc7 d0be 0f80 4540
000001e0: 8c61 84c0 4919 323f a759 063f cabc df3e
000001f0: 9bf3 9bbf aebf 2e40 4be0 ff3e f2e2 df3f
00000200: af46 453f ae22 c1bf d9b7 8c40 a0ba f93c
00000210: 6848 cc3f cdd3 32bf 6081 8f3d 77eb 9abf
00000220: 46fe 31bf 94ac 5d3f 6353 1dc0 a09e 65be
00000230: c0df 6340 6a04 293f f28b a03f 6849 2bbe
00000240: 636b 483f 8bf6 01c0 4e92 63c0 c36b 0b40
00000250: fe75 0cc0 4c72 cdbf 19a6 0ebf d4c4 c9bf
00000260: 2418 b73f c0e7 edbf 4dd6 4dc0 6c57 0f3e
00000270: 8a2a 82c0 b92a 5e40 424a cc40 abff e8be
00000280: 8696 673f d745 c5bf 0020 10ba fcde 0bc0
00000290: baf6 92c0 452c 9b40 eeaa 683f 13e9 41bf
000002a0: c6f2 3840 eadc debf d036 923f 5a89 b0c0
000002b0: dd69 2540 dcc7 d5be 2dc2 bfbf dfcd 99c0
000002c0: 2605 cf3e 7293 06c0 c901 2840 ac54 253f
000002d0: 9d0e 6abf d426 ebbe 1ca0 94be 64a7 983e
000002e0: c084 023d 74c3 84c0 ed92 953f 7afe 0640
000002f0: 3aef bdbf 130f 89c0 31b2 793e 7719 aa3f
00000300: 341e 1bc0 7277 80bf 8c27 20c0 8b4c 2940
00000310: 5edc d33e dcbb bc3f 0c08 0d40 502b f53f
00000320: 4819 063e 1697 35c0 62d9 a7bf 33a0 d93f
00000330: 4271 fbbf f807 4bc0 649e e3bf c4cc c93f
00000340: be20 d53f 03b1 2f40 af6c 07c0 8fc3 ae40
00000350: 544d 4cc0 2322 29bf 2c47 903f 22b0 0a40
00000360: 4b75 453f 66f0 783f 6e16 0440 e62c 453f
00000370: 4be9 da3f 6bf1 0dc0 a987 38bf 9854 af3f
00000380: 36a7 4a3f 7add e8bf 54b5 a8be eb1b 3840
00000390: 703f 6a3f e0ff 6340 a4b7 aabf 72ac 2140
000003a0: 827b 8c40 d3f8 1ec0 9265 4240 be96 14bf
000003b0: 663a 82bf 3097 90c0 2853 b4bf dea3 5740
000003c0: 8071 b5bf c2f7 dc3f f8d6 3740 2ad1 763f
000003d0: 99c1 3240 70a1 2f3e 1948 87c0 966b 24bf
000003e0: dcb6 49bf d58b 3540 99c8 bfc0 c73a 833f
000003f0: 8890 3d40 9825 a340 56df 783f 911d d7bf

0.bias f4 [64]
1.0712309 -0.63534564 0.040391304 -0.5943918 -0.12544307 -1.4536197 4.059117 2.0148158
-1.075825 0.7332065 0.8839294 -2.4656124 3.8730965 3.3028893 -3.8643103 0.79200864
3.2061224 0.8096145 0.41070515 0.69786865 1.9274244 -0.3787374 2.6721308 0.2330532
2.1259377 0.7110927 2.3377085 -3.158558 2.4629211 2.5610304 0.81693107 -2.8905175
2.3586974 -0.7064047 3.912602 -0.39524728 -1.4578087 0.29841453 -0.7512772 2.8274949
1.8312781 2.3206465 2.4920692 -1.9961483 -1.7759209 1.8936914 4.08893 -0.30646133
-0.22299558 2.2092826 -0.11510593 0.80260545 -5.51147 1.0241921 0.11859426 0.8503603
2.034585 -2.916364 0.89938563 -0.762443 2.2402337 -0.15846574 -1.2671484 -1.6787462
00000000: 181e 893f 03a6 22bf 5a71 253d 102a 18bf
00000010: 2674 00be 3610 babf 49e4 8140 bef2 0040
00000020: a2b4 89bf 6cb3 3b3f 3249 623f 98cc 1dc0
00000030: d0e0 7740 8a62 5340 dc50 77c0 14c1 4a3f
00000040: 1c31 4d40 e542 4f3f f247 d23e 85a7 323f
00000050: d8b5 f63f dee9 c1be 3104 2b40 80a5 6e3e
00000060: 5d0f 0840 2c0a 363f 049d 1540 d025 4ac0
00000070: 80a0 1d40 ece7 2340 6522 513f 3dfe 38c0
00000080: e6f4 1640 f0d6 34bf 1268 7a40 da5d cabe
00000090: 7a99 babf cac9 983e b453 40bf adf5 3440
000000a0: 5267 ea3f 7985 1440 107e 1f40 ca81 ffbf
000000b0: 6051 e3bf 7b64 f23f 84d8 8240 80e8 9cbe
000000c0: f458 64be e364 0d40 a8bc ebbd 8d77 4d3f
000000d0: f65d b0c0 ba18 833f 8ce1 f23d 36b1 593f
000000e0: a436 0240 b5a5 3ac0 233e 663f 772f 43bf
000000f0: fd5f 0f40 d844 22be eb31 a2bf 28e1 d6bf

2.weight f4 [64, 64]
2.014514 -5.143276 0.08451998 2.6882906 -0.9282614 -4.586727 2.5065663 0.06914008
2.2102666 0.62129986 1.9320616 -2.6368945 0.97352207 -2.1118712 3.5543666 1.1532496
0.643315 -3.2905986 0.9493722 0.51359105 -0.21155429 -3.969713 1.0222304 -3.3919954
-0.76301616 1.8866866 -0.19915879 2.3879974 -4.8323803 0.7756694 -1.009837 -4.2026644
-0.11945593 0.45355004 -2.1149266 -1.4887106 -1.4989316 -0.25243974 -1.7468565 -3.4041271
-1.3369706 -1.3194758 0.78714836 -0.7696363 -2.799613 -4.3271112 4.6715097 1.4668816
-0.2367891 3.1583912 -0.46981913 -0.5298198 -2.503553 -0.36526063 1.2717617 3.652165
0.32175934 -2.1246943 2.9715247 0.47806948 -1.4111948 -0.08350709 -1.6650515 -3.441277
2.051641 -4.633699 0.26528984 1.1274558 1.3046975 2.3456273 -2.427417 1.5665237
3.8420563 -0.7984064 2.0811586 2.1429052 -0.12608057 -2.4548154 2.233977 0.56741774
-3.2956893 0.32025552 -2.5222087 2.3132398 -0.85652757 0.75286376 0.59717226 1.819206
0.39976627 0.7766018 6.467054 3.916258 0.9234407 -2.9453893 -1.4962963 2.7749379
-0.76635414 0.1716081 4.3918467 -0.6261413 5.770592 0.20615107 -3.3729725 -1.04346
-0.7756009 0.03066067 -0.38795176 -1.8143649 -1.919032 0.83553344 3.2329893 -4.165008
0.40738958 -2.1198397 3.5345614 3.05548 1.3504405 0.4109571 0.90149415 -3.9940321
2.366067 1.5339173 -0.8749117 -0.39011246 6.4982157 0.3244328 -0.85116386 0.5583694
2.4525301 -2.249107 4.554608 1.4971789 1.947286 0.8949967 0.7078097 -1.7079463
0.20731246 -1.9084533 -3.3485034 3.531392 2.848125 -1.6895585 0.5195333 -2.321605
-1.6610508 -3.931625 2.3850393 -1.1230471 -1.8730402 0.7853693 -1.8697987 0.03024979
-1.4320266 1.3973522 -1.4296885 -1.9698212 1.9067566 -0.27105343 -2.1395552 -0.6972776
-1.0849179 2.5207844 -2.9369557 -3.9903228 -0.1076383 -5.2732816 0.22550333 2.6997335
-0.2635547 -0.5782993 -2.4385457 1.872815 -1.3158066 -0.45559132 -2.8140237 -0.91376275
-1.7978685 -0.20553741 4.294753 0.18195462 -0.7300351 -1.9395099 1.4920039 -1.1147363
1.1312642 0.3812406 1.2941207 0.20170283 0.7843395 1.7438474 2.3470752 0.63623965
1.4600146 -0.7838093 0.10029955 -0.053702727 1.7079453 1.7743269 3.9100795 -3.3449278
-1.8209507 -1.6651669 1.2455351 2.9606075 -4.4569073 -0.08704603 -1.8250303 -0.12871414
-1.2499661 1.5216752 -1.2854197 2.4847074 -3.300991 -2.2539263 0.75877684 -0.5966163
1.5137795 -1.2677492 1.427779 -0.7022201 1.2361712 2.3720074 4.7696304 2.943884
-2.3638492 3.1595023 -0.5062235 0.08429766 2.7505794 0.61121356 2.2572722 -3.0768259
2.4833035 -0.95567286 1.6692225 3.5222764 2.7670178 -2.1559057 3.0841742 -7.0812235
0.5968833 1.5733757 -0.88565326 -1.0033846 0.674435 -2.7750087 0.4802629 1.4652933
-0.9635842 1.0990926 -0.031478226 1.8470376 2.3839133 -0.094168544 -2.5692906 -3.085917
00000000: cced 0040 b895 a4c0 d018 ad3d f40c 2c40
00000010: 8aa2 6dbf 78c6 92c0 956b 2040 5099 8d3d
00000020: 0275 0d40 820d 1f3f cb4d f73f e1c2 28c0
00000030: be38 793f e628 07c0 be7a 6340 af9d 933f
00000040: 4bb0 243f 2b99 52c0 0e0a 733f b47a 033f
00000050: b0a1 58be c70f 7ec0 72d8 823f 7416 59c0
00000060: 0755 43bf f27e f13f 48f0 4bbe f3d4 1840
00000070: dca2 9ac0 4592 463f 5742 81bf 3a7c 86c0
00000080: 50a5 f4bd b637 e83e f55a 07c0 128e bebf
00000090: fedc bfbf c83f 81be fe98 dfbf 38dd 59c0
000000a0: da21 abbf 95e4 a8bf 8e82 493f e206 45bf
000000b0: dc2c 33c0 b277 8ac0 027d 9540 c7c2 bb3f
000000c0: d878 72be 1523 4a40 228c f0be 45a2 07bf
000000d0: 363a 20c0 7103 bbbe 16c9 a23f 12bd 6940
000000e0: a4bd a43e fefa 07c0 762d 3e40 86c5 f43e
000000f0: 08a2 b4bf c405 abbd 6820 d5bf e23d 5cc0
00000100: 164e 0340 4347 94c0 12d4 873e 7950 903f
00000110: 5400 a73f c21e 1640 cd5a 1bc0 d983 c83f
00000120: 40e4 7540 5d64 4cbf b431 0540 5c25 0940
00000130: 441b 01be b21b 1dc0 7bf9 0e40 4a42 113f
00000140: 93ec 52c0 88f8 a33e de6b 21c0 1f0c 1440
00000150: 6445 5bbf aebb 403f 48e0 183f bedb e83f
00000160: 2aae cc3e 60cf 463f 1bf2 ce40 f9a3 7a40
00000170: 9c66 6c3f 4281 3cc0 a386 bfbf 9598 3140
00000180: c92f 44bf 09ba 2f3e 028a 8c40 cc4a 20bf
00000190: b1a8 b840 4419 533e c8de 57c0 1990 85bf
000001a0: c88d 46bf 162c fb3c 9da1 c6be 1c3d e8bf
000001b0: d7a2 f5bf 85e5 553f 4ce9 4e40 bf47 85c0
000001c0: 5e95 d03e 74ab 07c0 4136 6240 fc8c 4340
000001d0: 3cdb ac3f f868 d23e 52c8 663f 399e 7fc0
000001e0: a46d 1740 6757 c43f 37fa 5fbf d2bc c7be
000001f0: 62f1 cf40 0e1c a63e e0e5 59bf 4cf1 0e3f
00000200: 41f6 1c40 5ef1 0fc0 59bf 9140 8fa3 bf3f
00000210: ab40 f93f 811e 653f 0433 353f fc9d dabf
00000220: b849 543e 3348 f4bf e14d 56c0 5402 6240
00000230: ae47 3640 7443 d8bf 2200 053f 2d95 14c0
00000240: 509d d4bf be9f 7bc0 7ca4 1840 02c0 8fbf
00000250: c8bf efbf f60d 493f 9055 efbf 68ce f73c
00000260: a64c b7bf 70dc b23f 0800 b7bf 1a23 fcbf
00000270: 9a10 f43f 84c7 8abe 79ee 08c0 c980 32bf
00000280: 97de 8abf 8854 2140 15f7 3bc0 7361 7fc0
00000290: 7871 dcbd b9be a8c0 58ea 663e 6fc8 2c40
000002a0: a4f0 86be 6c0b 14bf 2211 1cc0 67b8 ef3f
000002b0: 5a6c a8bf 4443 e9be f718 34c0 5bec 69bf
000002c0: 8e20 e6bf 6678 52be 9e6e 8940 5052 3a3e
000002d0: 95e3 3abf dc41 f8bf fcf9 be3f aeaf 8ebf
000002e0: 44cd 903f f831 c33e bfa5 a53f 308b 4e3e
000002f0: 79ca 483f 6436 df3f 7b36 1640 9ae0 223f
00000300: c2e1 ba3f baa7 48bf da69 cd3d 64f7 5bbd
00000310: f49d da3f 251d e33f be3e 7a40 4c13 56c0
00000320: ea14 e9bf 3024 d5bf b26d 9f3f 987a 3d40
00000330: fc9e 8ec0 3045 b2bd 989a e9bf a4cd 03be
00000340: e4fe 9fbf 41c6 c23f a288 a4bf 7205 1f40
00000350: 7043 53c0 5440 10c0 333f 423f d9bb 18bf
00000360: 87c3 c13f 9b45 a2bf 76c1 b63f b2c4 33bf
00000370: dc3a 9e3f f8ce 1740 d0a0 9840 9868 3c40
00000380: 4e49 17c0 4935 4a40 dd97 01bf 40a4 ac3d
00000390: 7e09 3040 7e78 1c3f 2677 1040 b7ea 44c0
000003a0: 72ee 1e40 faa6 74bf 15a9 d53f fa6c 6140
000003b0: d216 3140 5cfa 09c0 1c63 4540 6299 e2c0
000003c0: 58cd 183f 6064 c93f 2cba 62bf e86e 80bf
000003d0: c6a7 2c3f be99 31c0 05e5 f53e bb8e bb3f
000003e0: 74ad 76bf 11af 8c3f 50ef 00bd ba6b ec3f
000003f0: 0992 1840 70db c0bd 426f 24c0 aa7f 45c0

2.bias f4 [64]
-1.950521 -0.7310651 -0.49349537 3.6393774 -2.3552732 -0.53152734 0.0040533543 -2.9292212
-3.9441814 3.01023 -3.1667945 1.622521 2.0000196 0.640831 -0.21574157 -5.2075
-2.425085 -2.5550694 -0.62115824 -1.1646309 1.4729224 3.8289316 1.785162 0.44152
-0.017679334 2.7686455 0.79453754 -1.8530079 -0.589442 4.1650977 1.1965114 1.8861467
-1.7838778 2.6122751 -0.7555423 1.5790925 -1.2355945 1.2482415 -0.14930736 0.107933015
-0.93485296 1.6407295 6.349919 -0.9208551 -3.4845178 1.7562785 1.3840926 0.8205514
-0.026106834 -1.7028666 0.24900395 1.431392 0.758815 3.28375 -2.3869119 -2.7755964
-2.4989643 -0.20767978 -0.798297 -1.9459643 0.6329413 1.1232812 1.9087375 2.6424022
00000000: acaa f9bf 1527 3bbf 6dab fcbe 8feb 6840
00000010: ccbc 16c0 2d12 08bf 00d2 843b 5c78 3bc0
00000020: 786d 7cc0 9ca7 4040 c3ac 4ac0 c5ae cf3f
00000030: 5200 0040 800d 243f 5ceb 5cbe d7a3 a6c0
00000040: 9834 1bc0 4286 23c0 3a04 1fbf a012 95bf
00000050: b988 bc3f 370d 7540 3080 e43f e90e e23e
00000060: 40d4 90bc 7d31 3140 d066 4b3f 5d2f edbf
00000070: ace5 16bf 7b48 8540 4927 993f 416d f13f
00000080: 1c56 e4bf 842f 2740 386b 41bf b41f ca3f
00000090: f627 9ebf 61c6 9f3f 07e4 18be fc0b dd3d
000000a0: 8652 6fbf 6d03 d23f 8932 cb40 29bd 6bbf
000000b0: 5702 5fc0 bccd e03f f229 b13f a80f 523f
000000c0: 00de d5bc 88f7 d9bf e4fa 7e3e da37 b73f
000000d0: b341 423f f628 5240 2ac3 18c0 5fa3 31c0
000000e0: 08ef 1fc0 02aa 54be 315d 4cbf 5c15 f9bf
000000f0: 7108 223f aec7 8f3f 8351 f43f 1e1d 2940

4.weight f4 [5, 64]
-4.190423 -0.93512416 0.103152454 0.24241912 1.724576 -1.7120079 -1.5868051 0.14991705
-0.8339147 1.7263806 -0.5782781 0.4882058 -4.8652506 -1.423285 -0.35883117 -3.423387
-0.1895564 1.9812137 2.3976073 -1.5565372 -5.687766 -4.5816984 -0.30014026 -5.119386
1.4074128 -1.3001217 -1.645731 0.5899953 1.0783762 1.7300788 2.0927827 0.40821826
1.0843388 1.9038055 -2.2273788 -2.374804 2.3186734 -2.4954524 0.6678422 -1.1272769
1.1289262 6.5510273 -3.2042975 -2.525129 5.9727645 1.8063309 1.5280621 2.469284
-1.3343983 0.80875725 1.2193713 1.4536529 5.3725924 -0.74790406 -0.04526794 -0.32709336
1.7927924 1.840763 -3.3471055 -1.9368609 3.2028704 -1.8295135 1.7981395 0.90357935
1.1682537 1.7956411 1.3443782 -0.64866334 2.2145445 2.7423525 -0.29687393 0.35946798
-0.114439875 5.665569 -0.399575 3.935739 2.6573856 3.0115547 0.7962948 -0.13441932
2.7739725 -1.0448807 -2.1276162 1.8750837 1.9047654 0.31857938 -1.5845529 4.887542
-3.4445882 -0.15819538 1.0850863 -1.0979605 4.1117587 2.1542492 5.855749 2.252688
4.436537 0.13483337 1.3105586 1.0230787 0.22417527 -3.2232347 -1.4776933 -1.6149687
0.99118876 -0.24430263 -0.9441061 2.35302 0.057718217 6.4780807 -2.400731 0.5611155
1.6977652 4.489379 5.143312 1.0124464 -0.6411388 1.2771697 3.1821659 2.4110522
2.4041324 6.0229034 1.524521 1.53385 -1.4526416 4.1093802 -1.9271001 0.046582937
0.52933013 3.5699134 -0.13534936 -2.299671 1.9266193 -0.16142693 1.354773 3.7254267
-0.35281786 3.4602218 -1.0554147 -3.3042443 1.7972014 -0.0107435435 -0.42425793 1.4311755
-0.088620186 1.9520085 -1.2563826 -2.4120336 -1.4104981 -0.69401944 1.0042531 -1.9543759
1.5659865 -3.8074214 -0.5058949 3.8092356 3.075969 -1.612845 -1.0650676 -2.7686882
-2.8759067 1.7024122 0.19510317 -1.1133682 1.8480074 2.7760637 -0.08975935 -1.2147366
2.609767 2.043418 1.6969812 0.32210463 6.5298142 -2.4019647 -0.5886724 -3.0726209
-0.42061153 -0.890339 1.7548642 -1.0090262 1.0434194 1.868999 -0.053888142 1.4661868
-1.9414959 3.2532113 -1.2407569 1.4311775 -3.6899157 0.26782045 -4.1689134 1.1819584
0.030690521 -1.7783077 -3.9755752 2.5361319 2.6890473 0.5776448 -2.8926134 -3.3109975
-0.91297096 -0.92416394 -1.3773799 -0.63953894 2.577047 -1.0961854 0.6201612 2.4636817
1.1731721 1.2855902 -0.47781205 0.9511845 1.4509801 1.4999155 -2.6575398 -0.74779874
3.2981572 -0.48860338 1.9204391 0.7828299 -1.0850012 -0.22050852 1.5855658 -1.4844742
2.1745 0.028304577 -2.676383 0.12987928 -4.294891 2.2047136 -0.59849674 -0.14574765
-0.45043385 -1.7378232 -1.5518725 -1.5267147 5.4024515 -3.5193477 2.3417957 -3.0288005
-0.563959 -0.18341184 -3.4865398 1.8377367 -2.664741 1.1714712 3.3528454 -3.8893943
2.003029 -6.5543337 1.9633901 -1.9471911 -4.5629163 2.3096585 1.8429352 -1.8839724
00000000: f217 86c0 4c64 6fbf 9841 d33d b83c 783e
00000010: e8be dc3f 1323 dbbf 6e1c cbbf db83 193e
00000020: 6f7b 55bf 0afa dc3f 090a 14bf 1cf6 f93e
00000030: 22b0 9bc0 342e b6bf b8b8 b7be c618 5bc0
00000040: 131b 42be 6998 fd3f 6672 1940 9c3c c7bf
00000050: 2e02 b6c0 469d 92c0 fcab 99be 03d2 a3c0
00000060: 1a26 b43f 636a a6bf 50a7 d2bf ef09 173f
00000070: 3b08 8a3f 3973 dd3f 27f0 0540 fc01 d13e
00000080: 9dcb 8a3f e6af f33f 608d 0ec0 cafc 17c0
00000090: 2565 1440 7eb5 1fc0 b5f7 2a3f 9c4a 90bf
000000a0: a780 903f 04a2 d140 3613 4dc0 b79b 21c0
000000b0: e320 bf40 da35 e73f 8a97 c33f c008 1e40
000000c0: 90cd aabf b70a 4f3f 5c14 9c3f 4c11 ba3f
000000d0: 47ec ab40 a476 3fbf e06a 39bd c878 a7be
000000e0: 397a e53f 1f9e eb3f fa36 56c0 0feb f7bf
000000f0: d4fb 4c40 802d eabf 6f29 e63f fa50 673f
00000100: 5689 953f 91d7 e53f 9614 ac3f cd0e 26bf
00000110: 19bb 0d40 b482 2f40 dcff 97be 300c b83e
00000120: 745f eabd 574c b540 1895 ccbe 26e3 7b40
00000130: 9b12 2a40 50bd 4040 fad9 4b3f 38a5 09be
00000140: c488 3140 a7be 85bf dd2a 08c0 be02 f03f
00000150: 5acf f33f d61c a33e a1d2 cabf be66 9c40
00000160: 2274 5cc0 f8fd 21be 1ce4 8a3f f889 8cbf
00000170: 8793 8340 38df 0940 4c62 bb40 0a2c 1040
00000180: 1cf8 8d40 c211 0a3e 62c0 a73f 3ef4 823f
00000190: 348e 653e 7a49 4ec0 0e25 bdbf 4bb7 cebf
000001a0: 8cbe 7d3f 782a 7abe f0b0 71bf e197 1640
000001b0: f069 6c3d 704c cf40 94a5 19c0 44a5 0f3f
000001c0: 5f50 d93f fea8 8f40 0396 a440 d897 813f
000001d0: ac21 24bf 4c7a a33f 9ba8 4b40 ae4e 1a40
000001e0: 4edd 1940 a0bb c040 8123 c33f 3255 c43f
000001f0: 29f0 b9bf 0b80 8340 37ab f6bf c0cd 3e3d
00000200: 2e82 073f 7679 6440 0699 0abe cf2d 13c0
00000210: 769b f63f 1a4d 25be 3469 ad3f 646d 6e40
00000220: 8ba4 b4be 4674 5d40 d417 87bf bd78 53c0
00000230: b20a e63f b005 30bc 5638 d9be c230 b73f
00000240: 807e b5bd 6adb f93f 25d1 a0bf c25e 1ac0
00000250: 348b b4bf 42ab 31bf 5e8b 803f fd28 fabf
00000260: 3f72 c83f cbac 73c0 5482 01bf 84ca 7340
00000270: addc 4440 b471 cebf 2354 88bf 3032 31c0
00000280: db0e 38c0 a5e8 d93f 20c9 473e d982 8ebf
00000290: 828b ec3f 07ab 3140 c0d3 b7bd 7d7c 9bbf
000002a0: 6c06 2740 5cc7 0240 ae36 d93f e6ea a43e
000002b0: 3df4 d040 cab9 19c0 3cb3 16bf d2a5 44c0
000002c0: 655a d7be 42ed 63bf 649f e03f c527 81bf
000002d0: c48e 853f 5c3b ef3f d0b9 5cbd 02ac bb3f
000002e0: f082 f8bf 9d34 5040 1fd1 9ebf d330 b73f
000002f0: 9427 6cc0 c31f 893e bd67 85c0 6a4a 973f
00000300: b06a fb3c 969f e3bf d36f 7ec0 fc4f 2240
00000310: 5a19 2c40 88e0 133f 9420 39c0 62e7 53c0
00000320: 77b8 69bf 0296 6cbf fc4d b0bf d3b8 23bf
00000330: 57ee 2440 ce4f 8cbf e2c2 1e3f f6ac 1d40
00000340: 812a 963f 388e a43f c8a3 f4be d480 733f
00000350: b7b9 b93f 3bfd bf3f 2215 2ac0 bd6f 3fbf
00000360: 0215 5340 392a fabe f3d0 f53f 8a67 483f
00000370: 52e1 8abf fccc 61be d2f3 ca3f 4003 bebf
00000380: 022b 0b40 00df e73c dc49 2bc0 13ff 043e
00000390: bf6f 89c0 071a 0d40 1537 19bf df3e 15be
000003a0: 449f e6be fe70 debf c2a3 c6bf 636b c3bf
000003b0: e2e0 ac40 fe3c 61c0 fbdf 1540 ded7 41c0
000003c0: 9e5f 10bf 50d0 3bbe 7823 5fc0 f53a eb3f
000003d0: 1e8b 2ac0 c5f2 953f 0595 5640 d6eb 78c0
000003e0: a131 0040 1abd d1c0 5e50 fb3f 8f3d f9bf
000003f0: 6903 92c0 72d1 1340 4de5 eb3f 0226 f1bf

4.bias f4 [5]
-0.2508183 1.7998302 2.2361162 -1.344546 -1.2771271
00000000: 426b 80be d660 e63f 871c 0f40 151a acbf
00000010: e778 a3bf
