demo/experiments/genetic_algorithm/ga_experiment_2021_02_12_160407/problem_46.model (torch, 26149 bytes, 6 tensors)

0.weight f4 [64, 22]
0	0x40154569	2.3323615
1	0x401d3436	2.4563117
2	0xbf90f0e7	-1.1323518
3	0xc04017b0	-3.0014458
4	0xbf80827b	-1.003982
5	0x3ea15fca	0.31518394
6	0xbf422997	-0.7584471
7	0xbfc3d3ff	-1.5299071
8	0x3ffed79f	1.9909552
9	0x401ca826	2.447763
10	0xc0b6bf11	-5.7108235
11	0x40170207	2.3594987
12	0xbfae6366	-1.3624084
13	0x3eabd02e	0.33557266
14	0x3fa60ba6	1.2972305
15	0x3f971ca2	1.1805613
16	0x3f6fce0e	0.9367379
17	0x3e517cb8	0.20457733
18	0xc00e6bf7	-2.2253397
19	0xc0943dd6	-4.6325483
20	0xbf8ef1e3	-1.1167568
21	0xbe8f009b	-0.2793015
22	0xbe233f2f	-0.15942071
23	0xbfe5edd8	-1.7963209
24	0x3d4bed3c	0.04978679
25	0x402e4533	2.7229736
26	0xbfae6213	-1.362368
27	0xbf8bf726	-1.0934799
28	0x403112ab	2.7667644
29	0x3f9db619	1.2321197
30	0xbf4ffae3	-0.812422
31	0xc05aefb9	-3.4208815
32	0x3fb50699	1.4142638
33	0xbf5c5740	-0.8607063
34	0xbffeb090	-1.9897633
35	0x3e46cab2	0.1941326
36	0xc0814c62	-4.040574
37	0x3fa03040	1.2514725
38	0x3dfde5e0	0.12397361
39	0x3f8a8365	1.0821348
40	0x3e5b00fb	0.21387093
41	0x3e8cfd1b	0.27536854
42	0xc05ab0cf	-3.4170415
43	0x3c896f80	0.0167768
44	0xbff65d5c	-1.9247241
45	0x3f90a1ab	1.1299337
46	0x40936a4a	4.6067247
47	0xbf8440ee	-1.0332315
48	0xc01bb9f5	-2.433225
49	0x3fdb0331	1.7110349
50	0xbedd1562	-0.43180376
51	0xc0a8e9a6	-5.2785215
52	0x3fd9adc0	1.7006149
53	0x4080e573	4.028009
54	0x3de364f0	0.11103237
55	0xc02408be	-2.5630336
56	0x406f1e8a	3.736239
57	0xbe334b97	-0.17509304
58	0xc02f7cb3	-2.741986
59	0x4026f1b6	2.6085029
60	0x3ffb423e	1.962959
61	0x3f080e7e	0.53147113
62	0xc05b7634	-3.4290895
63	0xbf26b237	-0.65115684
64	0x3f1162f6	0.5679163
65	0x3f4788e4	0.77943254
66	0xbfa8f21f	-1.319889
67	0xbfd54d64	-1.6664243
68	0x3fc47d29	1.5350696
69	0x3fd86629	1.6906177
70	0xc03b3d00	-2.9255981
71	0x3c9b3b40	0.018949151
72	0x3f02099e	0.50795925
73	0x3dcc78a8	0.09983951
74	0xc032872c	-2.7895002
75	0x408b95ee	4.362052
76	0x4088ef7b	4.2792335
77	0xbfab39a9	-1.3376971
78	0x3e1e46e0	0.15456724
79	0xc00f4855	-2.2387898
80	0xbfddc3c0	-1.7325363
81	0x3fadc524	1.3575788
82	0x3f88a2ac	1.0674644
83	0xc004db90	-2.075901
84	0xc0114f1c	-2.2704535
85	0xbf1d4dc2	-0.61446774
86	0x3ee4bd28	0.44675565
87	0x3db0462c	0.08607134
88	0xc0864e0e	-4.197028
89	0xbfb09d7e	-1.3798063
90	0xc0562e5c	-3.3465796
91	0xc006fea7	-2.1092927
92	0x404d289c	3.2056036
93	0x403d6d22	2.959786
94	0x4024b7a5	2.5737088
95	0x3e9cba5e	0.30610937
96	0xbfa7c06c	-1.3105597
97	0xbf91023e	-1.1328809
98	0x407aa082	3.9160466
99	0x402d660a	2.709353
100	0x3fc600f8	1.5469046
101	0xc0765a49	-3.8492606
102	0x40029be1	2.040764
103	0x3f858c36	1.0433414
104	0x403583ea	2.8361764
105	0x3f7fe3d8	0.99957037
106	0xc022a4bb	-2.5413043
107	0x403828dd	2.877494
108	0x409b6e4d	4.8572145
109	0xc006dea4	-2.107339
110	0xc0530b88	-3.2975788
111	0x40978312	4.73475
112	0xbf54295e	-0.8287562
113	0x3fb040fc	1.3769832
114	0xbd3d4436	-0.04620763
115	0xc07c0436	-3.937757
116	0x408066a8	4.0125313
117	0x40874769	4.227467
118	0xc07dfc80	-3.9685364
119	0xbf617788	-0.88073015
120	0x401d4cc5	2.4578106
121	0x3f39ff4a	0.72655165
122	0xbfefe7dc	-1.8742633
123	0x3fde2b56	1.7356975
124	0xbf117b5f	-0.56828874
125	0xc0710be5	-3.766351
126	0x407b16d6	3.9232688
127	0xbe39b0d8	-0.18133867
128	0x4046fcc0	3.1091766
129	0x40355a49	2.8336356
130	0xc0c46418	-6.1372185
131	0xbfbe62bc	-1.4873881
132	0x40665e3d	3.5995018
133	0x3f1a4eb2	0.6027633
134	0xc05b1ec2	-3.4237523
135	0xbe062cae	-0.13102981
136	0x3e623000	0.22088623
137	0x4080ab8e	4.0209417
138	0xbbeee8e0	-0.0072909445
139	0xbff33d8a	-1.9003155
140	0xbf947a93	-1.1599907
141	0x3fbcc69a	1.4748108
142	0xc094a99a	-4.6457033
143	0xbfd3be52	-1.6542456
144	0xbfe58848	-1.7932215
145	0xc0416a45	-3.0221112
146	0x40e1c0da	7.0547915
147	0xbf245598	-0.64193106
148	0xbf5a523e	-0.8528174
149	0x40819979	4.0499845
150	0xc0ab1c38	-5.3471947
151	0x3f3d35e8	0.7391038
152	0xc01d7ca6	-2.460733
153	0x403503c2	2.8283544
154	0xc088702f	-4.2636943
155	0xc049369a	-3.1439576
156	0x3e512346	0.20423612
157	0xbfe9e9de	-1.8274496
158	0xc0e81304	-7.2523212
159	0xbfb67c75	-1.4256731
160	0xbd5414a0	-0.051777482
161	0x3f6a1972	0.91445076
162	0xbfd5af40	-1.6694107
163	0x3f21c529	0.6319147
164	0xbfd47e2d	-1.6601006
165	0xbeec6bc6	-0.46175975
166	0x4008b1e9	2.1358588
167	0xbfa7309c	-1.306171
168	0xc00d32cf	-2.206226
169	0xbf29c4ad	-0.6631573
170	0x3eeca5a4	0.46220124
171	0xbed719ec	-0.42011964
172	0xbf7a5e0d	-0.9779976
173	0xc051d86a	-3.2788339
174	0x40303f62	2.7538686
175	0x409ac7ee	4.8369055
176	0xbfb5d23b	-1.4204782
177	0xbf5b8d61	-0.857626
178	0xbf96f7ba	-1.179435
179	0xc028001f	-2.6250074
180	0xbf1bfa64	-0.6092894
181	0xbf8ed5c8	-1.1158991
182	0x3f1d6680	0.6148453
183	0x4036644a	2.8498712
184	0x3f138452	0.5762378
185	0x3f8fd264	1.1236081
186	0x4083236d	4.0980744
187	0xc00e7e63	-2.226464
188	0x3f8aee6d	1.0854012
189	0xbf059d81	-0.52193457
190	0xbf60fd7e	-0.878868
191	0x3ec726e0	0.38896847
192	0x3fd97c54	1.6991067
193	0x3fa30e26	1.2738693
194	0x4041753f	3.0227811
195	0x3fc66732	1.5500243
196	0x405efa50	3.4840279
197	0xc014dfb9	-2.326155
198	0x405b3774	3.4252596
199	0x3fd31a30	1.6492367
200	0x3f0df24e	0.5544785
201	0xbf782a2e	-0.9693936
202	0xc073c8ee	-3.8091388
203	0x402b69d6	2.6783347
204	0xc01d9acc	-2.462573
205	0x3f45c50f	0.7725381
206	0x3fcca2eb	1.5987219
207	0x3fd67d6c	1.6757026
208	0xbf42096c	-0.75795627
209	0xbf1db9ef	-0.6161184
210	0x3f843a06	1.0330207
211	0xc09e1f2e	-4.941306
212	0xbf98cc4e	-1.1937349
213	0xbfa372af	-1.2769374
214	0xbe0e6c0c	-0.13908404
215	0xbfc0517a	-1.5024865
216	0x3ed93560	0.42423534
217	0xc01e472d	-2.4730942
218	0xc01573b4	-2.335187
219	0x4067aad8	3.6198025
220	0xbfb6f546	-1.4293602
221	0x404be488	3.1858234
222	0x3f56ac30	0.8385649
223	0xbfbaa5b0	-1.4581814
224	0x4056e4fb	3.3577259
225	0xbfc963e2	-1.5733607
226	0xbff81c0c	-1.9383559
227	0xbfddfa45	-1.7342001
228	0x3e8f8e1a	0.28038102
229	0x40192d90	2.393406
230	0xbfa90b0c	-1.3206496
231	0xc058f63f	-3.3900297
232	0xc07284ca	-3.7893548
233	0x4015c559	2.3401701
234	0xbfdfd6e9	-1.748746
235	0x3f1639eb	0.58682126
236	0x405db125	3.463937
237	0x4064136a	3.563685
238	0x3da4e040	0.08050585
239	0xbfedb11b	-1.8569673
240	0x4083dab3	4.1204467
241	0xbfdd5c4b	-1.729379
242	0xbfeaf6e0	-1.835659
243	0xc078efa0	-3.8896255
244	0xbfeae231	-1.8350278
245	0xbf825f40	-1.0185318
246	0xc033f250	-2.8116646
247	0xc086dcb5	-4.214442
248	0x40291105	2.6416638
249	0xc021639f	-2.5217054
250	0x4031ec85	2.780061
251	0x3f8e3a4e	1.1111543
252	0xc0acd950	-5.4015274
253	0x3fecdcb0	1.8504848
254	0xc089dc75	-4.3081613
255	0xbf647228	-0.8923669

0.bias f4 [64]
0	0xc02c8467	-2.6955812
1	0xc00f7a78	-2.24185
2	0xbf7a9994	-0.9789059
3	0x3ea91ece	0.33031315
4	0x40060628	2.0941257
5	0xc01287ee	-2.2895465
6	0xbf7a3e3f	-0.9775123
7	0xc0eb03ab	-7.3441978
8	0x3e20ec40	0.15715122
9	0x3e22f330	0.15913081
10	0x3dc0a0f6	0.09405701
11	0x407f5afe	3.9899287
12	0xbfed1d4a	-1.8524563
13	0xbef9fb48	-0.48824525
14	0x406a9c4c	3.6657896
15	0x409527d2	4.661111
16	0xbf4c22c6	-0.7974056
17	0xbee0c92d	-0.43903485
18	0x4025545a	2.5832734
19	0xc0587928	-3.3823948
20	0xbf59de90	-0.8510523
21	0xbf09d385	-0.5383838
22	0x3fcbfa66	1.593579
23	0x40921a2b	4.5656943
24	0xc00cd74c	-2.2006407
25	0xbfc44e0e	-1.533632
26	0x405682dc	3.351737
27	0x3f98d05d	1.1938587
28	0xc00f5606	-2.2396255
29	0xbfd64818	-1.6740751
30	0xbe892d18	-0.26792216
31	0xbf8169ba	-1.011039
32	0xbefe8168	-0.49708104
33	0xc0a1dd72	-5.058282
34	0x3f1d8558	0.6153159
35	0xc06a5305	-3.661317
36	0xbf3a9c52	-0.72894776
37	0xc0c07006	-6.0136747
38	0xc03c2538	-2.9397717
39	0x3e6733f0	0.22578406
40	0xbe0ec342	-0.13941672
41	0x407fa21b	3.9942691
42	0xc00bf22e	-2.1866565
43	0xbde8f1a8	-0.11374217
44	0x3f954b2a	1.1663563
45	0xc04812ed	-3.1261551
46	0x40075953	2.114827
47	0xbfee3e72	-1.8612807
48	0x40ac3b14	5.3822117
49	0xc00c74c6	-2.1946273
50	0x3f361223	0.71121424
51	0x4008067c	2.1253958
52	0x3fde1e7a	1.7353051
53	0xc01e79ea	-2.476191
54	0x403aebe6	2.920648
55	0x4078664e	3.8812442
56	0x3f0dfc72	0.55463326
57	0xc0152384	-2.3302927
58	0xbf74b41b	-0.9558732
59	0xc06cf9ca	-3.702746
60	0x4086d555	4.2135415
61	0x40115d4f	2.27132
62	0x4044f64e	3.0775332
63	0xc018413d	-2.3789818

2.weight f4 [64, 64]
0	0x3fbcf3b6	1.4761875
1	0xbf9a88a6	-1.2072952
2	0xc024edb7	-2.577009
3	0x3f901abc	1.1258159
4	0x3fa92cce	1.3216798
5	0xbf6f004a	-0.93359816
6	0x40912be3	4.5366073
7	0x3f0b0124	0.54298615
8	0x3ff50272	1.9141371
9	0x3d83f5f8	0.06443399
10	0x40b0436b	5.5082297
11	0xbe96d624	-0.2946025
12	0x3f9accf9	1.2093803
13	0xc05a63ce	-3.4123416
14	0xbdd53e80	-0.104123116
15	0xc0206652	-2.5062451
16	0x3f7b01a6	0.9804939
17	0xbfb21868	-1.3913698
18	0x3f08506a	0.532477
19	0x40459d48	3.0877247
20	0x3eb9f04e	0.3631615
21	0xc0c1ea1b	-6.0598273
22	0xbe8fca64	-0.280841
23	0xbdd7acf0	-0.10531032
24	0xbf989517	-1.1920499
25	0x3fb461ba	1.4092324
26	0xbfedc9de	-1.857723
27	0x4077c12c	3.8711653
28	0xc022bd90	-2.54282
29	0xc03e3d58	-2.9724941
30	0xbe41bdd0	-0.18920064
31	0xc03ea832	-2.9790158
32	0xbf55c03e	-0.83496463
33	0xc00338aa	-2.0503335
34	0x3fca24c9	1.5792476
35	0x3f0753b1	0.5286208
36	0x3fc081ff	1.5039672
37	0xbe12c7e4	-0.14334065
38	0x3ef9ebd0	0.48812723
39	0xc03363a0	-2.8029556
40	0xc062e3e2	-3.5451589
41	0xbf7f9462	-0.9983579
42	0x3e8dcbcc	0.27694547
43	0x3f5b46b4	0.8565476
44	0xc092e7ac	-4.5907803
45	0xbeec4542	-0.4614659
46	0xbdd9edfc	-0.10641095
47	0xbfa765ea	-1.3077977
48	0x408412a1	4.127274
49	0xbfc5a744	-1.544167
50	0xbfffad90	-1.9974842
51	0xbfa1c7ba	-1.2639077
52	0x3f72994e	0.94765174
53	0x3f11dcec	0.56977725
54	0xc0072907	-2.111879
55	0xc0724160	-3.7852402
56	0x3f840917	1.0315274
57	0xbf91ae96	-1.1381404
58	0x3f25e8fe	0.6480864
59	0x3fae14a9	1.3600055
60	0x3fd61292	1.6724417
61	0xbf1378e2	-0.5760633
62	0x3e9ca07c	0.3059119
63	0xbf94d493	-1.1627373
64	0x3f24864b	0.64267415
65	0xbfe2a05d	-1.7705189
66	0x3fe6ed5a	1.8041184
67	0xbf89c9b8	-1.0764685
68	0xc07b4f9a	-3.9267335
69	0x405618fe	3.3452754
70	0xbf80d7c2	-1.0065844
71	0xbf9c739f	-1.2222785
72	0x40599c2a	3.4001565
73	0x3ff5f0e5	1.921414
74	0xc07711d1	-3.8604624
75	0xc0d4b746	-6.6473722
76	0x4077c428	3.8713474
77	0x3fc06609	1.5031139
78	0xc08bee83	-4.372865
79	0x400d6d37	2.209791
80	0x40a0c008	5.0234413
81	0x3f9fed67	1.2494324
82	0x40167ee8	2.3514957
83	0xbfec1e28	-1.8446703
84	0xbedf6834	-0.43634188
85	0x3f316aae	0.69303405
86	0x4007c88c	2.1216154
87	0x403b8c72	2.930447
88	0xbf46f942	-0.7772409
89	0xbf6c3b6d	-0.92278177
90	0x3f89cc51	1.0765477
91	0x3f88b092	1.0678885
92	0x3fd5a7b6	1.6691806
93	0x3e9f1904	0.31073773
94	0x3ff21098	1.8911314
95	0xbeeaf32d	-0.45888653
96	0x3fb89af8	1.4422293
97	0xbe4b7994	-0.19870597
98	0x3feb77bc	1.8395915
99	0xbf1a9aba	-0.60392344
100	0x3faa03c2	1.3282397
101	0xc08c105a	-4.376996
102	0xbd2464f8	-0.040135354
103	0x402ae256	2.6700644
104	0xc075d538	-3.8411388
105	0xc0591ca4	-3.392373
106	0x3f7e47e8	0.9932847
107	0x400b1372	2.1730618
108	0xc076c7de	-3.855949
109	0xbfbde186	-1.4834449
110	0x40210062	2.5156484
111	0xbf96bb4a	-1.1775906
112	0xbff4c162	-1.9121516
113	0x3f6d536a	0.92705405
114	0xbff67d42	-1.9256976
115	0xbf42344a	-0.75861037
116	0xbfae371e	-1.361057
117	0xbf37a35d	-0.7173365
118	0xbf5a6f1c	-0.8532579
119	0xc02ff829	-2.7495215
120	0x4046e238	3.1075573
121	0x3f33d21e	0.7024249
122	0xbfa5a365	-1.2940489
123	0xc083a5d1	-4.1139913
124	0x3ff92989	1.94658
125	0xbf929c4c	-1.1453948
126	0xbf9f06fd	-1.2424008
127	0xc0157b04	-2.3356333
128	0xbfe1800e	-1.7617204
129	0x3fc8befe	1.5683286
130	0xc084bef0	-4.148308
131	0xc0493d0e	-3.1443515
132	0x402cf148	2.7022266
133	0x3d01aea8	0.031660706
134	0x401943c7	2.3947618
135	0x402421cb	2.5645626
136	0xc0285348	-2.630083
137	0x3dcd3eb3	0.100217246
138	0xc01a9256	-2.4151816
139	0xbfaf8eee	-1.3715494
140	0x3f9af73c	1.21067
141	0x405f502e	3.4892688
142	0x4003d4fe	2.059875
143	0xbf921aed	-1.1414467
144	0xbf34ede8	-0.70675516
145	0xc00a618b	-2.1622036
146	0xbf9a9100	-1.20755
147	0x3e96e5da	0.29472238
148	0xc00c3b81	-2.1911318
149	0x4016064b	2.344134
150	0x400580b0	2.0859795
151	0x3ceeb000	0.029136658
152	0xbf9fbea1	-1.248005
153	0xbeea817d	-0.45801917
154	0xbfc88bc2	-1.5667651
155	0x3fa7f6b2	1.312216
156	0x3f0499e8	0.5179734
157	0xc01df206	-2.467897
158	0x3f6e6c20	0.93133736
159	0xbebc0d8e	-0.3672909
160	0x3f2d45dc	0.6768472
161	0x4075cfc8	3.840807
162	0xbfb094f3	-1.3795456
163	0x3fcbba37	1.5916203
164	0x3f6d49e8	0.92690897
165	0x4018d325	2.3878872
166	0xc0916062	-4.5430155
167	0xc00171ce	-2.022571
168	0xbf75ca3e	-0.9601172
169	0x404862cc	3.13103
170	0xbe8965bb	-0.26835427
171	0xbe5e3e96	-0.21703562
172	0xc01f6362	-2.4904408
173	0xc07951dc	-3.8956213
174	0xc01a4f4d	-2.4110901
175	0xbf82a34c	-1.0206084
176	0xbfa9c78a	-1.326402
177	0x3eff13dc	0.4981984
178	0xbe6274a8	-0.22114813
179	0x3f6b6ec3	0.91965884
180	0xbfc0980e	-1.5046403
181	0x40e3c1b8	7.1173973
182	0xbf91b201	-1.1382447
183	0x403a70e6	2.9131408
184	0x3fee034c	1.8594756
185	0x3f94e108	1.1631174
186	0x3f90c972	1.1311476
187	0xbfc40401	-1.5313722
188	0x409cff0c	4.9061337
189	0x40451fb0	3.080059
190	0x3ed5d470	0.4176364
191	0x3f230a96	0.6368803
192	0xbd2fdce0	-0.042935252
193	0x3fa30160	1.2734795
194	0x3f6fd995	0.9369138
195	0x400b9743	2.1811073
196	0xbf393299	-0.7234283
197	0xbf9da968	-1.2317324
198	0x3ea87ad1	0.329062
199	0xbeaf065c	-0.3418454
200	0x3f845680	1.0338898
201	0xbea6b624	-0.32560837
202	0xbe98d658	-0.2985103
203	0x3c640e80	0.013919473
204	0x409a28b4	4.8174686
205	0x3f4f7c0f	0.81048673
206	0xc0123ba1	-2.2848895
207	0xc0873eea	-4.22643
208	0x4024e462	2.5764394
209	0xbd552054	-0.052032784
210	0x3fe9be99	1.8261291
211	0x40178ea0	2.3680801
212	0x400f2e2c	2.237193
213	0xbf85ad1c	-1.0443454
214	0x403ddd87	2.966646
215	0xbf90d508	-1.1315012
216	0x3f29a198	0.662622
217	0x4021e921	2.529854
218	0x3f37cfa9	0.7180124
219	0xc0b22a40	-5.5676575
220	0x40809656	4.0183516
221	0x4030b0a8	2.7607822
222	0x3f031d52	0.51216614
223	0x3fbd9229	1.481023
224	0x3f86198f	1.047655
225	0xbe44208a	-0.19153038
226	0xbf94ace2	-1.161526
227	0xc083fec7	-4.1248507
228	0x406800cb	3.6250484
229	0x4070f942	3.7652135
230	0x3fb85b49	1.4402858
231	0x4000bff0	2.011715
232	0xc004490f	-2.0669591
233	0x3f9f4d79	1.2445518
234	0x405a1938	3.4077892
235	0xc09a8359	-4.8285336
236	0x400966d0	2.1469002
237	0x3eb7a9de	0.35871786
238	0x4077871c	3.8676214
239	0xbe05604d	-0.13025017
240	0x3f6c9681	0.9241715
241	0xbd4383c0	-0.04773307
242	0x4026c452	2.6057324
243	0xbe0b504f	-0.13604854
244	0xc0b83926	-5.756976
245	0x3f7d8998	0.99038076
246	0x40477723	3.1166465
247	0x3e999954	0.29999793
248	0x4000b34c	2.0109434
249	0xbfc104b4	-1.507956
250	0x406673d8	3.6008205
251	0xbf9b76a7	-1.2145585
252	0x3ff60fbb	1.922355
253	0xc09e40f4	-4.945429
254	0xc088fbb8	-4.2807274
255	0x3fd2f1d3	1.6480049

2.bias f4 [64]
0	0x4012aa40	2.2916412
1	0xbec33226	-0.38124198
2	0xc00f6f5e	-2.2411723
3	0x404aa652	3.1664014
4	0xbef5d9d4	-0.48017752
5	0x3fe7af80	1.8100433
6	0xbfbc2529	-1.469884
7	0x402d2a71	2.7057154
8	0xbf0b8800	-0.54504395
9	0x40062c66	2.0964599
10	0x3e78457a	0.24245253
11	0xc039e0be	-2.9043422
12	0x401a573c	2.4115744
13	0xc0827806	-4.0771513
14	0x3e854a08	0.26033044
15	0xbf258946	-0.6466259
16	0xbf8cd503	-1.1002506
17	0xc00bf462	-2.186791
18	0xbf179b6a	-0.5922152
19	0xbeb2835e	-0.3486585
20	0xbf9b63a2	-1.213978
21	0xc058bdd7	-3.386587
22	0x3e6049b6	0.21903118
23	0x40222fe3	2.5341728
24	0xc0931e4b	-4.597448
25	0x3e2bbc4d	0.1677105
26	0x4046084e	3.0942569
27	0xc043f2f5	-3.061704
28	0x402222c6	2.5333724
29	0x3f9cfee1	1.2265283
30	0x3f118eb9	0.568584
31	0x402256be	2.5365443
32	0x4019c468	2.4026127
33	0xc05a5aee	-3.4118
34	0x3f4216c8	0.7581601
35	0xbf3d484c	-0.7393844
36	0xbdd7ae70	-0.10531318
37	0xbff7fb38	-1.9373541
38	0x408cf7b2	4.4052362
39	0x4034753c	2.8196554
40	0x3e24ad80	0.1608181
41	0x3e5f37f0	0.21798682
42	0xc092a0a3	-4.582109
43	0x4058e963	3.3892448
44	0xbe8b053b	-0.27152428
45	0xbff0760b	-1.8786024
46	0xbfb2ae87	-1.3959512
47	0x406e0ae9	3.719416
48	0x3efc35bc	0.49259746
49	0xc07351cc	-3.8018675
50	0xbeb7b48e	-0.3587994
51	0xc0045f2f	-2.0683095
52	0xc00e46a4	-2.2230616
53	0x4016c763	2.3559196
54	0xbe583f06	-0.21117792
55	0xbf58a059	-0.8461967
56	0x406b8fbb	3.6806476
57	0x3f312fb6	0.69213426
58	0xc06f16d4	-3.7357683
59	0xc01e6b47	-2.4752977
60	0x3e1cfb56	0.15330252
61	0x3faacfea	1.33447
62	0x3f9009ed	1.1253029
63	0x407f774a	3.9916558

4.weight f4 [5, 64]
0	0xc001cefd	-2.0282586
1	0xbe3a09ee	-0.1816785
2	0x400dca3b	2.2154682
3	0x406380f4	3.5547457
4	0xc01a7af3	-2.4137542
5	0x3da17160	0.07882953
6	0xbf9e090d	-1.2346512
7	0x400d34f8	2.206358
8	0xbf636555	-0.88826495
9	0x3f7bb8a0	0.9832859
10	0xbe367350	-0.17817426
11	0xc032a22a	-2.7911477
12	0xc0890dc0	-4.2829285
13	0xc0245c83	-2.5681465
14	0xc03d1a35	-2.9547246
15	0x3f607846	0.8768352
16	0x40b361bc	5.6056805
17	0x3f98fda6	1.1952407
18	0xbf8fc474	-1.1231828
19	0x3ff0f3b1	1.8824369
20	0xc04acac3	-3.1686256
21	0x407f0f87	3.9853227
22	0xbeb6ed38	-0.3572786
23	0xbdf897cc	-0.12138328
24	0xc039a82a	-2.900889
25	0xc01ea333	-2.478711
26	0xbee7a000	-0.45239258
27	0x405b7f8c	3.4296598
28	0xbf85b10d	-1.0444657
29	0x3fe030f0	1.7514935
30	0x4029fd86	2.6560988
31	0xc08377ca	-4.1083727
32	0x402eb4db	2.7297885
33	0xc00268db	-2.0376499
34	0xbf09a5b6	-0.5376848
35	0xbfbc2933	-1.4700073
36	0xbede2e28	-0.4339459
37	0xc084b052	-4.1465235
38	0x3f2b1e9e	0.66843593
39	0x3e185b78	0.14878643
40	0xc042cea7	-3.043863
41	0xc010c3d9	-2.2619536
42	0x3e39ec78	0.18156612
43	0xbfb0b30d	-1.3804642
44	0x40317cf8	2.7732525
45	0x3f33f629	0.70297486
46	0xc06842ab	-3.629069
47	0xbf9a791f	-1.2068213
48	0x3ff63212	1.923403
49	0x3ea5b47d	0.32364264
50	0x3fa71058	1.3051863
51	0x408d6c5b	4.419477
52	0xc02989e2	-2.6490407
53	0x3f60fd3c	0.87886405
54	0xc004317e	-2.0655208
55	0xbfe6d9a5	-1.803517
56	0x3f9ff04e	1.249521
57	0x4086977a	4.205991
58	0x4008ca8a	2.137362
59	0xbcf8b740	-0.030360818
60	0xc0548d78	-3.3211346
61	0xbf087106	-0.5329746
62	0xbede35b5	-0.4340035
63	0x3ec9e462	0.39432055
64	0xc02d727b	-2.7101123
65	0x3f2d2a15	0.6764234
66	0xc08350df	-4.103622
67	0xbfd4a1e1	-1.6611902
68	0xbf0fa5fa	-0.56112635
69	0xbf8ffea8	-1.124959
70	0xc02ac649	-2.6683524
71	0xc0642261	-3.5645983
72	0xbfed2cb0	-1.8529263
73	0x3ff5bccd	1.9198242
74	0xc05f7e61	-3.4920886
75	0x3f2a3a97	0.6649565
76	0x3e983fed	0.29736272
77	0x3faf0882	1.3674471
78	0xbf65d952	-0.8978473
79	0xc00d4258	-2.2071743
80	0x3fc75807	1.5573739
81	0xbfc7fd8e	-1.5624254
82	0x3fb28ea4	1.394978
83	0x3fe3f883	1.7810215
84	0x3fee9cc8	1.8641596
85	0xbf41d147	-0.75709957
86	0x3ece8905	0.40338913
87	0x3f9db6cf	1.2321414
88	0x400080fd	2.0078728
89	0xbee56ec3	-0.44811067
90	0x3ef89764	0.48553002
91	0x405b6e7a	3.428618
92	0xc00a9c75	-2.1657994
93	0xbf282565	-0.6568206
94	0x4080e207	4.027591
95	0x3ff58006	1.9179695
96	0x3f37239c	0.7153871
97	0x3eb20e99	0.34776762
98	0x3e7a7ea5	0.24462374
99	0xbfdf016d	-1.742231
100	0xc01d5d76	-2.4588294
101	0xc01b0cbb	-2.422652
102	0xc008c796	-2.1371818
103	0x4078f46e	3.8899188
104	0x3f19e6be	0.6011771
105	0x402435f8	2.565794
106	0xbf8237e5	-1.0173308
107	0x4008debc	2.1385946
108	0x4051b814	3.2768602
109	0xbf820f9d	-1.0161015
110	0xbf4a377c	-0.7899091
111	0x3df8c811	0.12147535
112	0xbfd12116	-1.6338222
113	0xbf834188	-1.0254374
114	0x3f9ba881	1.2160798
115	0xc037d0bb	-2.872115
116	0xc069a248	-3.6505299
117	0x4056a8ab	3.3540447
118	0x400df026	2.2177825
119	0xbf8af50b	-1.0856031
120	0xbfb5a094	-1.418963
121	0x3fbb357e	1.46257
122	0x3f6100cd	0.87891847
123	0xc00e0346	-2.2189498
124	0xc0108768	-2.2582645
125	0x3fb86fe0	1.4409142
126	0xc0a7e506	-5.246707
127	0x3f6a1a29	0.9144617
128	0xc0504601	-3.2542727
129	0xbf2e74b9	-0.68146855
130	0xc04e38e8	-3.2222233
131	0x402066b8	2.5062695
132	0x409be41a	4.8715944
133	0x3fe44e62	1.783642
134	0xbeea4412	-0.4575506
135	0x3f0caca2	0.54950917
136	0xbf9d2026	-1.2275436
137	0xc03eb594	-2.9798326
138	0xbf8182c2	-1.0118029
139	0xbdf1e990	-0.11812127
140	0x3e98bfd4	0.29833853
141	0x3fa6aa38	1.3020697
142	0xbfa9969f	-1.3249091
143	0x3f491d7a	0.785606
144	0xc09127e4	-4.5361195
145	0x3f6420a8	0.8911233
146	0x3f85f4ca	1.0465329
147	0xbf3770eb	-0.71656674
148	0x3e675430	0.22590709
149	0xc02255ec	-2.5364943
150	0xc01faaca	-2.4947991
151	0xc003eee3	-2.0614555
152	0xc0a654be	-5.1978445
153	0xbf9a110d	-1.2036453
154	0xbfdef96a	-1.7419865
155	0xc029c24f	-2.6524847
156	0x3da67da8	0.08129436
157	0xc0ec3fd5	-7.382792
158	0x3ed1fb4a	0.4101203
159	0x4025eee9	2.592707
160	0xbfef2284	-1.8682408
161	0xc0152922	-2.3306355
162	0xbf81522a	-1.01032
163	0x404c8afd	3.1959832
164	0x3f7c7f7b	0.9863202
165	0x3e72d54c	0.23714179
166	0xc0027a62	-2.0387197
167	0xbfdb5056	-1.7133892
168	0x407e8f0f	3.9774816
169	0xbdffd4c0	-0.12491751
170	0xbffd56d3	-1.9792122
171	0xbf08e2de	-0.5347117
172	0x4054ed5d	3.3269875
173	0x3e950201	0.2910309
174	0x3e8d4143	0.27588853
175	0xbf9755c5	-1.182305
176	0x3fdda932	1.7317259
177	0x3f6ee3ae	0.9331616
178	0xc02a1608	-2.6575947
179	0x3e8a658c	0.270306
180	0xc0581511	-3.3762858
181	0x40833008	4.099613
182	0xbf1e3855	-0.61804706
183	0xbf137357	-0.5759787
184	0x41096b04	8.588627
185	0x3dc14118	0.09436244
186	0x3f09885b	0.53723687
187	0x401315c1	2.2982028
188	0x3f10d2aa	0.5657145
189	0x4013f7bc	2.3119955
190	0xbf40a66c	-0.7525394
191	0x405cf5d4	3.4525042
192	0x400337b4	2.0502748
193	0xc0aebb94	-5.4603977
194	0x3fc3e83c	1.5305247
195	0xc071cc79	-3.778105
196	0x40863244	4.193636
197	0xc044a7ca	-3.072741
198	0x4024d475	2.5754673
199	0xbfd3be6a	-1.6542485
200	0xbebf3160	-0.37342358
201	0xc0224954	-2.5357256
202	0x409d9427	4.924335
203	0x40637948	3.5542774
204	0x3f889cd0	1.0672855
205	0x3fd38033	1.6523498
206	0xbea9d1ee	-0.33167976
207	0xbf07e648	-0.53085756
208	0x40c78a60	6.2356415
209	0x4049aab8	3.1510448
210	0x3ecec1bf	0.40382192
211	0xbfe44d3f	-1.7836074
212	0x40563160	3.3467636
213	0x3e3385c2	0.17531493
214	0x402aeb67	2.6706178
215	0xbf83e2c8	-1.0303583
216	0x403e8b97	2.97727
217	0x4021c91e	2.5279002
218	0xbf358b30	-0.7091551
219	0xbee9bccc	-0.45651853
220	0xbfa01256	-1.2505596
221	0x3fa58844	1.293221
222	0xc00cacd8	-2.1980495
223	0x4023fca6	2.5622954
224	0xbf9b8708	-1.2150583
225	0x3fafba8e	1.3728807
226	0x4018294d	2.3775208
227	0xbd80b730	-0.0628494
228	0x3ecd9dc9	0.40159443
229	0x40619429	3.524668
230	0xbfb095af	-1.379568
231	0x3fd9a7c8	1.7004328
232	0x3fc7974c	1.5593047
233	0x3ee3d6c3	0.44499788
234	0xbec38f93	-0.38195476
235	0xc0708258	-3.7579556
236	0x40811e54	4.034952
237	0xc02d19d1	-2.7047007
238	0xc021a549	-2.5257132
239	0x3fed8141	1.855507
240	0xbe8d57c0	-0.2760601
241	0xc08782b7	-4.2347064
242	0x408c2eb8	4.380703
243	0x3e439d10	0.19102883
244	0x40188cad	2.3835862
245	0xbfc0d9f2	-1.5066512
246	0x3f8b99a3	1.0906261
247	0xbf935e6e	-1.1513193
248	0x3ffe9da2	1.9891856
249	0x3fe8b454	1.8180032
250	0x3e9c695f	0.30549142
251	0xbf367d7f	-0.7128524
252	0x3fd831c7	1.6890191
253	0xc0109efd	-2.2597039
254	0xc0545ad3	-3.3180435
255	0x4000152c	2.0012922

4.bias f4 [5]
0	0x3f2121c8	0.6294217
1	0x3f982a02	1.188782
2	0x40485622	3.1302571
3	0xc03a02b1	-2.9064143
4	0xbfa8a041	-1.3173906
